model/vae_hd64_ld16_gamma1.pth (torch, 42851 bytes, 10 tensors)

encoder.fc1.weight f4 [64, 51]
000000 e7 c0 83 bd fc 8d 61 3d 4f 91 d2 3e fb 5b a9 3d
       -0.064332776 0.055067047 0.41126487 0.08269497
000010 ce 89 06 3d d1 ea e0 3e 4d fa c0 3d a0 73 83 3f
       0.032846265 0.4392915 0.09422741 1.0269661
000020 23 78 80 be de 75 3b 3c ca 7f 96 3d 5a 25 3f 3e
       -0.25091657 0.011441676 0.073485926 0.18666592
000030 19 a4 06 3d a3 6b 82 3d 9b 34 a0 3e 83 a7 13 3a
       0.03287134 0.06368186 0.31290135 0.0005632566
000040 24 42 ec bc a6 1c ae be ca 45 4f 3d 67 dc c3 bb
       -0.028840132 -0.34006232 0.050603665 -0.0059772017
000050 e2 dc ce bd 81 5a 51 3d 34 b6 91 bd 53 33 06 3f
       -0.10100724 0.051111702 -0.071148306 0.52422065
000060 91 01 9e be aa 0f 3e 3d 37 bd 9d be 96 98 8a bd
       -0.3086057 0.046401657 -0.30808422 -0.06767385
000070 01 0c d4 bd 79 c3 3f be cc b1 58 bd 2d 06 99 3d
       -0.10353852 -0.1872691 -0.052903935 0.07471881
000080 00 b8 3b be 19 6a e7 bd 67 07 50 be 69 13 00 bd
       -0.18331909 -0.112995334 -0.20315324 -0.03126851
000090 09 03 9d bd ac ef dd bb d6 87 d1 3e c7 77 47 bd
       -0.076665945 -0.006772956 0.40923947 -0.048698213
0000a0 e2 1f 31 bd e3 ef 23 3e 71 43 f2 3d 76 f7 cb 3d
       -0.043243296 0.16009478 0.1182927 0.09959309
0000b0 49 b4 46 3e f1 c9 39 be 30 0b 89 bd c3 0a 08 3f
       0.19404711 -0.18143441 -0.06691587 0.5314142
0000c0 f5 6a a1 3d 75 57 9c bd c9 39 b9 3c bf 22 38 3c
       0.078817286 -0.076338686 0.022610562 0.011238753
0000d0 01 08 9d 3d 12 33 58 bd 8e 36 bf bc d4 9b 38 3d
       0.07667542 -0.05278308 -0.023341443 0.045070484
0000e0 1d 84 94 be 4a 60 4d 3d 83 16 e1 3d ac 2e bf 3d
       -0.29007044 0.050140657 0.10990622 0.09335074
0000f0 dd d5 89 3b fa 97 a3 bd 2f 67 df bd 42 74 1b bc
       0.0042064027 -0.079879716 -0.109083526 -0.009488167
000100 49 d9 71 bd 17 08 08 3e 63 f1 8a bf 47 37 07 3d
       -0.05904511 0.13284336 -1.0854915 0.0330117
000110 90 c8 0a be b6 30 c4 3d e5 b0 01 3d 9a fd 93 3d
       -0.13553071 0.095796034 0.03166284 0.07226105
000120 21 5d 1d 3d a7 c7 29 bd c7 d0 08 3f dd e8 df 3d
       0.038418893 -0.04145017 0.5344357 0.10933087
000130 12 8f 7e 3e 5a 35 4e be 39 ec ac bc 3b ec fb bb
       0.24859264 -0.2013754 -0.021108733 -0.007688073
000140 7e 9c fc 3d 42 94 36 3d f9 e6 6c bd 3d 53 a9 3d
       0.12334536 0.044574983 -0.05783746 0.082678296
000150 73 7e c1 bd fa 65 3d bd b3 1d f8 3c db 32 65 3d
       -0.094479464 -0.04623983 0.0302876 0.055956703
000160 75 ef c7 3d 8f 8a 0b be b0 60 92 3d 1a 47 18 3c
       0.0976247 -0.13627075 0.07147348 0.009294296
000170 1f b5 af 3d 5c 2c 88 3d 03 0f 95 3d d1 cc bb bd
       0.08579468 0.06649086 0.07278254 -0.09169925
000180 5c d0 ed 3c 18 22 9c 3c 2f 13 f3 3d 3c 85 1c 3d
       0.029030018 0.019059226 0.11868893 0.038213
000190 2f 8d 64 3d a0 6a d8 3c 4a d9 74 be b8 b6 27 bd
       0.055798706 0.02641803 -0.23911014 -0.04094574
0001a0 1d 49 15 3e 4b f3 8b bd fb 4d 57 3d a2 d7 c2 3e
       0.14578672 -0.06833514 0.052564602 0.3805514
0001b0 76 56 29 be 99 54 d2 bd 88 a6 18 3e e2 84 b3 bd
       -0.16536888 -0.10270042 0.14907277 -0.0876558
0001c0 37 b1 87 3c 97 4a e7 bc b4 9e e0 bd af ba 0c 3d
       0.016563995 -0.02823381 -0.1096777 0.034357723
0001d0 05 08 4a be 57 15 09 be 2d 2b 81 bc f8 cf a4 3c
       -0.19729622 -0.13387047 -0.015767658 0.020118698
0001e0 66 93 25 3b 76 b9 64 3d 6f 42 9c 3d 84 1b d2 bd
       0.0025264858 0.05584093 0.07629859 -0.102591544
0001f0 42 64 bb 3c dc f6 b3 be d8 e3 33 3e 78 2c c5 bd
       0.022874955 -0.35149276 0.17567384 -0.09627622
000200 64 1d 05 3e 27 95 48 3f 02 74 82 3e 87 37 ce bd
       0.12999493 0.7835259 0.25479132 -0.10069185
000210 d2 5c 86 3f b6 5c a4 bc b3 6d b4 3d 37 95 60 be
       1.0497077 -0.02006374 0.08809986 -0.21931921
000220 19 e8 8a bd 94 3b d5 3c c4 b8 1c be 2f 01 fb bb
       -0.0678255 0.026029386 -0.15304857 -0.007660053
000230 58 be 5e 3e 8e f7 9d 3d 19 39 e8 bc 66 a5 2c bd
       0.21752298 0.07713233 -0.028347539 -0.042149924
000240 63 53 cd bc ce 87 2c be 1c ef 04 ba 64 bd 19 bc
       -0.025064176 -0.1684868 -0.00050710305 -0.009383533
000250 b0 4a 1b bd 69 51 6a 3e a4 bd a3 bd 85 0b 37 3c
       -0.037913024 0.22882618 -0.079951555 0.01117218
000260 0f 3f bf bc 39 d9 8f 3d f6 c1 52 bd 83 08 96 bd
       -0.023345498 0.07023854 -0.051454507 -0.07325842
000270 e7 91 cc 3d 56 88 5d 3d 71 ef 25 3e 32 f9 f0 3c
       0.09988766 0.0540851 0.16204621 0.0294157
000280 59 59 04 3d c2 f2 86 bb 94 bb ec bd 47 df ce 3b
       0.03231177 -0.0041182945 -0.11559215 0.006313238
000290 b4 c9 1c 3d ab f2 3b bc 79 13 4e bd 91 43 ee be
       0.038278297 -0.011471431 -0.05031154 -0.46535924
0002a0 7a 64 c5 bc d5 37 15 bd 4e 9a 90 bd c6 54 c3 bd
       -0.024095763 -0.0364302 -0.07060681 -0.095376536
0002b0 7e f6 28 3d dd 1e c1 bd fa 3f d1 bd 0c 59 03 be
       0.0412507 -0.09429715 -0.10217281 -0.12826937
0002c0 fa 54 07 3f f7 1f b2 bd 46 40 45 be 2d 78 70 be
       0.5286404 -0.08697503 -0.192628 -0.23483343
0002d0 da 21 f0 bd 58 c6 80 3d 0d 78 48 3e c0 de 06 bd
       -0.11725207 0.06287831 0.19577046 -0.032927275
0002e0 4a 16 aa 3d fe 9d 38 bc f5 7a 6b bc 41 d8 e4 3e
       0.083050326 -0.011268137 -0.014372577 0.4469624
0002f0 aa e0 0b bf 54 a9 fe 3d 5a 64 3d be aa e3 c6 bd
       -0.54639685 0.124346405 -0.18495312 -0.09711392
000300 0f 0e 5c bd d6 86 cc 3d dd 4f ee bd 17 09 47 bc
       -0.053724345 0.099866554 -0.116363265 -0.012148163
000310 60 29 d2 bd fa 9e 27 3d af 10 28 3e df 1e cc 3e
       -0.10261798 0.040923096 0.16412614 0.39867303
000320 30 5e f5 3e 93 26 19 bd 32 02 b8 bd 50 9b 8a 3f
       0.47923422 -0.037390303 -0.08984794 1.0828648
000330 56 04 4c 3e 1b 6d 0b be 97 cb d9 3b 44 bf a9 be
       0.19923529 -0.13615839 0.0066465843 -0.33153737
000340 cf 51 4a 3d 1a df fa 3d 3d 28 d0 bd 18 02 3d bd
       0.049394425 0.122495845 -0.10163925 -0.046144575
000350 82 69 90 3c 54 31 86 be 24 a5 11 bd 94 d8 ce 3d
       0.017628435 -0.2620951 -0.03555788 0.10099903
000360 50 4a b9 3e 2b bc a8 bc 8e 0a 4a 3d 68 3f ad 3e
       0.36189508 -0.020597538 0.049326472 0.33837438
000370 4a ac 84 bd 73 29 fe 3b 8b 4d 17 3f 92 8f dd bc
       -0.06478174 0.007756406 0.59102696 -0.027045999
000380 43 73 89 3d 75 7c 08 3c 8a 15 b7 3e 51 82 dc bd
       0.067114376 0.008330454 0.3575862 -0.107670434
000390 73 f5 23 3e b9 d5 ea 3d 26 24 13 be b7 a7 da bd
       0.160116 0.114665456 -0.14369258 -0.1067652
0003a0 07 b9 06 be ad f8 86 be f0 2d ad bd 4b 4d f9 bd
       -0.1315652 -0.263616 -0.084560275 -0.121729456
0003b0 08 f6 6a 3d 5e c2 8e be f3 85 10 bd da 4d 13 3e
       0.05736354 -0.27882665 -0.035283994 0.14385167
0003c0 b6 4a b1 3e 42 e5 52 bd 5c 7e d6 3d 83 a6 c7 3e
       0.34627312 -0.05148817 0.1047332 0.38994226
0003d0 07 9b 8a bc 6e bc b6 3c d9 e4 22 be 91 fd 06 3e
       -0.016919626 0.022306647 -0.15907611 0.13182665
0003e0 7a 3d 77 3d 31 06 5a be 8e 63 79 3c 09 ac 94 bd
       0.060361363 -0.21291424 0.01522149 -0.072593756
0003f0 50 5e 57 be f3 5e d0 bd c6 b1 85 3d 18 52 89 3b
       -0.21032071 -0.1017436 0.06528048 0.0041906945

encoder.fc1.bias f4 [64]
000000 fb b1 64 be 2e 76 3c 3f 49 f3 9f 3e b2 b7 9e 3e
       -0.22333519 0.7361783 0.312403 0.30999523
000010 6a a7 17 c0 d2 99 f3 be 34 14 e5 be 20 b3 2f be
       -2.3695931 -0.47578293 -0.44741976 -0.17158175
000020 98 4d c4 bf b8 62 22 3e a8 a0 58 3e f5 89 15 bf
       -1.533618 0.1585797 0.21155035 -0.5841363
000030 de f2 06 3f 28 f6 90 bf 3e a1 2b bf 54 3e 57 be
       0.52714336 -1.1325121 -0.6704291 -0.2101987
000040 8c 72 74 be 8b 24 fa 3d 14 bc fc 3d 71 09 05 bf
       -0.23871821 0.12214001 0.123405606 -0.5196753
000050 39 2e f2 3e 3f e2 a7 be 33 a0 bc be 57 6f 5a bf
       0.4730089 -0.327898 -0.36840972 -0.8532614
000060 ec 5c 38 be fe ad 14 3f 6f 15 49 bf 54 0e c6 be
       -0.18004197 0.5807799 -0.7854833 -0.38682806
000070 c2 4b b3 3e 6a 1c 1a 3e d6 95 cf bb b9 3b 9c bf
       0.35018736 0.15049902 -0.0063350005 -1.2205726
000080 af 67 a1 3e 9f 5f 9a bd f5 f6 b4 3c 66 08 1f c0
       0.31524417 -0.075377695 0.022090415 -2.4848876
000090 60 61 d0 3e 94 23 9a 3e 6d 91 06 3f 2a e4 a0 3e
       0.4069929 0.3010527 0.5256565 0.31424075
0000a0 d2 df 9f be 3f 1f cc be d8 6a b5 be 95 a1 0c bf
       -0.3122545 -0.3986759 -0.35433078 -0.54934055
0000b0 b8 59 5c be fc 79 ca bd 10 4b e7 3e b4 ad 52 3e
       -0.215186 -0.09886548 0.45174456 0.20574075
0000c0 f5 6f a3 be 26 4f 2c 3e 8f 01 99 3d 10 f9 a9 be
       -0.31921354 0.16827068 0.074710004 -0.33197832
0000d0 53 d5 a0 be ab 5f ff 3d 1a 33 e8 bf ab 50 90 bf
       -0.31412753 0.12469419 -1.8140595 -1.1274618
0000e0 15 aa f0 3e e9 73 3d bf 3b d0 81 be 07 fe b3 3e
       0.47004762 -0.7400499 -0.2535418 0.35154745
0000f0 44 28 a9 3e 97 d8 c8 3e 5a 7b 82 bd 04 4d fd 3b
       0.33038533 0.39227745 -0.06371184 0.0077301282

encoder.fc2.weight f4 [16, 64]
000000 4e 63 29 bd cf 61 8a bd 36 50 90 bd 16 f7 45 3c
       -0.04135447 -0.06756937 -0.07046549 0.012082836
000010 ec c0 cc 3e 2d 6e d6 bc a3 0d c3 bc 9f 5d 98 bd
       0.39990938 -0.026175583 -0.023810213 -0.07439732
000020 b6 66 3c 3e f1 4f 1e bd 71 2e ca bd e4 1f 9f bd
       0.18398556 -0.038650457 -0.09872139 -0.077697545
000030 80 32 18 be f9 6f 36 3d 83 d1 49 bc 41 23 8a 3d
       -0.14863014 0.04454038 -0.012318018 0.067450054
000040 63 cd 2c bc c3 37 db 3d d0 d6 54 3d 40 8b 00 bd
       -0.010547015 0.10703995 0.051962674 -0.0313828
000050 d1 5d 39 bd 84 85 9d bd e3 f4 e6 3c 12 ed 3e bd
       -0.045255486 -0.07691482 0.028192943 -0.046612807
000060 98 39 45 3d b0 1c 51 bc dd 20 ee bc 5e 26 91 3c
       0.04815063 -0.012763187 -0.029068405 0.01771849
000070 90 99 f3 3c d7 6f 6c bc aa d3 52 3d 87 81 0a bc
       0.02973631 -0.014430962 0.05147139 -0.008453733
000080 f8 1c c7 3a da 61 14 3d 55 94 34 bd da 43 d9 3e
       0.0015191128 0.03622613 -0.044086773 0.4243458
000090 d0 dc 8a bd 44 bd 66 3d 92 70 eb bd 86 75 e1 bd
       -0.06780398 0.05633284 -0.114960805 -0.11008744
0000a0 25 93 bd 3d aa 44 5f bc 13 7d fa 3a 3c b1 13 3e
       0.09256581 -0.013627211 0.0019110761 0.14423078
0000b0 2f bf f0 bd 02 1c 6b 3b 1a 6e 57 bd 55 ca 98 bd
       -0.117552154 0.0035874848 -0.052595235 -0.07460467
0000c0 8b 6f 82 bd 01 b4 78 bc c1 ef 5e 3d e9 0f 16 3d
       -0.063689314 -0.015179635 0.054427866 0.036636267
0000d0 a0 3d f0 3b 0e eb 8f bc b4 a3 1a 3e 67 17 87 3d
       0.007331565 -0.017568137 0.1510151 0.065962605
0000e0 4a fd a0 bd 4e 70 1e bd 9f e1 20 3d d9 dc cc bd
       -0.07860811 -0.03868132 0.03927767 -0.10003061
0000f0 20 67 92 bc 0a 92 b9 3c ca 0f 7f 3d 71 56 93 bd
       -0.01787144 0.022652645 0.062270917 -0.07194222
000100 58 ef eb bd 70 19 2d bd e8 dc b5 bd e5 f9 8d 3d
       -0.115202606 -0.042260587 -0.08880025 0.06932429
000110 7c d4 2a 3c e8 df 0e 3e 59 d5 34 bd 65 14 bf 3c
       0.010426637 0.13952601 -0.044148777 0.023325155
000120 37 70 59 bc 1c 67 4c bc df a6 53 bd b9 ba e5 3e
       -0.013271383 -0.012475755 -0.051672813 0.4486902
000130 08 25 28 3c b8 59 cd bc 66 ca fb bd 7a 96 56 3e
       0.010262735 -0.025067195 -0.12294464 0.2095584
000140 2e ce ce bd 9a 8f a2 bc 7d a8 cc bd ec ad 81 3e
       -0.100979194 -0.019843865 -0.09993074 0.25328004
000150 74 96 2c 3d 32 a5 a6 bd 2b 2f 1f bd 43 a0 59 3d
       0.04213567 -0.08136977 -0.038863342 0.053131353
000160 8f b9 e1 3d e6 63 a2 3d c6 34 f1 3c 09 f5 0e bd
       0.110217206 0.0792921 0.02944411 -0.034901652
000170 e8 2b 8c 3d 9b d8 61 bd 94 50 f9 3d fe f5 85 3d
       0.06844312 -0.05513821 0.12173572 0.0654106
000180 e2 e2 80 be ad a1 6b 3b 4a 30 d7 3d 3f 7a 95 3d
       -0.25173098 0.003595452 0.10507257 0.07298707
000190 0c 38 6d 3e 63 3c 6a be a5 bf a6 bd 25 c4 32 3d
       0.23165911 -0.22874598 -0.08142022 0.04364409
0001a0 89 44 42 3c 71 64 91 3e 26 2a 95 bc 1e 53 b3 bd
       0.01185716 0.28396943 -0.018208575 -0.08756088
0001b0 b3 41 15 bd 16 82 31 bd 3c 59 03 bd 93 01 d1 bd
       -0.03643961 -0.04333695 -0.032067522 -0.102053784
0001c0 29 a2 82 be ab 49 15 be ec 96 d2 bc 4e 8a 8f 3d
       -0.25514343 -0.14578883 -0.02570673 0.070088014
0001d0 33 bf e8 3c 0c 7c 8f 3d c3 b2 44 bd ee 22 6d 3d
       0.028411483 0.07006082 -0.048022043 0.05789464
0001e0 e6 ea 50 bc 80 14 bf bd 12 07 d6 3e e7 14 a3 3d
       -0.012751317 -0.09330082 0.4180227 0.07962971
0001f0 c2 45 36 be b2 6d 70 bd bd 78 aa be 85 2a 80 bd
       -0.17800048 -0.058698364 -0.3329524 -0.0625811
000200 b9 40 31 bc f9 78 0c 3c 66 71 b7 3a ba 04 0f bc
       -0.010818654 0.008573764 0.0013995587 -0.008729154
000210 a9 47 9a 3a 3f c2 81 3c a0 7e b9 bb 3d 2c 82 3b
       0.0011770624 0.015839694 -0.005660847 0.003972559
000220 26 29 1e bc 85 60 18 bb 35 1a 34 3a a5 62 b1 3b
       -0.009653365 -0.002325089 0.000687036 0.0054133707
000230 d7 61 13 bb 73 00 a7 bb e2 63 1c bb 69 ed 93 3a
       -0.0022488737 -0.005096489 -0.0023863246 0.0011285964
000240 b7 55 06 3c 6f a4 f9 b9 b9 cf 3d 3b d3 14 81 bc
       0.008199147 -0.00047615494 0.0028962924 -0.015757
000250 fa d7 db 3b 29 ce 03 ba 27 26 4d 3b 39 a4 2b 3c
       0.006709096 -0.00050279737 0.0031303258 0.010476165
000260 f8 d8 af 3c bb 4e 15 3c 87 20 e2 3b f5 28 90 bc
       0.021465763 0.009113009 0.00690085 -0.017597655
000270 8e 93 64 bb 58 f1 b1 bb 92 f3 d2 3b 43 dd 36 3c
       -0.0034877989 -0.0054303817 0.0064377273 0.011161151
000280 af da 18 3b e2 6d 30 3c 7e 9a 9b bc ed 91 83 3c
       0.0023323705 0.010768386 -0.018994566 0.016060794
000290 21 20 13 bc ae 64 30 3b f3 d6 30 bc f7 31 d6 bb
       -0.008979828 0.0026915479 -0.010793435 -0.006536718
0002a0 09 33 82 3c 5f bb 0b bb 0b 7f 04 3c 41 79 7c 3c
       0.015893476 -0.0021321399 0.00808693 0.015409769
0002b0 b1 87 2b 3b 7c 16 11 bc 87 1f 55 3c 84 4b 40 bb
       0.0026173408 -0.008855458 0.013008005 -0.0029341886
0002c0 3b b0 2e 3c 67 47 1e bc 64 f0 3a bb 14 06 5d bc
       0.010662134 -0.009660578 -0.0028524632 -0.013490219
0002d0 83 e0 62 3c 5a 45 3f 3c 5d d4 7f bc a0 92 8c 3b
       0.013847473 0.01167425 -0.015614596 0.00428994
0002e0 f0 2b 97 3b 0d 60 a2 bc a7 a1 85 3b 87 7c 56 ba
       0.004613392 -0.019821191 0.0040781084 -0.0008182008
0002f0 0e 63 3f bc 48 30 5e 3a 95 26 91 3b fa 59 b3 3b
       -0.011681331 0.00084758224 0.004429648 0.0054733725
000300 b5 bf 09 bc 0c cf 4a bc 03 fb aa 3c f9 fa 0d bb
       -0.008407523 -0.012378465 0.020871645 -0.0021664484
000310 73 93 c8 3b 1a 8f b7 bb 41 6b 3e 3b 9f 2f 23 3b
       0.006121093 -0.005601776 0.0029055628 0.002490021
000320 e6 ce 36 3b bc 48 bb 3b 44 5a 43 3b 11 b5 0f 3b
       0.0027894317 0.0057154577 0.0029808441 0.0021927992
000330 5c 98 d9 ba 94 5a 86 b8 af 0c ae 3b 59 2c 70 3b
       -0.0016601193 -6.4064894e-05 0.0053115706 0.0036647527
000340 ed a5 93 3b 16 a7 3e 3c 5c 26 46 bc 00 32 1b 3b
       0.004505864 0.011636516 -0.0120941065 0.0023680925
000350 25 06 a0 bc 06 bb a7 3c 5b a3 9f bb 55 2b 31 bb
       -0.01953418 0.020474922 -0.0048717684 -0.0027033885
000360 3c 8c 35 bc be c6 20 3c c4 68 f4 bb fc dd 60 3c
       -0.011080798 0.009813009 -0.007458778 0.0137248
000370 2f cd 14 bb 7a f5 52 3c cd e4 d3 bb 9e 12 b6 3b
       -0.0022705307 0.012875909 -0.006466484 0.0055564186
000380 7b 5e 07 3c bb 1a 9d 3b d9 7d e5 bb 6a 91 24 3c
       0.008262272 0.0047944463 -0.0070035276 0.010044435
000390 cf 33 0e 3c c9 9f 79 bb c1 27 76 bc 69 9c a1 bb
       0.008679344 -0.0038089624 -0.0150241265 -0.0049319756
0003a0 29 9e 5a bb e0 b9 e6 3b 1b af 98 bb e6 19 3b 3c
       -0.003335843 0.007041201 -0.004659546 0.011419749
0003b0 51 d8 21 3c 82 a6 08 3b d0 42 8e bb ed 58 a6 3b
       0.009878234 0.00208512 -0.0043414608 0.0050765187
0003c0 29 bb 6b bc f5 18 07 bc 95 6d e8 3b dd 45 eb bb
       -0.014387884 -0.008245696 0.0070931413 -0.007179959
0003d0 57 72 69 bb d4 71 c2 bc 2e e8 e5 3a fc bb 79 bb
       -0.003562113 -0.023735918 0.0017540508 -0.0038106432
0003e0 82 40 1b 3c 00 a7 e0 bb 54 e2 92 3b fc 67 45 ba
       0.009475829 -0.0068558455 0.004482547 -0.00075304485
0003f0 e2 f4 98 bc 2c 89 a9 bb e2 27 31 3b 59 87 e2 ba
       -0.018671457 -0.005173823 0.0027031829 -0.0017282768

encoder.fc2.bias f4 [16]
000000 99 4b 9a be d3 3e 89 be ba 4b 89 bc ba 4d f1 3c
       -0.301358 -0.26805744 -0.016759742 0.029456008
000010 4a 04 74 bc ac 20 35 3b 28 3d d2 bc 2d 32 86 bc
       -0.014893601 0.0027637882 -0.025663927 -0.016381348
000020 1b e2 ac bb 67 75 86 3e 22 1f 89 be f4 23 f6 bd
       -0.0052759773 0.26261446 -0.26781565 -0.12018576
000030 c8 30 38 be f2 c5 ab bd ca 9f 44 3f 70 43 65 bb
       -0.17987359 -0.083873644 0.7680632 -0.0034982823

encoder.fc3.weight f4 [16, 64]
000000 87 14 89 bd bf 54 7f bd 39 ac 4b be 5e 02 32 be
       -0.066933684 -0.06233668 -0.19889916 -0.17383716
000010 40 35 71 3f 80 44 f4 bd 82 db 88 bd 27 39 1f be
       0.9422188 -0.11927128 -0.06682493 -0.15549146
000020 77 2c 19 3e 95 7b 0b be e1 3a 32 be e4 74 8e be
       0.14958368 -0.13621362 -0.17405273 -0.27823555
000030 cb 29 03 be f4 b9 d2 bd 82 f8 e5 3c 68 f3 95 3d
       -0.12808912 -0.10289374 0.0280726 0.07321817
000040 e4 2b 8a ba ab 88 98 bd 27 aa 99 3d 13 2d 8f be
       -0.0010541645 -0.07447942 0.07503157 -0.27964076
000050 cb 49 10 be 32 27 76 be c4 30 ba bc df c8 27 3d
       -0.1409065 -0.2403839 -0.022728331 0.04096305
000060 4e e0 94 bd 9a fd 9b bd a5 7b e2 bc d3 46 8a bd
       -0.07269345 -0.0761673 -0.027646849 -0.0675179
000070 7e 51 5a bd 77 79 a0 3b dd 75 d6 bd 1c 80 4a bd
       -0.053300373 0.0048972922 -0.104716994 -0.04943858
000080 d1 09 3c 3c 6d 32 de bd 67 7e 9c bd 25 d6 e6 3c
       0.01147695 -0.10849462 -0.07641297 0.028178284
000090 14 41 c3 bd 0b 19 2d be db c9 57 3e f4 dc 42 be
       -0.09533897 -0.16904084 0.21073096 -0.190296
0000a0 c7 5b 81 3d 9b 34 4f 3d 5a c1 2d 3d 66 76 19 3d
       0.06316333 0.050587278 0.042420723 0.03746643
0000b0 57 6a e1 3d ae 88 19 3d 6f cc 23 be 71 e6 40 bd
       0.11006611 0.037483864 -0.15995954 -0.047094766
0000c0 01 3c 14 be f1 50 2c bd 62 a2 db bd 19 69 6e bd
       -0.14476015 -0.04206938 -0.107243314 -0.058205698
0000d0 55 a3 b4 3d 0c b8 8a 3d 37 72 db bc e3 93 5a 3e
       0.088202156 0.067733854 -0.02678786 0.21345477
0000e0 9d 58 a5 bd 0a 44 a5 bc 28 62 68 3e 68 a6 84 3e
       -0.08073542 -0.020174045 0.22693694 0.25908208
0000f0 13 2b c5 3c 25 41 89 bd c5 01 a2 be ad d5 3d bd
       0.024068391 -0.067018785 -0.31641975 -0.046346355
000100 82 96 3a bd 77 46 04 bd e1 ab 0e be 90 59 b5 bd
       -0.04555369 -0.032293763 -0.13932754 -0.08854973
000110 db 7d a9 bb e5 21 9a 3c b0 03 84 bd b3 f3 b7 bd
       -0.005172474 0.01881499 -0.06446016 -0.08982029
000120 ba c3 4c bc 6f 9f 18 bc de 36 90 bd c6 d2 07 bd
       -0.012497837 -0.009315356 -0.07041715 -0.033159994
000130 35 50 ff 3d 71 66 5f bd 6c 51 a4 3d 7f d5 cc bd
       0.1246647 -0.054541055 0.080233425 -0.10001659
000140 a2 a0 1c bc 5d 41 e0 bd 7b 6c e4 bd 76 0c 6f 3d
       -0.009559782 -0.10949967 -0.111535035 0.058361493
000150 62 77 df 3d 48 6b 59 bd bd bd cc 3c f6 c8 f8 3d
       0.10911442 -0.053080827 0.024992818 0.12147705
000160 7f 11 55 bc 37 ec 8a bd ab f1 e0 ba c6 f4 a6 bc
       -0.01300466 -0.06783336 -0.0017161866 -0.020380389
000170 b3 e2 6c 3c 3e 15 81 bd 2c 7c 13 be fc 98 30 bd
       0.014458346 -0.0630288 -0.14402837 -0.043114647
000180 10 a9 6e bd dd 10 3d be 08 78 b1 bc 37 19 a3 bd
       -0.0582667 -0.18463464 -0.02166368 -0.07963794
000190 82 9f cb 3c 29 e5 88 be 0b 2b 83 3d a1 3e ed bd
       0.024856333 -0.26737335 0.06404694 -0.11584211
0001a0 ca fa 0b 3d b6 0b 8f 3e 11 7c 80 3d aa 31 a4 3d
       0.034174718 0.27938622 0.06273664 0.08017285
0001b0 d6 ee 41 bb 90 b4 8d bd 65 20 83 bd 96 53 f0 bc
       -0.002959182 -0.06919205 -0.06402663 -0.029336732
0001c0 49 5f b4 bd f9 87 3c be 66 6e a2 bd c0 88 42 bd
       -0.08807237 -0.18411244 -0.07931213 -0.047493696
0001d0 cd ff 96 bc 86 4a 99 3d d4 8f 20 3e 4d f4 60 3d
       -0.018432522 0.07484917 0.15679866 0.054920483
0001e0 17 50 2d 3c 6f 7f d7 3d a8 7d b5 3c 37 7c d2 3d
       0.010578177 0.10522353 0.022154644 0.10277598
0001f0 5f 23 7c 3c e1 a6 59 bb 6f 54 fd bd 60 13 9e bd
       0.0153892925 -0.003321104 -0.1236962 -0.07718539
000200 06 c0 6c 3a cc 0b 12 3b 58 b0 a9 3b 7e 5c 80 bb
       0.0009031299 0.0022284864 0.0051784925 -0.003917276
000210 c2 2d 38 3b 5b 8e b3 bb 90 da 1a ba 85 78 ca 3a
       0.0028103446 -0.0054796166 -0.0005907202 0.0015447295
000220 f1 d2 90 bb c6 ec 55 ba 67 6a 02 ba 8b 70 40 bc
       -0.0044196774 -0.0008160587 -0.00049749616 -0.011745582
000230 9a 2a 88 3b 94 2c d5 ba 6c e6 ab ba c0 c4 25 3b
       0.004155469 -0.0016263896 -0.0013114936 0.0025294274
000240 e1 45 16 3b 7a ea b8 3b b8 74 e2 b9 1e 1e fa ba
       0.0022929835 0.005643186 -0.0004319304 -0.0019082462
000250 95 ec 1f 3b c0 57 f4 b9 12 64 b6 39 bd 63 13 3b
       0.0024402488 -0.00046604685 0.00034788303 0.0022489869
000260 81 49 21 b9 2f 43 76 39 5a 92 3b bb 04 54 66 bb
       -0.00015381539 0.00023485416 -0.0028621168 -0.0035145292
000270 9d 84 b8 bb e0 82 a0 bb f5 0e 32 3b 10 b8 56 3a
       -0.005631043 -0.004898414 0.002716956 0.00081908796
000280 0e 08 0b 3c 43 3d b8 b9 49 43 19 3b 7e 51 2f 3a
       0.008485807 -0.00035140858 0.0023386052 0.00066878635
000290 b2 aa bf 3a 30 b9 12 3a e1 fb 89 bb 63 80 49 ba
       0.0014623015 0.0005597053 -0.0042109345 -0.00076866726
0002a0 f9 6c 7d 3b b3 69 7d bb 1c ad 41 3b db 2e 02 3b
       0.003866969 -0.0038667738 0.0029552644 0.0019864354
0002b0 38 15 0f bb 0f 10 89 3b ac 3a 5b 3b dd f4 40 3b
       -0.0021832716 0.0041828225 0.003345172 0.0029442825
0002c0 8f 91 86 3b f3 20 ca ba 23 90 40 bb fa 10 5a bb
       0.0041067074 -0.0015421197 -0.0029382787 -0.003327428
0002d0 e0 49 cb 3a 78 2c 2d 3b 37 7d a6 ba b0 6f 41 3b
       0.0015509687 0.002642421 -0.0012702112 0.0029516034
0002e0 ef 40 91 3a 6e 03 4c ba 79 b0 b0 bb 70 f3 c3 3b
       0.0011081974 -0.00077824935 -0.005392131 0.0059799477
0002f0 99 36 aa bb 94 da 0d ba 0c 52 cb ba 54 11 16 3a
       -0.005194497 -0.0005411294 -0.0015512123 0.0005724628
000300 df 9a 1f bb b9 ba b0 3b 44 9f ce ba a6 59 51 bb
       -0.0024353785 0.005393353 -0.0015764018 -0.0031944304
000310 23 b7 e9 bb 09 e0 b8 bb 26 91 f9 b8 e9 b1 c3 3b
       -0.0071324273 -0.0056419414 -0.00011900281 0.0059721363
000320 95 52 26 3b 2d ee 1c 3b ea 72 ad bb 8a 17 bd ba
       0.0025378813 0.0023945675 -0.00529324 -0.0014426571
000330 85 0b fe b9 67 e7 6e 3b 49 f9 e1 3a 65 52 93 3b
       -0.00048455238 0.0036453845 0.001724043 0.004495906
000340 db e2 63 3a 15 dc 42 bb 01 d8 97 ba 8a 0e e3 3b
       0.0008693167 -0.002973323 -0.001158476 0.0069292234
000350 54 a5 a3 bb 4a f1 a8 3b f9 04 4c bb 67 8e a9 bb
       -0.004994074 0.005155717 -0.0031130894 -0.0051744464
000360 a1 83 d3 ba cc da 37 ba 93 7a 9b bb 60 de 4e 3b
       -0.0016137251 -0.0007013499 -0.0047448366 0.0031565651
000370 aa 1d 27 39 94 04 43 bb 32 c8 83 3b b1 d3 89 bb
       0.00015937412 -0.0029757367 0.004021668 -0.004206144
000380 57 b5 83 ba 67 b5 01 3b 78 7b 58 ba 44 bc d7 3a
       -0.001004855 0.0019791962 -0.00082581444 0.0016459306
000390 b5 53 b2 3a 81 92 37 3a 33 6d e9 3b a5 6e a3 b9
       0.0013605269 0.0007002727 0.0071236133 -0.0003117222
0003a0 40 1d 02 bb 64 de db ba 42 30 dc 3a 50 78 90 bb
       -0.001985386 -0.0016774652 0.001679905 -0.0044088736
0003b0 b8 89 e1 ba 5d 49 35 3b 81 95 25 3b 21 3f ef 3a
       -0.0017207181 0.0027662136 0.0025266113 0.0018253067
0003c0 9f f6 ed bb 69 a0 8c bb b0 ce a0 b9 98 cc f4 38
       -0.0072620655 -0.0042915833 -0.00030671572 0.00011672935
0003d0 9b ac 99 3b 67 74 74 3b 04 5c 43 3a c4 0c 68 bb
       0.0046897656 0.0037300827 0.0007452371 -0.0035408
0003e0 39 4e 75 bb 44 b7 eb bb a8 32 64 bb ec ee d7 bb
       -0.0037430658 -0.007193478 -0.0034820233 -0.006589761
0003f0 9f e2 f7 3b ab c1 62 ba de ff a4 3b 84 b1 3c bb
       0.007564857 -0.00086500746 0.0050353846 -0.002879233

encoder.fc3.bias f4 [16]
000000 58 a7 10 c0 e8 5d d3 bf 08 f1 9d ba ee 88 5e bb
       -2.2602139 -1.6513033 -0.0012049982 -0.0033956128
000010 29 52 5f bb 84 96 8e bf fe a2 38 bf 0d 87 1d bb
       -0.003407607 -1.1139684 -0.72123706 -0.0024036795
000020 58 95 cd ba 5d a1 e7 bf 27 3e 17 c0 91 1f d2 bf
       -0.0015684767 -1.8096119 -2.3631685 -1.6415883
000030 3f 59 80 bf 3e 48 11 bf 3c 98 90 bf 23 e7 a3 bb
       -1.0027236 -0.5675086 -1.1296458 -0.005001919

decoder.fc1.weight f4 [64, 16]
000000 13 48 04 40 53 dc 3d be 2a 3c 41 bc 38 f0 b7 bb
       2.066899 -0.18541078 -0.011794129 -0.005613353
000010 4d 74 bd 3b 51 d0 7a bd 13 84 0a 3e 06 32 61 bc
       0.0057816864 -0.061233822 0.13526945 -0.013744837
000020 88 3c dd 3b 65 f6 98 bc 6a 8c dc 3d 07 c9 a8 3e
       0.0067516007 -0.018672178 0.10768969 0.32965872
000030 0e a7 22 3d 38 00 2d 3e 98 ad 1e be 45 fb f5 ba
       0.039710097 0.16894615 -0.15495908 -0.0018766901
000040 ce fa 3d 3f 8b 3b 2c 3e 7a 34 cb 3b 27 6a fe ba
       0.7421082 0.16819589 0.006201324 -0.0019410298
000050 f7 f0 50 3c 47 3e 99 3e 87 0d b2 be 4e 58 06 bb
       0.012752763 0.29930326 -0.34775946 -0.002049941
000060 e2 2b 1f bc 1b cd de be 93 13 ba be 90 1c 3a 3f
       -0.009715052 -0.43515858 -0.3634306 0.7269983
000070 87 59 0a 3e dd 23 41 bd fc 85 02 bf ce 87 58 3b
       0.13510714 -0.047153343 -0.50985694 0.003303993
000080 64 9e b8 bf 0a 65 53 be 99 a2 4d bb 76 fb 9c bc
       -1.4423337 -0.20644012 -0.0031377433 -0.019162875
000090 1a 77 07 bc f0 ab 2d 3e 68 6e a9 bd b3 67 8d bc
       -0.008268142 0.1696012 -0.082730114 -0.017261362
0000a0 a9 ce fd bb 4c 32 61 be 83 8d 04 40 e4 7d 56 bf
       -0.007745583 -0.21991843 2.0711372 -0.83785844
0000b0 ef 8d 86 3e f2 3f 01 3e bf c2 15 3e a9 33 fe 3c
       0.26280162 0.1262205 0.14625071 0.031030493
0000c0 09 26 a9 3e 22 8f 59 3f b1 47 0b bc 75 58 18 bc
       0.3303683 0.8498403 -0.008500979 -0.009298434
0000d0 8e c6 4b bc a6 ea 2a bd 05 92 ca 3e 2a 55 c5 ba
       -0.012437476 -0.041727684 0.3956453 -0.0015055288
0000e0 b4 15 c4 bb 11 72 53 3f 46 8a 4c 3f d8 6c 85 3e
       -0.0059840325 0.82595927 0.7989849 0.26059604
0000f0 6a 51 89 3e d9 9c 0f 3d e8 00 9f 3e b9 51 f6 3b
       0.26819927 0.03506169 0.3105538 0.0075170663
000100 50 ea 10 bf 4e 43 df 3f 18 88 21 bb 49 10 1f 3c
       -0.5660753 1.7442415 -0.0024647769 0.0097084725
000110 a0 67 ce bb e3 62 84 3e 32 07 82 be 51 df 43 3b
       -0.006298974 0.25856695 -0.25396115 0.0029887746
000120 19 4a 11 bc 6b 5b 5f bc db 03 08 3f 30 77 7b be
       -0.008867764 -0.013632636 0.5313088 -0.24557185
000130 da 19 81 3d d9 b3 41 3d ee 33 77 3c 08 0e 31 3c
       0.06303759 0.047290657 0.015088065 0.010806568
000140 78 72 dd bf 28 9e c8 be ee 68 fd 3a b2 33 93 bc
       -1.7300558 -0.39183164 0.001933364 -0.017968986
000150 5c 07 e1 3b d3 e5 31 3d 15 a6 c0 3e 6a 72 ec 3c
       0.0068673324 0.043432068 0.3762671 0.02886315
000160 ed 44 08 bc fc 8f e9 3e b3 46 a5 bf fd b7 e9 bd
       -0.008317214 0.45617664 -1.2912201 -0.11412046
000170 f2 5d 4d 3d d2 e1 34 3d 2d d8 48 3f 11 ed ca 3c
       0.05013842 0.04416067 0.7845486 0.024771245
000180 cd c0 d5 be 8b 4e 25 bf 1d 35 56 bb 18 4d 5a 3c
       -0.41748658 -0.6457297 -0.0032685467 0.013324045
000190 e2 01 13 bc 1f e8 6b 3f e5 a4 be bd de 3f 16 bc
       -0.008972617 0.92151064 -0.09308795 -0.009170501
0001a0 6d 24 16 3c a5 6c a2 bd 67 e6 b3 be aa 4e 87 3f
       0.009163958 -0.079308785 -0.3513672 1.0570881
0001b0 1d f4 57 bd b5 f6 87 bd 3d 48 1a 3e 8a 0d ea ba
       -0.05272304 -0.066388525 0.15066619 -0.0017856818
0001c0 f9 68 c4 bf 89 e2 e6 be 3d d5 62 3c a0 b1 f9 3b
       -1.5344535 -0.45094708 0.013844785 0.0076200515
0001d0 d6 6d 3c bc 15 49 86 bb f5 ce a2 3f 94 bc 36 3b
       -0.011500796 -0.0040980675 1.2719408 0.0027883397
0001e0 d4 a0 c6 bb c5 74 2a 3f ea b4 11 bf 4e fc 3d 3e
       -0.0060616527 0.66584426 -0.5691668 0.18553278
0001f0 c3 75 d6 3d 10 62 79 bd 57 a6 83 3e e5 39 2f bc
       0.1047168 -0.060884535 0.25712845 -0.0106949555
000200 44 78 5d 3f 2c 58 98 3e a4 85 11 bc 95 f7 30 bc
       0.86511636 0.2975477 -0.00888196 -0.010801216
000210 44 ca 85 bb 8c 29 ce 3d 54 c1 78 3f fe 26 0b bc
       -0.00408295 0.10066518 0.97169995 -0.008493183
000220 d3 3e 67 3b d8 10 3b 3d 0e a7 41 bf 1a 82 5e 3c
       0.003528525 0.04567036 -0.7564553 0.013580823
000230 a3 37 a6 3c 85 68 91 3d 4d 21 9c 3e de 48 65 ba
       0.020290202 0.07100014 0.30494156 -0.0008746515
000240 49 f8 34 40 40 af 39 3d 89 37 12 3c 90 92 a2 bb
       2.8276541 0.045333147 0.008924373 -0.0049613193
000250 ee 90 34 bc 71 9a b9 bd d6 5a 02 3e ea 69 74 3c
       -0.011020882 -0.090626605 0.12729964 0.01491783
000260 61 4f 97 bc 6a a1 04 bf 0f 3b 9c be 63 e3 13 bd
       -0.018470468 -0.518088 -0.30513808 -0.036105525
000270 e0 18 74 be 3c 7f 9d 3d 73 fd 04 bf 85 0e 66 3c
       -0.23837614 0.07690284 -0.5194923 0.014041548
000280 d9 83 eb bf 49 e1 89 be 69 18 c1 3a 45 3d 1e bc
       -1.8399612 -0.2692969 0.0014732006 -0.0096581625
000290 ff da 55 3c 34 23 02 be 0c 76 4e be 29 4d e2 3b
       0.013052701 -0.12708741 -0.20162219 0.006906171
0002a0 54 df b0 3c 50 42 16 3f 70 f9 94 3f 56 0c be 3e
       0.021590866 0.58694935 1.1638622 0.37118787
0002b0 ac 22 d3 be 9d 87 1c be 7b 35 d3 3e 4f 8b d1 bb
       -0.4123739 -0.15286107 0.4125174 -0.0063947807
0002c0 14 ab d2 3f 21 6a 3b bf 2f a9 6b 3c 05 ff 59 bb
       1.6458459 -0.73208815 0.014383598 -0.0033263576
0002d0 83 44 27 bc 9c 22 e8 3d f3 64 5d be 98 22 3f 39
       -0.010209206 0.11334726 -0.2162054 0.00018228067
0002e0 9c a6 94 ba 80 e2 52 bf cc 02 83 bf 3d e7 0c bf
       -0.0011341157 -0.8237686 -1.0235229 -0.5504034
0002f0 a2 dd 01 be fd 6b 84 bd 28 be 08 be 2f af 26 3b
       -0.12682202 -0.0646591 -0.13353789 0.0025434007
000300 ce cb ed 3d 14 75 1a 3c be c8 73 3c a6 2f e5 bc
       0.11611138 0.009427328 0.014879404 -0.027976822
000310 20 62 01 3b a8 22 0a 3e cd 63 97 3e 8e 02 50 3c
       0.0019742325 0.13489783 0.2956833 0.012695922
000320 5d ff 9c 3c b2 56 29 bf b2 04 87 3f c2 79 73 be
       0.019164735 -0.6614791 1.0548308 -0.23776916
000330 38 6a f0 be 2a 90 9a 3d 25 be 26 3f db 95 7f bc
       -0.46956038 0.07547028 0.6513389 -0.015599693
000340 02 3b a5 bd c9 0e c4 3f 0c af ad b9 0a 1a c6 3c
       -0.080678955 1.5317012 -0.0003312755 0.024182338
000350 88 87 42 bc b8 7a f0 bd 99 25 d6 bd 94 0b 83 ba
       -0.0118731335 -0.11742157 -0.1045639 -0.0009997957
000360 14 95 98 3b 1c d5 fe be 85 f4 52 bf 9d d5 f0 bd
       0.0046564434 -0.49771965 -0.8240436 -0.117594935
000370 17 ad f4 bd 0a d7 85 bd bc a0 ca bd bc a9 30 ba
       -0.11947077 -0.06535156 -0.09893939 -0.00067391596
000380 56 2f 70 bf 0e c5 d3 bf 3d fb 71 bb 9a fa 1d bc
       -0.9382223 -1.6544511 -0.0036923431 -0.009642268
000390 90 c6 26 bb 20 9d c1 bd d2 e3 83 be 01 91 88 bc
       -0.0025447942 -0.09453797 -0.2575975 -0.016670706
0003a0 2d 80 b9 3b 87 56 20 be 7e 41 f7 be d5 a1 32 3e
       0.0056610317 -0.15658008 -0.48292154 0.17444547
0003b0 99 9e 98 bb 6d a7 04 bd 46 e8 5e 3e db 2d 13 3c
       -0.004657578 -0.032386232 0.21768293 0.008983101
0003c0 f2 e8 d4 be 00 5b 0e bf e3 df 51 3c 86 3b 7d bb
       -0.41583973 -0.55607605 0.012809726 -0.0038640215
0003d0 42 d6 ca 3c a4 47 fa 3b d5 9f 9e be 53 13 dd 3c
       0.02476037 0.0076379348 -0.30981317 0.026986754
0003e0 94 42 20 bc 3e e7 ee bd 31 3d ae bf 2a 14 3d be
       -0.009781498 -0.116652 -1.3612424 -0.18464723
0003f0 c7 88 7a 3f 8b ec 87 3d e6 fb 8e be 7b a1 f5 ba
       0.97864956 0.06636914 -0.27926558 -0.0018740142

decoder.fc1.bias f4 [64]
000000 3c 42 51 40 13 56 03 40 0f 76 ff be 7e 71 3a 40
       3.2696676 2.0521286 -0.4989476 2.913177
000010 23 56 c4 3f 87 11 ac bf 77 e6 ec 3e b1 0a 83 be
       1.5338787 -1.3442849 0.4626958 -0.25594094
000020 9d c2 83 3f 32 46 1d 3d 29 d5 2b c0 b0 1b bf 3f
       1.0293766 0.03839702 -2.6848853 1.4930325
000030 62 c1 0f 3f 6b 10 b4 3f 35 bb 9f be aa ec 25 be
       0.56154454 1.406751 -0.31197515 -0.16203561
000040 ee f2 9b be 54 54 8e bf 87 cd fb 3e d4 b8 de 3f
       -0.30458778 -1.1119485 0.49180242 1.7400155
000050 91 c6 06 c0 15 27 5f 3f 3b f1 0b 3f 8f d0 32 40
       -2.1058695 0.8716901 0.54664963 2.7939794
000060 ee 66 0d 40 2e 07 3e 3f 2e aa 35 40 a7 cc 40 c0
       2.2094073 0.74229705 2.838512 -3.012491
000070 f7 4c 7e 3f 18 42 6e bf d5 5f 96 3f 28 0a 9c be
       0.9933619 -0.930696 1.1747996 -0.304765
000080 1e fe 5d 3e b3 a0 32 3e 7b 23 14 40 8d da ea be
       0.2167897 0.17444114 2.3146656 -0.45869866
000090 ff 30 31 3f 67 94 15 c0 28 73 c4 3f 7b 07 aa 3f
       0.6921539 -2.3371828 1.5347643 1.3283533
0000a0 a4 e1 00 c0 b5 fe 9a 3f 28 5e a3 3f 41 cd f7 3f
       -2.013772 1.210898 1.2763109 1.9359514
0000b0 e9 72 4f 3e a5 09 7b bf a1 08 90 3f cd 11 ca 3e
       0.20258678 -0.9806159 1.1252633 0.39466706
0000c0 a4 20 4b be ee 1d b1 be d4 dd ac 3f ad 05 69 bf
       -0.1983667 -0.34593147 1.3505197 -0.91024286
0000d0 71 4d c3 bf 1c 85 41 3f 46 cb 0c 40 12 f9 0e 40
       -1.5258008 0.75593734 2.1999068 2.233952
0000e0 a4 14 06 c0 0d 86 7f 3f 48 5d 7d 3f c7 e0 40 3e
       -2.0950098 0.9981392 0.9897046 0.18835746
0000f0 92 93 ba 3f 7d 08 fd 3f 8d b8 86 3f 6c df 0d 3e
       1.4576285 1.9768215 1.052507 0.1385476

decoder.fc2.weight f4 [51, 64]
000000 e3 da c1 3e 65 6c f8 be 7f ea 14 c0 45 85 91 3a
       0.3786231 -0.48520198 -2.3268125 0.001110234
000010 1b ad a7 3e 1d 2a 8e 3e 9c d6 36 3d 9c 10 91 3e
       0.32749256 0.27766505 0.04463826 0.28332984
000020 a2 9e 26 bf 48 ec 2b 3e 5e ed 43 3f 79 a0 11 be
       -0.65085804 0.16789353 0.7653407 -0.14221372
000030 6d 97 8d 3e 99 73 0a bf b0 e9 4c 3c fd d3 81 bd
       0.2765459 -0.5408264 0.012506887 -0.06339262
000040 27 d2 e4 be f6 07 97 3e b9 85 0e 3c 4b 96 ff be
       -0.44691584 0.2949826 0.008698874 -0.49919352
000050 9c f5 96 be d1 83 bc 3b ad 1f ac 3c 25 c3 83 3d
       -0.2948426 0.0057530184 0.021011198 0.06433705
000060 75 43 1b 3f e1 bf c0 3e f5 0d 53 be c5 47 be be
       0.60649806 0.37646392 -0.20610793 -0.3716413
000070 e1 0f ff bd a1 2d ca bd 76 95 d8 bc ab d8 e3 be
       -0.124542005 -0.09871984 -0.026438456 -0.44501242
000080 f2 d3 88 be 76 d0 44 3e 02 06 cf 3e ed fd 0c be
       -0.267242 0.19220147 0.4043427 -0.1376874
000090 b3 36 d0 3e 67 f5 6d be 26 cc 5d bb 73 13 b3 3e
       0.40666732 -0.23238145 -0.0033843606 0.34975776
0000a0 d0 d6 85 bc 9d ab 8c be a1 00 f2 3d 50 94 fe be
       -0.016337782 -0.2747468 0.11816526 -0.49722528
0000b0 74 7a 2d bd 79 25 20 bf 0a 78 94 be 80 30 f9 3d
       -0.04235311 -0.6255718 -0.28997833 0.12167454
0000c0 d0 e2 d0 3d c9 a1 86 3e bf 82 2e bd e8 ad 5c bd
       0.10199511 0.26295307 -0.042605158 -0.053876787
0000d0 2a da 29 3e 4e da ae 3e 69 90 f1 3d a7 71 40 bf
       0.16587129 0.34150928 0.11795122 -0.7517342
0000e0 9f 09 04 3e 40 7d d0 be c9 94 04 be 8d 9e 33 3e
       0.12894295 -0.40720558 -0.12947382 0.17540951
0000f0 91 0a 6d be 40 86 39 3d a6 67 9c be 69 16 2f 3d
       -0.23148562 0.045294046 -0.30547827 0.04274598
000100 a9 c6 66 3f 73 b7 06 bf 8e 9c 3d 3e 2a a0 87 bf
       0.9014688 -0.5262367 0.18516752 -1.0595753
000110 c6 24 f2 3d b4 01 9a 3d c7 92 6f 3e a1 de b2 3d
       0.1182342 0.07519856 0.23395835 0.08733869
000120 6e 7d 5d 3d 98 5f ee be 2f 5a 0f bf 55 65 13 3e
       0.054074697 -0.46557307 -0.55996984 0.14394124
000130 eb 06 ec bb 91 da 85 3e 86 88 4f 3e 4e f6 8a bd
       -0.007202973 0.26143315 0.20266923 -0.0678526
000140 be aa ad 3d 07 45 59 bf c0 01 97 3d db 62 8d 3e
       0.08479832 -0.8487095 0.07373381 0.27614483
000150 2f 1c 5e 3e c0 c7 45 3d ea b7 8d 3c 24 ac 7b bf
       0.21690439 0.0482862 0.017299611 -0.9830954
000160 b6 66 d9 3d 3e 96 d0 3d d7 37 d4 bd ae 20 d9 be
       0.10615294 0.101849064 -0.10362213 -0.42407745
000170 2f 1d c9 be a1 99 e8 bd 77 c9 93 bc 67 6f 50 3e
       -0.39280078 -0.113574274 -0.018040402 0.20354997
000180 5e f3 6d be 2e e2 47 3e 68 92 35 bf 14 49 d2 3d
       -0.23237368 0.19519874 -0.70926523 0.10267845
000190 29 cd 45 be cb 2a 18 3f 86 1a ad be a5 f8 2a 3e
       -0.19316544 0.59440297 -0.33809298 0.16696413
0001a0 d3 b3 df be 0a 4f 35 bd f5 6e 72 be ca d2 18 3f
       -0.43691882 -0.04426483 -0.23675139 0.5969664
0001b0 3b 65 de 3d 0e 54 4c be 42 30 c1 3e 01 0a 59 be
       0.10859152 -0.1995394 0.3773213 -0.21195222
0001c0 18 87 3c be b9 ad 34 3e 45 ca 40 3e 8b f2 71 bd
       -0.18410909 0.17644395 0.1882716 -0.059069198
0001d0 b0 03 13 3f 2b f7 7c bd d8 d4 3c 3f 10 cf 7b 3d
       0.574275 -0.061759155 0.73762274 0.061476767
0001e0 f5 dc 1f be 73 8c 1d be a0 36 7e be 2b 5b 31 3e
       -0.15611632 -0.15385608 -0.24825525 0.17319934
0001f0 bd b2 a3 be f2 5e 07 3f 45 60 17 bd 59 81 23 be
       -0.31972304 0.5287925 -0.036957044 -0.15967311
000200 6b a2 81 bf 07 46 e8 be 83 4f 92 3e cc 3b 05 bf
       -1.0127691 -0.45365927 0.28576288 -0.5204437
000210 71 f3 3b 3e 0c 0a 02 be a9 9c 28 3e 49 da 81 be
       0.18354584 -0.12699145 0.16466011 -0.2536185
000220 ab 6b df 3d 6a 4f 09 bc 56 28 48 3d 23 3b 03 3e
       0.10909208 -0.00838075 0.048866592 0.12815528
000230 1a 9e fe be 81 9f 9f bf 6e da 0d 3f 3e 8c 26 3e
       -0.49729997 -1.2470552 0.5541142 0.16264436
000240 a1 ec 0c 3d e3 3e 23 3e f5 68 ab 3f d9 c8 94 be
       0.034405354 0.15941958 1.3391405 -0.29059485
000250 3e 04 9c bf 47 2c fa bd d5 e1 b7 be b8 3e 7e bd
       -1.2188795 -0.122154765 -0.35914484 -0.062071532
000260 3c 7b 6c be b3 09 f2 bf 12 95 96 bf 54 10 5c 3e
       -0.23093885 -1.890921 -1.1764243 0.21490604
000270 40 a6 2e bd 48 64 49 3f b4 4f b9 3e 13 d6 15 bf
       -0.042639017 0.7866864 0.3619362 -0.58529776
000280 53 50 63 be ef da 2b bd 1a aa a5 3e 45 82 b9 be
       -0.2219861 -0.04195684 0.3235634 -0.362322
000290 88 46 76 3d 9a 2e 88 3d 68 1c 91 be 86 56 bd be
       0.060125858 0.066495135 -0.28341985 -0.36980075
0002a0 d9 65 81 3e ab 60 90 be 39 80 ff 3d 81 ec e3 be
       0.25273016 -0.28198752 0.124756284 -0.44516376
0002b0 ed 37 88 3d 24 a8 5e 3f 72 7a d3 3e 9b ba ba 3d
       0.06651292 0.8697531 0.41304356 0.091176234
0002c0 31 49 b1 3e d6 e9 06 3e ba 37 ad bd 84 d1 0d bf
       0.34626153 0.13175139 -0.084578946 -0.5539782
0002d0 5d d4 87 bd d8 c0 b8 3e b0 58 e3 be 14 ca ba 3e
       -0.06632302 0.36084628 -0.444036 0.36482298
0002e0 6b 83 fb 3e 35 0a b6 3e 15 12 20 3e ac 76 88 3f
       0.491237 0.35554662 0.15631898 1.0661216
0002f0 98 04 3f bf 8d bc 52 be 53 79 3d 3e 7c 34 13 be
       -0.74616385 -0.20579739 0.18503313 -0.1437549
000300 21 70 0f c0 88 bf 97 3d 5c e3 9c be 9b af a8 3d
       -2.2412188 0.074095786 -0.3064221 0.08236619
000310 a7 f9 23 3f fe 5d 4c be 43 9e 3e be 93 65 1a 3f
       0.64052814 -0.1995773 -0.1861506 0.6031124
000320 35 6e 4f bf 3c 42 33 40 a3 5f 2a 3e 99 ad 46 be
       -0.8102754 2.8009176 0.16638045 -0.1940216
000330 be 4b d2 be 38 57 d7 bd d3 93 42 3f 60 de 8d 3e
       -0.41073412 -0.105146825 0.7600681 0.2770872
000340 86 00 58 3e b3 c1 6a bf 75 db 37 3f 55 21 2f bf
       0.2109395 -0.9170181 0.7181924 -0.68410236
000350 b7 80 87 bc e8 ff 23 3c b2 73 8d 3e ad 0f 07 bf
       -0.016540868 0.010009743 0.2762733 -0.52758294
000360 22 5a 32 be bd f9 2c 3f 20 56 6a be 43 92 81 bf
       -0.17417195 0.6756857 -0.22884417 -1.012276
000370 54 77 63 bd bd 3d 0d be 72 fd 9c 3e 12 4a 90 3e
       -0.055533722 -0.13793083 0.30662113 0.2818151
000380 b9 80 5a be 30 fa 20 3d dd 5d 8f bf e9 78 8a bd
       -0.21338166 0.039301097 -1.120052 -0.06761343
000390 bc 24 3d 3f 1f da d1 3e 19 d7 50 bf 79 d8 d8 3e
       0.7388418 0.40986726 -0.8157821 0.42352656
0003a0 2c 27 df 3e c7 1b 25 3e 05 93 fd 3e c3 3c 04 bf
       0.43584573 0.16123877 0.4952623 -0.51655215
0003b0 e0 e4 60 3e 79 ef 90 bf 13 dc 3e 3e a3 0d 17 be
       0.21962309 -1.1323081 0.18638639 -0.14751296
0003c0 be 82 05 3f db ba 01 3e 01 bf ef be e6 03 95 3e
       0.5215262 0.12668936 -0.46825412 0.29104537
0003d0 a4 ec d1 be ba 77 25 3f fc 10 1c be 42 38 a6 bf
       -0.41000855 0.64635813 -0.15240854 -1.2985919
0003e0 6f 5c 81 be e6 7d 98 bf 48 34 a3 bd 71 dc f7 3d
       -0.25265834 -1.1913421 -0.07968956 0.12102593
0003f0 8c f7 54 3f 79 fa 34 bf 6d 30 b6 3e db f1 54 be
       0.83190227 -0.7069469 0.3558382 -0.20795386

decoder.fc2.bias f4 [51]
000000 60 19 a5 bf 51 65 a0 3e 33 0b ad bf 9a 29 cc be
       -1.2898369 0.31327298 -1.3519043 -0.3987549
000010 0e 59 62 be ae 65 b1 bf 8e d1 c4 3e 37 6d d6 be
       -0.22104284 -1.3859155 0.38441128 -0.418802
000020 8a dd 20 be a3 71 04 be 0d 99 c5 3f e9 7c 28 be
       -0.1570951 -0.12933974 1.5437332 -0.164539
000030 48 1c 96 3f 7f c8 59 3f 34 6a 85 bf 9b 1b e1 3e
       1.1727381 0.8507156 -1.0423036 0.43966374
000040 8a a6 21 3e 65 88 20 be 02 e7 7b 3d 01 59 9d 3e
       0.15786186 -0.1567703 0.061499603 0.30731967
000050 3a fc 28 be ab e6 08 bf e5 a5 5b 3c 66 c8 61 3f
       -0.16502467 -0.5347697 0.013406252 0.8819641
000060 f7 ae 09 3f f1 27 08 3d 44 ad 0d 40 ef e7 25 3f
       0.537826 0.033241216 2.2137003 0.6480703
000070 f8 34 82 3e d6 ae ba 3f b5 bb 54 3f be 44 c3 3d
       0.25431037 1.4584606 0.8309892 0.09534596
000080 98 7d 16 3e 78 07 96 3f d3 6b 95 3f e9 2c 33 40
       0.14696348 1.1721029 1.167353 2.799616
000090 80 d3 3c 3f c5 f8 1b 3e 72 06 33 3f 93 25 3d bf
       0.73760223 0.15231617 0.6993171 -0.7388546
0000a0 80 ee 2d 3e 8c 05 67 3e d6 84 79 3f 6d ea d7 3d
       0.16985512 0.2256071 0.97468317 0.1054276
0000b0 7c a2 2d 40 f7 a5 eb be f5 d9 cc 3e b7 19 af 3f
       2.7130423 -0.4602506 0.40010038 1.3679723
0000c0 c3 b0 63 bf 3d e0 ac 3e e2 24 9a 3e
       -0.8894159 0.3376483 0.30106264
