model/vae_hd128_ld32_gamma1000.pth (torch, 106579 bytes, 10 tensors)

encoder.fc1.weight f4 [128, 51]
-0.14059122 0.067402326 -0.29852897 0.26278883 0.2966755 -0.15150346 -0.23980199 0.15136495
-0.09423502 -0.6242556 0.23420551 0.26472816 0.057813603 -0.15828015 -0.1575768 0.1526514
-0.4027874 -0.12952246 0.3843754 0.1274254 0.46333742 -0.032459702 -1.0656935 -0.022356452
-0.18635355 0.66454124 0.06174918 -0.16145162 1.0888278 -0.34190932 0.14747083 -0.0532519
-0.40366182 0.092910744 -0.56634873 0.09397007 0.28437436 0.082699716 0.17995232 -0.17806804
-0.26266798 -0.19505098 0.0016133811 0.12972468 0.2502868 0.08094701 -0.02950345 0.18437839
-0.19997098 0.19657773 -0.18855262 -0.31243488 -0.16906548 -0.0011503139 -0.15325789 -0.23097648
0.1758387 0.019107623 -0.0077517107 0.024736146 -0.15032001 -0.12538256 -0.0013185266 0.0631416
-0.12639172 -0.029302292 -0.09806352 -0.14062509 -0.18724479 -0.14958388 -0.054042283 0.166133
-0.03722026 -0.1263242 -0.13023098 -0.14052144 0.31958485 -0.13806818 0.6394325 -0.70037854
0.04289575 0.09715825 1.7757921 0.002919947 0.1434058 0.17090763 -0.22652093 -0.027681543
-0.13623853 -0.046694584 -0.08819538 -0.089719675 0.21105656 0.24882284 0.32520977 0.05840885
-0.18273039 -0.22403334 -0.19297728 -0.07991537 -0.16298519 -0.059777416 0.5289433 0.077612385
0.13826327 0.5800029 -0.08555579 -0.0774642 0.05016037 -0.28855228 -0.09125624 -0.008381168
0.012098519 0.21624151 -0.082744434 -0.07643969 0.269191 -0.088037916 -0.21631835 0.20309743
0.29933286 -0.14865959 0.043196034 -0.3952235 -0.14617784 0.014956597 -0.15954679 0.4721711
0.052479707 0.463663 -0.17436704 -0.09322229 -0.29517367 0.1073914 -0.06608483 -0.7299943
0.49504086 -0.20436408 0.09900475 0.27720863 -0.13509053 -0.14249296 -0.006569105 -0.49162358
-0.07878984 0.13384515 0.08775434 -0.048106734 0.09082248 0.09846209 -0.09827795 0.029696044
0.0021994999 -0.3381339 0.046174243 -0.11249082 0.2616583 0.003163119 0.6331155 -0.30152854
-0.14372423 0.09066954 0.11506668 -0.39355987 0.24805379 -0.5640239 0.09021727 -0.51077145
0.21086821 -0.29785037 -0.38742998 -0.18215272 -0.073868595 0.52580667 -0.6983315 1.4174534
-0.49216446 0.5911022 -0.16191271 -0.22679879 -0.47026536 0.41151932 -0.23875919 0.3144617
0.085293405 -0.18661432 0.035785325 -0.3505303 -0.13533342 -0.17186645 0.32633093 -0.16776976
-0.2572687 0.21343723 0.062098376 0.27080002 0.1711151 0.13766114 0.07075037 -0.19113126
0.5842601 0.17318228 -0.102852724 -0.3218353 0.6295461 -0.2143049 -0.047975056 0.8330912
-0.05526817 0.061195157 -0.57007813 -0.07541853 -0.36394456 0.22102892 -0.13487044 0.24440563
-0.07954165 -0.3209917 -0.4271308 0.32656866 -0.34711996 -0.19199765 -0.27905905 0.07990585
0.3844335 0.46038723 0.38431573 0.08566705 -0.15943757 0.18940054 -0.20472233 -0.078821085
0.096488446 -0.259638 0.055426475 0.029971138 -0.13268271 -0.033121128 0.18891346 -0.22902873
-0.19765824 0.45025623 -0.50442135 0.020510811 0.38349512 -0.3327424 -0.3134022 -0.20152174
0.09046104 0.022939876 0.44790357 -0.356257 -0.117432795 0.21260677 -0.27576673 0.29434538
00000000: 25f7 0fbe 3b0a 8a3d cad8 98be 428c 863e
00000010: dae5 973e b923 1bbe a78e 75be 6aff 1a3e
00000020: 4afe c0bd 37cf 1fbf 92d3 6f3e 738a 873e
00000030: f5cd 6c3d 3114 22be d05b 21be a650 1c3e
00000040: 263a cebe 89a1 04be dacc c43e ce7b 023e
00000050: 903a ed3e 77f4 04bd a568 88bf e124 b7bc
00000060: 77d3 3ebe 601f 2a3f b5ec 7c3d 9353 25be
00000070: b65e 8b3f bd0e afbe 9802 173e aa1e 5abd
00000080: c3ac cebe fd47 be3d 3bfc 10bf 6173 c03d
00000090: 8499 913e 785e a93d 6c45 383e 7857 36be
000000a0: 6b7c 86be 72bb 47be 1678 d33a 8cd6 043e
000000b0: 9725 803e 8cc7 a53d 38b1 f1bc b0cd 3c3e
000000c0: 31c5 4cbe ac4b 493e f013 41be 77f7 9fbe
000000d0: 801f 2dbe 21c6 96ba a3ef 1cbe 1985 6cbe
000000e0: 0f0f 343e 9787 9c3c 1002 febb 75a3 ca3c
000000f0: 7ded 19be 4964 00be 69d2 acba 6250 813d
00000100: d56c 01be 5c0b f0bc 87d5 c8bd 0600 10be
00000110: 19bd 3fbe 842c 19be 715b 5dbd c51e 2a3e
00000120: 4574 18bd 225b 01be 455b 05be dae4 0fbe
00000130: a0a0 a33e bf61 0dbe d9b1 233f 024c 33bf
00000140: 74b3 2f3d e8fa c63d 284d e33f 955c 3f3b
00000150: f8d8 123e 6902 2f3e 1af5 67be 67c4 e2bc
00000160: 1d82 0bbe d242 3fbd c89f b4bd f3be b7bd
00000170: 361f 583e 6acb 7e3e e581 a63e 1e3e 6f3d
00000180: ad1d 3bbe ff68 65be d69b 45be abaa a3bd
00000190: 97e5 26be 2ad9 74bd d468 073f 3ef3 9e3d
000001a0: e394 0d3e 127b 143f e037 afbd 8da5 9ebd
000001b0: f674 4d3d 20bd 93be 8de4 babd 2b51 09bc
000001c0: de38 463c 6a6e 5d3e ea75 a9bd 6a8c 9cbd
000001d0: 67d3 893e 394d b4bd 8f82 5dbe c6f8 4f3e
000001e0: 2842 993e 383a 18be 53ee 303d bc5a cabe
000001f0: a5af 15be 840c 753c 3c60 23be 69c0 f13e
00000200: f6f4 563d 3d65 ed3e 468d 32be 54eb bebd
00000210: 0121 97be 06f0 db3d 7c57 87bd e8e0 3abf
00000220: ff75 fd3e d144 51be 01c3 ca3d 4aee 8d3e
00000230: 2c55 0abe ade9 11be a641 d7bb 16b6 fbbe
00000240: 915c a1bd b40e 093e 8cb8 b33d 910b 45bd
00000250: 2301 ba3d 7ea6 c93d f345 c9bd 1e45 f33c
00000260: 7c25 103b e31f adbe 3421 3d3d 9661 e6bd
00000270: 14f8 853e 554c 4f3b db13 223f f361 9abe
00000280: 722c 13be f4b0 b93d 14a8 eb3d ae80 c9be
00000290: d001 7e3e df63 10bf d5c3 b83d ebc1 02bf
000002a0: d6ed 573e d87f 98be 395d c6be 3e86 3abe
000002b0: 6b48 97bd 449b 063f dac5 32bf 1d6f b53f
000002c0: fbfc fbbe 7952 173f 72cc 25be f13d 68be
000002d0: 9fc6 f0be a9b2 d23e 4a7d 74be 2001 a13e
000002e0: 4fae ae3d d317 3fbe a293 123d b578 b3be
000002f0: d894 0abe c2fd 2fbe d914 a73e d6cb 2bbe
00000300: b9b8 83be 4a8f 5a3e de5a 7e3d 4da6 8a3e
00000310: cc38 2f3e 0bf7 0c3e 92e5 903d eab7 43be
00000320: 1292 153f b256 313e 73a4 d2bd 99c7 a4be
00000330: ef29 213f be72 5bbe 7e81 44bd 7745 553f
00000340: e060 62bd c6a7 7a3d a4f0 11bf 0875 9abd
00000350: f156 babe 6855 623e 7a1b 0abe 7845 7a3e
00000360: bce6 a2bd 0659 a4be e3b0 dabe 0234 a73e
00000370: b5b9 b1be 089b 44be d4e0 8ebe aea5 a33d
00000380: 78d4 c43e e0b7 eb3e 08c5 c43e 3572 af3d
00000390: 9a43 23be 37f2 413e bba2 51be f36c a1bd
000003a0: bc9b c53d 46ef 84be df06 633d 0886 f53c
000003b0: fadd 07be 05aa 07bd 8872 413e 8286 6abe
000003c0: ec66 4abe fc87 e63e c221 01bf 4a06 a83c
000003d0: 7959 c43e 365d aabe 4176 a0be b75b 4ebe
000003e0: a343 b93d 68ec bb3c 9e53 e53e 5167 b6be
000003f0: 9b80 f0bd 97b5 593e 4c31 8dbe 70b4 963e

encoder.fc1.bias f4 [128]
-0.8509729 -0.4996442 -0.5719789 -0.8623015 -1.2006509 -1.254507 -1.2222964 -0.7531371
-0.71512777 0.32232144 -0.59513634 -0.1935028 -0.865489 0.367762 -0.12124341 -1.6684533
-1.6712703 -0.9072855 -0.39427125 -0.9469862 -1.112678 -0.9089209 -0.4124173 -0.54951996
-0.78537464 -0.8622031 -0.6910758 -0.7656796 -0.58025247 -0.59260595 0.08806998 -1.076566
-0.4628575 -0.6154489 -0.6493913 -0.32965872 -1.0404171 -0.7801978 -0.032033242 0.64751667
-1.010363 -1.1098604 -0.29214317 -0.5380197 -0.8956989 -1.339501 0.12807524 -1.2640635
-0.95268804 -0.23749636 -0.48598453 -0.5385627 0.09576334 -0.7508739 -0.57895577 -0.4213187
0.25363344 -1.3319827 0.275907 -0.89083207 -0.44531748 -0.44283307 -0.47716874 -1.3204874
-0.3710575 -1.1605375 -0.67677313 -1.0670542 0.10742098 -0.8587154 -0.068527825 -1.2195187
-0.8166197 0.014990526 -0.22937675 -0.41583857 -0.7813576 -1.0715436 -1.3453552 -1.1364522
-0.71359915 -0.5748879 -1.2209618 -0.9809484 -0.81767136 -0.8061449 -0.6154032 -0.9032711
-0.20663835 -0.16370031 -0.8047463 -0.59563094 -0.5735823 -1.419545 0.2842401 -0.75009656
-0.47574762 -1.092678 -0.5149265 -0.24640347 -0.39439583 -0.6882468 -0.54514235 -0.66081774
-0.8770603 0.11280866 -0.63422555 -1.345364 -0.90361094 -0.115193315 -1.0931481 -0.38464782
-0.57295805 -0.813731 -1.3663225 -0.6080475 -0.8759367 -0.53602284 -0.40617716 -0.16189478
-0.26320323 -1.2276976 -0.66934425 -0.6631467 -1.0976971 -1.0072688 -0.19330844 0.32666603
00000000: 5cd9 59bf 5dd1 ffbe 366d 12bf cbbf 5cbf
00000010: eeae 99bf af93 a0bf 3574 9cbf 98cd 40bf
00000020: 9d12 37bf 5107 a53e db5a 18bf 9925 46be
00000030: b090 5dbf 4d4b bc3e 774e f8bd e18f d5bf
00000040: 2fec d5bf dd43 68bf ecdd c9be b06d 72bf
00000050: 3c6c 8ebf 0aaf 68bf 5c28 d3be 57ad 0cbf
00000060: 500e 49bf 58b9 5cbf 58ea 30bf 9403 44bf
00000070: 6d8b 14bf 06b5 17bf 095e b43d eacc 89bf
00000080: a9fb ecbe 0f8e 1dbf 823e 26bf 07c9 a8be
00000090: 632c 85bf 0bbb 47bf 4a35 03bd a7c3 253f
000000a0: 9353 81bf e80f 8ebf ca93 95be a9bb 09bf
000000b0: 864c 65bf c574 abbf 2826 033e d5cc a1bf
000000c0: 5de3 73bf 3f32 73be f7d2 f8be 3fdf 09bf
000000d0: 921f c43d 4639 40bf 7236 14bf 16b7 d7be
000000e0: 3edc 813e 697e aabf af43 8d3e 920d 64bf
000000f0: a700 e4be 04bb e2be 764f f4be bb05 a9bf
00000100: 40fb bdbe 7e8c 94bf 0141 2dbf 3b95 88bf
00000110: 88ff db3d c6d4 5bbf 5158 8cbd 3019 9cbf
00000120: fd0d 51bf d39a 753c bde1 6abe cbe8 d4be
00000130: 0d07 48bf 5728 89bf 9934 acbf 4477 91bf
00000140: 6fae 36bf da2b 13bf 7a48 9cbf 6f1f 7bbf
00000150: e952 51bf 835f 4ebf 108b 1dbf c63c 67bf
00000160: 0199 53be 0ea1 27be db03 4ebf 457b 18bf
00000170: 4ad6 12bf a7b3 b5bf eb87 913e 5406 40bf
00000180: 3195 f3be dfdc 8bbf 39d2 03bf 3151 7cbe
00000190: 40ee c9be f130 30bf 738e 0bbf 5a2b 29bf
000001a0: 0687 60bf 3a08 e73d 9b5c 22bf e334 acbf
000001b0: 0c53 67bf 79ea ebbd 47ec 8bbf 8ff0 c4be
000001c0: 61ad 12bf ad50 50bf a8e3 aebf 00a9 1bbf
000001d0: 633d 60bf cb38 09bf 74f6 cfbe bfc7 25be
000001e0: 93c2 86be 3225 9dbf 255a 2bbf fbc3 29bf
000001f0: 5781 8cbf 2fee 80bf a6f2 45be c540 a73e

encoder.fc2.weight f4 [32, 128]
-0.01941691 0.0058171535 0.01194064 -0.0034650583 0.023170786 -0.029044855 -0.015253215 -0.004553965
-0.008862113 0.015701527 -0.01744841 0.0065332903 0.025371531 0.0023222624 -0.014776373 0.0058742594
-0.02279361 -0.045157302 0.0033008535 -0.011836114 -0.020627609 0.006462063 -0.021895314 -0.02435009
-0.001469435 0.019480191 -0.0013457631 0.013434878 -0.0035026418 -0.01687242 0.0008227969 0.03035527
0.017606424 0.0410458 0.021128159 -0.06559621 0.0087846825 -0.0009085429 -0.0029379686 0.0083775185
0.023610706 -0.01422821 0.013789892 0.008377961 0.016831085 0.0075051007 0.00022776845 -0.018731443
0.01510317 0.0008894851 0.0011313835 -0.015561177 -0.011673227 -0.013289783 0.012457537 0.0037274587
-0.01929804 -0.0106985 -0.030087592 0.041347556 -0.016708173 -0.011020578 0.0028737024 0.009504204
0.004944896 0.020726174 -0.013747091 0.02613851 -8.3203486e-05 0.012936594 -0.007471409 0.014615659
-0.017501146 -0.0031391666 0.009442008 0.004559099 0.025141452 0.005892476 -0.016174935 0.016015956
-0.032024387 0.0102064535 -0.027789405 -0.009273479 -0.014591956 -0.016677221 -0.0033031243 -0.015795745
0.02666833 0.009763643 0.020695735 -0.010000486 -0.0037535143 0.008243936 0.014667501 -0.012960031
0.01180591 0.003085879 -0.002229328 -0.01287766 0.011250581 -0.010912258 -0.024002017 0.008958631
-0.006908488 -0.019853964 0.0039680274 -0.008845657 -0.0012147896 -0.0025095032 -0.0043502273 0.0012786541
0.016283982 -0.0014143618 -0.0058545084 -0.007459834 0.008989038 -0.036405463 -0.00863015 -0.0137802195
-0.035038907 0.0072734533 -0.00056995597 -0.019205727 -0.0065415855 0.008607646 0.0014639273 0.020227468
0.012199108 0.0038194489 0.006256199 -0.0051357266 0.019983431 0.010503621 0.02256797 0.0036101153
0.023402143 -0.002529877 0.00945108 -0.0071281195 -0.012631193 0.0059277336 0.006075253 -0.013119385
0.014302082 0.03822882 0.015954461 -0.00799927 0.026518637 -0.005786331 -0.003885165 -0.022163764
-0.0072591617 -0.014274162 -0.002112439 -0.0061545507 0.005406285 -0.022523649 -0.002031594 0.005976204
-0.006352744 0.019494789 -0.008744358 0.13987221 0.0074967924 -0.025511444 0.0046427385 -0.001057952
-0.013383963 -0.002052332 -0.013211672 0.0063562165 0.013309068 0.01155876 0.010441338 0.018217247
0.0022734515 0.005824677 -0.007233886 -0.016429573 -9.446492e-05 0.010072913 0.0020103722 0.008034569
-0.006216821 -0.00455697 0.012369562 -0.017528335 0.0052473107 0.012021762 -0.011168091 -0.0027498256
0.005288471 0.0007918868 0.006916724 0.0040831226 -0.01077247 -0.01744391 0.0021282197 0.002356538
0.00021567967 0.0016649342 -0.013206277 0.013552813 -0.00041536745 -0.012157277 0.0032824816 0.015397867
-0.00492567 0.008297001 -0.013320611 0.010905791 0.0029056084 0.0089384075 -0.006440034 -0.008794976
0.0037967195 0.0008560596 -0.014732603 0.0064717047 0.008290578 -0.013576131 -0.012485718 0.019586347
0.013889081 0.027595207 -0.003969219 0.003299762 -0.0100296335 0.0037427829 0.012693344 0.007946205
0.013096865 -0.0021279235 0.000856665 -0.0069561647 0.011365439 -0.003881779 -0.0019259675 0.0001375515
-0.0155925285 0.033892877 0.0010848272 0.025775146 -0.0072075534 -0.00879043 -0.0003264387 -0.0059071453
-0.026254825 0.00429664 -0.0032795977 -0.04133041 -0.014152226 -0.010646602 -0.0010858127 -0.011467356
00000000: 3610 9fbc d29d be3b ada2 433c 0816 63bb
00000010: a9d0 bd3c 7aef edbc 9fe8 79bc 6d39 95bb
00000020: 6532 11bc 7da0 803c f8ef 8ebc 3615 d63b
00000030: f5d7 cf3c 1931 183b 9a18 72bc dc7c c03b
00000040: aab9 babc ddf6 38bd 2253 583b 43ec 41bc
00000050: 3bfb a8bc b7bf d33b cd5d b3bc d779 c7bc
00000060: 0f9a c0ba ec94 9f3c 5164 b0ba f61d 5c3c
00000070: 948c 65bb 0838 8abc f7b0 573a 9dab f83c
00000080: 593b 903c a41f 283d f614 ad3c 4e57 86bd
00000090: a1ed 0f3c 482b 6eba ef8a 40bb dc41 093c
000000a0: 3d6b c13c 701d 69bc 00ef 613c b743 093c
000000b0: 58e1 893c 59ed f53b 21d5 6e39 af72 99bc
000000c0: 4973 773c 562c 693a ee4a 943a 4ff4 7ebc
000000d0: 1041 3fbc 64bd 59bc b31a 4c3c 6148 743b
000000e0: ec16 9ebc c348 2fbc 417a f6bc 0e5c 293d
000000f0: 94df 88bc a88f 34bc ba54 3c3b 85b7 1b3c
00000100: cb08 a23b f0c9 a93c 7b3b 61bc 6e20 d63c
00000110: 887d aeb8 02f4 533c b9d2 f4bb 8476 6f3c
00000120: 905e 8fbc 7aba 4dbb a7b2 1a3c 7f64 953b
00000130: 72f5 cd3c ac15 c13b 4c81 84bc e533 833c
00000140: 012c 03bd f838 273c 9ba6 e3bc caef 17bc
00000150: 1913 6fbc ab9e 88bc 3b79 58bb 1466 81bc
00000160: 8b77 da3c b0f7 1f3c 1a8a a93c 14d9 23bc
00000170: 85fd 75bb 9311 073c f54f 703c 4f56 54bc
00000180: 936d 413c 753c 4a3b eb19 12bb d2fc 52bc
00000190: 5b54 383c 54c9 32bc e19f c4bc 39c7 123c
000001a0: 9960 e2bb c8a4 a2bc 3a06 823b 60ed 10bc
000001b0: 9339 9fba 7a76 24bb 5a8c 8ebb 8398 a73a
000001c0: fc65 853c 1b62 b9ba 2dd7 bfbb a071 f4bb
000001d0: c246 133c e51d 15bd 7965 0dbc 6ec6 61bc
000001e0: f584 0fbd 2656 ee3b 1969 15ba 5455 9dbc
000001f0: cc5a d6bb 1607 0d3c 40e1 bf3a 13b4 a53c
00000200: c4de 473c b84f 7a3b cd00 cd3b 9949 a8bb
00000210: 4bb4 a33c 6117 2c3c 77e0 b83c af97 6c3b
00000220: dab5 bf3c 4bcc 25bb b4d8 1a3c 0093 e9bb
00000230: 10f3 4ebc 6f3d c23b ea12 c73b b0f2 56bc
00000240: 4853 6a3c d395 1c3d eeb2 823c 5f0f 03bc
00000250: 9d3d d93c 439b bdbb 419e 7ebb c890 b5bc
00000260: 43de edbb 2dde 69bc d870 0abb 1dac c9bb
00000270: 3527 b13b 8483 b8bc 7e24 05bb 08d4 c33b
00000280: ae2a d0bb 89b3 9f3c 7f44 0fbc a93a 0f3e
00000290: a7a7 f53b 60fd d0bc 1d22 983b faaa 8aba
000002a0: 6948 5bbc 6b80 06bb c575 58bc cf47 d03b
000002b0: 470e 5a3c f460 3d3c 2512 2b3c 563c 953c
000002c0: 30fe 143b efdc be3b 3c0a edbb 5097 86bc
000002d0: 781b c6b8 dc08 253c 73c0 033b 6da3 033c
000002e0: 79b6 cbbb a352 95bb b4a9 4a3c 9597 8fbc
000002f0: a2f1 ab3b edf6 443c 5efa 36bc 6b36 34bb
00000300: e94a ad3b a096 4f3a b0a5 e23b b7cb 853b
00000310: 047f 30bc 88e6 8ebc 9a79 0b3b 2670 1a3b
00000320: 1228 6239 ec39 da3a 245f 58bc 9e0c 5e3c
00000330: adc5 d9b9 512f 47bc e71e 573b 5647 7c3c
00000340: 8467 a1bb 25f0 073c b13e 5abc 34ae 323c
00000350: 056c 3e3b 6672 123c ec06 d3bb ce18 10bc
00000360: 62d2 783b 3069 603a 0461 71bc 9810 d43b
00000370: 34d5 073c 6c6e 5ebc e690 4cbc 8c73 a03c
00000380: 078f 633c 580f e23c 3910 82bb d240 583b
00000390: 5553 24bc 7a49 753b bef7 4f3c cd30 023c
000003a0: 3c94 563c a274 0bbb d191 603a 8af0 e3bb
000003b0: 1b36 3a3c 7265 7ebb bf70 fcba b33b 1039
000003c0: ce77 7fbc 42d3 0a3d c330 8e3a 6626 d33c
000003d0: 572d ecbb bc05 10bc dc25 abb9 ba90 c1bb
000003e0: 5c14 d7bc d4ca 8c3b 85ee 56bb 134a 29bd
000003f0: bdde 67bc 166f 2ebc d451 8eba 94e1 3bbc

encoder.fc2.bias f4 [32]
-0.004402744 -0.0036630793 0.008495663 0.0045951577 -0.013802755 0.009506129 -0.028300429 0.0114498455
0.018315764 0.09816509 -0.011514414 -0.03511073 -0.0033863382 0.02328392 -0.0072404523 0.013787266
0.5767713 -0.031978738 0.61921364 -0.0020958735 -0.19290861 0.012309294 -0.03434593 -0.62635016
-0.028969603 0.009253479 0.06614993 0.26773432 0.021360764 0.6319853 -0.026319534 0.046418022
00000000: e544 90bb 4610 70bb 6531 0b3c fa92 963b
00000010: f324 62bc 98bf 1b3c 4dd6 e7bc 2298 3b3c
00000020: f10a 963c c70a c93d f4a6 3cbc 45d0 0fbd
00000030: 54ed 5dbb ebbd be3c 5141 edbb fce3 613c
00000040: 49a7 133f 23fc 02bd c984 1e3f ec5a 09bb
00000050: d689 45be ecac 493c 51ae 0cbd 7c58 20bf
00000060: a951 edbc e79b 173c 9d79 873d 7914 893e
00000070: c5fc ae3c cac9 213f 109c d7bc d320 3e3d

encoder.fc3.weight f4 [32, 128]
0.011478685 -0.0012584088 -0.008761677 0.0103043355 -0.029860806 0.003784795 0.004486388 -0.015835192
-0.019661527 -0.0021619431 0.003967393 0.012630344 -0.00272482 -0.0013669747 -0.012730139 -0.018367767
0.013248175 -0.010415225 -0.0024183656 -0.0022298126 -0.0020571223 0.0025703963 -5.1885807e-05 -0.000325227
-0.019761436 0.01625609 0.0052665765 -0.0026115775 -0.010581971 0.014510804 0.0012569883 -0.009342659
-0.008384455 0.004165964 -0.01615995 0.004710017 0.007158573 0.009621034 0.00724617 0.0013233805
-0.004795692 -0.007469012 0.002319486 -0.0026101787 0.0007672692 0.0065011266 -0.0017459485 -0.012763668
0.0028985154 0.0013804826 -0.003871938 0.011266933 -0.0029802832 -0.0034228223 0.014835296 -0.0070320135
-0.00061636954 0.014858905 0.0024434014 0.021365304 0.0034595272 -0.0025990505 -0.01081627 -0.00043742845
-0.00021661184 0.028620332 -0.0030590578 0.006009277 -0.0013977161 0.005251943 0.003267678 0.002595271
-0.002400299 -0.0033881126 0.0037200227 0.0012323137 0.01292269 -0.0008899031 0.0031742402 -0.003260105
0.0039284723 7.0710244e-05 0.015337694 -0.003327692 -0.011129581 0.033215415 -0.001082567 0.0016407906
-0.00032799214 -0.0016525518 0.00749757 -0.00620174 -0.0054445514 0.013825756 -0.0016257162 0.0025145444
-0.008853419 0.015320161 0.0029340487 0.00326365 0.013690903 0.0052859685 -0.0036573412 -0.014274349
0.002802917 0.0013749946 -0.009889424 0.0061169607 0.009784414 -0.0040543615 0.00591149 0.0018894298
-0.0055156 0.0053612823 -0.0028853808 0.015690055 -0.002167757 0.015030277 -0.0066225715 -0.007429335
-0.014843891 -0.0019212924 0.0010260562 -0.015040044 -0.00018336359 -0.0075913128 -0.01016496 -0.00085841876
0.0069384286 -0.0073345928 -0.005406678 -0.008857543 0.017299451 -0.014188065 0.0026424904 0.009363331
0.026341813 -0.006720187 0.0059111305 0.0024009447 0.0033686277 0.00042139384 0.003064495 -0.012729403
-0.044741254 -0.029332388 0.0025551503 -0.0019720627 0.007864918 -0.002143642 0.00095879624 -0.0018581052
0.0076238397 -0.00850905 0.038142975 -0.015817048 -0.00632448 0.0033177976 -0.0022909692 0.0045468686
-0.008426698 -0.022572437 -0.007172393 -0.05574415 0.004785256 -0.021172121 0.005006941 0.00567926
0.0031259642 -0.009436443 0.008576541 -0.007939902 -0.009360004 -0.0025331588 -0.0047448697 -0.0019378765
0.010252882 0.0067017735 -0.0022978229 0.043830227 -0.0043279696 0.0042684716 -0.00152042 0.0012291047
-0.001446668 -0.00052033225 -0.007832698 -0.019267913 -0.012393735 0.00041093005 -0.004566122 -0.0015896579
0.003028757 0.020931745 0.0016937475 -0.010226647 -0.0024086686 -0.009809894 -0.00017179234 -0.0125389965
-0.001178212 0.0033041474 0.007893433 -0.000446611 0.008966766 -0.004533383 0.0009185606 -0.0021394214
0.006291849 0.0010046036 -0.0022634475 0.0017934344 -0.0031337505 -0.020369103 -0.0052615516 -0.0035982563
0.009035185 0.0023081133 -0.0017153898 -0.0045361286 -0.0034320792 -0.009186279 0.0033051982 0.0076680854
0.0007028552 0.010478919 0.008490387 -0.0009322498 -0.0019794905 -0.0010329793 3.2800934e-05 -0.0057328846
0.0015468893 0.011756547 0.0037489193 -0.00931352 0.011704126 0.0007695108 -0.011573874 -0.00072327285
0.0046053226 0.008113292 0.004829009 -0.011329392 -0.0072626057 0.0028489777 0.002525255 -0.013088259
-0.015207669 0.0030421722 0.011414627 -0.0009161098 0.015125247 -0.020168219 -0.002287939 -0.0019102436
00000000: 1811 3c3c 31f1 a4ba 238d 0fbc 84d3 283c
00000010: a69e f4bc 530a 783b 8d02 933b ceb8 81bc
00000020: 3611 a1bc 63af 0dbb e800 823b 81ef 4e3c
00000030: e592 32bb 0f2c b3ba 1392 50bc 0078 96bc
00000040: e00e 593c 9fa4 2abc 717d 1ebb 0c22 12bb
00000050: c9d0 06bb 1874 283b f69f 59b8 3b83 aab9
00000060: bce2 a1bc 7e2b 853c 3f93 ac3b 0027 2bbb
00000070: 0160 2dbc b9be 6d3c 87c1 a43a f411 19bc
00000080: f45e 09bc a482 883b df61 84bc 7c56 9a3b
00000090: 7692 ea3b 8ba1 1d3c 4871 ed3b 4875 ad3a
000000a0: 2e25 9dbb 9dbe f4bb 8502 183b 880f 2bbb
000000b0: 9022 493a 6707 d53b 4fd8 e4ba b41e 51bc
000000c0: 05f5 3d3b 4ff1 b43a 57c0 7dbb f198 383c
000000d0: db50 43bb 6e51 60bb be0f 733c ce6c e6bb
000000e0: dc93 21ba c472 733c 7921 203b 4a06 af3c
000000f0: 3cb9 623b d554 2abb b936 31bc a756 e5b9
00000100: 4c22 63b9 3075 ea3c 797a 48bb 78e9 c43b
00000110: 9233 b7ba 7e18 ac3b 8a26 563b 6c15 2a3b
00000120: 564e 1dbb 190b 5ebb a0cb 733b 9685 a13a
00000130: b1b9 533c 6348 69ba ea06 503b 7ca7 55bb
00000140: 6aba 803b 464a 9438 f44a 7b3c 6815 5abb
00000150: d958 36bc e30c 083d ece4 8dba cc0f d73a
00000160: 5cf6 abb9 709a d8ba 2dae f53b f737 cbbb
00000170: 3568 b2bb 6c85 623c fc15 d5ba 0ecb 243b
00000180: ee0d 11bc 6a01 7b3c 2b49 403b f6e2 553b
00000190: cf4f 603c eb35 ad3b 01b0 6fbb f6de 69bc
000001a0: 25b1 373b 2a39 b43a 4007 22bc c970 c83b
000001b0: cf4e 203c 73da 84bb 2cb5 c13b bea6 f73a
000001c0: 35bc b4bb b2ad af3b a818 3dbb 6e88 803c
000001d0: ed10 0ebb 8d41 763c 2802 d9bb c771 f3bb
000001e0: cb33 73bc e0d3 fbba bc7c 863a 846a 76bc
000001f0: 4a45 40b9 8cc0 f8bb ef8a 26bc 8207 61ba
00000200: c25b e33b 0657 f0bb 812a b1bb 3a1f 11bc
00000210: 94b7 8d3c 0f75 68bc a22d 2d3b a868 193c
00000220: c9ca d73c 0435 dcbb 28b2 c13b 2b59 1d3b
00000230: 32c4 5c3b 86ee dc39 b2d5 483b fc8e 50bc
00000240: 9b42 37bd 7a4a f0bc 4f74 273b b93d 01bb
00000250: dbdb 003c 587c 0cbb ba57 7b3a aa8b f3ba
00000260: 67d1 f93b 8b69 0bbc cf3b 1c3d c192 81bc
00000270: 953d cfbb 686f 593b 1624 16bb e6fd 943b
00000280: 2210 0abc d5e9 b8bc 6506 ebbb fa53 64bd
00000290: a3cd 9c3b 2871 adbc 4411 a43b 1619 ba3b
000002a0: fadc 4c3b 509b 1abc 9f84 0c3c 5d16 02bc
000002b0: b45a 19bc 5a03 26bb da7a 9bbb 5800 feba
000002c0: b4fb 273c 8d9a db3b 1297 16bb 5387 333d
000002d0: a4d1 8dbb 89de 8b3b d448 c7ba e919 a13a
000002e0: 1f9e bdba e866 08ba b754 00bc bed7 9dbc
000002f0: 180f 4bbc 1972 d739 689f 95bb 115c d0ba
00000300: 1c7e 463b 0d79 ab3c bc00 de3a ab8d 27bc
00000310: c1da 1dbb adb9 20bc 2823 34b9 5d70 4dbc
00000320: 3c6e 9aba 658a 583b 7553 013c 1d27 eab9
00000330: 58e9 123c c68c 94bb 8fcb 703a 8935 0cbb
00000340: db2b ce3b e7ac 833a 5956 14bb ac11 eb3a
00000350: 9c5f 4dbb 1bdd a6bc 1869 acbb b9d0 6bbb
00000360: 5008 143c b743 173b eed6 e0ba cea3 94bb
00000370: bcec 60bb 0c82 16bc 069c 583b 9044 fb3b
00000380: d03f 383a c6af 2b3c 441b 0b3c 3a62 74ba
00000390: 57ba 01bb 0965 87ba bc93 0938 ecda bbbb
000003a0: fec0 ca3a 889e 403c 6eb0 753b bc97 18bc
000003b0: aac2 3f3c ffb8 493a 59a0 3dbc 059a 3dba
000003c0: 3fe8 963b 9ded 043c aa3c 9e3b ea9e 39bc
000003d0: 27fb edbb eab5 3a3b c07e 253b 2370 56bc
000003e0: 9629 79bc 2e5f 473b 6a04 3b3c 1727 70ba
000003f0: e2cf 773c d237 a5bc 3ff1 15bb 2461 faba

encoder.fc3.bias f4 [32]
-0.010711852 -0.0033109789 -0.008574643 -0.0041293586 -0.011955673 -0.0033756269 -0.004870186 -0.0036795782
-0.0077932603 -2.1769183 -0.00803578 -0.0067298915 -0.0031864177 -0.008719837 -0.005000326 -0.0052145845
-1.9981161 -0.007017832 -0.7232162 -0.010745892 -2.8489769 2.122223e-05 -0.00089758047 -1.3914537
-0.008282598 -0.011655676 -2.2950056 -1.5661956 -0.012791895 -1.019379 -0.0007883571 -0.010004667
00000000: c480 2fbc 02fd 58bb a97c 0cbc 924f 87bb
00000010: bae1 43bc 9f39 5dbb 1596 9fbb 1425 71bb
00000020: 9b5e ffbb a152 0bc0 81a8 03bc 6c86 dcbb
00000030: 38d3 50bb a6dd 0ebc c6d9 a3bb 1bdf aabb
00000040: 45c2 ffbf d7f5 e5bb b224 39bf 8a0f 30bc
00000050: a355 36c0 6406 b237 9b4b 6bba 281b b2bf
00000060: bcb3 07bc 73f7 3ebc 5fe1 12c0 1979 c8bf
00000070: 1995 51bc 037b 82bf c0a9 4eba 9dea 23bc

decoder.fc1.weight f4 [128, 32]
-0.0041727093 0.03108036 0.020885604 0.013425621 0.030458948 -0.015683703 -0.0029354075 -0.032301985
0.014823087 1.1273099 -0.012015696 0.011441221 0.00017933198 0.037980996 -0.010171787 -0.005067547
0.6744804 -0.014484008 0.19850194 -0.009702437 0.37928262 -0.015791344 0.002817677 0.005074099
-0.02810051 -0.02641119 -0.8115809 0.7454487 -0.0006353713 -0.346717 0.014083086 -0.0001494829
-0.005523415 0.0038100104 -0.0022688175 0.011208931 0.022365844 -0.014677372 0.012532156 -0.005928629
-0.0029127935 0.064030275 -0.003401953 0.01777899 -0.0041412916 -0.008341967 -0.011861462 -0.0052709263
-0.15812866 -0.0030209285 0.21992706 0.011139167 2.0907598 -0.008861597 0.00906699 -0.38661695
0.0070593418 -0.0021338686 -0.53575593 0.026891608 0.0013491064 -0.07852482 -0.0070319255 -0.018164404
0.040168233 0.001993504 -0.00794829 -0.04285822 -0.022427376 -0.024423156 -0.032317627 -0.0015158346
0.070840105 1.0132893 -0.00026051363 0.013539414 -0.061420843 -0.018940296 0.04331286 0.025080774
-1.6916482 -0.035568412 1.1100854 -0.0200163 0.7876306 0.020395469 -0.025397904 0.06701208
-0.07880207 -0.013504442 3.1690888 1.0132557 -0.007000202 0.6479205 -0.01717407 0.026996631
-0.0126866205 0.017553696 -0.027730543 -0.026030472 0.010099815 -0.024770962 -0.019953685 -0.03521249
-0.00750755 1.1202343 0.012926202 0.011207614 -0.040550992 0.03350433 -0.026042094 -0.013184741
0.20496698 -0.0041931425 0.06141632 -0.015949992 0.89558285 -0.0007886502 -0.0048907655 -0.32137504
0.030420398 0.036723766 1.3474236 0.10800408 0.029398723 -0.056538645 -0.013936252 -0.005018515
-0.00690885 0.005314504 0.0047941078 -0.0030638382 -0.006669978 -0.009246668 -0.010660418 -0.007863877
0.003116218 -0.55604976 -0.0033929679 0.012344399 0.00015994109 -0.009527002 0.017688211 -0.008918326
-1.3492703 0.021305125 -0.030509107 -0.012068897 -1.1449401 0.009023899 -0.006201525 -0.008614282
-0.0050416016 0.011685704 -0.35911527 0.6625629 -0.0029745444 -0.20308878 -0.016467616 -0.0010478008
-0.025167933 -0.014871661 -0.009409142 0.006669338 -0.0018484183 -0.016406916 -0.0026787978 0.011015385
-0.020063948 0.10984353 0.029932948 0.011667195 -0.0033372869 -0.014138266 -0.0064380825 -0.009681157
0.05832237 0.0036551475 0.37795115 0.008736623 1.5548276 0.0004425198 0.0046313573 0.18532692
-0.009668217 -0.020804025 -1.7732308 -0.13976659 0.025494864 0.017213037 -0.018236158 0.028880993
-0.002223699 0.0020818391 -0.027109666 0.026882244 -0.006161996 -0.0037430844 -0.011625614 0.013010252
0.012054115 2.3348968 -0.0018798622 -0.003520069 -0.004349747 -0.0112031475 -0.00089260447 0.0052329814
0.73456496 -0.0014019068 0.29047987 0.0058554476 -3.6255646 -0.005729867 0.0034799636 0.66358435
-0.014669788 0.00039140857 -1.0152572 0.17565648 0.020376246 -0.26624238 -0.008731208 0.007530732
-0.006691679 -0.024047788 0.014370778 -0.007509709 0.0002896806 0.004573584 0.0008641246 -0.01093727
-0.013911318 -0.22068696 -0.024677936 0.011509333 -0.009609295 0.0034203494 0.013587002 -0.0043522725
-0.07097643 -0.008063595 -0.002332296 0.0053733457 -0.92714846 -0.01674071 0.007615764 0.08047689
0.00072890625 0.003206454 1.2902697 -0.5340035 -0.025065452 0.17847306 0.0019382257 0.00904539
00000000: 39bb 88bb 3d9c fe3c 4918 ab3c 23f7 5b3c
00000010: 0b85 f93c 1c7b 80bc f75f 40bb 164f 04bd
00000020: 88dc 723c b14b 903f 7bdd 44bc f673 3b3c
00000030: 100b 3c39 f691 1b3d 91a7 26bc aa0d a6bb
00000040: bfaa 2c3f 554e 6dbc 1844 4b3e f8f6 1ebc
00000050: 5531 c23e d95c 81bc c7a8 383b a144 a63b
00000060: 0a33 e6bc 485c d8bc c4c3 4fbf bad5 3e3f
00000070: 0c8f 26ba e484 b1be bebc 663c 83be 1cb9
00000080: c3fd b4bb 5eb1 793b 71b0 14bb aaa5 373c
00000090: 9338 b73c 5c79 70bc ac53 4d3c f244 c2bb
000000a0: 91e4 3ebb 4e22 833d 4df3 5ebb 3fa5 913c
000000b0: acb3 87bb bfac 08bc 9456 42bc bcb7 acbb
000000c0: 7bec 21be c5fa 45bb 8f34 613e 0d81 363c
000000d0: 02cf 0540 3b30 11bc b68d 143c a8f2 c5be
000000e0: 0d52 e73b 60d8 0bbb 4d27 09bf ca4b dc3c
000000f0: 80d4 b03a 9fd1 a0bd 116c e6bb 84cd 94bc
00000100: 7287 243d 72a5 023b 8b39 02bc 1a8c 2fbd
00000110: 9eb9 b7bc 1213 c8bc 7d5f 04bd f8ae c6ba
00000120: 9e14 913d 77b3 813f 8c95 88b9 6bd4 5d3c
00000130: 6c94 7bbd ae28 9bbc d368 313d 3276 cd3c
00000140: ee87 d8bf 2fb0 11bd 4717 8e3f 39f9 a3bc
00000150: 29a2 493f 6614 a73c 440f d0bc a13d 893d
00000160: fb62 a1bd bc41 5dbc 5ad2 4a40 5db2 813f
00000170: f361 e5bb 1ede 253f a3b0 8cbc 0a28 dd3c
00000180: 8bdb 4fbc c5cc 8f3c 2a2b e3bc db3d d5bc
00000190: b279 253c 79ec cabc e975 a3bc f93a 10bd
000001a0: e501 f6bb d663 8f3f 6cc8 533c 24a0 373c
000001b0: cc18 26bd d63b 093d 3b56 d5bc d004 58bc
000001c0: dde2 513e a166 89bb ae8f 7b3d 8fa9 82bc
000001d0: eb44 653f 6bbd 4eba b742 a0bb 458b a4be
000001e0: 3334 f93c a96b 163d 6078 ac3f 3e31 dd3d
000001f0: 97d5 f03c 1195 67bd e154 64bc 5b72 a4bb
00000200: a263 e2bb 4a25 ae3b e417 9d3b adca 48bb
00000210: d58f dabb 567f 17bc 09a9 2ebc 7ed7 00bc
00000220: 7639 4c3b 4759 0ebf 8e5c 5ebb 2940 4a3c
00000230: dcb5 2739 2517 1cbc dee6 903c 2c1e 12bc
00000240: e4b4 acbf 1688 ae3c 3cee f9bc 9fbc 45bc
00000250: 668d 92bf fad8 133c 2a36 cbbb eb22 0dbc
00000260: 0534 a5bb 6575 3f3c f5dd b7be b99d 293f
00000270: 93f0 42bb 81f6 4fbe 18e7 86bc 5c56 89ba
00000280: fb2c cebc 44a8 73bc cd28 1abc 768a da3b
00000290: a046 f2ba cc67 86bc c58e 2fbb e079 343c
000002a0: 265d a4bc a5f5 e03d f135 f53c c327 3f3c
000002b0: 62b6 5abb 30a4 67bc 8df6 d2bb b79d 1ebc
000002c0: 70e3 6e3d 338b 6f3b d082 c13e 0e24 0f3c
000002d0: 9704 c73f 0102 e839 a4c2 973b 57c6 3d3e
000002e0: 7167 1ebc 346d aabc 3af9 e2bf f91e 0fbe
000002f0: 9bda d03c 5b02 8d3c ff63 95bc d597 ec3c
00000300: 7abb 11bb 776f 083b 1715 debc 2738 dc3c
00000310: 92ea c9bb 894e 75bb 5c79 3ebc f428 553c
00000320: 9f7e 453c f36e 1540 b565 f6ba f5b0 66bb
00000330: 5388 8ebb 688d 37bc acfd 69ba 6e79 ab3b
00000340: 730c 3c3f 30c0 b7ba c7b9 943e 0edf bf3b
00000350: 4009 68c0 9cc1 bbbb 1a10 643b aae0 293f
00000360: 8d59 70bc f835 cd39 f3f3 81bf 4bdf 333e
00000370: 16ec a63c ec50 88be 570d 0fbc 5cc4 f63b
00000380: df45 dbbb deff c4bc 6973 6b3c 0114 f6bb
00000390: 46e0 9739 01de 953b 6c86 623a 3c32 33bc
000003a0: 4cec 63bc c3fb 61be 6229 cabc a491 3c3c
000003b0: 4e70 1dbc f127 603b 049c 5e3c 829d 8ebb
000003c0: 175c 91bd 2b1d 04bc 6fd9 18bb e412 b03b
000003d0: 9a59 6dbf d023 89bc a98d f93b 11d1 a43d
000003e0: 1214 3f3a 5f23 523b 8f27 a53f 74b4 08bf
000003f0: 1056 cdbc a4c1 363e 100c fe3a 1e33 143c

decoder.fc1.bias f4 [128]
-0.87635636 0.061936066 1.2203128 -1.3584517 0.4688832 -2.3273406 -1.5096364 1.912837
-1.2603488 0.0225501 -0.6534304 -1.6766824 -2.676242 -4.0887814 0.9194087 0.9026679
-0.3262234 0.99006736 -3.3414867 -2.1417239 0.8096143 -0.9248935 0.75094783 0.64090043
0.27939874 -2.757444 1.4400198 2.4799294 0.3594968 -2.3411336 -1.6700966 -1.7694912
0.8980365 0.6515629 -0.6868188 -2.241787 -3.717085 -1.3213049 1.605129 0.7841276
0.53588915 -3.820493 -2.7924314 1.4891785 -0.31029996 -0.646773 1.875125 0.4529041
-1.6772172 -2.0533602 -0.51270795 -0.88397306 0.15054975 -3.4506564 0.89538974 -1.4341549
-0.757971 0.9060666 0.6910782 -0.55733865 0.095741265 -2.29774 -0.6242067 0.5453379
0.70917183 3.0861037 -0.8457356 -0.23071617 0.12499061 -1.7273328 -3.5645175 -2.1938496
-1.4553632 -1.7153641 1.5755755 -0.2084188 -0.92416936 -1.880356 -3.178846 -0.3105953
1.4514736 -0.3474085 0.31637517 -1.7459744 2.730743 -0.1777345 -0.7173991 1.3646661
-0.90767425 0.5762721 -1.4704175 1.2842824 1.9707689 -1.9442667 -0.9068077 -0.04356482
-0.9228441 0.7199443 1.5351022 -0.36149326 0.38801035 1.6388049 -1.1657357 -2.4278054
1.0439441 -3.0716863 -3.2283716 0.38731048 -2.2154443 1.7917037 1.0213273 -0.26151133
1.0315166 -0.7328749 -4.896653 2.1275787 -0.9706483 0.15483205 0.8380998 0.3332771
-2.4295034 1.674377 -0.24643184 -0.92059284 -0.534362 1.1551479 0.4388189 -0.7727508
00000000: e458 60bf acb0 7d3d 3633 9c3f bfe1 adbf
00000010: 7511 f03e 26f3 14c0 c43b c1bf d8d7 f43f
00000020: 1c53 a1bf fdba b83c 3747 27bf 879d d6bf
00000030: 8d47 2bc0 4cd7 82c0 5e5e 6b3f 3e15 673f
00000040: c106 a7be 0e75 7d3f ebda 55c0 0112 09c0
00000050: e242 4f3f d2c5 6cbf 1e3e 403f 0d12 243f
00000060: 5a0d 8f3e f679 30c0 9252 b83f 2ab7 1e40
00000070: f70f b83e 22d5 15c0 bac5 d5bf b07e e2bf
00000080: b8e5 653f d4cc 263f 5bd3 2fbf 7079 0fc0
00000090: b8e4 6dc0 8520 a9bf de74 cd3f 96bc 483f
000000a0: 0830 093f f582 74c0 32b7 32c0 679d be3f
000000b0: a3df 9ebe ea92 25bf 1904 f03f 0ce3 e73e
000000c0: 0eaf d6bf 416a 03c0 d440 03bf 0f4c 62bf
000000d0: b729 1a3e 8ed7 5cc0 4338 653f 6392 b7bf
000000e0: 630a 42bf fbf3 673f 80ea 303f bfad 0ebf
000000f0: ff13 c43d 2c0e 13c0 03cc 1fbf 449b 0b3f
00000100: 498c 353f b982 4540 2182 58bf dc40 6cbe
00000110: 14fb ff3d 3e19 ddbf 0e21 64c0 0868 0cc0
00000120: 5749 babf 0d91 dbbf 75ac c93f bd6b 55be
00000130: 5d96 6cbf 81af f0bf 3672 4bc0 5906 9fbe
00000140: e3c9 b93f 87df b1be edfb a13e 177c dfbf
00000150: 7ec4 2e40 0800 36be 78a7 37bf 61ad ae3f
00000160: 575d 68bf 9186 133f a436 bcbf 5e63 a43f
00000170: 2842 fc3f bbdd f8bf 8d24 68bf 0671 32bd
00000180: 833f 6cbf 454e 383f 3b7e c43f a515 b9be
00000190: 4ba9 c63e 5cc4 d13f d436 95bf 2a61 1bc0
000001a0: f69f 853f 8296 44c0 a49d 4ec0 8f4d c63e
000001b0: d7c9 0dc0 8c56 e53f daba 823f d0e4 85be
000001c0: bc08 843f b09d 3bbf 62b1 9cc0 402a 0840
000001d0: 687c 78bf 4b8c 1e3e b58d 563f 4ca3 aa3e
000001e0: fc7c 1bc0 fc51 d63f a158 7cbe f9ab 6bbf
000001f0: f3cb 08bf e3db 933f dfac e03e ffd2 45bf

decoder.fc2.weight f4 [51, 128]
1.0034386 -2.3126574 -0.11247042 -0.03228463 -0.035584345 -0.051812097 -0.0050177574 -0.25260746
-0.10325068 -0.014228753 -0.064319886 0.024385532 -2.8272169 -0.44189528 0.033130277 -0.21951126
-0.027550733 0.09764209 0.4904213 0.500269 -0.014788174 0.019927302 -0.039096873 -0.026886214
-0.76044714 -0.35624033 -0.026224323 0.18576781 0.03194985 -0.081615545 -0.13571616 -0.07670766
0.056255586 0.17576982 -0.047528252 0.04664686 0.02671181 0.0330546 0.17940016 -0.033102904
-0.46908802 0.20895706 -0.1935864 -0.33930683 -0.003375648 0.05636662 -0.16974592 0.01566972
-0.08124958 -2.4234064 0.7899309 -0.13157481 -0.031038383 0.11359812 0.2968106 0.18443768
0.005601349 -0.3708041 0.11340352 0.12738979 0.2672334 -0.0027541935 -0.085545935 -0.026307408
0.06240233 0.031617265 0.07414012 -0.12176543 -0.39007896 0.040291317 -0.15246244 -0.13052526
0.41015399 0.010474568 -0.15938066 0.06821356 -1.6757665 -0.01178779 -1.7150759 0.054048184
0.057754345 -0.45643774 -0.28537893 0.6748305 -0.38955867 0.0050094333 -0.12658243 0.07374091
-0.11499696 -0.014275964 -0.1439064 -0.052979812 -0.28671426 -3.0613334 -0.3179408 -0.23543558
0.114668906 -0.08700226 -0.22717014 -0.010817593 -0.190723 -0.052953806 -0.011514747 0.22018686
0.010528617 0.05247662 -0.21394756 0.286354 0.049979877 0.053428583 0.01330071 0.12259174
-0.02119955 0.087986596 0.5351671 0.4837884 0.21199177 0.19267271 1.0056105 -0.7977086
0.037875034 0.2963305 -0.33766803 0.097937204 0.03163113 0.082353584 -0.06026131 0.1670053
-0.122467116 -0.6297474 0.2300322 0.4158811 -0.0981758 1.2076561 0.27442503 -0.7644132
-0.08015985 -0.27051857 0.30654663 0.13596734 0.14556475 0.2822507 -0.4244557 0.036872603
0.11710092 -2.8234632 -0.27255714 0.11927769 1.3390653 -0.04435066 0.004199851 0.17887698
1.352847 0.49101365 0.16012506 -0.45720884 0.08578643 0.15800528 -0.061329704 0.022498552
0.040485896 -0.20940237 -0.1192564 0.00044148366 -0.065946646 -0.597729 -0.12754723 0.30356917
0.12799715 0.16797794 -0.06197195 0.20546514 -0.016295422 0.3093684 -0.7546289 0.32295656
-0.008522061 -0.025045468 -1.0161197 -2.406272 0.11560069 -0.11060254 0.06568007 -0.052754343
-0.09761833 0.3875583 -0.38983443 0.19352594 -0.02329995 -0.035168603 -0.30744913 -0.52848715
-0.61481184 -1.3785838 0.024436247 -0.86303526 0.22934787 0.067184545 0.1165374 0.10713621
-0.1738988 0.008097523 0.2594261 -0.10565537 0.24116565 -0.3613937 -1.1266154 -0.12652062
0.32369286 0.3510294 -0.15399066 1.2990854 -0.26985937 -0.0031911524 0.23109773 0.04798698
0.029901134 0.04172479 0.56606 -0.47850516 -0.07783712 -0.037549175 -0.5800778 -0.05233729
-0.005616047 -0.39021847 -0.023137048 -0.10433582 -0.26961866 -1.440561 0.40440646 0.11453747
-0.015151757 -1.0563715 -0.20513554 -0.13724397 -0.06232656 0.10761193 0.3844452 0.06481022
0.2594457 -0.5995898 -0.33683136 -0.32951978 0.009806018 -0.0679703 -0.0035090437 -0.059468564
-0.37426618 -0.33243868 0.49930552 0.010002324 -0.1135144 -0.19005793 0.40648025 -0.41076186
00000000: ad70 803f 9402 14c0 e456 e6bd e33c 04bd
00000010: e4c0 11bd ec38 54bd 006c a4bb c455 81be
00000020: 1875 d3bd b71f 69bc 25ba 83bd 2bc4 c73c
00000030: 1ff1 34c0 1940 e2be 9db3 073d 8fc7 60be
00000040: 13b2 e1bc 93f8 c73d 8018 fb3e a111 003f
00000050: 194a 72bc 953e a33c 0b24 20bd 7a40 dcbc
00000060: aaac 42bf 2265 b6be 64d4 d6bc eb39 3e3e
00000070: d9dd 023d 0d26 a7bd 2df9 0abe e818 9dbd
00000080: 426c 663d 01fd 333e fcac 42bd c710 3f3d
00000090: bad2 da3c 4364 073d adb4 373e e996 07bd
000000a0: 4e2c f0be d7f8 553e 833b 46be a0b9 adbe
000000b0: fa39 5dbb afe0 663d e0d1 2dbe c95d 803c
000000c0: 2e66 a6bd 1719 1bc0 e938 4a3f 8cbb 06be
000000d0: 3544 febc 22a6 e83d 8ff7 973e 3bdd 3c3e
000000e0: 858b b73b 09da bdbe 1b40 e83d 7872 023e
000000f0: d1d2 883e b37f 34bb b532 afbd a282 d7bc
00000100: 9699 7f3d 1b81 013d c6d6 973d 2760 f9bd
00000110: 6eb8 c7be 8208 253d 1d1f 1cbe 6aa8 05be
00000120: b4ff d13e 869d 2b3c af34 23be 8db3 8b3d
00000130: 847f d6bf 9321 41bc 9b87 dbbf a161 5d3d
00000140: d28f 6c3d 35b2 e9be 301d 92be b1c1 2c3f
00000150: 3c74 c7be 2c26 a43b d39e 01be 7905 973d
00000160: 8783 ebbd bce5 69bc 335c 13be 5c01 59bd
00000170: 36cc 92be e3ec 43c0 23c9 a2be 0616 71be
00000180: 88d7 ea3d 3e2e b2bd 4a9f 68be 463c 31bc
00000190: e44c 43be 17e6 58bd 59a8 3cbc aa78 613e
000001a0: 3880 2c3c b9f1 563d 1215 5bbe fe9c 923e
000001b0: b3b7 4c3d eed7 5a3d 39eb 593c 6111 fb3d
000001c0: aeaa adbc 5132 b43d b600 093f 1db3 f73e
000001d0: 5f14 593e ff4b 453e d8b7 803f a136 4cbf
000001e0: da22 1b3d a2b8 973e d3e2 acbe 4d93 c83d
000001f0: a58f 013d ffa8 a83d 90d4 76bd 7003 2b3e
00000200: 0ad0 fabd 2037 21bf 908d 6b3e 5eee d43e
00000210: 6510 c9bd 7a94 9a3f 7081 8c3e 95b0 43bf
00000220: d92a a4bd 6981 8abe aef3 9c3e 063b 0b3e
00000230: ed0e 153e 2a83 903e 4252 d9be ba07 173d
00000240: 9bd2 ef3d 9fb3 34c0 9c8c 8bbe dd47 f43d
00000250: 7e66 ab3f 0aa9 35bd e79e 893b 872b 373e
00000260: 172a ad3f 2466 fb3e d3f7 233e 4717 eabe
00000270: ccb0 af3d 23cc 213e db34 7bbd e24e b83c
00000280: 8ad4 253d 936d 56be b33c f4bd ef76 e739
00000290: 090f 87bd c504 19bf be9b 02be 6b6d 9b3e
000002a0: af11 033e 6902 2c3e 4dd6 7dbd 7465 523e
000002b0: fa7d 85bc 8965 9e3e 5c2f 41bf 905a a53e
000002c0: 1da0 0bbc 272c cdbc 3610 82bf 5c00 1ac0
000002d0: 0ec0 ec3d 9683 e2bd 4683 863d f014 58bd
000002e0: 1eec c7bd 0b6e c63e 6198 c7be aa2b 463e
000002f0: 89df bebc f40c 10bd f969 9dbe ef4a 07bf
00000300: 4f64 1dbf 6f75 b0bf 862e c83c e1ef 5cbf
00000310: 2bda 6a3e 0d98 893d 29ab ee3d 3b6a db3d
00000320: 8712 32be 79ab 043c 7fd3 843e d861 d8bd
00000330: 21f4 763e 9808 b9be ef34 90bf 9f8e 01be
00000340: 12bb a53e 20ba b33e baaf 1dbe 6e48 a63f
00000350: 022b 8abe a722 51bb e2a4 6c3e ff8d 443d
00000360: 39f3 f43c 9de7 2a3d 4fe9 103f a1fe f4be
00000370: 1169 9fbd 2acd 19bd fb7f 14bf a05f 56bd
00000380: d106 b8bb b7ca c7be e889 bdbc 05ae d5bd
00000390: 750b 8abe 4e64 b8bf 5d0e cf3e 9f92 ea3d
000003a0: 133f 78bc 2e37 87bf 0d0f 52be af89 0cbe
000003b0: 234a 7fbd a563 dc3d 00d6 c43e 38bb 843d
000003c0: 11d6 843e b87e 19bf 2975 acbe d1b6 a8be
000003d0: 6ca9 203c 0334 8bbd fcf7 65bb 4f95 73bd
000003e0: d19f bfbe 6735 aabe f9a4 ff3e cae0 233c
000003f0: 3d7a e8bd 8c9e 42be 2e1e d03e 614f d2be

decoder.fc2.bias f4 [51]
-0.8435034 -0.457228 -0.16910994 0.24616458 0.22429244 0.24076287 0.26033354 -0.3925992
-0.16955946 0.17569129 0.36427763 -0.178709 0.28544644 1.1421309 0.6913477 0.04173668
-0.17723423 -0.16545519 0.05222954 0.23267223 -0.17868157 -0.26236793 1.07493 0.51693887
-0.16234188 -0.96680003 0.1648062 -0.028963065 0.13752966 -0.09373996 -0.66896874 -0.5079943
0.16062213 0.30072007 0.64430964 1.064417 1.3047153 -0.7757987 -0.16270089 0.27581343
-0.39627582 0.884941 0.38086888 0.2716724 -0.8140065 -0.7606723 0.2787641 0.75280446
-0.095339775 -0.06935286 -0.35221362
00000000: d7ef 57bf ca19 eabe 282b 2dbe 9112 7c3e
00000010: ebac 653e 8b8a 763e 704a 853e c302 c9be
00000020: ffa0 2dbe 6be8 333e 9982 ba3e 7eff 36be
00000030: 0926 923e 5831 923f 2afc 303f 15f4 2a3d
00000040: e47c 35be 166d 29be a4ee 553d a141 6e3e
00000050: 4df8 36be 1755 86be 4e97 893f 1b56 043f
00000060: f33c 26be 3580 77bf f5c2 283e f343 edbc
00000070: 93d4 0c3e bcfa bfbd 8941 2bbf ea0b 02bf
00000080: 217a 243e fbf7 993e 7af1 243f d13e 883f
00000090: e900 a73f be9a 46bf 109b 26be 6b37 8d3e
000000a0: aae4 cabe 7e8b 623f 3f01 c33e a518 8b3e
000000b0: bb62 50bf 6bbb 42bf 2bba 8e3e cbb7 403f
000000c0: 8041 c3bd df08 8ebd 5855 b4be
