model/vae_hd64_ld16_gamma05.pth (torch, 42863 bytes, 10 tensors)

encoder.fc1.weight f4 [64, 51]
00000000: 2c33 373e 23e6 67bc b5e9 c5ba 7228 913d
00000010: 0239 0dbe f9c3 8d3e d404 8abd abc7 973d
00000020: 30da 9b3d 5162 00bd 7b1c 40be d153 34bd
00000030: 5724 cb3d 1b63 9a3d 7759 28be 2d30 2a3d
00000040: f9e8 c63f 268e b9bc 1b78 e23b 808b 753b
00000050: 011b 953d e932 e4bd 57f3 87bc 3b2b f03d
00000060: 9dcf 663e aee5 67bd 2705 0a3d 5226 463b
00000070: 6c27 91bd 32dc 0b3e 7855 843d 2006 4ebd
00000080: 3c50 fc3d c68e 15bd b8b1 e2bd 4129 7e3e
00000090: f170 f0bc 3af3 bfbc 1605 863d 20ad 8d3c
000000a0: 0090 e5bd 6dc9 5e3d 7f69 af3d d6bb e6bd
000000b0: 1a70 5ebe 5051 0e3d 2959 c9bc 45bd adbc
000000c0: 8fd7 4f3d 42e9 57bd 747b f2bc 8e6f a6be
000000d0: a773 ab3d d9ab 88bd cbe0 b5bd 033f 3abd
000000e0: 7e40 8e3c 2151 11be fc23 cd3b 36c3 a23d
000000f0: 25c9 0ebe 80f7 45bd 95cd 48bd 8394 13be
00000100: 75e6 72bd 07df 06bd f575 1dbd 61b4 67bc
00000110: 05d4 c93c 1726 44be 4d41 d7bc 7f0a 693d
00000120: eb87 49be 2f0b 793d 41ae 7d3e 09d1 82be
00000130: dd62 e2bc 44dc 2a3d 83cf f8bd 5b67 b3bd
00000140: b7ab b4bd 665d 12be b3ea 14bd b2db 333d
00000150: 0c9f 11be a7fc 4e3d da81 b7bc 0e2e 0dbe
00000160: c654 82bd fc19 603e 2225 ae3f 5bbf 12bd
00000170: b491 46bd 991c 39bd 17bf b73d 44e6 60bd
00000180: b667 1cbe a64b 96bd fcc5 a5bd 7e0a 14be
00000190: 4472 85bc 0bcc df3a e707 b53e f23e 72bc
000001a0: 341e e1bd 67fb 3fbd ad3b 2c3c 05ff 443e
000001b0: c5de b8bb 9517 6fbd 1dfa 99bd 7f35 a83d
000001c0: 57f0 27bb c311 903b a560 ec3e 8ecc 9bbd
000001d0: 9b5e 7dbe 4de1 8abd b5a5 cfbd c8eb 1b3d
000001e0: 0096 8f3e fdf6 1f3d 0145 ad3d b839 87bd
000001f0: e4fb 9b3d 0640 7e3d 9c62 1abe 7df2 ca3e
00000200: 3c40 abbe 929e f0be dd63 3fbe 6b7e eb3e
00000210: 88f4 f7bd 33c5 02bd 93f9 31be 2532 bebe
00000220: dca6 e6bc 9f7d 0f3e bb41 373d 82cd 993d
00000230: 8275 f73e 7a1e 703d 7b22 f2bd 708b 773d
00000240: dffb e83c 69ce 24bc 239d a5be 1255 c5bc
00000250: 4a2f b63c 275c ebbd 6e92 d43c 23ca 773a
00000260: 1301 273e d6c0 82bd e705 b63d eebd 5fbd
00000270: eb1b 133e a12d 073e 5d62 a1be a165 833f
00000280: ee96 cabd 9be0 c9be e493 273c a8e4 7c3c
00000290: 3686 ba3e b3f8 0fbe f86a 09be 8a36 863e
000002a0: 4a70 a53b 3034 27bd c4d6 af3c 8895 97be
000002b0: d37a 713d 048f 89bd 42af 15be 24cc 30be
000002c0: 4b6a 223f 11b5 0b3f 2f3d 253d fda5 ba3e
000002d0: 6e77 f13c e103 01be fc3d 11bf 29e0 93bd
000002e0: 388a 473e b632 3b3b a302 c0be f9f0 a0bc
000002f0: 9ec0 0c3e 8299 41bd a08e 39bc 9223 c13d
00000300: 526a 47bd 048c d23c 7e35 e3bd 377d e5be
00000310: cb80 cdbd c4d4 e53d 082a d93d c10c c23c
00000320: b6ce 683c d303 fabc 7c77 3e3d d1ff 7b3d
00000330: b51c 2e3f 8dcf c33c 584e 873e 17c0 6f3f
00000340: 93e0 cc3d 51a1 203f bc9c 853e 3935 b2bc
00000350: e282 b33e 03fd 66be a37f 51be 4f85 51bc
00000360: f8de a6be d23f 183e c2a0 d8bd f31b fb3e
00000370: 9de6 0abe bb3c 6dbd 069c 49be 5a8b 16bb
00000380: a0ba aa3d e7bb b93d cbb4 78bd f442 34bf
00000390: 4cff 79be 3607 37be f900 ed3d ce78 e73b
000003a0: 441b 023e ab03 6bbe d84c db3d bd17 b6bd
000003b0: 6a45 1cbf ae33 d8bd c7ee 453f 95f3 45bc
000003c0: f697 b6bd d9eb 98bd 3070 4bbd d603 14bd
000003d0: f3ea 973a 4f7a f9bc 6aab a0be 54a1 da3d
000003e0: ef6a 733d ba94 26be 21a6 03be 4884 7e3f
000003f0: 410c 84be 76c6 a43e 6e91 9cbe 9582 e3bd
0.17890614 -0.01415399 -0.0015099557 0.070877925 -0.13791278 0.27688578 -0.06739202 0.074111305
0.07609975 -0.03134376 -0.18760864 -0.044025246 0.09919041 0.07538434 -0.16440378 0.04154985
1.5539848 -0.02265079 0.0069112903 0.0037467182 0.07280541 -0.11142523 -0.016595526 0.117269956
0.22540136 -0.056615524 0.03369632 0.0030235243 -0.07087597 0.13658217 0.06461614 -0.05029881
0.12319991 -0.036513112 -0.110690534 0.24820425 -0.02935073 -0.02343141 0.06543939 0.017294466
-0.112091064 0.054391313 0.08565044 -0.112662956 -0.21722451 0.034745514 -0.024578648 -0.021208415
0.050742682 -0.052712686 -0.029599883 -0.32506984 0.08371668 -0.06673402 -0.088807665 -0.04547025
0.017364737 -0.14191104 0.006260393 0.0794739 -0.13943918 -0.048331738 -0.049024183 -0.14412121
-0.059301812 -0.03292754 -0.03844257 -0.014142127 0.024637232 -0.19155155 -0.026276255 0.056894775
-0.19680755 0.06080168 0.24773504 -0.25550106 -0.027635032 0.041713968 -0.12148955 -0.08759948
-0.088218145 -0.14293441 -0.03635664 0.04391069 -0.14220828 0.050533917 -0.022400785 -0.137871
-0.063638255 0.21884912 1.3605082 -0.035827022 -0.048478797 -0.04519329 0.08971994 -0.0549071
-0.15273938 -0.073386475 -0.08094403 -0.14457127 -0.016289838 0.0017074359 0.35357592 -0.014785515
-0.10992089 -0.046870615 0.010512275 0.19237907 -0.0056417906 -0.0583721 -0.075184084 0.082133286
-0.0025625431 0.0043966486 0.46167484 -0.07607375 -0.2474312 -0.06781254 -0.10139028 0.038066655
0.28044128 0.039053906 0.08460427 -0.06602806 0.07616404 0.062072776 -0.15076679 0.3963813
-0.33447444 -0.4699598 -0.18690439 0.45994887 -0.121071875 -0.031926345 -0.17380361 -0.37147632
-0.028155737 0.14012764 0.04474042 0.07509901 0.4833184 0.058622815 -0.11822983 0.060435712
0.028440414 -0.010058978 -0.32346448 -0.024088416 0.022239346 -0.11492186 0.02594873 0.0009452423
0.16309004 -0.06384437 0.088878445 -0.05462449 0.14366119 0.13201 -0.31520358 1.026539
-0.09892069 -0.39429173 0.010228131 0.015435375 0.3643052 -0.14059715 -0.13419712 0.26213485
0.0050487863 -0.040821254 0.021464713 -0.2960627 0.058955025 -0.06716731 -0.14617637 -0.17265373
0.6344344 0.5457316 0.040341552 0.36454764 0.029475894 -0.12599136 -0.56735206 -0.072204895
0.1948632 0.0028564162 -0.37502012 -0.019646155 0.13745353 -0.047265537 -0.011325508 0.094306126
-0.04868538 0.02570153 -0.11094187 -0.44822094 -0.10034331 0.112222224 0.1060372 0.023687722
0.01420944 -0.030519402 0.046500668 0.061523262 0.68012553 0.023902679 0.2642696 0.9365248
0.10003772 0.6274615 0.2609614 -0.021753894 0.35060793 -0.22557454 -0.20458846 -0.012788131
-0.32591987 0.14868096 -0.10577537 0.4904476 -0.13564534 -0.057919245 -0.19688424 -0.0022971244
0.08336377 0.09069043 -0.060719293 -0.7041466 -0.24413794 -0.17873845 0.11572451 0.0070639616
0.12705714 -0.22950618 0.10708016 -0.088912465 -0.6104342 -0.10556732 0.7731747 -0.012082
-0.08915703 -0.07466859 -0.049667537 -0.03613647 0.0011590406 -0.03045383 -0.3138078 0.10675302
0.05942815 -0.16267672 -0.12856342 0.99420595 -0.257906 0.32182664 -0.30579704 -0.11108891

encoder.fc1.bias f4 [64]
00000000: b0db 89bd 4de9 60bd fadf c43e 7ecb b33c
00000010: 09c4 e63e 46f3 fd3e 8b9c 2b3e e25c 3fc0
00000020: 6821 963e 4400 16bf 4608 563f 2de5 cfbe
00000030: 9cd4 cebf 8093 59bf 5d98 c23f 7201 873e
00000040: 0164 74bf cf45 03bf 67d5 99bf 0fe6 043f
00000050: 713b 40bf 9f54 ad3a 023a 39be 59e9 0e3e
00000060: 6f4d 613f 56e7 0c3e a2e5 96bf e4ac eb3e
00000070: aaff 8d3e 7036 1bbf 57b0 cabd 36b0 a63f
00000080: db6a 52be 3c47 4b3f a54c 163f ba70 013c
00000090: a3aa 3abf 2ef1 d4be 255a e1be e53e 393e
000000a0: bd1b 863e d90d 1d3f b400 973e be47 cabe
000000b0: da6b 81bf e2b9 603c a2ca 87be 6107 59bd
000000c0: d24d a83e be37 f93e 48fe 3b3f dada 32bf
000000d0: 9c24 2f3f 204d fdbf 20b3 793f b7af 6d3d
000000e0: d966 10bf 9a48 06bf a030 23c0 c47e afbf
000000f0: 3221 a1be b7d6 d23e 470d d1bf 29fc 6cbf
-0.06731355 -0.054909993 0.3845213 0.021947619 0.45071438 0.49599665 0.16758935 -2.990044
0.29322362 -0.58594155 0.83606374 -0.40604535 -1.6158633 -0.8499069 1.5202748 0.2636829
-0.95465094 -0.51278394 -1.201825 0.5191354 -0.750907 0.0013224072 -0.18088534 0.13956203
0.8800878 0.13760123 -1.1788828 0.46030343 0.2773412 -0.6062994 -0.098969154 1.3022525
-0.20548575 0.7940557 0.587107 0.007900411 -0.7291662 -0.41590255 -0.44014087 0.18090399
0.26193038 0.61349255 0.29492724 -0.3950786 -1.0111039 0.013716193 -0.26521784 -0.052985553
0.32871872 0.4867534 0.7343488 -0.6986519 0.68415236 -1.9789162 0.9753895 0.058028903
-0.56406933 -0.5245453 -2.5498428 -1.3710561 -0.3147064 0.4117944 -1.6332177 -0.92572266

encoder.fc2.weight f4 [16, 64]
00000000: 457c 4c3c 85b0 a93c e721 643c 9d00 2f3c
00000010: ae6b 103c b2c0 303c 12d2 a43b 390e 94bc
00000020: b102 0c3c b7b0 b9bc d306 8bbb 08b2 8bbb
00000030: 3f32 dc3b 4508 e0bb 8cb4 90bb 1d8c a13c
00000040: acce c73a 3bda f93b d40e b6ba cba9 87bc
00000050: 8ec8 c83a 1f0c 87b9 3640 8a3c 86a1 31bc
00000060: 7deb 07bc 05e5 9a3c bc10 6a3b 2ebc 10bc
00000070: 501f adba e2ca a5ba 0fab 623b df00 583a
00000080: f619 46bc 1fad 67ba 37e8 7fbc d99e 23bb
00000090: 3fb3 a0bc 84da 1b3a 3d62 52bb 3a19 c7bb
000000a0: b60e 46bb b1ee 06bc 00e7 0c3c b086 293b
000000b0: cdc8 41bc 5c67 00bb 1076 41bc d5d3 5b3c
000000c0: 4f19 383c 5d55 eabb d542 76ba 4f7a 493c
000000d0: a2e3 e2bb 6647 8dbb 7dd5 27bb 3b4c 53bc
000000e0: c4b3 423b 6506 1a3c 0711 6dba 6fe0 7fbc
000000f0: d3bf 6c3c d544 56ba 5466 9d3c 7553 923c
00000100: 97fa 433d d855 0abd 27ef 0fbd 595a a13d
00000110: 6cb9 dc3c aa07 903d c324 57bd 61e7 acbe
00000120: 389f 32bd 1e38 483d 43c3 35bd a685 1c3e
00000130: 3c0a 903c 349a debc 23b5 9d3d 6b4d c53d
00000140: eecf 4dbd 543f 6e3b 551e febd 39c7 4abd
00000150: b355 653d 6b92 793d 9af4 e7bd 93da 683d
00000160: a5fb 0abd 94b9 75bc 68cc 60bd 29f7 033e
00000170: 09ee 313d 3796 723c 7fee 633d 0514 7b3d
00000180: bd07 c2bd 8f05 1e3d bf52 18bc 7289 62bd
00000190: d92f 303c 88c5 03b9 2d82 bf3d e325 7d3d
000001a0: a446 74bd 8f79 c03d 137e fb3a 65b0 87bc
000001b0: 041b abbd 8885 88bd c699 f63d 8062 0ebd
000001c0: 06bd a33d 05d2 3e3d 8e9b a0bc f2b2 1ebe
000001d0: 4ad3 473c e660 79be e7da 393d 4bb1 243c
000001e0: ebd4 b33c 0dfc e43c f626 76be 6038 423e
000001f0: f863 ebbd 8f65 95bb 5c30 a0bc 9ebe f63c
00000200: a6f9 0bbc 4321 963c 8c09 b0bc 5034 9e3c
00000210: 6d8a 253c 0ab7 d3bb 848b a4bb 1ca3 6abb
00000220: a4c6 803b b7d2 78bc 57ca 27bc b3c8 3a3b
00000230: 0016 8a3b 2b19 ff3b 9015 02bc f6cd b93c
00000240: 4fa8 c13b d5dc 58ba b5c3 4f3c 7863 f33b
00000250: 3b69 593b ffa6 09bb 4190 8ebc 1403 76bb
00000260: afcd 0a3c 2a4c 80bb fe33 1b3b 2201 64bc
00000270: 8f77 ac3b 06b2 f2ba 9c44 923b 502a 5ebb
00000280: 046f e1bb ca5c fc3b a3cd e93b f48c 45bb
00000290: 8a29 37bc 975e da3b e07e 803b 3ef0 56bb
000002a0: 496f fa3c 510e 483a bf4b 4f3c 7c47 d0bc
000002b0: 0ab7 32ba ae6a a3ba fa55 0cbc a969 13bc
000002c0: 306a 96ba 113a 7cbc c31c 7bbc 4310 dd3b
000002d0: 57b9 47bc b360 30bc 26cd e33b 25ad e0bb
000002e0: aaf0 42bc 880b 6fbc 1478 8cbb ce38 903b
000002f0: f7d8 8d3c f8c1 5e3c ad85 ccbb 1ecf 34bc
00000300: 44ea d6bc 9965 ac3d cdf0 0f3e 94df 9a3b
00000310: d7a8 bb3c 06c0 cebd f360 d63d 86f2 38bd
00000320: 2580 8a3b 3191 103d ff08 d2bd a835 1f3e
00000330: 7d5e a33d d58d a23d e809 78bc c5f6 e0bd
00000340: bbe2 88bd bc55 fe3b 970a 223d ce20 e6bd
00000350: 3a50 0abe c6a1 6bbd 0327 6abb 5a75 0fbd
00000360: 6b80 923d cacc d3bd 50f7 2c3c fca6 83be
00000370: 2962 173d afda 31bf 0901 29bc 9e46 cf3d
00000380: e52b 05be fb17 3a3b e958 dfbd 5a77 ccbc
00000390: 9bbb 10bd ae45 03bd 2375 283c 02e5 583d
000003a0: 62d7 96bc e367 753d 5565 00be e8a2 ef3d
000003b0: b99d 0a3e 88c4 97bd 11ba 0cbd 0a6b 003e
000003c0: 8797 413d 34d1 633c 234d 973d 3019 53bd
000003d0: 812c 443f 14f4 ebbd 7053 89bd a385 a0be
000003e0: 9816 603d b79d b33e 6fad 1f3b 5c6a 89bb
000003f0: 2f72 843e dfc5 963d 0b54 533d ec64 813d
0.0124808 0.020714054 0.013924099 0.010681299 0.008814735 0.01078813 0.005029925 -0.018073188
0.008545564 -0.022667272 -0.004242757 -0.0042631663 0.006719857 -0.0068369233 -0.004416054 0.019720132
0.0015244088 0.007624892 -0.0013889917 -0.016560456 0.0015318559 -0.00025758237 0.016876321 -0.010841733
-0.008295891 0.018908033 0.003571554 -0.008833928 -0.0013208184 -0.0012648965 0.0034586822 0.0008239876
-0.0120911505 -0.0008837748 -0.015619329 -0.0024966507 -0.019616721 0.0005945342 -0.0032102012 -0.0060760053
-0.003022117 -0.008235619 0.008599997 0.0025867634 -0.01182766 -0.0019592857 -0.011807933 0.013417204
0.011236503 -0.0071512894 -0.0009394114 0.012297227 -0.0069241086 -0.00431149 -0.0025609427 -0.012896593
0.00297092 0.009400939 -0.000904337 -0.015617474 0.014450031 -0.0008173709 0.019213833 0.017862061
0.047846403 -0.033773273 -0.035140183 0.078785606 0.026943885 0.07032712 -0.052525293 -0.33770278
-0.043608874 0.048881643 -0.04437567 0.15285358 0.017583005 -0.02717314 0.07700565 0.09633907
-0.050247125 0.0036353664 -0.12408129 -0.0495064 0.055989932 0.06093065 -0.11325951 0.056849074
-0.033931393 -0.014997859 -0.054882437 0.12887253 0.0434399 0.014806322 0.05564737 0.06129839
-0.09474132 0.03857952 -0.009297072 -0.05530686 0.010753595 -0.0001256672 0.09351001 0.06180371
-0.05963768 0.093981855 0.0019187353 -0.016563604 -0.08354762 -0.06666094 0.12041049 -0.034761906
0.07995038 0.04658701 -0.019605424 -0.1549795 0.012196371 -0.2435337 0.045374777 0.010052036
0.021952113 0.027952218 -0.240383 0.18966818 -0.11493677 -0.004559226 -0.01955431 0.03012019
-0.008543408 0.018326407 -0.021488927 0.019312054 0.010103804 -0.006461029 -0.0050215144 -0.0035802787
0.00392993 -0.015186957 -0.010241113 0.0028500974 0.0042140484 0.0077849827 -0.007939711 0.022681218
0.0059099565 -0.00082726526 0.012680938 0.007427629 0.0033174295 -0.0021004078 -0.01740277 -0.0037538456
0.00847189 -0.0039153295 0.0023682113 -0.013916286 0.005263276 -0.001851619 0.0044637453 -0.0033899732
-0.006879689 0.007701491 0.0071351095 -0.003014383 -0.011179337 0.006664108 0.0039213747 -0.0032797004
0.030570643 0.0007631528 0.012652337 -0.025424711 -0.0006817436 -0.0012467706 -0.00856542 -0.008997359
-0.0011475738 -0.0153947035 -0.015326682 0.0067463233 -0.012190185 -0.010765242 0.006951946 -0.006856578
-0.011898199 -0.014590152 -0.0042867754 0.004401303 0.017315371 0.01359605 -0.0062415213 -0.011035709
-0.026234753 0.08417816 0.14056702 0.0047263596 0.022907658 -0.10095219 0.1046771 -0.045153163
0.004226702 0.035294715 -0.10255622 0.15547812 0.079770066 0.079372086 -0.015139081 -0.109845676
-0.066838704 0.007761685 0.03956088 -0.11236726 -0.13507167 -0.057527326 -0.003572882 -0.035024025
0.071534 -0.10341795 0.010557011 -0.25713336 0.036958847 -0.6947431 -0.010315188 0.10120891
-0.13005026 0.002839564 -0.1090563 -0.024959255 -0.035335165 -0.032048874 0.010281834 0.052952774
-0.01841325 0.059913527 -0.12538655 0.11700994 0.13536729 -0.07410532 -0.034357134 0.12540832
0.04726365 0.013904858 0.073877595 -0.051537693 0.7663041 -0.115211636 -0.067053676 -0.31351957
0.054709047 0.35081264 0.002436485 -0.004193587 0.25868365 0.0736196 0.05159382 0.063180774

encoder.fc2.bias f4 [16]
00000000: 078c edbc 7976 de3e 8067 b53c 4c26 db3d
00000010: d818 ea3b f73a f9bc 6c96 7b3e 2e91 313f
00000020: e357 0e3f 4b31 08bf 136f 11bf 8dfb 05bd
00000030: 8b90 8dba 025d 88bf 6fe2 f0be dc30 f63e
-0.028997434 0.43449762 0.02214408 0.10700664 0.007144075 -0.030423624 0.245691 0.6936215
0.55602854 -0.53200215 -0.5681011 -0.0327106 -0.0010800523 -1.0653384 -0.47047755 0.48084152

encoder.fc3.weight f4 [16, 64]
00000000: dece b23a 511e e7b9 096b 85ba ce7b a5bb
00000010: 849c 4cbb e079 f73a 78d0 2f37 67e2 903b
00000020: a614 1a3b 84a0 3cb9 20bb b4bb 3336 f53b
00000030: aefe 53b9 c4ac 3f3b 20a9 393b e479 f1ba
00000040: 01f4 00bb e16b 043a fd3a 01bb ad1a 24ba
00000050: 8839 5539 36d8 7d3b a509 ffba 54fa caba
00000060: 2590 d3ba cdf3 0d39 a3a0 1bbb aef4 6bbb
00000070: ff22 5e3b e0dc 99b9 82a2 e23b d494 2a39
00000080: 1294 cfba d944 27bb ca4e 4fbb 3fc6 813b
00000090: 786d afbb ea95 4bbb 55a7 afb9 ee61 ce3a
000000a0: c812 943a ed9e 0cba 1cd5 b53b d559 f33b
000000b0: d928 b7ba 6acc cfba e615 1fbc 5987 35bb
000000c0: 797f b6b8 4287 11bc 6b8c a73a ad50 7e3a
000000d0: f774 e83a 0dc5 b1ba eb02 753a bb05 d5ba
000000e0: 9bed e1bb b734 ae3b dfe3 babb 226f b23b
000000f0: 79d2 263b f6b9 44bb 4e1f bb3b 4b8b 99bb
00000100: 0e46 b8bd 46a8 f3bd 2df1 fd3c d6e2 a33d
00000110: 467f 7ebe 10f8 35be ac08 9bbd 486e 363f
00000120: 5618 423e 40a9 1a3c 92fe 9b3d fb4a cb3e
00000130: 4395 88bd 9f9b b4bc 3faf 4cbd 3c93 19bd
00000140: 9b99 493d 2445 49bc e895 cb3d 6ab5 1e3e
00000150: c01b bd3a c26f 91be 63a6 2c3d 703c 11be
00000160: 710b 13bd 69c0 88be 42fc 243d 5d4d 133d
00000170: 9409 51bd 64d7 103d 153c d0bd 65b9 9abd
00000180: 10ec 643d 166c a8bd a6f8 373c af14 38bd
00000190: e821 153e d8c0 fb3d 6117 9c3d 4b0c 0f3c
000001a0: 2763 5bbd a34a 0dbd c122 c7bd f1b5 6abe
000001b0: 7268 26be 0eda d1bd 78f9 f8bc ee24 dd3d
000001c0: 854d f43d 8f4c 6b3d dd56 2abd d1f3 973e
000001d0: d1cd 44bd d8a5 bdbd aef3 c9bd c3e8 88bd
000001e0: 8a8e a3bd 8a49 b5bd c36e 743e 5150 69be
000001f0: e7d5 fcbc 3687 883c 422e a53d 512e 2cbe
00000200: 0b70 8cb9 0b6c 40ba 709a a73a 97f9 62ba
00000210: aa51 dc3b bc2d 1e3b d17f 183b f777 d4bb
00000220: b583 ca3b 5a00 b8bb c2ed 5e38 683b a33a
00000230: de72 76bb c319 94ba 10cc aaba bb38 36bb
00000240: beff 8f3a c8d7 e1ba 422e c23b 5a2e b838
00000250: 3fe0 8b3a b263 5f3b fcb0 f3ba d90e 463b
00000260: 14f0 2cba 6b27 89bb 2431 f6bb b97c 9a3b
00000270: ffdb 36bb 789a 1b3a 949d 1b3b acef 23bb
00000280: e78b d2ba d55f 273b d880 97ba 6279 38bc
00000290: 12dc f3b8 5633 f2b9 da7a 10bb c0a2 a1bb
000002a0: 385c 8b3a c093 b7bb 882c 453c c8aa 1d3c
000002b0: 1246 8abb ab48 b33a 64dd 86bb 4585 bfbb
000002c0: 541f 42bb 7457 a7ba 067f 59bb 394a b139
000002d0: f017 7138 a3cf 753b 2ecf b63a 8d6a 73ba
000002e0: 1967 8bbb 56b9 4f3a 58be 83ba 9371 02bb
000002f0: 4c1f 41bb e602 893a 18dd 85bb a879 823a
00000300: 93f6 7e3c 1fe9 5d3d 952c c2bb 234c a0bd
00000310: bd53 f7bc 0691 c6bc b112 8a3c 4f80 593d
00000320: a9c6 2d3d baab b83c 4ab1 d5bc ddf0 8abd
00000330: 6ee1 773b 2e4f f7bc f8df 00bd a790 a03c
00000340: 6dc1 6e3d 261d 55bd dfc8 91bd be94 71bc
00000350: b8b6 4bbc ab6a 1b3c 5268 833c 631a 243c
00000360: f75b 6b3b eeb8 16bd 7017 843d 725f ba3d
00000370: e248 d23c f0e1 6d3e 6444 bebc 7279 a3bc
00000380: ff9c 433d 48dc f53c 6e11 f2bb 4821 69bd
00000390: c217 a2bd 5c3d fa3c 659f 02bc e3c9 d63d
000003a0: 1076 ffbc eee4 123d 5019 b5bd c7dd 11bc
000003b0: 13cc 91bd f5a8 bcbb bb72 bb3b 3c69 86bc
000003c0: 3507 08bd a620 0c3d f698 353d 1ab5 963c
000003d0: b33b 41be a612 363c b19b 6fbb 022a b7bd
000003e0: 7a71 febc d51a 603d 254f 933d 0537 c1bc
000003f0: 3725 8abd 69cb d33b 221a ea3c a2e7 82bc
0.0013641973 -0.0004408234 -0.0010178994 -0.005050159 -0.003122122 0.0018880926 1.0479351e-05 0.0044215205
0.0023510843 -0.00017988874 -0.005515471 0.0074832677 -0.00020217404 0.0029247263 0.0028329566 -0.0018423167
-0.0019676688 0.00050514756 -0.0019718998 -0.00062600785 0.00020334695 0.0038733608 -0.001945783 -0.001548598
-0.0016140981 0.00013537631 -0.002374687 -0.0036003995 0.003389537 -0.00029347 0.006916345 0.00016267906
-0.0015836975 -0.0025523214 -0.0031632655 0.0039604004 -0.005353626 -0.0031064698 -0.00033503273 0.0015745738
0.0011297101 -0.0005364258 0.0055490863 0.0074264803 -0.0013973966 -0.0015853767 -0.009709811 -0.0027699082
-8.70218e-05 -0.008882346 0.0012782937 0.00097013527 0.0017735054 -0.0013562754 0.0009346443 -0.0016252318
-0.00689478 0.0053163427 -0.005703434 0.005445377 0.0025455041 -0.0030018068 0.005710519 -0.0046857945
-0.08997737 -0.1189733 0.03099879 0.0800225 -0.24853238 -0.1777041 -0.075700134 0.71262026
0.18954596 0.009439766 0.07616915 0.39705643 -0.066690944 -0.022046862 -0.049971815 -0.03749393
0.049218755 -0.012284551 0.09940702 0.15498891 0.0014427826 -0.28405577 0.042150866 -0.14183211
-0.035899583 -0.26709297 0.040279634 0.03596245 -0.051034525 0.035361663 -0.1016771 -0.075548925
0.05588919 -0.08223741 0.011228716 -0.0449416 0.14563715 0.122926414 0.07621647 0.008730958
-0.053561356 -0.034495007 -0.09723426 -0.22920968 -0.1625078 -0.10246669 -0.030392393 0.107980594
0.11928848 0.05744606 -0.041586746 0.29678205 -0.048047844 -0.09260148 -0.09860931 -0.06685021
-0.079861715 -0.08851917 0.23870377 -0.22784545 -0.030863715 0.016666036 0.080654636 -0.16814543
-0.0002678636 -0.00073403184 0.0012787115 -0.00086584076 0.0067236023 0.0024136147 0.0023269544 -0.0064840275
0.0061802515 -0.0056152763 5.3150354e-05 0.0012453618 -0.0037605087 -0.0011299181 -0.0013030786 -0.002780481
0.0010986251 -0.0017230446 0.0059259245 8.782437e-05 0.0010671689 0.0034086523 -0.0018592174 0.0030221252
-0.0006597054 -0.004185607 -0.0075131822 0.004714575 -0.0027902124 0.00059357984 0.0023745047 -0.0025014682
-0.0016063423 0.0025539298 -0.0011558784 -0.011259409 -0.00011628134 -0.00046196085 -0.0022045881 -0.0049327314
0.0010632342 -0.00560233 0.012034543 0.009623237 -0.004219779 0.0013678273 -0.0041157473 -0.0058447444
-0.0029620724 -0.0012767152 -0.0033187284 0.0003381537 5.748117e-05 0.0037507794 0.0013947242 -0.00092855917
-0.0042542336 0.00079240405 -0.0010051234 -0.0019904121 -0.0029468117 0.0010453134 -0.0040851943 0.0009954469
0.015561718 0.0541774 -0.0059257247 -0.07827022 -0.030191297 -0.024239074 0.016854616 0.05310088
0.042425785 0.022542823 -0.026085515 -0.06784222 0.0037823576 -0.030189123 -0.031463593 0.019600226
0.058289934 -0.05202975 -0.07118391 -0.014744936 -0.0124337 0.009485881 0.016040955 0.010016057
0.003591297 -0.036797456 0.06449783 0.09100236 0.025669519 0.2323072 -0.02322597 -0.01995537
0.047757145 0.030012265 -0.0073873317 -0.056916505 -0.07914688 0.030546837 -0.007972573 0.104877256
-0.031184226 0.035862856 -0.088427186 -0.0089029735 -0.07119002 -0.005757446 0.005720464 -0.016407602
-0.03321 0.034210823 0.044335328 0.018396903 -0.1887043 0.011112845 -0.0036561305 -0.08943559
-0.03105997 0.05471309 0.0719283 -0.023585806 -0.067453794 0.0064634574 0.028576914 -0.015979592

encoder.fc3.bias f4 [16]
00000000: 331d bdbb 415d 63c0 b83c bcbb 89cc 94bf
00000010: 9b04 5bbb d9ad 39c0 2db6 13c0 39f3 33bf
00000020: 9234 2cc0 c2a0 aebf feeb 5bc0 ba16 83bb
00000030: 1582 fcbb 2f89 4ebf de26 a6bf a653 f5bf
-0.005771303 -3.5525668 -0.005744543 -1.1624919 -0.0033419493 -2.9012358 -2.3079941 -0.70293003
-2.6907086 -1.3642809 -3.4362788 -0.004000512 -0.0077059367 -0.80678076 -1.2980611 -1.9166152

decoder.fc1.weight f4 [64, 16]
00000000: 2590 e43c 181c b13e cc5b 8bbb dab2 7e3a
00000010: 1de0 65bc 7173 813f 4ede 6d3f 708a 4c3c
00000020: 0b4c 1abf 11da f43c 9690 a4be 8300 b03c
00000030: c4f1 5dbc e0ec 5fbd 9907 4d3e a816 f5bc
00000040: c6ec 013c 0d5d fd3f e58a e539 0a09 b5bd
00000050: 7614 6f3b ab38 7e3e 7205 b73e bb13 b4bd
00000060: db7f 9c3e ab53 9b3e 5ae6 403f 1bfe 8cbc
00000070: 6a3c 4bbc e934 9f3c 7ac1 00be a2a8 d7be
00000080: 5465 533b bcea 9b3e bb0a 2bbc 29d5 76bc
00000090: 6f34 1ab8 3f1a 0840 4ffe 403e 7b41 b6bd
000000a0: 20a2 d03e d42b 6c3d 2feb 90be 22e5 09bc
000000b0: d2c7 9f3b 5bda 83bc b05f 1dbd 0eb3 48bd
000000c0: 9467 d13b 3563 dd3d 2fa4 45bb 83ea 1a3e
000000d0: df30 973b 5c4a 413c 5e84 b9be ca48 fbbc
000000e0: 735a e63c 4711 07bf ce04 73be c77c 903b
000000f0: 7948 67bb f9f1 9f3d 48ba 793d 5387 91bf
00000100: 0879 7eb8 b12f 1740 95c7 7e3c 22fe 003c
00000110: 8890 ec39 7354 58be 51f4 083e 49ef 853e
00000120: 5a69 2c3e 1b3f d63e 0d73 25bf b472 8bba
00000130: effa c5bb 7999 8c3d 771f a7bb 5088 063e
00000140: 0306 253b 97e2 42be 5596 723b ad73 623e
00000150: b6d4 a53b a951 6ebf c321 423f 430a 24bf
00000160: 8a69 69be d1f9 5fbf 7374 a2be be46 aa3c
00000170: 1b3d 21bb cf16 843e 693a 9abe d896 c4bd
00000180: 768a 6abc 62fe a4bf 9a2f b0bb fa14 9c3e
00000190: e46f e7bb b288 30bf 9b7f 4dbd 78b5 3a3e
000001a0: cd8a dcbe 5639 57bd 8e66 97bf 8b41 50ba
000001b0: 83b4 343c f827 31bd f4e5 9f3e a8a7 4e3e
000001c0: 6517 cfbc 09fe 54bf 2ea9 bd3c 0061 063c
000001d0: 0017 2ebc 7b9f f63d 8258 88be f852 3ebf
000001e0: f4ed b3bc 7754 c1be 0a99 19bf 5a28 2abc
000001f0: 3d98 04bb 43f3 e23d cadd c9bb 04c0 c33d
00000200: eac8 2d3c f156 99bf 53bf 2cba 5c6b 9ebe
00000210: ef91 1c3c bd38 31bf 73ac 863e 2711 b6bd
00000220: b120 d0be e6d6 dcbd 8d97 9cbf 7e13 103b
00000230: 9fad 74ba 0737 543e 2756 9bbe ab1a 103e
00000240: 821f 8e3c 77fe 46bf d8a6 a0bc c92b 983d
00000250: 5c5c b9bc 86d9 c83f 4262 cc3e 84a3 e4bd
00000260: a626 7abf 62cf ee3e 7ecb 963e d22e b9bc
00000270: 08d2 2139 f53d 0abe 9727 913e 7683 a3bd
00000280: abd8 ae3c 304b 8dbf dde8 173c b044 88bd
00000290: e01a 6f3c 92a1 dd3e 21b9 fc3e ab4a 14be
000002a0: 1ac6 c23f 79a2 be3e 8987 8f3f 74ba a9bb
000002b0: 34cc baba c15b 5d3d 76f9 a2be c4d3 253e
000002c0: b992 36bc 97f4 adbf cfb1 493c 527a c73d
000002d0: 7dc1 19bc bbaa 52bf 4462 1fbf 5909 303c
000002e0: bfd2 22bf ed8f b3bd 4d00 8ebe a2ca 17bc
000002f0: 6664 913c 12f6 e3bc 42f6 20bd a792 1f3f
00000300: b2ac 223c ae0b cfbd 4f18 3aba b0c9 0b3e
00000310: 407d 283c 93a8 5fbf d8c7 a13e 6642 a73d
00000320: 6e09 4fbf 9a80 42be dba9 873d 6bc9 1c3d
00000330: 2621 4bbc a8a6 1e3d 51ef 85bf 5ad0 5d3b
00000340: bea0 3a3c 44db 2b3f 899a b53c d20f 59be
00000350: 772a b1bb 7f93 003f adcb e0be 2bcc 5cbe
00000360: f871 65bf ccd8 d93d 4da3 853f 0471 423c
00000370: 0481 2e3b 6e4c 023f d898 66bd f272 443e
00000380: 44aa 98bc 0ca1 dcbf 606d 113c 6c89 40be
00000390: 5a42 5fbb 1852 36be 9b56 b1bc 5d69 233e
000003a0: 49d1 173f 57c1 d33e 85be 003e a1fa b93b
000003b0: 7881 6d3c 00fd 303d a447 b63e be6e 833d
000003c0: 0c43 1fbc 2612 1240 6865 c1bb cfc2 c5bd
000003d0: 398a f6bb 53cc f33e 0255 95be a220 d0bd
000003e0: 7fde fe3e f1dd a2be 18e8 803e b4b4 d6bb
000003f0: 8e87 c03a 64a8 713e 0873 65be 2d83 19be
0.027900765 0.34591746 -0.0042528864 0.0009715982 -0.014030484 1.0113355 0.92917335 0.012484178
-0.6027228 0.029889138 -0.3214156 0.021484619 -0.013546411 -0.05466926 0.2002243 -0.02991803
0.007929986 1.9794022 0.00043781768 -0.08839615 0.0036480702 0.24826305 0.35746342 -0.08792826
0.30566296 0.3033727 0.7535149 -0.01721101 -0.012404541 0.01943441 -0.12573805 -0.42120844
0.0032256441 0.30452526 -0.01043957 -0.01506547 -3.6765294e-05 2.126602 0.18847011 -0.08899208
0.40748692 0.057658985 -0.2830443 -0.008416446 0.0048761154 -0.016095331 -0.038421333 -0.048998885
0.0063905213 0.10809938 -0.0030157676 0.15128522 0.00461398 0.011797514 -0.362338 -0.030674357
0.028119301 -0.5276074 -0.23732302 0.004409406 -0.0035291 0.078098245 0.060968667 -1.1369423
-6.067104e-05 2.3622859 0.015550514 0.00787309 0.00045121112 -0.21125965 0.1337445 0.26159123
0.16837063 0.4184502 -0.6462868 -0.0010639043 -0.0060418765 0.0686521 -0.0051001864 0.13137937
0.0025180585 -0.1903175 0.0037015874 0.2211444 0.0050607575 -0.93093354 0.75832766 -0.6407816
-0.22794166 -0.87490565 -0.3172947 0.020785686 -0.0024603072 0.25798652 -0.30122688 -0.09599084
-0.014315238 -1.2890131 -0.0053767683 0.30484754 -0.007062899 -0.6895858 -0.050170522 0.18233287
-0.43074647 -0.052544914 -1.1828172 -0.0007944337 0.0110293655 -0.043251008 0.31230128 0.20181143
-0.02527971 -0.83200127 0.02315196 0.008201838 -0.010625601 0.12042137 -0.26630026 -0.7434535
-0.02196405 -0.37759754 -0.59999144 -0.010385597 -0.0020232343 0.11081555 -0.0061604725 0.095581084
0.010606984 -1.1979657 -0.0006589789 -0.30941284 0.009556278 -0.692272 0.26303443 -0.0888999
-0.40649942 -0.10783176 -1.223375 0.0021984274 -0.0009333733 0.20724116 -0.30339167 0.14072673
0.017349008 -0.7773203 -0.019610807 0.07430226 -0.022627048 1.5691383 0.39918715 -0.11164001
-0.9771522 0.46642596 0.29452127 -0.022605333 0.00015432399 -0.13500197 0.28350517 -0.079840586
0.02134355 -1.103857 0.0092718275 -0.06653726 0.01459381 0.4328733 0.49359992 -0.14481609
1.5216706 0.37233332 1.1213237 -0.0051796976 -0.0014251531 0.05404258 -0.3183095 0.16194063
-0.01114338 -1.3590268 0.012310459 0.097401276 -0.00938451 -0.82291764 -0.62259316 0.010744416
-0.63602823 -0.08767686 -0.27734604 -0.00926462 0.017748069 -0.027827296 -0.03929735 0.6233315
0.009928869 -0.101096496 -0.0007098959 0.13651156 0.010283768 -0.873666 0.3159778 0.08166961
-0.80873764 -0.1899437 0.06624194 0.038278025 -0.01239804 0.038733155 -1.0463659 0.003384611
0.011390863 0.6713145 0.022168415 -0.21197441 -0.0054066735 0.5022506 -0.43905392 -0.21562259
-0.8962703 0.10637054 1.044046 0.011867765 0.0026627192 0.5089787 -0.056298107 0.19184473
-0.018635876 -1.7236648 0.008876175 -0.18802422 -0.0034066648 -0.17804754 -0.021647742 0.15958162
0.5930372 0.41358444 0.12572677 0.0056756292 0.0144962 0.04321003 0.35601532 0.06417607
-0.009720575 2.2823577 -0.005901981 -0.096562974 -0.0075238016 0.47616825 -0.29166418 -0.10162474
0.49779126 -0.31809953 0.25177073 -0.006552303 0.0014688836 0.23599392 -0.22407162 -0.14991446

decoder.fc1.bias f4 [64]
00000000: 7e36 12be 10e1 01bf bb6b 3140 ff24 4f40
00000010: d762 ebbf 3775 0ac0 e386 c53f 4b57 383f
00000020: 9fb6 a33f 639b c2bd e023 b03d 5801 a73e
00000030: e84d 9bbf 2d1a be3f 1974 0540 17ba b1bf
00000040: 129e 3640 03c7 1a40 0dbc ddbf 7127 ba3f
00000050: 7102 4f40 e112 00c0 b31a 8a3e ff43 18c0
00000060: e871 2fbf b4e0 a03f 8c4f 75bf 9689 2040
00000070: f67d 36be bae2 8bbe 1ff3 d83f b740 b33e
00000080: 8785 86c0 5833 0240 d789 a2bf 8b36 b6bf
00000090: f90e a9bf f142 0340 d1c1 ebbe 1dcc f03f
000000a0: c56e cc3f f8eb d6bf ff36 89bf de5a 8abf
000000b0: d8e4 dd3e 19ce 2340 a954 2ebf 9ea3 d83f
000000c0: 4a0c 0dbf 4d76 56bf fd53 6b3f 20a7 e4bf
000000d0: c942 1c3f f7b8 8d3f ca6a 4440 dea5 76be
000000e0: f336 9f3f 517b e83f 4451 a4bf fe75 1b3f
000000f0: 1761 8b3f 63ff d63f 7392 8ebe ba12 b93f
-0.142786 -0.50734043 2.7722003 3.236633 -1.8389539 -2.1634042 1.5431789 0.720082
1.2790107 -0.09502294 0.086005926 0.32618213 -1.213315 1.4851738 2.085211 -1.3884915
2.8533978 2.4183967 -1.7323014 1.4543287 3.234524 -2.0011523 0.26973495 -2.3791502
-0.6853318 1.2568574 -0.95824504 2.5083976 -0.17821488 -0.27321416 1.6949195 0.3501031
-4.2037997 2.0343838 -1.2698315 -1.4235395 -1.3207694 2.0509608 -0.46046308 1.881229
1.5971304 -1.6790762 -1.0719908 -1.080898 0.43338656 2.5594542 -0.6809793 1.6924932
-0.55096877 -0.8377426 0.9192503 -1.7863503 0.61039406 1.1072072 3.069018 -0.24086711
1.2438644 1.8162633 -1.28373 0.60726917 1.0889004 1.6796688 -0.27846107 1.445884

decoder.fc2.weight f4 [51, 64]
00000000: 1a22 4bbe 7c0c 89be 5b32 5fbe 7347 303f
00000010: 6f45 52bf 2729 70be 9aa9 443e 6b61 e0be
00000020: c327 273f 6869 b4bb 0895 5dbd 10dc f0bd
00000030: 6e2b 653e dbbe 29be 79f7 dfbd f7b2 b8be
00000040: 107f 043f 02c4 863e cc39 c73e 3d4f 46bf
00000050: aa7f efbe eee1 213f e4aa 83be a32d 45bf
00000060: 1616 b63c c4ec f93e bf4c 82bd 24e4 d43c
00000070: ca32 733c c9b9 033e 93b5 413e 7f20 6fbe
00000080: 3fa3 0a3f b4f5 a73e e2c9 6dbe e90c 003f
00000090: cbae 813f dc46 76bf 8fae 9ebe 0000 7c3e
000000a0: b3bb 523f e3ef 0ebe c0e0 db3d e5ae 9f3d
000000b0: 04f4 083e a115 20bf 2d8a d5be 0971 f23e
000000c0: 8e48 65bf f093 9fbe ccef e03e 3cd8 e73e
000000d0: f86f 61bf 1ec2 03be d48d 3cbf 0f7d 4dbe
000000e0: 7c48 68be dc5e 9dbe c181 88be 98c1 37be
000000f0: 46e6 cb3c e781 c5bd b6bc 7ebe 75da a73e
00000100: c03a 933e f264 783d 1a05 91bf bffb e1be
00000110: 05fa 22be 7afa 4dbd 339a 8fbd 93bb c7bd
00000120: ba75 823e 7eb9 353d 5673 26be 649c c13d
00000130: 57d8 0f3e 67ce 85be fbe5 d13e 9b2d 373f
00000140: 79d4 073f 2070 e13d adbf 7f3d c608 d0bd
00000150: e169 973f fb22 f13b 0699 55bc 19e9 133e
00000160: f4b5 9ebb d90a 043e 529f b13d 25a7 9f3e
00000170: 329a 95bd 5667 83be 1eb0 053f cb6c 353e
00000180: 4250 35be 36e3 13bf 2745 523e aa90 16bf
00000190: 9f41 52be 28d0 ad3e 3619 bdbc 2194 48bd
000001a0: f68f 87be 5237 113f 62f1 a8bd 78cb 9fbd
000001b0: d011 fb3c aafe 803e e560 28be 2dea 02bf
000001c0: 92b9 88be a950 d0be 42ef 3abe 206f d83e
000001d0: f702 88bc f7ab 55be 6db9 50bf 7ff6 38be
000001e0: f691 993e 9cf8 4e3e 67a9 39bf 25a4 a9be
000001f0: 3ef2 2d3f 1c2e eebe 6734 48be 0328 f8bd
00000200: a2ca 1d3f 7070 19be 18f0 d93e 7166 0cbf
00000210: 2fe0 cd3e 0ff5 813e a445 cf3b 8254 333d
00000220: 447f 19bf 8fba 32bd 4e26 993e 0b2f 88bd
00000230: 98a7 f9be 87ca 38be 9b6a 683d 6a0d af3e
00000240: acb0 2fbf 0564 3f3f 7992 0040 7c32 23bf
00000250: 377e b7bf efbc 9b3e d5a8 11be a7d8 64bf
00000260: 0acc 34be 1c9a 1ebe dd5f a5bd 656f 4d3e
00000270: 92aa 093e dc38 b63d e184 60bc caa7 b8be
00000280: 86eb 623c 85e6 f83e b56e a43e ffbc 273f
00000290: a56d e9be 8048 083e 5532 d3bd c505 26bf
000002a0: 9054 f73d 0306 81bd b319 7dbe 07cd 9cbe
000002b0: 6374 ecbd 2f77 85bf 66d4 7fbe c432 d4be
000002c0: 819a eebe 2654 9dbf 2fcf 463f ee14 883f
000002d0: f78e 833e fe88 373e 23b7 4dc0 1ea2 d93e
000002e0: 1951 41be c577 0a3e beeb 3c3f 647e 393d
000002f0: 91a1 9ebe 740a 1d3f 60f7 163e 8cfb c1be
00000300: 0e70 bd3e 6efa 6abc 10fc 0ebf 5f65 b23f
00000310: 59ae 5d3f 7e19 46be 466b ccbd 8d1c 4cbf
00000320: 470c 233d c52c fcbd 8104 a8be c8bb bcbe
00000330: fbdd e2bd e250 45be 027f b7be 528b 613e
00000340: 33e8 573f 0990 2f3e 9683 b8bd a1f1 8ebf
00000350: 79b1 52be a08f 343e 9cdb bdbe 972b 77bf
00000360: b32e 28be 733f 633f 528e 9b3e 0361 2bbf
00000370: 72ff cfbe 6810 c43e 7f82 0e3c ff1e 18be
00000380: e2ea 03bf fb0f 2dbf af7a d6be 2197 083f
00000390: 3cfa 3a3f eeda f3be a65e ebbe acfb c03f
000003a0: b2dc 663f 2e2e 19be 0e1a d4be 4db8 45be
000003b0: c74c a43e 9e14 75c0 8182 b13d deb7 32be
000003c0: 22a1 b43e 0291 c4be 0c2f d43c 4f9a 943e
000003d0: 06c4 1b3e 0d9a 0ebf 0a3c 63bf a77d 2fbe
000003e0: 4fe3 82bf 22fd 46bb 660b 473e 4bd3 673d
000003f0: ae89 03bf 3ea7 b73e 976b 90be 6263 55be
-0.19837227 -0.26767337 -0.21796553 0.6885902 -0.821372 -0.23453198 0.19205323 -0.43824324
0.65295047 -0.0055057295 -0.054097205 -0.117607236 0.22379848 -0.16576712 -0.109358735 -0.3607404
0.5175638 0.26321417 0.38911283 -0.7746466 -0.46777087 0.63235366 -0.25716317 -0.7702276
0.022227328 0.4881345 -0.063622944 0.025987692 0.014843652 0.1286384 0.18916921 -0.2335224
0.54155344 0.32804644 -0.23221543 0.500197 1.0131468 -0.9620187 -0.30992553 0.24609375
0.82317656 -0.13958697 0.10736227 0.0779703 0.13374335 -0.62533003 -0.41706982 0.47351864
-0.89563835 -0.31167555 0.4393295 0.4528216 -0.88061476 -0.12867019 -0.7365391 -0.20067237
-0.226839 -0.30736434 -0.26661494 -0.17944944 0.024890076 -0.096439175 -0.24876675 0.32783857
0.2875576 0.060643144 -1.1329682 -0.4413738 -0.15915687 -0.0502877 -0.07011833 -0.09752574
0.25480443 0.044366352 -0.16254935 0.09453657 0.14047371 -0.26134035 0.40995774 0.71553963
0.5305858 0.11007714 0.062438656 -0.101579234 1.1829187 0.0073589063 -0.013036972 0.14444388
-0.004843468 0.12894763 0.08672966 0.3118221 -0.07304801 -0.25664777 0.5222186 0.17717282
-0.17706397 -0.5776857 0.20534192 -0.5881449 -0.20532845 0.33947873 -0.02308331 -0.04896939
-0.2647702 0.5672504 -0.08249165 -0.078024805 0.030648142 0.25194293 -0.16443212 -0.51138574
-0.2670408 -0.4068654 -0.18255332 0.42272282 -0.016602976 -0.2086638 -0.8153294 -0.18062781
0.29994172 0.20212024 -0.7252411 -0.33133045 0.6794776 -0.46519554 -0.1955124 -0.12117007
0.6163732 -0.14984298 0.4256599 -0.54843813 0.402101 0.25382277 0.0063254405 0.043781765
-0.59959817 -0.043634947 0.29912037 -0.06649598 -0.48760676 -0.18046008 0.056742292 0.34189922
-0.68628955 0.7476199 2.00894 -0.6374891 -1.4335393 0.30417582 -0.1422456 -0.89393085
-0.1765596 -0.15488476 -0.08074925 0.20062025 0.13443974 0.08897564 -0.013703556 -0.36065513
0.0138500985 0.48613372 0.32115713 0.6552276 -0.45591465 0.13308907 -0.103123344 -0.64852554
0.12076676 -0.06299975 -0.24716835 -0.30625173 -0.115456365 -1.0426997 -0.24983367 -0.4144498
-0.46602252 -1.2291305 0.7765989 1.0631387 0.2569501 0.17923352 -3.2143028 0.42506498
-0.18878593 0.13522251 0.73797214 0.04528655 -0.3098264 0.61344075 0.14742804 -0.37887228
0.36999553 -0.014341934 -0.55853367 1.3937186 0.8659416 -0.19345662 -0.09981398 -0.79731065
0.03980663 -0.123132266 -0.32815936 -0.36862016 -0.11077496 -0.19269136 -0.35839087 0.22025803
0.8433868 0.17144789 -0.09009473 -1.1167489 -0.20575513 0.17632914 -0.3708161 -0.9655089
-0.16424064 0.8876869 0.3038202 -0.66944903 -0.40624577 0.38293767 0.008698105 -0.14855574
-0.5153028 -0.6760251 -0.41890475 0.53355604 0.7303808 -0.47627968 -0.4597065 1.5076804
0.90180504 -0.14959022 -0.41426128 -0.19308586 0.32089826 -3.8293834 0.0866747 -0.17452952
0.35279185 -0.38391882 0.02590134 0.29023978 0.15211496 -0.5570381 -0.8876349 -0.17137776
-1.0225619 -0.0030363281 0.19437942 0.05659799 -0.5138196 0.35869783 -0.28207085 -0.20838693

decoder.fc2.bias f4 [51]
00000000: aae8 8cbf 612f dbbe 579e 75bf 6a61 843e
00000010: 1b3c 0f3f 8930 46bf 0dbc 423e 3140 3bbf
00000020: 6a2d 13be c926 be3e 189e 373f 64b9 1abe
00000030: 314c c13f a0d8 b23f d352 74bf 7b75 c5bf
00000040: d285 01bf 3535 13be 45d9 87be c9de be3e
00000050: a485 1bbe 5375 32bf 3bed debe 2e5c 5f3f
00000060: 74b6 fc3e ccd9 cabe 6fc6 ed3f b1d1 6b3d
00000070: 09e2 1f3e 85c5 883f f649 363e 9c0c 2f3f
00000080: 97bf 0a3e 8ed7 873f ccf3 6b3f ddb9 dc3f
00000090: dfba cc3f 2b5a 963e 7f53 b43e 4edb 00be
000000a0: 1141 9c3f 1cb4 1b3f 43f8 873f 4ce9 833e
000000b0: 51c3 0b40 279f 21bf caf4 223f 5441 aa3f
000000c0: 69e1 8cbf 4969 a73e 3c13 5b3e
-1.1008503 -0.42809585 -0.9594473 0.2585557 0.5595109 -0.7741781 0.19017048 -0.73144823
-0.14372793 0.37138966 0.71725607 -0.15109783 1.5101377 1.3972359 -0.9543888 -1.5426477
-0.5059482 -0.14375766 -0.2653295 0.37279347 -0.15187699 -0.6971027 -0.43540367 0.8725003
0.4935795 -0.3961929 1.8576182 0.057573024 0.1561357 1.0685278 0.17801651 0.68378615
0.13549648 1.0612657 0.9216888 1.7244221 1.5994529 0.29365668 0.35219952 -0.12583658
1.2207357 0.608217 1.0622638 0.2576393 2.1837962 -0.6313347 0.6365477 1.3301187
-1.100629 0.32697514 0.21394056
