model/vae_hd128_ld16_limbpenalty.pth (torch, 81899 bytes, 10 tensors)

encoder.fc1.weight f4 [128, 51]
000000 52 f2 23 3e 53 3c 9d 3c fe e4 b1 3e 0c 94 b1 3c
       0.16010407 0.019193804 0.3474502 0.02167704
000010 47 37 33 3e e1 63 1f 3e 09 be 9f 3d 46 fb c4 3b
       0.17501555 0.15565445 0.07799918 0.0060113994
000020 79 22 a0 3d df 99 04 be 82 14 cc bd ab e7 00 be
       0.07819075 -0.12949322 -0.09964849 -0.12588374
000030 1f fd 48 3c 46 e0 b9 be 69 ed ca 3d bc 59 b1 bd
       0.01226738 -0.3630392 0.09908564 -0.086596936
000040 05 7f 9b bd e4 11 ff bd c9 04 63 3d a8 8b c2 3d
       -0.075925864 -0.12454584 0.055424485 0.094992936
000050 04 18 87 3e d4 90 c7 be e2 73 2d 3f 6c 5c 17 3d
       0.2638551 -0.38977683 0.6775495 0.036953375
000060 9c 4d 4e 3e 0e 46 3e 3e 52 b3 af bd 4f 97 10 bd
       0.20146793 0.18581411 -0.085791245 -0.03530055
000070 b7 85 de bd 5c d3 81 bd 12 23 cf 3c 56 e4 98 bc
       -0.10865348 -0.06339142 0.025285278 -0.018663567
000080 b0 9b 46 be f5 03 a3 3e 3e 74 b1 be e9 9c 1f 3e
       -0.19395328 0.31838956 -0.34658998 0.155872
000090 6e 1f 0e bd 5d 7b 54 3e a9 af 06 3e ca 13 a0 3c
       -0.034697942 0.20750184 0.13152947 0.019540686
0000a0 ad 88 8e 3e 2d 97 af be 89 fb b8 bd 47 d4 cc bd
       0.2783865 -0.34295025 -0.090323515 -0.10001426
0000b0 e7 b5 a1 3d 6b 44 df bd 5b 48 d5 bd 09 ae 82 3c
       0.07896023 -0.109017216 -0.10414191 0.015952127
0000c0 9d a1 d0 3d ba 7c 27 be d0 82 3b be ff 79 df 3d
       0.10187075 -0.16356173 -0.1831162 0.10911941
0000d0 4f 90 8e 3e ba 5e 04 3e 54 65 84 bd 55 a6 7a 3f
       0.27844474 0.1292676 -0.06464639 0.9791005
0000e0 33 3f bc 3c 88 99 32 bc f1 e1 a4 bd b5 be b8 bc
       0.022979354 -0.0109008625 -0.080509074 -0.022551874
0000f0 87 f2 88 bd 7c 71 b0 bd 9c 06 18 3d d3 bc 66 3d
       -0.066868834 -0.086153954 0.03711568 0.05633242
000100 8c 47 25 be 78 b3 13 3e 48 4f 49 3c e6 55 68 bd
       -0.16140574 0.1442393 0.0122869685 -0.056722544
000110 44 ab 64 bd a2 55 4e bd 7b 44 ab bd 0d ec 03 bd
       -0.055827394 -0.050374635 -0.08362671 -0.032207537
000120 aa ca 08 be 00 c7 0f 3d 49 84 4f 3e 1c 91 08 3e
       -0.1335856 0.03510189 0.20265307 0.13336605
000130 82 cb 99 bd af 29 78 3b b3 43 b3 3d 40 2c da bd
       -0.07509519 0.0037866642 0.08753147 -0.10652971
000140 38 3b 31 3d 61 5f 26 bd 79 7d cc bd a6 fa 30 3d
       0.043269366 -0.040618304 -0.099848695 0.043207787
000150 ec a9 82 be 35 b4 de bd b4 1b 8f 3d 96 c1 02 3c
       -0.25520265 -0.108742155 0.06987706 0.007980725
000160 9b b1 fb bd 86 30 de bc e0 4d a0 bc a5 91 5d bd
       -0.12289735 -0.027122747 -0.019568384 -0.054093976
000170 76 eb a3 3c 55 da 81 bd 3c 86 9e 3d 02 4e 36 be
       0.020009737 -0.06340472 0.07740447 -0.17803195
000180 9a 66 18 bd a8 a3 55 bd 35 13 89 bd 63 01 01 bc
       -0.037207223 -0.052158028 -0.066931166 -0.007873866
000190 0f 24 8d bd 7f 3b b6 3d 54 5d 31 be f5 58 b9 3d
       -0.06891643 0.08898067 -0.17320758 0.0905017
0001a0 94 87 15 3e c3 c4 bb 3d 0d 7e ad 3e d1 f7 77 3e
       0.146025 0.09168389 0.33885232 0.24215628
0001b0 85 be be be d7 02 ee bd 73 3b a8 3e 2a 8f 34 be
       -0.3725473 -0.116216354 0.32857856 -0.17632738
0001c0 e0 4e 47 be 13 f2 24 3d bb be a0 be 92 55 1e bd
       -0.19463682 0.040269922 -0.31395516 -0.038655825
0001d0 72 2a 5a 3d 34 46 26 3e 01 c8 0b 3e 62 e2 25 3e
       0.053263135 0.16237718 0.13650514 0.1619964
0001e0 15 80 1c 3d 68 22 89 bd d6 f2 46 3e ff 90 95 3c
       0.038208086 -0.066960156 0.19428572 0.018257616
0001f0 4b 5e a7 be 42 cc 56 3e f9 7d 07 be 7a 15 bc 3e
       -0.32689127 0.20976356 -0.13231649 0.36735135
000200 cd 48 ad be 34 9a 11 bd cd f8 12 bd 4e 91 26 3c
       -0.33844605 -0.03554745 -0.035881806 0.010166479
000210 b1 aa 86 3d 47 c6 d5 bc 43 b2 6c 3e 7f 6d 88 be
       0.065755256 -0.026095523 0.23114876 -0.2664604
000220 31 ed 14 be d8 75 f9 be 39 7f 9a 3e cb 01 56 be
       -0.14543606 -0.4872272 0.30175188 -0.20899121
000230 9b f9 8f 3e eb 1b f5 bc 02 df b3 3e 59 0c 0f bf
       0.2812012 -0.029920539 0.3513108 -0.55878216
000240 62 1e 9c 3d 63 82 35 bd e2 25 10 bf d4 18 60 3e
       0.076229826 -0.0443138 -0.56307805 0.21884471
000250 7d 49 60 3e ef f5 00 bf a2 b1 26 3e f6 18 a3 3d
       0.21903034 -0.50375265 0.16278699 0.07963745
000260 e6 21 e7 bd 16 e9 8b be 95 0f 70 be af 1f 9d 3d
       -0.112857625 -0.27326268 -0.23443444 0.07672059
000270 f4 da 54 be 2f 5e e2 3b cd 94 e0 3e ed be 2c 3e
       -0.20786649 0.0069082 0.43863526 0.16869707
000280 f8 1f 70 be 38 c4 8c 3e 42 d9 3d be 97 c3 69 3b
       -0.23449695 0.27493453 -0.18539909 0.003566956
000290 08 25 91 3e cc 72 47 be c0 9a 07 3d 0f cd ab be
       0.28348565 -0.19477385 0.033106565 -0.33554885
0002a0 1b a5 af 3e 8b f6 b0 3e 09 a7 b8 bc e9 5d c8 be
       0.34305653 0.34563097 -0.022540586 -0.39134148
0002b0 92 e4 5d be 8f 86 c3 3d 90 39 29 be 4c 25 5d be
       -0.21669224 0.095471494 -0.16525865 -0.21596259
0002c0 48 b3 fa bd 7f b9 91 be de bf 98 bd 16 3b 27 be
       -0.122412264 -0.28461835 -0.07458471 -0.16331133
0002d0 70 46 93 be 00 48 d7 3d 47 c4 9f bd 87 32 97 bc
       -0.28764677 0.1051178 -0.07801109 -0.01845671
0002e0 c1 fa 24 3c fc 65 de bd 66 cd 5c be 70 ca 0e 3f
       0.01006955 -0.10859296 -0.21562728 0.55777645
0002f0 6a 1b 66 be f4 8e 9d bc 87 11 36 3d a1 7a 15 3e
       -0.22471395 -0.019233204 0.04445031 0.1459756
000300 cd c3 18 be 12 6d 1b be 5b c3 8b bd 46 31 ce bd
       -0.14918442 -0.15178326 -0.068243705 -0.10067992
000310 1b 7a 95 be b9 b8 a8 bd 5f 29 2e 3f a3 de 15 be
       -0.29194722 -0.08238358 0.6803188 -0.1463571
000320 27 09 d7 bd e0 23 58 bd a7 ac 4d 3d fa 6c 98 3c
       -0.104997925 -0.052768588 0.050213482 0.018606652
000330 c7 30 b5 3d 11 0f 87 be f9 03 3d bd d8 a6 ae bd
       0.08847194 -0.26378682 -0.046146367 -0.08527917
000340 b0 e8 e9 bd 2a e8 ec 3d d3 2a 27 bd f5 00 82 be
       -0.11421335 0.11567719 -0.040812325 -0.25391355
000350 89 6e 55 bd 10 29 7f 3d 1e 21 10 be b7 c1 7a 3e
       -0.052107368 0.06229502 -0.14075133 0.24487959
000360 2f 86 b8 bd ed a4 90 bd 3f c3 ad 3d 1d e6 46 3b
       -0.090099685 -0.07062707 0.08484506 0.003034956
000370 76 b5 11 be 5a 98 74 3d 01 d9 1f 3d d7 f9 2e be
       -0.14229378 0.059715606 0.03902531 -0.17087494
000380 18 60 4f 3e 2c ce a6 bc 51 72 9b be 4c bb 48 bd
       0.202515 -0.020361982 -0.30360654 -0.049006745
000390 74 5a 30 be bc 26 ac be 01 3e b6 bd 36 72 45 bd
       -0.17222005 -0.33623302 -0.08898545 -0.048204623
0003a0 5c 66 82 be 35 c6 48 be 89 46 59 be 1e 5f e4 bd
       -0.2546872 -0.1960686 -0.21218313 -0.11150955
0003b0 65 29 10 bd a6 da 9d 3e 36 8b 00 be f9 71 27 bb
       -0.035195727 0.30830878 -0.12553105 -0.002555011
0003c0 a7 35 8b 3d 4c 3d b5 3f 36 f0 bb bd 1f c0 65 3d
       0.06797343 1.4159331 -0.09176676 0.056091424
0003d0 b0 10 23 be 35 74 20 be c4 be 42 3e 45 d3 5a be
       -0.15924335 -0.1566933 0.19018084 -0.21369655
0003e0 4b 9a 5a be 53 99 4c bb 27 ad 32 be b1 e7 af 3d
       -0.2134792 -0.0031219318 -0.17448865 0.085891135
0003f0 50 b9 8c 3c 48 a2 2f be cc 30 93 bd 2d 43 c3 bd
       0.017178208 -0.17151749 -0.07187042 -0.09534297

encoder.fc1.bias f4 [128]
000000 98 93 25 bf 2b 56 1c 3d ba c0 0a 3e 3e b8 73 bb
       -0.64678335 0.038168114 0.13550082 -0.0037188674
000010 c0 65 94 be 2c 09 bf be 13 e4 15 bd 91 4f 0a 3e
       -0.2898388 -0.37311685 -0.03659446 0.13506915
000020 7d e9 78 bf 4d 2f 0b bf e4 61 56 3e 73 fc 44 3d
       -0.97231275 -0.5436905 0.2093578 0.048092317
000030 8e ca d3 bd d9 b1 1c be 06 58 12 bf 35 75 ab 3e
       -0.103413686 -0.15302218 -0.57165563 0.3348786
000040 1f 78 74 be f8 85 53 3c bf f7 87 be 4b 1e cc be
       -0.23873948 0.012910359 -0.26556203 -0.39866862
000050 33 91 a7 bf fe f4 fc 3d d3 87 cb bd 1f 08 f8 be
       -1.3091186 0.12351416 -0.09938016 -0.48443696
000060 18 bb c7 be f0 b2 18 be 53 55 33 3e 6c 68 22 bf
       -0.3900993 -0.14912009 0.17513017 -0.63440585
000070 e4 52 20 bf 98 2a 39 bf 0a 74 20 bd 40 75 fd bd
       -0.6262648 -0.7233062 -0.039173163 -0.12375879
000080 64 8f 2a be a1 e1 20 be 77 5a b4 be 59 11 3f bf
       -0.16656262 -0.1571107 -0.3522527 -0.74635845
000090 b3 8a 56 be 38 64 9e be 8f bb 01 bf 01 8a a6 be
       -0.20951347 -0.30935836 -0.50676817 -0.32527164
0000a0 64 88 80 be df cd d6 be dd c0 0f 3f 35 83 8e 3e
       -0.25104058 -0.41953942 0.5615366 0.27834478
0000b0 2b c4 b4 be 43 c8 3d 3d 87 34 12 bf b8 00 17 3e
       -0.35305914 0.046333563 -0.571114 0.14746368
0000c0 6c 07 bc be fd 07 e1 bd a0 c3 5f be ea 89 72 3d
       -0.36724412 -0.10987852 -0.21851969 0.059213556
0000d0 b4 72 2e bf 84 2a 66 3e b2 98 d4 3d 3c bc ea be
       -0.68143773 0.22477156 0.10380687 -0.45846736
0000e0 b9 93 37 be dc 56 9e bd e7 22 46 be 2b 14 f3 3d
       -0.17927445 -0.07731411 -0.19349252 0.11869081
0000f0 3b 61 de bc 9c 20 e8 bc 96 b0 52 bf 25 d3 a7 be
       -0.027145972 -0.028335862 -0.823007 -0.32778278
000100 ae 3a 94 bd 19 7d 71 be 9d e7 db be 66 4a f7 3d
       -0.07237755 -0.23582877 -0.42950144 0.12074737
000110 d4 34 ab bc 60 f6 5f be 86 f6 71 3e 75 c3 fe 3d
       -0.020899214 -0.21871328 0.23629197 0.12439624
000120 6c b8 66 be 48 38 7f 3e 72 a8 2c bf 17 09 be 3d
       -0.22531289 0.24923813 -0.6744453 0.092790775
000130 15 b6 48 bf c7 7a 0f bf 43 a7 30 bf b7 83 76 bf
       -0.78402835 -0.5604672 -0.6900522 -0.9629473
000140 5d 03 b8 bc a2 3b 32 bf cf c9 f5 3d bf 9d 7d 3e
       -0.022462541 -0.6962224 0.120013826 0.24767207
000150 89 3e 9b be b9 d0 77 be da cc ef be 13 72 8c bd
       -0.30321148 -0.24200715 -0.46835977 -0.068576954
000160 d9 9b 5a be 13 6b da 3e 30 47 fc 3d 46 d0 74 3d
       -0.21348514 0.42659816 0.123182654 0.059768938
000170 51 ef 8d 3d f1 ef 1b be 2e a3 15 bf 90 7d 5e bf
       0.069304116 -0.15228249 -0.5845212 -0.86910343
000180 c1 59 2b bf 07 d0 02 be a2 0b 43 be 28 c0 d1 bd
       -0.6693383 -0.12774669 -0.19047406 -0.10241729
000190 ce ad 0a 3e d6 10 8d be fd 83 f2 be c3 bc 19 bf
       0.13542864 -0.27551907 -0.47366324 -0.6005365
0001a0 17 ce bc be 4d 71 d7 bd 13 85 16 bf 5d bc 16 bf
       -0.36875984 -0.10519657 -0.58796805 -0.5888117
0001b0 79 69 fa bd b4 83 df bd 26 6a 30 bf 70 4f 8b be
       -0.122271486 -0.10913792 -0.6891197 -0.27209044
0001c0 ea ab db be da 84 f2 be 3b e8 05 bf 08 86 5a 3e
       -0.42904598 -0.47366983 -0.5230748 0.21340191
0001d0 3a 29 9b be c8 fb 81 be 3c 97 2b bf 72 5a 9f 3c
       -0.3030489 -0.25387406 -0.6702764 0.019452307
0001e0 a9 73 f5 3d 94 55 5b 3e c8 7e ff be bf 0b 88 bf
       0.11984951 0.21419364 -0.49901414 -1.0628585
0001f0 f2 04 12 be 76 d5 10 bf 65 ae 2d bf ad a3 0f be
       -0.14259699 -0.56575716 -0.6784423 -0.14027281

encoder.fc2.weight f4 [16, 128]
000000 d5 2b 6e 3d d8 01 4a 3e 88 7d 8c 3d 4b ee ef 3d
       0.05814727 0.19727266 0.06859881 0.11715373
000010 8c e5 52 3c ea b5 96 3d 14 b1 09 3b 90 0a a3 bd
       0.012872111 0.07358916 0.0021010088 -0.07960999
000020 45 ab 1c 3d 68 a3 82 bf 70 d9 cd 3d d2 a1 0c bd
       0.038249273 -1.0206118 0.100512385 -0.03433401
000030 d4 b3 9e 3e 55 67 fc bd f2 60 92 be 01 db c5 bb
       0.30996573 -0.123243965 -0.28589588 -0.00603807
000040 4a cd c4 3a 2a de 90 bd 4e 90 0d 3c 5b 25 bd 3d
       0.0015014794 -0.070736244 0.008640362 0.092356406
000050 a7 da 95 3a 50 5d b2 bd 03 e8 87 bd 59 56 7f 3e
       0.0011432961 -0.08709204 -0.066360496 0.24935283
000060 56 ff bc bc 7c 63 cc ba d1 a0 82 bd cb 8b 71 3d
       -0.023070972 -0.0015593613 -0.063783295 0.058971208
000070 b2 23 57 be f1 5a 14 be d0 b6 10 3d 40 c8 89 bd
       -0.2100971 -0.14487816 0.035330594 -0.06727648
000080 e2 52 85 3e 53 4f 30 bd b3 9c 33 3d 98 da bf 3b
       0.26039797 -0.0430444 0.043850612 0.005854916
000090 34 b3 34 3e 14 3e e0 3d b3 bc 2c 3d f9 05 59 3d
       0.17646486 0.109493405 0.042172145 0.05298421
0000a0 b8 d4 b2 3d 31 9f 86 be 53 23 ae be 3a f6 1b be
       0.08731979 -0.26293328 -0.34011325 -0.15230647
0000b0 54 d3 48 bd 61 39 30 3c 23 24 22 be 66 b7 61 3d
       -0.049029663 0.010755868 -0.15834098 0.055106543
0000c0 ac f4 5f 3d ba d4 44 bc ac 2b e9 3d 37 b2 b6 be
       0.054676697 -0.012013609 0.11385283 -0.35682842
0000d0 d9 af bf 3d 01 71 04 3d 40 3c d9 3e 5d 0c 93 3e
       0.09359712 0.03233433 0.4242878 0.2872037
0000e0 d6 b3 1a bd fc f5 a9 bd bc ae 2b 3d 4e b1 eb bc
       -0.03776916 -0.08298871 0.041914687 -0.028771069
0000f0 7d 31 46 3c 57 ba 45 3e f2 f4 f7 3d 1b 4d f5 b9
       0.01209676 0.19309364 0.121072665 -0.0004678749
000100 a9 5e 06 3d 89 af 18 3e 2e 28 e5 bc 39 ec a1 bc
       0.03280512 0.14910711 -0.02797326 -0.01976596
000110 84 be c7 3d 39 ff b1 3e f0 f7 fe bc b0 bd bc bd
       0.09753135 0.34765032 -0.031124085 -0.092158675
000120 e1 18 44 3d b2 45 a3 bd 12 16 82 be d8 dd ab 3d
       0.04787529 -0.07972278 -0.25407463 0.08391923
000130 77 13 fa 3c e5 96 41 3e 1e 94 2c be 48 5c 63 be
       0.03052686 0.18905218 -0.16853377 -0.22203171
000140 90 89 cd bd 3f 7a b0 3d 52 1f 82 3e ff a9 c5 bd
       -0.100360036 0.086170666 0.2541452 -0.09651565
000150 9d c9 a8 bb 7b 72 9a 3d 8c 75 3d 3d a0 c7 8a 3c
       -0.0051509873 0.07541367 0.04625468 0.016940892
000160 1a 55 cb 3d bb 2a 8e bd 63 82 6e be 70 7a 33 be
       0.09928341 -0.06941744 -0.23291926 -0.17527175
000170 2a 2d ca bd 2a f5 aa bd 05 0a ec 3b 42 32 64 3c
       -0.098718956 -0.083475426 0.007203343 0.013927998
000180 83 7f 97 3d 99 c3 14 be c0 e0 f5 ba 80 c3 85 bc
       0.07397368 -0.1452774 -0.0018758997 -0.016328573
000190 78 e5 f1 bc a5 a9 93 bd 56 58 59 bd bf ad 4e be
       -0.029528365 -0.072100915 -0.05306276 -0.20183466
0001a0 b7 db 48 3e 1e 22 9b 3d 2b a2 f4 bc 8d 2b 0c be
       0.19615065 0.07574867 -0.029862484 -0.13688488
0001b0 b3 ae 45 3e 00 aa a7 3d c3 b9 e1 bc 34 cd 6e 3e
       0.19304924 0.08186722 -0.027554398 0.23320466
0001c0 66 a1 15 be db fe 3b bd 67 2f 91 3c df da 9f bd
       -0.1461235 -0.045897346 0.017722799 -0.07805418
0001d0 7a 78 c5 bc 4f 9d 34 3e 78 6e ba 3c 3b 65 5a 3f
       -0.0241053 0.17638133 0.022757754 0.85310715
0001e0 f4 06 8b 3d fd 08 bd 3d 50 69 be 3d d3 2e a6 bd
       0.067884356 0.0923023 0.092974305 -0.081144
0001f0 97 35 2c 3c 4a 7c f9 3a 4f e4 30 3d ee e7 97 3c
       0.010510824 0.0019034233 0.043186482 0.01854321
000200 ac 1e 87 3d a4 6e 34 3e d1 57 06 3e 8b 09 75 bd
       0.06597647 0.17620331 0.13119437 -0.059823554
000210 d4 1c 4f bd 51 7f 8a 3e 69 cc 33 3d ce 8a 98 bd
       -0.050564602 0.2705026 0.043896113 -0.0744835
000220 1c af c0 3c a6 0d b8 3d 84 21 34 bc 6d fe c8 bc
       0.023520999 0.08986978 -0.010994319 -0.024535382
000230 a9 65 3f 3e 49 8c cd bd c6 bb 8d bd 0d 9d ad be
       0.18691124 -0.10036523 -0.069205806 -0.33908883
000240 50 1a fe 3c 4d 16 74 3c 90 57 eb 3b c8 89 0f be
       0.031018406 0.014897895 0.007182069 -0.14017403
000250 72 b2 d2 bd 3d e8 64 bd b5 d5 3c bd 18 8c 6d bc
       -0.10287942 -0.055885542 -0.046102244 -0.014498733
000260 2b c9 0c bd 98 fd 21 bd b3 d0 bb 3d 80 c4 73 3e
       -0.034371536 -0.039548486 0.091706656 0.23805428
000270 8a 65 0b 3e 1f 0c 1e bc 31 9c 54 3e 64 8b b6 3e
       0.13612953 -0.009646445 0.20762707 0.35653222
000280 c7 5d 70 3d 8a f5 3f bd fa 0f c7 bc f8 b9 0f 3e
       0.058683183 -0.046865024 -0.02429961 0.14035785
000290 bc 0c 87 bd 33 b3 96 bd 1d 02 44 3e 24 13 92 3e
       -0.06594226 -0.07358398 0.19141431 0.28530228
0002a0 e1 71 cc 3b 90 77 18 3c 7a c2 63 be 5f cd 3d 3e
       0.0062391614 0.00930585 -0.22242156 0.18535374
0002b0 d3 13 45 bd ad 06 81 bd fe c4 b9 3d a3 6f e1 3b
       -0.04811461 -0.063001014 0.090707764 0.006879763
0002c0 4b 30 af bd 70 09 c6 bc f9 91 0c be 8f 40 94 3d
       -0.08554133 -0.024174422 -0.13727559 0.07238876
0002d0 0f 39 b9 bd 25 95 65 3d ae 16 1e bc f8 17 13 bd
       -0.09044086 0.05605044 -0.009648962 -0.03591153
0002e0 c7 d0 37 3d 3b 4b 20 bc 8a 9c 2b 3d 0a 1e 0a bd
       0.04487684 -0.009783561 0.041897334 -0.033720054
0002f0 1b 2b 78 3d e1 af 4f bb ec 22 b6 bd 01 c6 64 3c
       0.060587984 -0.0031690525 -0.088933796 0.013963223
000300 c9 90 28 bf 74 9c 08 3e b1 fe 56 3d 75 fc ab be
       -0.65845925 0.13340932 0.052488986 -0.33591047
000310 94 1c 9e bd 40 29 e0 bc 23 1d 6f bd e2 a8 a0 bd
       -0.077202946 -0.02736342 -0.058377396 -0.07844712
000320 4c 77 d9 3b e8 d3 71 bd 06 36 a4 3d b5 40 19 be
       0.0066365357 -0.05903998 0.08018117 -0.1496609
000330 9b 1a 22 be aa 4c 15 3d a6 34 13 3e 51 29 b8 3c
       -0.15830462 0.036450066 0.14375553 0.022480639
000340 85 8e 20 bd a3 e9 5f 3e 56 75 43 3d 68 d4 42 3d
       -0.039198417 0.21866469 0.047719322 0.047565848
000350 2d 1b 79 be 79 b6 dc 3d 54 b7 48 3d c1 60 c2 bd
       -0.24326773 0.107769914 0.04900296 -0.094911106
000360 fd d7 15 3d 4a f0 37 bd 12 9b 8c bd 8d 86 dd bd
       0.036582936 -0.044906892 -0.06865515 -0.10816679
000370 ab 84 eb 3c 41 9f 99 bd 38 4b cc bd a8 85 80 3c
       0.028749784 -0.075010784 -0.09975284 0.015688732
000380 00 8d c9 3b d5 40 61 3d 6a d3 63 3d f0 c2 11 3c
       0.0061508417 0.05499347 0.055621542 0.008896574
000390 2b cd 66 3e 3b a9 67 3d 2c 93 ff 3c 97 92 db bd
       0.22539203 0.056557875 0.031198107 -0.10721319
0003a0 61 e4 11 bd 2d 04 98 bc 67 0d 2c 3e 5c b4 3d bd
       -0.03561819 -0.018556679 0.16801988 -0.046314582
0003b0 6e d5 04 bd 90 a2 9f 3c 7b 31 a1 3e 3c 45 c9 3d
       -0.032430105 0.019486696 0.31483063 0.098276585
0003c0 fa e4 65 bd bb f0 c0 bd 89 28 15 be e8 75 b1 3d
       -0.056126572 -0.09420916 -0.14566244 0.08665067
0003d0 37 97 24 bb a8 ad 26 3d af 17 98 be 19 b7 0f be
       -0.0025114545 0.040692955 -0.2970557 -0.1403469
0003e0 b6 e1 90 3e e2 c0 90 3d 93 1c 3e be b2 a4 9d 3d
       0.28297204 0.070680395 -0.18565588 0.07697429
0003f0 9f e1 02 3e b8 cd 18 3f 17 bb 9a be 07 cc 15 3d
       0.1278138 0.596889 -0.30220863 0.03657153

encoder.fc2.bias f4 [16]
000000 17 10 3c be f8 1b 05 3e b9 3e bd 3a 63 5e 34 3d
       -0.18365513 0.1299895 0.0014438248 0.044035327
000010 f8 28 39 be 30 41 4d bb 44 40 03 bd 80 9b 2e 3b
       -0.18082035 -0.0031319372 -0.03204371 0.0026642978
000020 2e 13 e7 bb 65 9c 1c 3e b2 7d 0b 3e fd eb f4 3c
       -0.007051847 0.15294035 0.13622168 0.029897684
000030 3a 82 af 3e bf d7 85 bc 86 12 ba 3d 37 60 ba 3e
       0.34279042 -0.016338227 0.09085564 0.3640153

encoder.fc3.weight f4 [16, 128]
000000 7b 60 29 3d ac 83 d1 3d c5 4e 1b bd a7 9a f2 3d
       0.041351777 0.102301925 -0.037916917 0.11845904
000010 38 9e 04 3d 85 4e 09 3e dc dc bf bc 57 d5 1a bd
       0.03237745 0.13408859 -0.023420744 -0.037801113
000020 45 e0 ac 3d 66 36 64 3d 08 00 1d 3d 2f 33 db 3b
       0.084412135 0.05571594 0.038330108 0.006689451
000030 67 d3 1f bc 28 69 e6 bd 5d d8 0d bc a4 fb 1c 3d
       -0.009754992 -0.11250526 -0.008657542 0.03832592
000040 e4 c6 80 bd d7 cf 44 3d 60 8c 93 bd c6 c1 33 3d
       -0.062879354 0.048049774 -0.07204509 0.04388597
000050 cb 6c 24 3e b0 41 06 be 80 c0 95 3b 6e 3f bc 3d
       0.16057126 -0.13110995 0.004570067 0.09191786
000060 7f 2a 24 be 86 25 d2 bd e9 d5 93 3d 58 4c 49 3d
       -0.16031836 -0.10261063 0.072185345 0.049145073
000070 74 81 bb 3d 0e 27 1d be f9 e4 56 bd 2e b7 c3 3c
       0.091555506 -0.1534693 -0.05246446 0.023891058
000080 d3 77 82 3e f4 cd 91 bd 26 01 b2 bd 99 33 b0 3d
       0.25482044 -0.071193606 -0.08691625 0.086035915
000090 66 4f 93 3e 95 0f 8d 38 f7 2c 6a 3d 3f 11 3d bd
       0.28771514 6.726306e-05 0.057171788 -0.046159025
0000a0 2b 36 92 3d 92 d9 1e be 64 61 f1 bd 2f 80 d1 bd
       0.07139238 -0.15512684 -0.11786154 -0.10229527
0000b0 76 63 a4 3e 48 2d 3b bd a4 6f 30 be 2c 19 47 3c
       0.32107133 -0.04569748 -0.17230088 0.012151998
0000c0 8d d0 dc bd 3a 58 31 bd 7b 91 09 3d 97 fd 85 bd
       -0.107819654 -0.04329703 0.033586007 -0.06542509
0000d0 c4 3d 80 bd aa 4f c9 3c 49 03 10 be 7d 65 16 bd
       -0.06261781 0.02457412 -0.14063753 -0.03671788
0000e0 89 60 34 3c 94 46 57 bd e7 b5 3c 3c d3 28 98 bd
       0.011009344 -0.052557543 0.011517978 -0.074296616
0000f0 d9 3c 99 3c f8 6a 68 3c 44 6c ae 3d 15 59 4d bd
       0.018705772 0.01418566 0.08516744 -0.050133783
000100 7c bb bf 3c 13 13 8b 3d d0 6b 2f bc f1 e2 c2 bc
       0.02340483 0.067907475 -0.010706857 -0.023789855
000110 ad c7 96 bc 75 ea 6f bd f0 77 8d 3d 9a ed 93 bd
       -0.01840576 -0.058573205 0.06907642 -0.07223053
000120 68 ec 45 bd 1c d0 81 bd cc 4c 83 3e ee 30 cd 3a
       -0.048321158 -0.06338522 0.2564453 0.0015654841
000130 1b 80 cc bc 35 5d 6d 3d 2b af 52 bd e0 39 07 bd
       -0.02496343 0.057950217 -0.051436584 -0.03301418
000140 4c 56 85 bc bc 19 3c 3e da de cd bc 2c ea d6 bc
       -0.016276501 0.18369192 -0.025130678 -0.026234709
000150 d7 f3 fb 3d b2 d9 d6 3c 06 82 6f 3d fc 96 eb 3c
       0.12302368 0.026226852 0.05847361 0.028758518
000160 05 9e a3 bc 90 38 3a bd f1 d9 2f bd 32 67 94 bd
       -0.01997281 -0.0454641 -0.042932454 -0.072462454
000170 3a cf 77 bd 46 c0 f1 bc 4d 85 ac 3c 40 97 2d 3e
       -0.06050036 -0.029510628 0.021059657 0.16952229
000180 e0 bc b7 bc c5 58 e4 bc 1b 12 37 3c cb d3 42 3c
       -0.02242893 -0.02787436 0.01117375 0.011891316
000190 d4 df 21 bd 50 fd 60 bd 2f 1d c6 bd 64 12 fb bc
       -0.0395201 -0.054929078 -0.09673535 -0.030648418
0001a0 6c 65 92 bd 8e 29 c5 3b 57 c6 e5 3d 8e d7 2e be
       -0.07148251 0.0060169166 0.11219471 -0.17074415
0001b0 c5 71 6d 3d f3 31 01 3e 2d 23 81 3c 8a 1b 29 bc
       0.057969827 0.1261671 0.015763843 -0.010321507
0001c0 04 1a 5e be ac 5a 7a 39 d2 47 44 3c 21 13 8b 3d
       -0.21689612 0.00023875636 0.011980014 0.06790758
0001d0 e8 b4 47 bd c3 64 28 3e 30 0c 63 bd 9f 05 7f be
       -0.04875651 0.16444688 -0.055431545 -0.24904488
0001e0 7f 38 4c 3d ab 85 e7 bb 6b f7 4d bd a7 8c 07 be
       0.049858566 -0.007065495 -0.050284784 -0.13237248
0001f0 43 6a 58 bd 4a 7e 12 bd dc 6f e1 3c 2b e7 1d bd
       -0.052835714 -0.03576497 0.027519159 -0.038550537
000200 09 dc 8b bb dc 4f c8 3c 21 86 d7 bd 5f ed 46 3c
       -0.0042681736 0.024452142 -0.1052363 0.012141555
000210 6c d9 de bd f4 ee eb bd c7 ff 01 bd f8 36 b1 bd
       -0.10881314 -0.11520186 -0.03173807 -0.086530626
000220 53 f3 a7 3d 0b a8 9b bd 46 43 a7 bd 9f 79 b0 3c
       0.08200707 -0.07600411 -0.08167128 0.021542368
000230 76 39 0e 3b 22 d9 6d bc a4 65 8d 3d 3b 00 1e be
       0.002170173 -0.0145171005 0.06904152 -0.15429775
000240 4b 71 e5 bd 8d 16 08 bc 06 02 f4 bd 2a 07 dd bd
       -0.112032495 -0.008306158 -0.119144484 -0.10792382
000250 25 f6 a1 3e 07 d0 f9 bd fb 48 13 3d 4a f1 11 3d
       0.31633106 -0.12197881 0.03595827 0.0356305
000260 b1 86 25 bd 95 35 69 bd 71 12 76 3c cd 80 17 3e
       -0.040411655 -0.056935865 0.015019045 0.14795227
000270 c6 03 32 bd 68 09 19 3c 4f 0d 03 be cb 7b 35 3e
       -0.04346063 0.0093406215 -0.12798046 0.17723005
000280 f5 46 d9 bb 5d 08 21 bc d9 42 80 bc 59 26 e4 3d
       -0.006630773 -0.009828654 -0.015656875 0.11140127
000290 56 9e bd 3e b1 8e 3a be d9 b3 3b 39 1a c8 d2 3d
       0.37034863 -0.18218495 0.00017900708 0.102920726
0002a0 9c e1 b0 3c 84 84 5f bd a9 dd 16 bd 87 19 f5 bd
       0.021591954 -0.054569736 -0.036832485 -0.119677596
0002b0 fc 01 11 3e 60 72 d5 bd 59 a7 1d 3d 56 30 75 3c
       0.14160913 -0.10422206 0.038489673 0.0149651375
0002c0 88 b0 1a be da da a2 3c 01 ad 75 3d 13 8e 8e 3d
       -0.15106404 0.019879747 0.059979443 0.06960692
0002d0 02 d0 67 bd fe 66 5a bc 0a 35 76 3d 1d b9 a4 be
       -0.056594856 -0.013330219 0.060109176 -0.3217248
0002e0 b0 d0 06 3e 72 f1 85 bd e9 a1 02 bd 4b 31 99 bd
       0.13165545 -0.06540193 -0.03189269 -0.07480105
0002f0 06 46 5e bd 27 76 0d be a8 c7 fa 3d 7b 44 19 be
       -0.054266 -0.13814603 0.12245113 -0.1496753
000300 66 9d 83 bc 82 28 1c bd 87 90 25 bc d3 46 30 be
       -0.016066264 -0.03812457 -0.010105259 -0.17214517
000310 f3 e5 36 3d cc de 0f 3c 5f a6 b2 3d e9 1f 0d 3d
       0.04465289 0.008781146 0.08723139 0.03445426
000320 94 b2 74 3d 0d df e9 bd 20 f3 12 3b 0e cd a4 3b
       0.059740618 -0.11419497 0.0022422746 0.0050293272
000330 01 10 24 be 52 e3 1c 3d 33 38 17 3e 6d 93 bf 3c
       -0.1602173 0.038302727 0.14767532 0.023385728
000340 1d 6e 8b bd 60 08 1a 3e 88 30 99 bd 55 78 19 be
       -0.06808112 0.15042257 -0.0747996 -0.1498731
000350 f6 f5 a5 bd fc c2 33 3c 88 f9 54 3d 6d b9 aa bd
       -0.08103554 0.010971781 0.051995784 -0.083361484
000360 45 0d 22 3d fd 70 a9 bd 3f d3 d3 bd af 87 74 bd
       0.039563436 -0.08273504 -0.10343026 -0.05969971
000370 b2 14 b3 be 15 f0 c7 bd dc 75 8a bd 89 4d d2 3c
       -0.34976727 -0.09762589 -0.06760761 0.025671737
000380 12 a5 a7 bd 6f 85 36 bd d9 84 dd bd 05 a0 9d 3d
       -0.081857815 -0.044560846 -0.10816354 0.07696537
000390 f0 33 08 bd 34 ec c5 bd ac ee 2f bd 6c 89 b7 3d
       -0.033252656 -0.09664193 -0.042952225 0.08961758
0003a0 1c 1d 1e 3d 2d 44 66 bd 9f fe ee 3d bc 75 68 be
       0.03860198 -0.05621736 0.11669659 -0.22701162
0003b0 f0 07 a9 bd 8a 38 43 3e e8 cf 96 3d f0 50 77 bc
       -0.08253467 0.19064537 0.07363874 -0.015094981
0003c0 23 47 c9 3c 89 4a 8c bc 97 19 3c ba 85 02 da 3c
       0.024570053 -0.017125385 -0.0007175444 0.02661253
0003d0 8f 1d be bb 00 73 c8 3e 14 da d2 bd 7b 0d 05 be
       -0.0058018635 0.39150238 -0.10295501 -0.12993424
0003e0 e2 73 e7 3d e4 1a fd 3c df 6c 43 bd ed e7 5d 3e
       0.113014 0.030896612 -0.04771125 0.21670504
0003f0 b2 58 7d bd d2 8e 48 be e3 d6 37 3e 49 0d 62 bd
       -0.061852165 -0.19585732 0.17953067 -0.05518845

encoder.fc3.bias f4 [16]
000000 23 7b c5 be 3a 43 4b bf a4 d7 8b 39 8c 94 1b bf
       -0.38570508 -0.79399455 0.0002667281 -0.6077354
000010 02 6f 3b bf 15 85 98 bb 51 6d a3 bf 92 9c 10 bc
       -0.7321626 -0.0046545365 -1.2767736 -0.008826392
000020 aa c7 fc bb 12 2d a1 bf 70 bc 84 bf b1 bf f7 be
       -0.0077142315 -1.2591879 -1.0370007 -0.48388436
000030 63 77 b2 bf 27 a3 87 bf ac 80 b8 bf ea b8 9f be
       -1.3942684 -1.0596665 -1.4414268 -0.31195766

decoder.fc1.weight f4 [128, 16]
000000 49 50 e8 bc 1e 91 df 3c 76 a7 ca 3b c5 4d a5 3e
       -0.028358595 0.027290877 0.0061845137 0.32285896
000010 95 66 33 bf 9b 7d c4 bc 40 63 9b 3e 4b 29 19 bb
       -0.700784 -0.023985675 0.3034916 -0.002337056
000020 24 b3 12 3c bf 1e 18 3f 5b ba 81 be fa b8 2d bd
       0.008953843 0.59421915 -0.2533749 -0.042412736
000030 81 dc a4 be b5 ac 34 3e 93 b5 2b 3f 08 f7 42 3e
       -0.3219948 0.17644008 0.67073935 0.19039547
000040 3c 45 85 bd ac f9 6b 3c 67 e3 3a 3b 9e e4 2c 3d
       -0.06507346 0.014402788 0.002851689 0.042210214
000050 05 6b d5 3d d3 b3 54 3c e4 51 8e 3e 35 50 de ba
       0.10420803 0.012982327 0.27796853 -0.0016961159
000060 ad c2 b3 bb 02 05 5f 3e c8 dc 9c 3d 6c 00 0e be
       -0.0054858536 0.21779254 0.07659298 -0.13867348
000070 b9 db de bf 24 3c 94 be ac 5e 01 bf 9c 47 5f be
       -1.7410804 -0.28952134 -0.5053508 -0.2180466
000080 bc ab 63 3d 9d 1e b2 3e ce 1f 07 3c 79 a5 cf bd
       0.0555837 0.3478898 0.008247329 -0.10138983
000090 90 be c2 bd 04 fc 04 bb 2f 6a 41 bf a5 50 72 bb
       -0.09509003 -0.0020291815 -0.7555265 -0.0036974337
0000a0 d9 35 75 3b d7 43 83 3e 5a 1a 03 3e ae 44 73 3e
       0.003741613 0.25637695 0.12803021 0.23756668
0000b0 39 c0 71 be 66 38 03 3e 80 05 b1 bf 5f 23 51 3d
       -0.23608483 0.12814483 -1.3829803 0.051059123
0000c0 ec 31 0d 3d 00 17 87 bd 52 db 3f bc e9 88 60 3f
       0.034471437 -0.06596184 -0.011710005 0.8770891
0000d0 04 ac d7 3d 20 c5 83 3c 71 99 f7 be 3c ff ff 3a
       0.10530856 0.016085207 -0.48359254 0.0019531022
0000e0 05 7a 1d bc 07 17 a9 3e fe 1a 30 3e 11 5b 2d 3d
       -0.009611611 0.3302538 0.17197797 0.042323176
0000f0 61 73 cd 3e fd 3e 46 bd e5 bd 38 bd df dd e4 3c
       0.4012709 -0.048399914 -0.045102973 0.027937828
000100 45 11 42 3e e8 57 45 3e 8e e4 f6 3b 17 86 52 3d
       0.189519 0.19271815 0.00753457 0.05139741
000110 a9 da 04 bc 0d 25 2a 3b 99 49 0f be bd 9e c6 39
       -0.008108773 0.0025962025 -0.13992919 0.00037883772
000120 d6 b3 49 bc 9a 6f 18 be b2 be 08 3d e4 a0 12 3f
       -0.012310943 -0.14886323 0.033384986 0.5727675
000130 d5 2b 74 bf 25 ff b5 3e 1a 97 12 bf c9 5f 8c 3c
       -0.9537938 0.35546222 -0.5726181 0.017135518
000140 d2 1a 4e bd 81 9c 3a 3f a0 f2 ce bb ef 02 9a 3d
       -0.050318547 0.72895056 -0.0063155442 0.07520091
000150 a3 37 05 be 08 0f aa 3c 3d 9b 97 bd 68 c2 57 3c
       -0.13009505 0.02075912 -0.07402656 0.013168909
000160 0b 6e 9e 3c 52 fc bb 3d 3f a2 84 bc 1b da 31 3e
       0.019339582 0.09178986 -0.016190646 0.17368357
000170 d7 9a ac bf f2 45 b5 bd aa a0 49 bf b8 7f 8b bd
       -1.3484753 -0.08851232 -0.7876078 -0.0681147
000180 f8 ea fa 3b 3a 5f 40 3d e2 ce 95 3c 17 1d 9e bf
       0.007657405 0.046965815 0.018287126 -1.2352628
000190 ce 49 9c 3e fb 8b bb 3c b0 b4 41 be bd 56 64 3a
       0.30525059 0.022893896 -0.18916583 0.0008710435
0001a0 e5 90 bd 3c 72 ec cf 3d 35 52 79 bd d2 ab 92 bd
       0.02314038 0.1015252 -0.060869414 -0.071616784
0001b0 72 fb 98 bc e5 08 d0 be c8 57 f9 3d 47 46 8b bd
       -0.018674586 -0.40631786 0.12174946 -0.06800514
0001c0 23 f7 bd 3d eb 81 c7 3d 4e 19 78 bc ec c6 d0 bd
       0.09275653 0.09741577 -0.015142752 -0.10194191
0001d0 d5 c6 db be 6a 43 4d 3b 40 ec 93 3e ee 8e a6 3b
       -0.42925134 0.00313207 0.28891182 0.0050829565
0001e0 20 66 61 3c 07 b9 0a 3e f6 26 d6 3e de 36 d4 bb
       0.013757259 0.13547145 0.418266 -0.0064762672
0001f0 a4 2a bd 3d 30 21 28 bf 64 f8 98 bf a1 22 d3 3d
       0.09236649 -0.6567564 -1.1950803 0.10309339
000200 b5 28 d7 bc fc c2 b4 3e 3b d9 81 bb 5f 12 d5 3d
       -0.026264528 0.3530501 -0.0039626635 0.10403895
000210 35 18 a2 bd 73 76 a3 3c 0c ca 90 3c 0d 50 05 bb
       -0.079147734 0.019953942 0.017674468 -0.0020341903
000220 57 c4 a3 3c 40 e4 98 3e 89 93 3a bf 90 a4 d4 3d
       0.019991083 0.2986164 -0.7288137 0.1038295
000230 a2 7c 8c 3f a6 4e 60 bf 19 40 0f 3e f9 9d 49 bd
       1.0975535 -0.8762001 0.13989295 -0.04922292
000240 d7 90 65 bd cc 73 07 bf ff 82 41 3c c3 1a 82 bd
       -0.056046333 -0.52911067 0.011811017 -0.06352761
000250 ea 53 f8 bd 5a dc a3 b8 f1 a7 de 3d 7a 5c 53 bc
       -0.1212538 -7.813489e-05 0.10871876 -0.012900466
000260 26 37 c1 3b 2b 1b 16 be ae bb cf bb 20 d3 43 be
       0.005896467 -0.14658801 -0.006339512 -0.19123507
000270 ad 76 05 40 05 d5 7c be cf de b1 3e d5 09 71 3d
       2.0853684 -0.24690636 0.34740302 0.058847267
000280 f7 ef 36 be 2c 10 a9 be 16 1b d2 3b 31 97 2b 3e
       -0.17864977 -0.3302015 0.0064119203 0.16756894
000290 0e 6b 99 3d 6a 8a 18 3b 64 c2 02 bd ef 73 c6 bb
       0.07491122 0.002327586 -0.031923667 -0.006056301
0002a0 62 ac 05 bc 9d 3b 8e 3e 15 2d c9 bd 3c 00 05 be
       -0.008158775 0.27779856 -0.09823052 -0.1298837
0002b0 e5 a6 76 bf d4 71 8f be 4d ad 29 3f d6 09 1d be
       -0.9634841 -0.2801653 0.6628006 -0.15335783
0002c0 40 c8 9b bd b3 17 a5 bc 01 6b 40 bc a6 79 e1 be
       -0.07606554 -0.020152902 -0.011744262 -0.44038123
0002d0 45 77 c7 3e de fd 31 bd 70 c5 01 3f 30 3d bf 3b
       0.38958183 -0.043454997 0.5069189 0.0058361515
0002e0 59 c8 f7 3b 22 fb 51 3f c9 39 cf be ad 9e 97 3d
       0.007561725 0.82023823 -0.40473774 0.07403312
0002f0 eb 73 17 3e 88 77 15 3f a9 a0 23 bf 9a 65 02 3e
       0.14790313 0.58385515 -0.6391702 0.1273407
000300 cd cc f3 3c 94 84 ea 3d 9b 13 35 bb 24 3c 19 be
       0.029760743 0.114510685 -0.0027630094 -0.14964348
000310 95 0f f1 3c 7a 85 82 3b a4 8f 55 be 29 6b b0 3b
       0.029426375 0.003983197 -0.20855576 0.0053838682
000320 29 5a f4 3b 21 e6 65 3f 05 05 16 be 04 fe dc bc
       0.007457037 0.89804274 -0.14650352 -0.026976593
000330 1d bf 0f bf 7f 8a 9a bd 1a 87 88 bf ec 97 23 bd
       -0.5615099 -0.07545947 -1.066623 -0.039939806
000340 4c 80 22 be 74 6b e1 be a4 22 78 bb dc 4d f6 3d
       -0.15869254 -0.44027293 -0.0037862444 0.12026569
000350 0c 63 17 be 25 4c e4 bb ad 25 1d bf 4b db 5d 3c
       -0.14783877 -0.006967085 -0.61385614 0.013541053
000360 89 00 f9 bb 3b 08 8d be 54 4a 5c be 7b 42 8e 3e
       -0.0075989407 -0.27545342 -0.21512729 0.27785096
000370 3e ff 08 be 9e 2a c9 3e c7 27 39 be e9 85 cd bc
       -0.13378617 0.39290327 -0.1808158 -0.025088267
000380 ac 37 9b 3d 81 a4 e2 3e 0d 8d 5a 3c 2d c0 e3 bd
       0.07578978 0.44266132 0.013339293 -0.11120639
000390 c6 a5 7c bf ea 80 23 3d f5 97 3c be 96 81 1d 3c
       -0.9869045 0.039917864 -0.18417342 0.009613415
0003a0 48 fe 82 3a 58 db c9 bf dd 97 7c 3e d4 e0 81 3d
       0.0009993995 -1.5770063 0.24667306 0.06341711
0003b0 44 b6 5c be 8b b8 fd be cc 3f 1d 3e 98 c7 04 3e
       -0.21553904 -0.49554858 0.15356368 0.12966764
0003c0 d2 1b 31 bd 0a 47 b6 bc 68 4e c8 bb 84 c3 d3 bd
       -0.043239422 -0.022250671 -0.0061128624 -0.10340026
0003d0 73 51 30 3e 4c fd 8d bc 60 35 3a be a1 3d f3 3b
       0.1721857 -0.017332695 -0.18184423 0.007423118
0003e0 7e fd 31 ba f7 c2 a5 be ea 7d 26 bd d6 fc 7c be
       -0.00067897874 -0.3237531 -0.040647425 -0.24705824
0003f0 97 d9 d2 be be e1 0c bf cf d1 84 bf 38 de 6d bd
       -0.41181633 -0.55031955 -1.0376529 -0.058073252

decoder.fc1.bias f4 [128]
000000 0c e1 00 bc 9a 6f 84 3f 31 e2 29 3f 8d 0e 7e be
       -0.007866155 1.0346558 0.66360766 -0.24810238
000010 87 59 9b 3f 71 df 94 3f 37 cb f3 be 18 05 88 3f
       1.2136697 1.1630689 -0.47615978 1.0626554
000020 0e 64 68 be 61 60 85 bf d9 36 8f 3f fa eb 90 be
       -0.22694418 -1.0420038 1.1188613 -0.28305036
000030 35 37 92 3f 99 a4 ab 3f 8e 63 97 bf ce 85 ba 3f
       1.1423098 1.3409606 -1.1827257 1.4572084
000040 00 1f 4b 3f 8d 0b af 3f d7 2c ac bf 2e f7 25 3f
       0.7934418 1.36754 -1.3451184 0.6483029
000050 70 4c f3 3e 55 53 f6 be 4b 20 98 3f fd 45 96 3f
       0.47519255 -0.48110452 1.1884855 1.1740109
000060 94 65 ae be 14 3d 22 3f 54 28 15 c0 67 d9 c6 3f
       -0.34061873 0.6337445 -2.3305864 1.5535096
000070 38 b2 08 bf f6 21 f6 3d b7 3c 5c 3f 58 96 7b 3e
       -0.5339694 0.12018196 0.86030143 0.2456907
000080 09 fb cb 3f 50 42 f1 bf 1d b9 0b c0 58 9e a1 bf
       1.5935985 -1.8848362 -2.1831734 -1.2626448
000090 1b 5b 56 bf 47 3a 7e bf 1d ca c2 3d e9 45 0a be
       -0.83732766 -0.99307674 0.09511206 -0.13503231
0000a0 36 3a f6 3f ad 33 59 3f e4 4e 16 c0 74 b5 df be
       1.9236515 0.84844476 -2.348565 -0.43693125
0000b0 5f c9 3b bf de f7 f4 3f 3c 2b 8a 3f d0 57 0f c0
       -0.7335414 1.9138143 1.0794444 -2.2397346
0000c0 82 c8 5f bf 7d 67 7f 3f 2b 8d 51 3f a6 c0 b5 bf
       -0.87415326 0.99767286 0.8185603 -1.4199417
0000d0 94 5f c9 be ce fa 98 3f 6f 6c cc 3f b9 ba 32 bf
       -0.39330733 1.195154 1.5970591 -0.69816166
0000e0 55 1e 8c 3f f0 48 3f bf e9 b3 93 be de c6 4b 3f
       1.0946757 -0.7472067 -0.28848198 0.7960032
0000f0 51 a4 a6 3f c2 6f 8e bf 57 51 96 3f 90 4c ac 3f
       1.3018895 -1.1127856 1.1743573 1.3460865
000100 e2 62 f9 be 7c c4 6a bf 32 97 5e bd e2 2e 92 bf
       -0.48708254 -0.9170606 -0.05434341 -1.1420557
000110 90 69 9e 3c 25 8c 8e bf 92 46 91 3f 94 16 f2 be
       0.019337445 -1.1136519 1.1349661 -0.4728285
000120 46 db 1e bf e8 fd 1d bf fa 6a 5e bf c4 25 7f bf
       -0.62053335 -0.61715555 -0.86881983 -0.99667
000130 83 6c 79 3f bb 3f bc bd 0e ca 71 3f 1c b2 7a be
       0.974312 -0.09191843 0.94448936 -0.24482006
000140 d4 09 13 3f 43 b5 32 bf 75 f4 d4 3d 7f d0 6a bf
       0.5743687 -0.69807833 0.10398189 -0.9172439
000150 cc 6e 5f bf b7 0e cf 3f 37 42 26 3f a9 b0 ea 3f
       -0.8727844 1.6176366 0.64944786 1.8335162
000160 61 08 5f bf ba 23 9e be 2f 1c 53 3f a0 e6 30 3f
       -0.8712216 -0.30886632 0.8246488 0.69101906
000170 d6 b5 a7 3f c9 04 11 3e e3 80 0e 3f fa 9f 7b bf
       1.3102367 0.14161982 0.55665416 -0.9829098
000180 82 ac 38 bf a8 89 8c 3e 90 da ed be 98 47 75 be
       -0.72138226 0.27448773 -0.46455812 -0.23953092
000190 59 bc ed be 4e b3 16 bf 71 a8 09 bd 08 fc 7f 3f
       -0.4643276 -0.5886735 -0.033607904 0.99993944
0001a0 04 88 89 bf 0c 5e ad 3f 9a 68 66 bf 09 3f bd 3e
       -1.0744634 1.3544326 -0.9000336 0.36962155
0001b0 29 ed cb bd 96 46 b1 3f 05 8d 95 3f 1a ef 1f be
       -0.09957344 1.3849666 1.1683661 -0.15618554
0001c0 b9 2f 51 3f c6 32 6b 3f e7 68 a4 be e8 7c fe 3e
       0.81713444 0.9187435 -0.32111284 0.4970467
0001d0 3e 97 1e 3f 56 1e 3f 3f 30 c9 76 3e ec fc 8d 3f
       0.6194953 0.74655664 0.24100184 1.1092811
0001e0 bd 6e 82 bd 29 84 2b 3f 5b 5a f0 3f 88 68 8b 3e
       -0.06368778 0.66998535 1.8777574 0.2722819
0001f0 db 64 6d 3f 6d ce 51 3f 97 3e a5 3f c1 22 fb bd
       0.9273202 0.81955606 1.2909726 -0.12262488

decoder.fc2.weight f4 [51, 128]
000000 ea 20 1c bb 95 6a a5 be 66 6d 9f be 53 fd be bd
       -0.002382333 -0.32307878 -0.31138152 -0.093256615
000010 9f d7 23 be 49 b2 c3 3d a9 f0 50 bc 9a 65 bb 3c
       -0.16000222 0.095554896 -0.01275269 0.022875596
000020 fe da 7e bd 28 4c 3e 3e db 1e 5b bd 92 9b 44 be
       -0.062220566 0.18583739 -0.053496223 -0.1919997
000030 3f 11 17 bf e4 e6 31 3e 08 00 05 3e bb 82 01 bf
       -0.5901069 0.17373234 0.12988293 -0.50590104
000040 ba 5f 84 3c 6f fa 4b 3e 2c 2e fc be 4f c1 cd bd
       0.016158927 0.19919752 -0.49253976 -0.10046636
000050 77 ed 8d 3c 25 94 0d 3e 03 14 9b be c8 41 3f be
       0.017325146 0.13826044 -0.30288705 -0.18677437
000060 d6 63 b5 bc 01 f4 1a bd af 54 ad be f1 58 f2 be
       -0.022142332 -0.037830357 -0.3385367 -0.47333482
000070 f2 26 67 3b ac 83 8a bd 9f 16 33 be 8f d1 d9 3d
       0.0035271016 -0.06763396 -0.17489098 0.10635673
000080 1a 05 92 3e 27 1f a0 bf 57 9b 72 bd 02 84 b7 3e
       0.28519517 -1.2509507 -0.059230175 0.358429
000090 9b a7 1f bc 8d 6e 58 be e7 e3 f0 bc 91 ba 9b be
       -0.00974455 -0.21135922 -0.029405547 -0.30415776
0000a0 de 8d 65 be de 0b 4a 3e 5e 8c 43 be 2d 37 65 3e
       -0.224174 0.1973109 -0.19096515 0.22384329
0000b0 8d 2b 0c bd e1 a4 81 3d 68 92 c6 3e 6b fa 5f 3e
       -0.03422122 0.06330276 0.38783574 0.2187287
0000c0 d7 e5 45 bf 0b b3 d4 be 86 d2 d0 3e b4 d4 19 be
       -0.7730383 -0.4154285 0.40785617 -0.15022546
0000d0 85 66 28 3e 87 0f c1 3e cb cc f2 3d 41 8c f6 3d
       0.16445358 0.3770716 0.118554674 0.1203847
0000e0 89 b4 d0 bd f6 6f 46 bc d5 cc 40 be 62 a5 63 bd
       -0.10190684 -0.0121116545 -0.18828137 -0.055577643
0000f0 0c 1a 9c 3e 7b ef a5 bd f6 ee a5 bc d0 e6 02 bf
       0.30488622 -0.08102318 -0.020255547 -0.5113344
000100 0b 09 18 bd 86 f3 9f 3d 80 99 4b bd 62 09 db bd
       -0.037118 0.0781012 -0.049706936 -0.10695149
000110 4a 7e d5 3e bd c5 8b 3e f6 08 95 be d6 3b 39 be
       0.41697913 0.272993 -0.291084 -0.18089232
000120 e4 44 a2 3e 98 52 85 3b 6d c9 a6 3e e1 10 57 be
       0.31693184 0.004068684 0.3257555 -0.21002533
000130 ad 5f 5f 3d 1d e4 56 be 07 b6 44 3d c7 19 04 be
       0.054534603 -0.20985456 0.048025157 -0.12900458
000140 29 04 90 be 3b 27 a3 bd e8 22 c3 bd cb ad 12 bd
       -0.28128174 -0.07966467 -0.09528142 -0.035810273
000150 59 28 4f be 04 ab 0c 3e 38 d3 18 bf 3c ba aa be
       -0.20230235 0.13737112 -0.59697294 -0.3334521
000160 71 88 4e be 11 a9 94 3e 66 b5 9c 3e 34 4e 77 bd
       -0.20169236 0.29035237 0.30607146 -0.060377315
000170 2e 4f 37 3d 50 bf ea 3d e6 8c 49 3a 01 3e f6 be
       0.044753246 0.11462271 0.0007688537 -0.4809418
000180 84 28 4c 3e f4 34 75 3d 72 19 30 ba fa 04 03 be
       0.1993733 0.059864953 -0.0006717659 -0.12794867
000190 d0 3e b5 bc a0 8c fd be 5f 93 1e 3e e0 b9 23 3f
       -0.022124678 -0.4952135 0.15485905 0.639555
0001a0 14 6c 88 3e c1 f9 13 bc 42 2e 20 be 58 54 82 3e
       0.26644957 -0.009031714 -0.15642646 0.25454974
0001b0 dc 18 ca 3d 0a 98 97 3e 80 fc d1 3e d8 cf 8f bd
       0.09868023 0.29608184 0.41012955 -0.07022065
0001c0 43 5b b9 bc df ee f1 bd 1c 20 a0 bd cc 3c 34 be
       -0.022626525 -0.11813139 -0.078186244 -0.17601317
0001d0 6a 06 4c 3d e5 1e a7 3e 60 a0 b0 3c 7d 61 f3 3e
       0.049810804 0.32640758 0.021560848 0.47535315
0001e0 6b b7 aa bc 76 1b eb be f8 cc 99 3e 24 9c 19 3e
       -0.020839414 -0.4591939 0.3003919 0.15000969
0001f0 8a 40 00 3e 5d ad 0a bf d2 64 c5 3e 7a db 32 3d
       0.1252462 -0.5417078 0.38553482 0.04366634
000200 b1 06 18 bb b7 91 f0 bd f4 1d 9f be 91 e2 a0 bd
       -0.0023197348 -0.11746543 -0.3107754 -0.07855714
000210 a3 1e 42 be cb 40 95 3b 3b 0c 75 3d 46 de b9 bd
       -0.18957 0.004554843 0.059826117 -0.090755984
000220 fe 35 ba bd 12 21 af be df 6d 7d 3e 62 bd 69 3d
       -0.090923294 -0.34204918 0.24748944 0.057065375
000230 6e ea b4 be fe d3 2e be 6f cd 8b 3d 5c f6 a3 3d
       -0.35335106 -0.17073056 0.06826293 0.08005974
000240 df b7 d0 bd 35 a0 b5 be a8 5d 70 3d 00 17 64 3e
       -0.10191321 -0.3547379 0.058683068 0.22274399
000250 02 8d 9a bd 11 a9 9e 3e 1f 87 00 3e 1d 44 17 be
       -0.07546426 0.30988362 0.12551545 -0.14772077
000260 1e 1f ac bd 83 51 65 bd 3e 78 9e be 49 23 50 3e
       -0.08404373 -0.05598594 -0.30951113 0.2032596
000270 3b 5c 4f be 07 ea bf 3d 20 89 c5 3e 98 02 31 be
       -0.20250027 0.09370809 0.3858118 -0.17286146
000280 9a 09 8b be 99 2a 64 be 43 dd 62 bf 5e 5e 0f be
       -0.27155763 -0.22281875 -0.8861887 -0.14000842
000290 71 37 b3 bd c2 7b 67 be 8d 22 06 3c 25 54 12 3f
       -0.08750809 -0.22605804 0.0081869485 0.57159644
0002a0 8e db c9 3e b6 24 98 3d 1e 03 cc 3d 6f 19 3e be
       0.3942532 0.07428877 0.09961532 -0.1856439
0002b0 f0 b2 74 3d 85 0c 00 3c 0a 5a 7b bd ef 26 e6 3b
       0.05974096 0.007815485 -0.061365165 0.007023684
0002c0 a5 db 5c bc 28 9e 3b bd 6b c2 a4 3d d9 94 06 3f
       -0.013480102 -0.045805126 0.08044895 0.52570873
0002d0 67 78 81 3c 5d 72 bf 3e 76 c7 8f bd 95 2d af c0
       0.015804483 0.3739194 -0.07020466 -5.474314
0002e0 29 80 77 3d 8e ba 6b 3d cf 9f af be 1e a5 02 3e
       0.060424957 0.05755096 -0.34301612 0.127583
0002f0 0c aa 85 3c 38 da 59 bf f8 9d 60 3e 32 8b 9c bd
       0.016316436 -0.850986 0.2193526 -0.07643737
000300 ac d1 73 3d fa 9c 9e ba 63 64 15 be 9e 30 58 be
       0.05952613 -0.0012101226 -0.14589076 -0.21112296
000310 ae 09 95 3e 01 a3 92 bc ed 0e 3b 3e 41 79 c9 3d
       0.29108948 -0.017899992 0.18267412 0.098375805
000320 16 e9 1b be 5c 1c 0e be d9 37 62 3f 7f e7 e4 bd
       -0.15225634 -0.13878006 0.88366467 -0.11176967
000330 8d b3 f2 bd 04 b6 95 3d 40 9d db 3d d9 65 81 3c
       -0.11850653 0.07310107 0.107233524 0.015795635
000340 5e 4c 18 3e 21 83 cb bd 9f a2 ab bd 3a 45 0c be
       0.14872882 -0.0993712 -0.08380627 -0.13698283
000350 01 43 7b 3d cd f2 55 3c eb b2 d8 bd dc bf b0 3e
       0.061343197 0.0130583765 -0.10581001 0.34521377
000360 7b 48 32 3f 92 51 e9 bd 7c e7 1e bf 60 38 15 bd
       0.69641846 -0.113925114 -0.6207197 -0.036430717
000370 7d 3c 42 be c9 94 91 bd 7f dd 8a bd 33 8d 69 3b
       -0.18968387 -0.07108457 -0.06780528 0.003563714
000380 e5 1f 9d 3e 32 7f 0c 3e 27 79 99 bd bc 61 08 3d
       0.30688396 0.13720396 -0.07493811 0.03329633
000390 0c e4 13 be 15 2d a1 bd 7b 37 86 3e 89 58 80 3d
       -0.14442462 -0.07869927 0.26214203 0.06266887
0003a0 41 da d9 bd 8a 44 c4 bd ba 45 81 bc a3 86 a1 be
       -0.10637332 -0.09583385 -0.015780319 -0.31548032
0003b0 c9 51 30 3e 90 7a 8b bd 21 b1 ee 3d 7b 6a 9e be
       0.17218699 -0.06810486 0.116548784 -0.30940613
0003c0 32 30 3c 3d 68 cc 6d be 8b 7d 9c 3e 2a 46 aa 3e
       0.0459444 -0.23222506 0.30564532 0.33256656
0003d0 59 8c 47 bd 5e 25 1e be 0d 7b be 3e d2 38 17 3d
       -0.04871783 -0.15443942 0.37203255 0.036919422
0003e0 e2 25 34 bd 06 5a 8d 3d 7b 58 c1 be 63 b6 a5 3c
       -0.04398144 0.06901936 -0.37762818 0.02022857
0003f0 88 be 5a be 24 a1 90 3d f7 1f 75 3e 43 9c 36 be
       -0.21361744 0.07061985 0.23937975 -0.17833047

decoder.fc2.bias f4 [51]
000000 68 a3 21 bf b9 aa cb bd 93 ed 24 be 3d 09 eb 3d
       -0.63139963 -0.09944672 -0.16106252 0.114763714
000010 b9 ed af 3e 7d d7 90 bf 04 58 af 3d 25 41 ef be
       0.34361055 -1.1315762 0.085617095 -0.4672939
000020 00 8d 32 be f2 c9 c5 be 96 2b 3b 3d 44 67 3b be
       -0.174366 -0.38630635 0.045695864 -0.18301111
000030 58 4c 76 3f 4d da ea 3e 95 48 b9 bf 84 1e bc 3c
       0.9621024 0.45869675 -1.4475275 0.02296377
000040 07 f9 8a 3b e7 e1 31 be 00 04 a8 be 1f 5b 9c 3d
       0.004241112 -0.17371331 -0.32815552 0.076345675
000050 ad bc 3b be 1f 58 1a bf e1 0a 55 bd 7d 98 02 bd
       -0.18333693 -0.6029071 -0.052012328 -0.031883705
000060 af db b9 be 69 7d 25 bf 9b e7 b9 3f aa e7 2c bf
       -0.36300418 -0.64644486 1.4523805 -0.6754099
000070 7a 98 00 3e 74 ea 92 3f cf e2 d4 be 61 06 25 3e
       0.12558165 1.14778 -0.4157929 0.16115715
000080 b5 fe 26 3e 31 fc 07 3f ce 26 3b 3e 9d 7a fa 3f
       0.163081 0.5311919 0.18276522 1.9568669
000090 2e 1c a2 3f f5 15 c6 3c fd 32 ed 3e 75 96 00 bd
       1.266485 0.024180392 0.46327963 -0.031393487
0000a0 19 66 45 be 37 ba 99 bd b1 de 12 3e a2 b4 c2 3d
       -0.19277228 -0.07506221 0.14342763 0.09507109
0000b0 e4 34 8e 3f de 34 38 3e 34 1e d1 3e 72 3d b1 3e
       1.1109891 0.17988917 0.40843356 0.34617192
0000c0 35 90 cc bd 38 16 39 be 73 9c 9b 3d
       -0.09988443 -0.18074882 0.075982
