model/vae_hd64_ld16.pth (torch, 42767 bytes, 10 tensors)

encoder.fc1.weight f4 [64, 51]
-0.14194764 0.03012531 -0.11122192 -0.026839213 -0.114099994 0.1976899 -0.3481402 0.029294057
-0.042812727 -0.17304514 0.027414778 0.06560637 -0.14183553 0.15908124 -0.1648731 -0.34314775
-0.0121418135 0.06267086 1.6051241 0.0052519278 0.14651498 -0.15297243 -0.15235372 -0.043603294
-0.2948183 -0.079388626 -0.14255688 -0.29482397 0.10179955 -0.037846074 -0.2257766 0.13152267
-0.34225655 -0.06329311 -0.1401165 -0.08345144 -0.19386804 0.019887093 0.12548375 -0.23059842
0.03079917 -0.0651579 -0.33456537 -0.12550795 0.32649198 -0.21475191 0.017994314 -0.04561577
-0.18495995 -0.0040149814 -0.022405958 -0.015305076 0.11493593 -0.017841661 -0.09544864 0.10482267
-0.14360744 0.005430896 0.16671336 -0.090013444 -0.0076470273 0.07372183 -0.14835471 0.018344183
0.15470088 0.17296794 0.054110013 0.11548313 0.115319744 0.025952792 0.05724121 -0.057285547
-0.043305784 0.1984356 0.010805213 -0.008779996 0.3903678 0.1250094 0.011058561 -0.05418298
0.14949563 -0.00596392 0.05160652 -0.16746399 0.034384616 0.22844274 -0.012057799 0.07261048
0.03587001 0.035340916 -0.041413408 0.051733922 0.09766479 -0.010086566 -0.0158044 -0.040000215
0.12711543 0.051634684 0.14573053 -0.008300838 -0.6363465 0.016226115 -0.1970339 0.016016621
0.092150144 -0.14005125 -0.013153478 0.28195104 -0.08685092 -0.091267064 0.110754706 -0.06395469
-0.033826586 -0.013526391 -0.060218725 -0.104560085 -0.018291328 -0.09827474 -0.023791527 0.0639582
-0.1202429 -0.0333281 0.06783039 -0.055122167 -0.11794843 -0.22668259 0.50535876 0.10876926
0.25806618 0.8589709 -0.042353407 -0.41996142 1.0745906 -0.010732068 0.28689197 -0.3020466
-0.05690184 -0.2655537 -0.11228118 -0.022329751 0.14658411 -0.014039612 -0.08156037 -0.08453594
-0.10078604 -0.21978188 -0.32199752 0.027094796 -0.0050200974 0.12973815 -0.06707729 -0.025030214
-0.05256006 0.5258214 0.06840579 0.1162141 0.034369066 0.3421945 0.2673126 -0.06942447
0.023819068 -0.124438964 0.058276273 -0.043249533 0.06665364 0.29503697 -0.1227292 -0.31775355
-0.037136707 -0.1016981 -0.013655902 0.041391987 0.06680152 0.032412257 0.3959801 0.26676688
0.13825756 0.42659563 0.22189863 -0.044951297 0.030854477 0.11507703 -0.1292135 -0.09094966
0.07175685 -0.062612094 0.0052668573 -0.34046072 0.5323025 -0.12886652 -0.15306973 -0.12991707
-0.13477176 -0.04228772 0.034826912 -0.36757183 0.43291125 -0.60286766 0.108024664 0.12820178
-0.18634138 0.035842735 -0.10296676 -0.11918065 -0.44536993 -0.045937944 -0.09172606 0.10036882
-0.09868382 -0.007894771 -0.13993336 -0.021516938 -0.028849795 -0.1307772 0.07199071 -0.021447843
-0.5477085 -0.022548063 -0.14152196 0.06864201 0.0068224412 -0.023396946 -0.06179956 -0.028909566
-0.031856585 -0.13931465 0.08483217 0.34220874 -0.7360012 0.050192036 0.39039922 -0.12525764
-0.16102439 -0.21959656 -0.10954243 0.06111677 -0.10483077 0.07995279 0.2895187 0.07296449
0.29930398 0.18425736 0.18428476 0.33630514 -0.056915693 -0.2892082 0.03630285 -0.13695809
-0.22756258 -0.0073816925 0.10463517 -0.060023755 -0.19345273 -0.0050158743 -0.18989304 -0.10146864
00000000: b95a 11be 5bc9 f63c 51c8 e3bd e9dd dbbc
00000010: 42ad e9bd 396f 4a3e 6f3f b2be 17fa ef3c
00000020: 665c 2fbd bf32 31be f594 e03c a25c 863d
00000030: 553d 11be 31e6 223e 7ed4 28be 10b1 afbe
00000040: 75ee 46bc 9459 803d b574 cd3f 5d18 ac3b
00000050: 0608 163e cea4 1cbe 9d02 1cbe 5e99 32bd
00000060: 6df2 96be 8196 a2bd 6efa 11be 2bf3 96be
00000070: 487c d03d 7c04 1bbd fb31 67be e1ad 063e
00000080: 403c afbe d19f 81bd b37a 0fbe 97e8 aabd
00000090: 5885 46be 42ea a23c d07e 003e fe21 6cbe
000000a0: 8a4e fc3c 8171 85bd 274c abbe 2885 00be
000000b0: f529 a73e ede7 5bbe d068 933c 9ad7 3abd
000000c0: 2466 3dbe 1b90 83bb b38c b7bc 24c2 7abc
000000d0: 8763 eb3d ad28 92bc 947a c3bd 45ad d63d
000000e0: d40d 13be a8f5 b13b e8b6 2a3e f858 b8bd
000000f0: ea93 fabb 79fb 963d 4cea 17be 8a46 963c
00000100: e869 1e3e 821e 313e 76a2 5d3d 6b82 ec3d
00000110: c22c ec3d f39a d43c c275 6a3d 40a4 6abd
00000120: 6861 31bd b432 4b3e 5908 313c f9d9 0fbc
00000130: 4ade c73e 7702 003e f72e 353c f9ee 5dbd
00000140: 6215 193e fd6c c3bb 5c61 533d ae7b 2bbe
00000150: e2d6 0c3d e5ec 693e 138e 45bc ceb4 943d
00000160: 6eec 123d a3c1 103d 1ba1 29bd f3e6 533d
00000170: 7a04 c83d 2042 25bc 3b78 81bc 44d7 23bd
00000180: 8c2a 023e e47e 533d 623a 153e 3d00 08bc
00000190: 9be7 22bf a1ec 843c 41c3 49be 4a35 833c
000001a0: 37b9 bc3d 9869 0fbe af81 57bc e35b 903e
000001b0: e5de b1bd 3aea babd 5dd3 e23d adfa 82bd
000001c0: bf8d 0abd cc9d 5dbc e9a7 76bd 9923 d6bd
000001d0: b2d7 95bc 4444 c9bd 73e6 c2bc 84fc 823d
000001e0: e941 f6bd 0c83 08bd a9ea 8a3d c8c7 61bd
000001f0: f28e f1bd 7b1f 68be 315f 013f 6bc2 de3d
00000200: 4021 843e 84e5 5b3f c47a 2dbd 2f05 d7be
00000210: 2f8c 893f 8ed5 2fbc 81e3 923e daa5 9abe
00000220: e711 69bd a8f6 87be adf3 e5bd e2ec b6bc
00000230: 251a 163e 6706 66bc 2009 a7bd 2e21 adbd
00000240: e968 cebd 800e 61be dcdc a4be e8f5 dd3c
00000250: a17f a4bb 14da 043e d15f 89bd 2a0c cdbc
00000260: 3849 57bd 3b9c 063f 5618 8c3d a801 ee3d
00000270: 94c6 0c3d 1e34 af3e 32dd 883e 6b2e 8ebd
00000280: 3520 c33c dbd9 febd 1ab3 6e3d 6c26 31bd
00000290: b481 883d 160f 973e 7259 fbbd 98b0 a2be
000002a0: a91c 18bd 1847 d0bd 01bd 5fbc a58a 293d
000002b0: 3ccf 883d b7c2 043d e7bd ca3e ab95 883e
000002c0: 6493 0d3e be6a da3e 6539 633e da1e 38bd
000002d0: 87c2 fc3c 82ad eb3d 8b50 04be d143 babd
000002e0: 41f5 923d c53a 80bd 9a95 ac3b de50 aebe
000002f0: fa44 083f 96f5 03be 50be 1cbe fb08 05be
00000300: 9c01 0abe e335 2dbd aaa6 0e3d 6032 bcbe
00000310: 8ba6 dd3e 8955 1abf 093c dd3d 5447 033e
00000320: 46d0 3ebe d5cf 123d 3de0 d2bd fc14 f4bd
00000330: 8707 e4be 6d29 3cbd dfda bbbd 2b8e cd3d
00000340: be1a cabd 1259 01bc b14a 0fbe 4a44 b0bc
00000350: 6856 ecbc 75ea 05be de6f 933d 63b3 afbc
00000360: a036 0cbf b7b6 b8bc 22eb 10be 2f94 8c3d
00000370: c98e df3b f4aa bfbc 8921 7dbd c1d3 ecbc
00000380: 0d7c 02bd 80a8 0ebe 7dbc ad3d fc35 af3e
00000390: 936a 3cbf 2a96 4d3d 68e2 c73e 8a43 00be
000003a0: 94e3 24be ecdd 60be c857 e0bd 9455 7a3d
000003b0: 84b1 d6bd 4abe a33d cc3b 943e 686e 953d
000003c0: 5f3e 993e f6ad 3c3e 25b5 3c3e 3030 ac3e
000003d0: 6e20 69bd 1913 94be 4cb2 143d be3e 0cbe
000003e0: 2a06 69be 20e2 f1bb f74a d63d 78db 75bd
000003f0: 7918 46be 345c a4bb 5273 42be cace cfbd

encoder.fc1.bias f4 [64]
-0.8525671 0.29654893 0.8591693 -0.0011799606 -0.72644377 0.47338343 -0.58433855 -0.80020195
-0.11825329 0.60482484 0.32418472 -0.28081852 -0.82821083 -2.5367033 -0.11077807 -0.01563817
-0.98132616 -0.96501017 1.2446685 1.1102159 0.24269114 0.41211125 -1.4708248 -0.06909584
0.28308696 -1.0372496 0.29225218 0.6937189 -0.41990778 -2.4254198 0.12938277 -0.43510914
-0.3509417 -0.68089706 -0.05421212 0.07201652 0.2868882 -0.009217683 0.38193956 -0.3268845
-1.0506853 0.37930048 -0.28478566 0.6573911 -1.1182058 0.03399223 0.3805557 -0.5296439
0.40091243 -0.13319495 -0.21297602 0.63250434 -0.36188778 0.31761205 0.070539035 -0.16018668
-0.49718884 0.12669893 -0.43483064 0.2046171 -0.59194756 -0.95197904 -0.6984095 0.22998187
00000000: d641 5abf 43d5 973e 85f2 5b3f e8a8 9aba
00000010: 38f8 39bf 505f f23e 3697 15bf 09da 4cbf
00000020: c82e f2bd cdd5 1a3f 8afb a53e 72c7 8fbe
00000030: a005 54bf 5959 22c0 9ddf e2bd 9f1b 80bc
00000040: 3138 7bbf e80a 77bf 4c51 9f3f 8e1b 8e3f
00000050: 0784 783e 3f00 d33e fd43 bcbf 1f82 8dbd
00000060: c6f0 903e 98c4 84bf 14a2 953e 9097 313f
00000070: 27fe d6be 143a 1bc0 eb7c 043e a0c6 debe
00000080: a1ae b3be 454f 2ebf 870d 5ebd 667d 933d
00000090: 03e3 923e c405 17bc 958d c33e 685d a7be
000000a0: db7c 86bf ac33 c23e 6dcf 91be c84a 283f
000000b0: 5e21 8fbf 703b 0b3d 32d8 c23e be96 07bf
000000c0: 6544 cd3e 4264 08be 6316 5abe ceeb 213f
000000d0: 5b49 b9be 0c9e a23e c576 903d fa07 24be
000000e0: 898f febe 5dbd 013e 1fa2 debe 2587 513e
000000f0: e089 17bf e6b4 73bf f7ca 32bf 5e80 6b3e

encoder.fc2.weight f4 [16, 64]
-0.010719847 0.114262395 0.044371486 -0.041649327 0.062421538 0.5370087 0.025921484 -0.06754352
0.06860242 0.18926218 -0.08647299 -0.07411258 -0.0064802757 -0.056994744 0.027338145 0.15682997
-0.5432218 0.10161261 -0.14894605 -0.00037569366 0.048584674 -0.074321546 -0.04687538 -0.16595608
0.00022649679 -0.01903542 0.016385386 -0.0042553064 0.64138544 0.028156824 -0.046332136 0.36487195
0.019243063 -0.0036314225 0.1291184 -0.064817116 -0.027380442 0.09774079 -0.26897934 -0.12776817
-0.10645933 0.0093658585 0.07519317 0.13131933 0.14508712 0.014741877 0.046046704 -0.008321684
0.113314636 -0.0062637986 0.011050553 -0.6780114 -0.060155775 -0.18040581 -0.03001661 -0.060369305
0.01865256 0.0011596999 0.09459444 -0.02189693 -0.099949926 -0.08527893 -0.114686206 -0.27046025
0.102010384 -0.07300723 0.05505092 0.04938359 -0.03533468 -0.039113734 0.13212493 0.044293523
0.12185083 0.03684487 -0.070536 -0.092301436 -0.07413868 -0.43018353 0.10520668 -0.030207746
0.033899955 0.04325027 0.09424865 0.009329417 0.015124335 0.010725492 -0.2134395 -0.009050253
0.012860201 -0.1282556 0.0006407668 0.06581866 0.04390513 -0.3006658 0.08350054 -0.0101398425
0.113424264 -0.019896694 -0.06379799 -0.031131804 -0.05188414 0.05483194 0.029750742 -0.02811963
0.00043125098 0.058680117 -0.047558773 0.10572307 0.031131506 -0.080172986 0.09531125 -0.0060600927
0.10922474 -0.08299423 0.038245134 -0.055124678 0.13208745 0.061154563 -0.033697046 -0.01703571
0.03330739 -0.10359296 0.0133750895 0.07788219 0.044976637 -0.06865307 0.06467064 0.033468653
-9.6892385e-05 -0.01714304 0.018223777 0.0076915044 0.00035933638 0.012124435 0.0021995956 0.023264455
-0.02079166 0.006480905 -9.823733e-05 0.018364357 0.0074070334 -0.0041120285 0.017506411 -0.0039704754
-0.010627443 -0.0047995877 -0.010703123 -0.0124742715 0.011559716 -0.011364181 0.0036613266 -0.009564193
0.009861107 0.02030861 -0.009110654 0.0068884324 -0.018060606 -0.00068862113 0.019280879 -0.0010957909
0.001253356 0.0119284745 0.019690277 0.006060523 0.005110175 0.013121941 -0.0039788606 0.008413568
-0.014028567 0.013264308 0.00495136 -0.01131092 -0.013924274 -0.008002639 -0.010434644 -0.0012925871
0.013642906 0.0075962804 -0.0067455196 0.023742953 0.0058249263 -0.004337156 0.0027476777 -0.0010831715
-0.0038498044 -0.014961732 0.0024924655 0.00059629173 0.008473921 -0.004017054 -0.011609639 -0.0037662028
0.0039777393 -0.0036032526 -0.019774733 0.018119948 -0.0074350284 0.0068535935 -0.0077885888 0.009526335
0.00015557445 0.005228924 -0.015793905 -0.0066841785 0.015311373 -0.0048581744 -0.017632725 0.008574189
-0.014320239 0.015936539 0.0054124966 0.0071637547 -0.011268402 0.0039118705 0.0020999622 -0.0030117645
-0.0047180904 -0.016218506 0.01544026 0.028206974 -0.012347046 0.011905858 0.0017729942 0.0050006304
-0.008019125 -0.0059485864 -0.016195156 -0.005953027 0.0026479133 0.014144747 0.008020931 -0.001206145
-0.0026295134 0.0002248979 -0.00072564423 0.013539664 0.007899857 0.013401638 0.014052449 0.00069283857
0.017667003 -0.021668136 -0.002846262 0.012925588 -0.008409418 0.006937301 -0.0008584612 0.0035033503
0.012813102 -0.010584767 0.00922397 -0.0006849513 0.016432894 -0.009840816 -0.011154922 -0.019045778
00000000: 4ca2 2fbc 6702 ea3d e0be 353d 7c98 2abd
00000010: baad 7f3d 6779 093f 4b59 d43c 4254 8abd
00000020: 6d7f 8c3d f2cd 413e c018 b1bd 56c8 97bd
00000030: 7e58 d4bb 5273 69bd 3ff4 df3c 0998 203e
00000040: 9510 0bbf 461a d03d 5085 18be c0f8 c4b9
00000050: b900 473d e535 98bd 6600 40bd 64f0 29be
00000060: c57f 6d39 2bf0 9bbc a53a 863c 1970 8bbb
00000070: d631 243f 24a9 e63c c4c6 3dbd 7fd0 ba3e
00000080: a1a3 9d3c 29fd 6dbb 9d37 043e d6be 84bd
00000090: f34c e0bc 532c c83d a9b7 89be a9d5 02be
000000a0: 5907 dabd 4273 193c e0fe 993d 9378 063e
000000b0: b891 143e ea87 713c 789b 3c3d ac57 08bc
000000c0: 8111 e83d 8d40 cdbb 610d 353c 2892 2dbf
000000d0: e765 76bd 4dbc 38be 65e5 f5bc ce45 77bd
000000e0: 41cd 983c 1201 983a bbba c13d 3161 b3bc
000000f0: 8cb2 ccbd b8a6 aebd 9ae0 eabd c479 8abe
00000100: d2ea d03d d184 95bd 137d 613d 7346 4a3d
00000110: 19bb 10bd b935 20bd c24b 073e 206d 353d
00000120: ee8c f93d a5ea 163d 2e75 90bd 8908 bdbd
00000130: 05d6 97bd 0441 dcbe 9a76 d73d 3c76 f7bc
00000140: aeda 0a3d 3227 313d 7005 c13d 69da 183c
00000150: 0fcc 773c f9b9 2f3c e28f 5abe 8347 14bc
00000160: 98b3 523c 7055 03be 22f9 273a efcb 863d
00000170: ded5 333d def0 99be 5502 ab3d 9521 26bc
00000180: fb4a e83d 64fe a2bc 85a8 82bd 2008 ffbc
00000190: 7784 54bd 7597 603d d4b7 f33c 235b e6bc
000001a0: 8719 e239 905a 703d fdcc 42bd 5685 d83d
000001b0: 8007 ff3c bc31 a4bd 8b32 c33d be93 c6bb
000001c0: 38b1 df3d e1f8 a9bd eea6 1c3d 6aca 61bd
000001d0: ef41 073e 357d 7a3d ea05 0abd 798e 8bbc
000001e0: 546d 083d 8c28 d4bd 3123 5b3c b380 9f3d
000001f0: 6c39 383d fb99 8cbd 0a72 843d 6d16 093d
00000200: b432 cbb8 906f 8cbc 084a 953c 0409 fc3b
00000210: 5065 bc39 91a5 463c 1727 103b 1995 be3c
00000220: 4553 aabc c65d d43b c404 ceb8 d970 963c
00000230: b3b6 f23b 32be 86bb 9b69 8f3c c31a 82bb
00000240: ba1e 2ebc dc45 9dbb 275c 2fbc e360 4cbc
00000250: f764 3d3c d430 3abc def2 6f3b 22b3 1cbc
00000260: 7b90 213c 3e5e a63c da44 15bc 5cb8 e13b
00000270: d6f3 93bc 9584 34ba eff2 9d3c a4a0 8fba
00000280: a647 a43a a66f 433c 814d a13c 5a97 c63b
00000290: 4173 a73b 69fd 563c 1a61 82bb 10d9 093c
000002a0: 13d8 65bc 8a52 593c 053f a23b 7051 39bc
000002b0: a322 64bc 801d 03bc 12f6 2abc 076c a9ba
000002c0: 7f86 5f3c 38ea f83b 8509 ddbb 9580 c23c
000002d0: 06df be3b b41e 8ebb 6212 343b 34f9 8dba
000002e0: 004d 7cbb 0d22 75bc a258 233b 7650 1c3a
000002f0: 33d6 0a3c 7ea1 83bb 5b36 3ebc 66d2 76bb
00000300: b257 823b 8c24 6cbb 9ffe a1bc 4970 943c
00000310: 8aa1 f3bb 1c94 e03b 6b37 ffbb 5814 1c3c
00000320: b321 2339 6557 ab3b 3862 81bc f406 dbbb
00000330: 8edc 7a3c 5231 9fbb 8172 90bc c17a 0c3c
00000340: 709f 6abc 588d 823c 505b b13b eebd ea3b
00000350: 1b9f 38bc 262f 803b 859f 093b 0661 45bb
00000360: 369a 9abb acdc 84bc 25f9 7c3c 5012 e73c
00000370: 444b 4abc ca10 433c d063 e83a 54dc a33b
00000380: a662 03bc 5cec c2bb b4ab 84bc 9c11 c3bb
00000390: 9d88 2d3b 5ebf 673c 396a 033c 8317 9eba
000003a0: ea53 2cbb 92d2 6b39 2939 3eba 78d5 5d3c
000003b0: 676e 013c 8b92 5b3c 3e3c 663c 9c9f 353a
000003c0: 64ba 903c 6081 b1bc 5a88 3abb d8c5 533c
000003d0: a8c7 09bc 4c52 e33b 5b0a 61ba 7798 653b
000003e0: 0cee 513c bb6b 2dbc 2220 173c 4e8e 33ba
000003f0: 479e 863c 603b 21bc 22c3 36bc e405 9cbc

encoder.fc2.bias f4 [16]
0.274723 0.49259454 -0.009057204 -0.006817411 -0.03192254 -0.33797106 -0.0024729604 0.004083546
-0.56489724 -0.44567594 0.006562641 -0.21835189 0.045909844 -0.09906166 0.029532176 -0.56097114
00000000: 7ea8 8c3e 5a35 fc3e ab64 14bc 9764 dfbb
00000010: 36c1 02bd 8b0a adbe 6411 22bb 44cf 853b
00000020: 1b9d 10bf a32f e4be 6c0b d73b a397 5fbe
00000030: f60b 3c3d d7e0 cabd 76ed f13c ce9b 0fbf

encoder.fc3.weight f4 [16, 64]
-0.026825517 -0.1378993 -0.043004457 -0.08533308 -0.15446135 -0.32460067 -0.24524398 0.051193867
-0.16273195 0.088146366 0.06271979 0.27292413 -0.03053395 0.11994065 -0.03211525 -0.008703236
0.2110674 -0.020573677 -0.029356118 -0.02241808 -0.19014907 -0.19847225 0.016222063 0.013631755
-0.0056680785 -0.13133715 0.07616068 -0.08914981 -0.18602599 0.043414537 0.06621695 0.25403628
0.0068608755 0.21711192 0.052917026 0.22541164 -0.032188434 -0.23145306 -0.24337712 0.0102290325
0.45666644 -0.0034841986 0.069913074 -0.04311245 -0.12045008 -0.00302959 -0.26838624 -0.17075743
0.022898814 0.12084342 0.041479837 -0.051670823 0.0454895 -0.11470468 0.015025857 0.028527675
0.04430174 -0.003987492 0.15917341 0.1313481 0.04446646 -0.14559942 -0.165347 0.17767029
-0.16437629 -0.03158453 -0.116123885 -0.15886629 -0.005990211 -0.044688176 -0.15916774 0.032641284
0.20267655 -0.18275224 -0.026711207 -0.118366756 0.23185948 0.20336634 -0.08606963 -0.12859485
-0.06275476 -0.1607543 0.038443938 0.014317279 0.045733374 -0.19702663 0.70023274 -0.068028934
-0.061349373 0.08774236 0.09701685 -0.30347598 -0.11362392 0.27725145 -0.09149425 0.044174016
0.062066082 0.16100706 0.0076922956 -0.043509897 -0.051253032 0.27550313 -0.00815096 0.13715556
0.006263169 -0.11999288 -0.009481938 -0.045204673 0.04700946 -0.036852673 -0.19158658 0.25393847
-0.07557591 0.009599889 0.048165314 0.01432565 -0.13818724 -0.0816883 -0.10418834 -0.14837076
-0.15424363 0.052970275 0.17480542 -0.1211701 -0.19319978 0.048093047 0.02285149 -0.123575784
0.0042033778 0.0053597083 -0.0072818394 -0.004183247 -0.003257405 0.0011793291 0.00831385 -0.011007462
-0.0030938806 0.0041902713 0.0021410305 0.0021142312 -0.00082359044 0.00023625788 0.0028277545 -0.0035120535
0.0051413714 -0.0015697889 -0.0043668575 -0.0036350912 0.003279928 -0.00015570129 0.0030071842 0.00046975398
0.000944422 -0.004837823 0.0019854319 -0.007867261 0.0018450908 0.0016980149 0.0012678156 0.0028107
-0.0029383348 0.004281283 -0.001984309 0.0029226074 0.0006740961 0.010059143 -3.093273e-05 0.008538795
-0.0064597465 -0.0041973745 -0.00013018679 0.0026515743 0.003952014 -0.008047363 -0.010007808 -0.0032061834
-0.0046041706 -0.00079818483 0.003702636 0.0008150281 -0.012069297 -0.00819169 -0.0025689865 -0.0037590761
-0.0028370796 0.0009975831 -0.0005815068 0.0053483206 0.00991336 -0.0050837346 0.00094118353 -0.0002499017
-0.00021804919 0.001137521 -0.0055821873 -0.005580593 -0.004568319 -0.0014268208 -0.0028457786 0.011717632
0.0017835766 0.0055225156 -0.0064264485 0.0021826196 -0.001985493 0.004203018 0.00029685692 -0.0004172124
-0.0011302637 -0.0016044233 -0.0029546875 -0.0041204793 0.00066838984 -0.0006890097 0.006347375 -0.0005771428
-0.0014135834 -0.0055654836 -0.002862213 -0.003238238 0.0060628233 -0.0006485579 0.0022413463 -0.00085611414
-0.0024420135 -0.0017979562 -0.0022982834 0.00295312 -0.00034487963 -0.003590944 0.0012194322 -0.0061474796
0.0023366846 -0.00028553663 0.0035159069 8.675788e-05 -0.0005100679 -0.0011201337 0.003778537 -0.008224534
0.0040560258 -0.0017239499 -0.005420655 -0.0029491575 0.005692939 -0.0013259535 -0.0016622175 -0.0022356263
-0.0036364147 -6.349804e-05 5.8941478e-06 -0.0028884024 0.00021406915 0.0003861881 0.00011314984 0.0060105007
00000000: 30c1 dbbc 7935 0dbe 7125 30bd 1cc3 aebd
00000010: 1e2b 1ebe 0f32 a6be 3d21 7bbe a9b0 513d
00000020: 34a3 26be 1586 b43d 3c73 803d b6bc 8b3e
00000030: 5622 fabc 72a3 f53d 488b 03bd 0498 0ebc
00000040: 0d22 583e 218a a8bc 3e7c f0bc 1fa6 b7bc
00000050: 70b6 42be 4f3c 4bbe 22e4 843c b957 5f3c
00000060: 4abb b9bb 3f7d 06be 21fa 9b3d 2d94 b6bd
00000070: 997d 3ebe 71d3 313d c19c 873d 0b11 823e
00000080: 32d1 e03b 9652 5e3e 86bf 583d 4fd2 663e
00000090: 05d8 03bd 0802 6dbe da37 79be ac97 273c
000000a0: 2fd0 e93e 2757 64bb 962e 8f3d ae96 30bd
000000b0: 88ae f6bd 168c 46bb ec69 89be 09db 2ebe
000000c0: 4b96 bb3c c17c f73d c3e6 293d c9a4 53bd
000000d0: 3353 3a3d 4aea eabd 032f 763c dfb2 e93c
000000e0: be75 353d 82a9 82bb 5bfe 223e 1e80 063e
000000f0: 7622 363d 0418 15be b950 29be 33ef 353e
00000100: 4252 28be c85e 01bd 5cd2 edbd d8ad 22be
00000110: 8849 c4bb f30a 37bd defc 22be deb2 053d
00000120: 718a 4f3e 6723 3bbe 76d1 dabc 456a f2bd
00000130: 926c 6d3e 443f 503e 4645 b0bd 5eae 03be
00000140: 9185 80bd c69c 24be 6477 1d3d 0593 6a3c
00000150: eb52 3b3d 59c1 49be 7442 333f c152 8bbd
00000160: 7b49 7bbd 44b2 b33d c5b0 c63d 3461 9bbe
00000170: a8b3 e8bd e7f3 8d3e 5661 bbbd d0ef 343d
00000180: 0139 7e3d 09df 243e a70f fc3b 6f37 32bd
00000190: b3ee 51bd bf0e 8d3e 9b8b 05bc 8272 0c3e
000001a0: 453b cd3b d4be f5bd 215a 1bbc 8928 39bd
000001b0: fe8c 403d d4f2 16bd 462f 44be 3904 823e
000001c0: 8bc7 9abd da48 1d3c fe48 453d 22b6 6a3c
000001d0: f580 0dbe 324c a7bd b260 d5bd 81ee 17be
000001e0: 0bf2 1dbe 5cf7 583d 3100 333e 0828 f8bd
000001f0: 2ad6 45be 37fd 443d 0c33 bb3c 4d15 fdbd
00000200: 7dbc 893b 7ea0 af3b 7f9c eebb 9f13 89bb
00000210: 307a 55bb b893 9a3a d036 083c a458 34bc
00000220: b4c2 4abb 8b4e 893b 8850 0c3b ea8e 0a3b
00000230: 38e6 57ba febb 7739 d951 393b 7b2a 66bb
00000240: f378 a83b 60c1 cdba db17 8fbb b63a 6ebb
00000250: 0ff4 563b bf43 23b9 2e14 453b 5049 f639
00000260: 1693 773a 9a86 9ebb 051e 023b afe5 00bc
00000270: f9d6 f13a ed8f de3a d52c a63a b933 383b
00000280: 1491 40bb 014a 8c3b 2e0b 02bb 3789 3f3b
00000290: d3b5 303a 1bcf 243c c4bd 01b8 4de6 0b3c
000002a0: 48ac d3bb 218a 89bb c082 08b9 09c6 2d3b
000002b0: e57f 813b 16d9 03bc caf7 23bc d51e 52bb
000002c0: 95de 96bb 473d 51ba eda7 723b 9ca7 553a
000002d0: 4dbe 45bc 7036 06bc 715c 28bb d55a 76bb
000002e0: 4cee 39bb 56c1 823a 4370 18ba f740 af3b
000002f0: a56b 223c 7595 a6bb c2b9 763a 3d05 83b9
00000300: 22a4 64b9 df18 953a c8ea b6bb 68dd b6bb
00000310: d6b1 95bb 2904 bbba 3e80 3abb 50fb 3f3c
00000320: e6c6 e93a 38f6 b43b f594 d2bb 480a 0f3b
00000330: 0c1f 02bb 78b9 893b 76a3 9b39 4dbd dab9
00000340: 5b25 94ba 834b d2ba 6ea3 41bb 1605 87bb
00000350: e236 2f3a a99e 34ba a4fd cf3b 664b 17ba
00000360: fd47 b9ba a95e b6bb f793 3bbb 9e38 54bb
00000370: a6aa c63b fc03 2aba 8de3 123b d96c 60ba
00000380: 300a 20bb 66a9 ebba cc9e 16bb 2289 413b
00000390: f6d0 b4b9 0b56 6bbb 5bd5 9f3a cc70 c9bb
000003a0: 1023 193b 14b4 95b9 216b 663b c8f1 b538
000003b0: 14b6 05ba 73d1 92ba 55a1 773b 32c0 06bc
000003c0: 69e8 843b 29f6 e1ba c09f b1bb a746 41bb
000003d0: d58b ba3b 9ecb adba c4de d9ba 9683 12bb
000003e0: ea50 6ebb 402a 85b8 58c6 c536 5a4b 3dbb
000003f0: c077 6039 4a79 ca39 dc4a ed38 bcf3 c43b

encoder.fc3.bias f4 [16]
-1.2200931 -3.1214523 -0.009977412 -0.010845382 -1.597994 -2.3316376 -0.008030603 -0.0077914963
-1.5958467 -2.332928 -0.007546657 -0.9120818 -0.85435635 -0.8615574 -3.0830855 -2.1539164
00000000: 032c 9cbf e0c5 47c0 4d78 23bc d4b0 31bc
00000010: 118b ccbf 8d39 15c0 ca92 03bc cf4f ffbb
00000020: b444 ccbf b14e 15c0 f349 f7bb 317e 69bf
00000030: 19b7 5abf 078f 5cbf 4651 45c0 c4d9 09c0

decoder.fc1.weight f4 [64, 16]
0.13551638 -1.698721 0.0044062105 -0.020727742 0.37554637 -0.5669383 -0.004790096 -0.003455482
0.5305519 -0.16230471 -0.003371272 -0.14967102 0.03384606 0.02868194 -0.17756133 -0.37646738
0.3051287 -0.0927897 -0.022317765 0.018686092 -0.20639424 0.2911239 0.004443881 -0.015772035
0.05431574 -0.2894166 -0.0064223954 0.026891695 -0.1551947 0.07706958 1.5047208 1.6692604
-0.8284945 0.40895388 0.008079282 -0.02278874 0.103685714 0.057530776 -0.010947854 -0.0073648896
0.10169434 0.19061856 -0.0062530697 -0.07249717 -0.120347075 -0.0008905081 1.4226941 0.9925492
0.03675626 0.4623457 0.0080123395 -0.007864853 0.28892374 -0.5571045 -0.0055820146 0.005014886
0.031210829 -0.068547614 -0.024343904 0.05502945 0.29399312 0.16286908 -0.845074 -0.6713674
0.09274826 -0.9857834 -0.011674092 0.01775198 -0.18442607 -0.15517071 -0.0038287237 -0.017304298
0.062241875 1.55612 -0.0006797875 -0.30823436 -0.017417405 0.0503695 0.38820556 0.1456249
0.0008647671 -0.23942743 -0.0070981816 -0.004197815 0.008405503 0.8706918 -0.025818754 -0.018505873
0.16512845 0.4798423 0.004507785 -0.14540607 -0.07564081 0.026625328 -0.77136433 0.54055667
0.16026407 -0.32098752 0.010670334 -0.009694534 -0.10672729 0.3618699 -0.017046152 0.015261192
0.1687559 -0.6021437 -0.0069547757 -0.19423749 0.68307203 0.019704357 1.2695898 0.11824162
-0.11546201 -0.34409195 0.037372008 0.017221538 -0.1567478 0.7112015 0.014320052 -0.007870064
-0.06048793 0.7798965 0.026412038 0.15096466 -0.33817455 -0.60777694 -1.0614002 0.024697827
0.019960865 2.5952108 0.0081047835 0.008626171 0.16330428 0.11933883 0.0056254743 0.01498093
-0.44036064 -0.17177685 -0.0155144315 -0.18772317 0.20503797 -0.044664487 -0.30073044 -0.22052309
0.15041779 -0.53629893 -0.015561973 -0.008280108 -0.031162193 -0.4252945 -0.004750446 -0.0005461839
0.049691025 0.48110002 -0.020826545 0.20231938 0.08699142 0.016595686 1.2254864 0.44388294
0.11313849 1.5254755 -0.005218921 0.01790677 -0.04409662 -0.059027005 -0.008990083 -0.00953681
0.008664442 -0.14345242 -0.007176209 0.12635429 -0.26174146 -0.025513303 1.4018126 0.115593
0.06343515 -0.986771 -0.00021366126 0.0022126955 -0.10247645 0.842426 0.0051285606 0.006057183
0.037344094 -0.08406101 -0.004238513 -0.023348277 0.101016186 0.1392736 -0.81171244 -0.80023867
0.94359094 -0.712 -0.028734703 -0.00955614 0.17197978 0.391657 -0.014165759 -0.013432764
-0.008375187 -0.5519989 -0.025471922 -0.070700005 -0.07317872 0.011879505 -1.1523309 -0.70646924
0.082619645 -1.2839236 0.007928829 -0.0022503946 -0.50229365 -0.16807291 0.0057559456 -0.012393463
-0.028956212 0.07624694 -0.00258325 -0.06992582 0.051258903 0.24984562 -1.1026967 0.8216711
0.020489717 -1.0527072 0.0048014717 -0.0010020863 -0.09537428 0.17229939 -0.0036608283 0.008790665
0.19416606 -0.5250731 -0.004372779 0.49210247 0.033550642 0.07459365 -0.8213867 -0.01118518
1.067631 1.1219028 0.021807605 -0.008773242 -0.060845077 -0.20188834 0.022086889 -0.01029249
0.002959267 -0.03673716 -0.0015351614 -0.007995813 0.11562578 0.09290244 -1.4599941 0.5874182
00000000: cec4 0a3e b16f d9bf f961 903b 3acd a9bc
00000010: 9d47 c03e de22 11bf 3df6 9cbb 5e75 62bb
00000020: 40d2 073f 3533 26be 8ff0 5cbb 5c43 19be
00000030: 2ba2 0a3d 63f6 ea3c a3d2 35be 55c0 c0be
00000040: d439 9c3e 8708 bebd bfd3 b6bc 9313 993c
00000050: 0359 53be 310e 953e fa9d 913b 5b34 81bc
00000060: 2e7a 5e3d 6a2e 94be f572 d2bb f94b dc3c
00000070: 5ceb 1ebe a8d6 9d3d b19a c03f 53aa d53f
00000080: 3718 54bf 6762 d13e f75e 043c 74af babc
00000090: 2d59 d43d 64a5 6b3d a15e 33bc 2c55 f1bb
000000a0: 1f45 d03d 8331 433e 8de6 ccbb 6579 94bd
000000b0: 8778 f6bd fd70 69ba d71a b63f b417 7e3f
000000c0: bb8d 163d 93b8 ec3e 3046 033c 96db 00bc
000000d0: d0ed 933e 679e 0ebf 55e9 b6bb ea53 a43b
000000e0: daad ff3c b162 8cbd de6c c7bc 9066 613d
000000f0: 4486 963e 27c7 263e c556 58bf bcde 2bbf
00000100: cdf2 bd3d 4d5c 7cbf b144 3fbc 9a6c 913c
00000110: 30da 3cbe 12e5 1ebe 53eb 7abb bec1 8dbc
00000120: 56f1 7e3d f12e c73f c433 32ba e5d0 9dbe
00000130: f2ae 8ebc 4050 4e3d e1c2 c63e b21e 153e
00000140: 8ab1 623a 772c 75be dd97 e8bb d38d 89bb
00000150: 3cb7 093c a8e5 5e3f da81 d3bc a199 97bc
00000160: 6f17 293e e4ad f53e 0bb6 933b 54e5 14be
00000170: 92e9 9abd 5c1d da3c 2278 45bf ec61 0a3f
00000180: 441c 243e 7a58 a4be a0d2 2e3c d3d5 1ebc
00000190: d693 dabd 0347 b93e 5fa4 8bbc 140a 7a3c
000001a0: 59ce 2c3e 1726 1abf e3e4 e3bb 31e6 46be
000001b0: cfdd 2e3f 086b a13c eb81 a23f aa28 f23d
000001c0: 5977 ecbd d22c b0be 6413 193d 2f14 8d3c
000001d0: 7f82 20be 4d11 363f a79e 6a3c 71f1 00bc
000001e0: 31c2 77bd 4ca7 473f 0f5e d83c 7b96 1a3e
000001f0: 3725 adbe 4597 1bbf f6db 87bf 1953 ca3c
00000200: f884 a33c ef17 2640 edc9 043c c954 0d3c
00000210: 3d39 273e eb67 f43d e655 b83b 9372 753c
00000220: f376 e1be 45e6 2fbe 3e30 7ebc 813a 40be
00000230: 79f5 513e 1cf2 36bd 57f9 99be ced0 61be
00000240: 1f07 1a3e e34a 09bf a5f7 7ebc 4aa9 07bc
00000250: db47 ffbc 33c0 d9be a1a9 9bbb c82d 0fba
00000260: d188 4b3d be52 f63e 6e9c aabc d02c 4f3e
00000270: 8f28 b23d adf3 873c bddc 9c3f a044 e33e
00000280: 27b5 e73d c842 c33f 7c03 abbb 38b1 923c
00000290: a89e 34bd 4dc6 71bd 244b 13bc 4840 1cbc
000002a0: 4ef5 0d3c 31e5 12be 6726 ebbb 0563 013e
000002b0: fa02 86be 4601 d1bc 986e b33f 06bc ec3d
000002c0: 4aea 813d 069d 7cbf 420a 60b9 df02 113b
000002d0: 2cdf d1bd 3ba9 573f 7c0d a83b 557b c63b
000002e0: 1ff6 183d 2e28 acbd 39e3 8abb e344 bfbc
000002f0: 93e1 ce3d bd9d 0e3e 63cc 4fbf 71dc 4cbf
00000300: 2d8f 713f a245 36bf 0a65 ebbc 5b91 1cbc
00000310: 781b 303e 4487 c83e 8017 68bc 1915 5cbc
00000320: 1538 09bc cd4f 0dbf 7eaa d0bc 2acb 90bd
00000330: bade 95bd 41a2 423c 947f 93bf 2bdb 34bf
00000340: 7d34 a93d 9c57 a4bf ebe7 013c 5b7b 13bb
00000350: 5196 00bf 4e1b 2cbe 5f9c bc3b f40d 4bbc
00000360: 9435 edbc 5b27 9c3d be4b 29bb 4535 8fbd
00000370: dbf4 513d 88d7 7f3e 2a25 8dbf 0a59 523f
00000380: 0dda a73c 1cbf 86bf aa55 9d3b 7058 83ba
00000390: 9753 c3bd 406f 303e 82ea 6fbb b906 103c
000003a0: 78d3 463e 316b 06bf 8749 8fbb dbf4 fb3e
000003b0: 666c 093d 8ec4 983d 6646 52bf 0c42 37bc
000003c0: 22a8 883f 839a 8f3f dda5 b23c a5bd 0fbc
000003d0: b038 79bd d1bb 4ebe 90ef b43c d5a1 28bc
000003e0: 43f0 413b b479 16bd 7837 c9ba df00 03bc
000003f0: 35cd ec3d a243 be3d 16e1 babf 0a61 163f

decoder.fc1.bias f4 [64]
1.0658128 1.1114124 0.4967661 0.24899915 0.2083264 0.91228503 0.5543121 -0.86970705
-1.7472223 1.1593392 -2.1916285 1.6474816 0.88464856 1.8297983 1.8380605 -0.80386156
2.260606 1.1522027 1.0114071 0.14850184 1.1153995 2.9494805 1.4925659 2.1796663
-0.83358544 1.203431 -1.0345443 1.9346894 2.3473077 1.0643296 -2.2758827 -0.21272133
2.6681883 2.870673 0.12685117 0.02449738 1.2751127 -3.483259 0.80019236 -1.6733096
-0.3784297 0.05609291 0.1450602 -2.5101864 -0.29181615 0.98108804 0.23829532 2.4158547
2.9184484 -0.983888 1.404073 -0.9891313 2.8410761 0.90355766 -1.010826 -2.6127312
-0.09334312 0.008726797 2.2511742 -0.2031375 1.6165371 0.007392385 2.2591455 1.2997046
00000000: 8e6c 883f c342 8e3f 2058 fe3e a2f9 7e3e
00000010: 8453 553e 838b 693f 66e7 0d3f 1fa5 5ebf
00000020: fba4 dfbf 3a65 943f a443 0cc0 ade0 d23f
00000030: 5478 623f d536 ea3f 9145 eb3f dfc9 4dbf
00000040: c5ad 1040 617b 933f ca75 813f de10 183e
00000050: 69c5 8e3f 4ac4 3c40 660c bf3f a77f 0b40
00000060: db65 55bf 070a 9a3f f36b 84bf e7a3 f73f
00000070: 4a3a 1640 f43b 883f 10a8 11c0 9fd3 59be
00000080: 99c3 2a40 1bb9 3740 46e5 013e bbae c83c
00000090: e536 a33f b7ed 5ec0 68d9 4c3f 022f d6bf
000000a0: 8ac1 c1be aec1 653d a98a 143e e5a6 20c0
000000b0: ed68 95be 9628 7b3f b003 743e 5d9d 1a40
000000c0: dcc7 3a40 15e0 7bbf aab8 b33f b537 7dbf
000000d0: 31d4 3540 8e4f 673f bf62 81bf fd36 27c0
000000e0: ad2a bfbd d7fa 0e3c 3d13 1040 4703 50be
000000f0: b0ea ce3f d23b f23b d795 1040 b85c a63f

decoder.fc2.weight f4 [51, 64]
-0.20908074 -0.22764535 -0.007410747 0.28272188 -0.19976975 -0.5865095 -0.32370478 0.22923605
0.090571366 -0.3163665 -0.0942123 0.054282445 -0.046879787 0.77756375 0.258023 -0.052269723
0.30381644 -0.021708587 -0.13832568 0.042470593 -0.5603399 0.09533948 -0.69740486 0.24138977
0.13809672 0.050647955 -0.13907985 -0.030835012 -0.41942 -0.67869896 -0.41117328 -1.1631967
0.27856454 -0.9416188 0.09427203 0.2728534 0.009971263 -0.33242154 -0.12073333 -0.9446956
0.059096154 0.20059185 0.011573427 -0.71436906 0.07921368 -0.49540928 0.5167162 0.63187176
0.2245447 -0.101832144 -0.06302151 -0.230512 0.043885704 -0.25745094 0.5271383 0.41642508
0.09566461 -0.63964754 0.20652016 0.26151887 -0.021227848 -0.95292765 -0.49424168 0.15854539
0.18600151 -0.330969 0.110046335 0.38815024 -0.16088694 -0.09767572 -0.35779172 0.23508978
-0.80695635 0.43330544 -0.19157003 -0.17792833 -0.09115058 -0.44264334 0.120792255 -0.08843862
1.0439616 0.57573366 -0.028034873 0.18023121 -0.69590914 0.25640863 -0.0037448718 -0.72521955
0.070941284 0.071456745 -0.24878083 0.15873943 0.39247113 -0.08037655 1.1901759 0.29937065
-0.4647085 0.27881435 0.09251593 -0.059611432 0.014113822 -0.4827365 -0.035036515 0.11972735
0.29058588 -0.10355073 -0.11608985 0.109067574 -0.32898855 -0.40450528 -0.12122768 0.40674213
-0.82026225 -0.41138858 -0.58137316 0.027037822 0.19812013 0.04034993 0.05460056 -1.7372469
0.103199005 -0.026636193 0.1489935 0.061477203 -0.33941263 0.00059809006 -0.3617026 -0.42375317
1.1343212 -0.30948445 0.22138968 -0.7065006 0.06294152 -1.0248908 0.10853496 -0.5076961
0.35138172 0.50563097 -0.12554061 -1.4013588 0.10046182 0.10314947 0.19126742 0.2544853
-0.09224915 -2.2094383 -0.068905905 0.978278 -0.2003404 -0.32666895 0.48105276 0.645755
0.6871918 -0.5112663 -0.16897242 -0.78577346 0.32455853 0.31564012 0.766531 0.041510206
-0.19689374 -0.73674774 0.24878237 -0.088189505 -0.059231132 0.45665532 0.17245948 -0.26105848
0.42728287 0.04752278 0.07546297 0.27068698 -0.7749594 0.41042054 -1.5382506 -0.24374467
0.022943959 -1.07081 -0.55327845 -1.2730811 -0.34953317 -0.36472553 0.109747335 -0.70653945
-0.07164509 0.68106776 -1.07685 -0.0320517 -0.34985933 -0.18100867 -0.5389098 -0.44875112
0.77229863 0.39246586 0.26848352 -0.16608359 0.015751267 -0.083813205 -0.04303748 -0.26455837
-0.76340723 -0.55105656 0.2561312 0.06534636 0.4211128 -0.21928123 -0.14694718 0.32183436
-0.123730905 -0.28908357 0.3299314 -0.08775498 0.37699965 0.44058642 -1.3710445 -0.93282807
0.159836 -0.42823467 0.74546444 -0.4842611 0.38470912 -0.49778762 -0.7748882 -0.40231988
-0.28186494 -3.8772995 -0.35273832 0.25274822 -0.21510059 -0.4304309 0.32611197 -0.05267564
0.44920257 -0.055356946 0.07806382 -0.36656845 -0.16865803 -0.30798137 -0.00038881693 -0.021237219
0.7094447 0.27342692 -0.49553367 0.42535713 0.61376375 -1.0550272 -0.011717848 0.7043185
0.21696575 -0.48716345 0.18998028 0.10469863 0.073704965 -0.64885473 -1.2872818 0.3844527
00000000: 4319 56be dd1b 69be dad5 f2bb ecc0 903e
00000010: 7190 4cbe 7d25 16bf a2bc a5be dbbc 6a3e
00000020: 7b7d b93d cafa a1be 61f2 c0bd 4557 5e3d
00000030: 0505 40bd 6b0e 473f 971b 843e c718 56bd
00000040: d48d 9b3e 35d6 b1bc 3fa5 0dbe a5f5 2d3d
00000050: 7072 0fbf 5841 c33d 2089 32bf e12e 773e
00000060: 3a69 0d3e 3b74 4f3d f36a 0ebe b599 fcbc
00000070: 38be d6be 37bf 2dbf 4e85 d2be a1e3 94bf
00000080: 03a0 8e3e ee0d 71bf b211 c13d 71b3 8b3e
00000090: 825e 233c 2833 aabe 0943 f7bd 92d7 71bf
000000a0: cf0e 723d f367 4d3e 799e 3d3c e4e0 36bf
000000b0: c83a a23d 49a6 fdbe 8347 043f 59c2 213f
000000c0: 0cef 653e 5f8d d0bd 6c11 81bd 560b 6cbe
000000d0: 7fc1 333d 9cd0 83be 89f2 063f ab35 d53e
000000e0: cfeb c33d f1bf 23bf 057a 533e cde5 853e
000000f0: 06e6 adbc 11f3 73bf 3f0d fdbe b959 223e
00000100: 2e77 3e3e c574 a9be f95f e13d a1bb c63e
00000110: 8cbf 24be 350a c8bd 7a30 b7be 60bb 703e
00000120: b194 4ebf 36da dd3e ef2a 44be d832 36be
00000130: 28ad babd 26a2 e2be ee61 f73d 4f1f b5bd
00000140: 89a0 853f 4863 133f 64a9 e5bc 888e 383e
00000150: 1a27 32bf fe47 833e 866c 75bb fda7 39bf
00000160: aa49 913d ea57 923d 67c0 7ebe 978c 223e
00000170: faf1 c83e 769c a4bd af57 983f 1c47 993e
00000180: 46ee edbe c1c0 8e3e fe78 bd3d 1e2b 74bd
00000190: a93d 673c 3d29 f7be 7382 0fbd 9d33 f53d
000001a0: acc7 943e 6812 d4bd 84c0 edbd d25e df3d
000001b0: 3071 a8be 511b cfbe 3846 f8bd 8140 d03e
000001c0: b5fc 51bf 86a1 d2be dfd4 14bf 6c7e dd3c
000001d0: 01e0 4a3e f845 253d d6a4 5f3d 1b5e debf
000001e0: 005a d33d 2534 dabc c191 183e 85cf 7b3d
000001f0: 7ec7 adbe 25c9 1c3a 1531 b9be 2df6 d8be
00000200: 7031 913f bf74 9ebe fab3 623e 39dd 34bf
00000210: 7ce7 803d 9f2f 83bf 9447 de3d 5ff8 01bf
00000220: 4ee8 b33e 0871 013f b88d 00be ba5f b3bf
00000230: edbe cd3d 0840 d33d 9bdb 433e e64b 823e
00000240: 1fed bcbd 7067 0dc0 8a1e 8dbd 6d70 7a3f
00000250: 0926 4dbe 2741 a7be 8c4c f63e 3350 253f
00000260: cdeb 2f3f 59e2 02bf 1b07 2dbe 7328 49bf
00000270: 892c a63e 959b a13e 603b 443f 9b06 2a3d
00000280: 839e 49be 809b 3cbf cec0 7e3e b39c b4bd
00000290: 589c 72bd bace e93e 3899 303e 75a9 85be
000002a0: d2c4 da3e 3fa7 423d 548c 9a3d 7c97 8a3e
000002b0: bd63 46bf a422 d23e 65e5 c4bf 3498 79be
000002c0: f8f4 bb3c 4d10 89bf a8a3 0dbf 52f4 a2bf
000002d0: 03f6 b2be 4ebd babe 36c3 e03d c5df 34bf
000002e0: a9ba 92bd 755a 2e3f 39d6 89bf a548 03bd
000002f0: c320 b3be 565a 39be fef5 09bf b5c2 e5be
00000300: 5db5 453f 49f1 c83e ac76 893e d111 2abe
00000310: cd08 813c 42a6 abbd 1248 30bd 3274 87be
00000320: a86e 43bf 0b12 0dbf a123 833e 50d4 853d
00000330: 199c d73e 428b 60be 5279 16be 79c7 a43e
00000340: a166 fdbd c302 94be c5ec a83e e2b8 b3bd
00000350: 1906 c13e 8b94 e13e 637e afbf d2cd 6ebf
00000360: 0cac 233e 9341 dbbe c2d6 3e3f 12f1 f7be
00000370: 98f8 c43e 05de febe 135f 46bf dffc cdbe
00000380: 9a50 90be ad25 78c0 1e9a b4be 3768 813e
00000390: 5443 5cbe 7061 dcbe 26f8 a63e 69c2 57bd
000003a0: e1fd e53e f7bd 62bd eddf 9f3d dcae bbbe
000003b0: b1b4 2cbe bcaf 9dbe 20da cbb9 adf9 adbc
000003c0: 2b9e 353f 9dfe 8b3e 97b6 fdbe 69c8 d93e
000003d0: 9f1f 1d3f 220b 87bf 37fc 3fbc 384e 343f
000003e0: 452c 5e3e 7d6d f9be 318a 423e 3c6c d63d
000003f0: a1f2 963d 581b 26bf a6c5 a4bf fcd6 c43e

decoder.fc2.bias f4 [51]
-0.32446492 1.1727681 -0.98679036 0.6670843 0.8533434 -0.7350371 0.4583632 0.45726916
-0.1437211 -0.28508872 -0.025182348 -0.15008911 1.122699 0.72215074 -0.96779364 -0.45355633
-0.32385966 -0.14267796 -0.26593328 0.30666474 -0.15055867 -0.49982646 0.5188608 0.5875469
-0.5725092 -0.5270065 1.8693051 -0.922687 0.36695647 1.0100067 -0.5173653 0.32441193
0.13565251 0.9467803 0.19776316 2.0965142 1.197593 -0.37789974 0.28363964 0.43760106
0.794746 1.0326325 0.10607496 -0.2196147 2.4325511 0.016925512 -0.2472589 1.0945716
-0.04736128 0.04524955 1.2350715
00000000: 4420 a6be 441d 963f 4b9e 7cbf 09c6 2a3f
00000010: b774 5a3f 642b 3cbf 95ae ea3e 2f1f ea3e
00000020: a02b 13be 26f7 91be 364b cebc f6b0 19be
00000030: 9ab4 8f3f dfde 383f 53c1 77bf 8938 e8be
00000040: efd0 a5be 2c1a 12be 6828 88be 2903 9d3e
00000050: 0d2c 1abe 41e9 ffbe 10d4 043f 7969 163f
00000060: f78f 12bf e6e9 06bf 6445 ef3f 3735 6cbf
00000070: b8e1 bb3e e647 813f 0d72 04bf 5219 a63e
00000080: 7ee8 0a3e 3260 723f 6d82 4a3e 4a2d 0640
00000090: ba4a 993f 137c c1be 3739 913e 3f0d e03e
000000a0: 7974 4b3f 4d2d 843f d43d d93d ade2 60be
000000b0: ebae 1b40 5fa7 8a3c 7031 7dbe ec1a 8c3f
000000c0: e7fd 41bd 9857 393d d316 9e3f
