model/vae_hd256_ld16.pth (torch, 159515 bytes, 10 tensors)

encoder.fc1.weight f4 [256, 51]
0	0xbea86301	-0.32888034
1	0xbe139da4	-0.14415604
2	0x3d73d888	0.059532672
3	0xbf481b59	-0.7816673
4	0xbcb7d9d3	-0.022442734
5	0xbe5ffe7e	-0.21874425
6	0x3db9b0fc	0.0906696
7	0xbe933a8e	-0.2875561
8	0xbe03996f	-0.12851499
9	0x3f2fa3a9	0.686091
10	0x3e098d0b	0.1343271
11	0x3e75861a	0.23976937
12	0x3f0f9fec	0.56103396
13	0xbe0bd397	-0.13654934
14	0x3e45f04b	0.19329946
15	0xbf2aa054	-0.6665089
16	0x3e2ae936	0.16690525
17	0x3d51ee7e	0.051252834
18	0x3dba6616	0.091015026
19	0x3dc8d34f	0.09805929
20	0x3f04a577	0.5181498
21	0xbdefd1c1	-0.11709929
22	0x3f1a07fd	0.6016844
23	0xbd560f57	-0.052260723
24	0x3deb6559	0.1149394
25	0x3e8e9e60	0.27855206
26	0xbe23bd2e	-0.15990135
27	0x3e1c3ee4	0.15258366
28	0xbd54124c	-0.05177526
29	0xbe4d0ee2	-0.20025209
30	0xbe895cf2	-0.26828724
31	0xbe982aed	-0.2972025
32	0xbe8adcc4	-0.27121556
33	0xbe8eb327	-0.27871057
34	0x3e03841b	0.12843363
35	0xbef53072	-0.47888523
36	0x3eaab9b7	0.33344814
37	0x3d0c2ca4	0.03422226
38	0x3d55eb49	0.05222634
39	0x3e2014ec	0.15632981
40	0xbd58b9cd	-0.05291157
41	0xbc85fbc5	-0.016355405
42	0xbe06dd6b	-0.13170402
43	0xbed003c9	-0.40627888
44	0x3dd01249	0.101597376
45	0xbea2364a	-0.31682044
46	0x3d88e27a	0.06683822
47	0x3f070d49	0.52754647
48	0xbe3091b5	-0.17243083
49	0xbe068354	-0.13136035
50	0xbd175a24	-0.0369512
51	0x3e1b5de1	0.1517253
52	0x3df718e9	0.12065298
53	0xbe909e3a	-0.28245717
54	0x3ef64ce1	0.4810553
55	0xbac89d8b	-0.001530574
56	0x3e85afd8	0.2611072
57	0xbda35c5a	-0.07976599
58	0xbe4a95be	-0.19783685
59	0x3e834537	0.25638744
60	0x3e141b4e	0.14463541
61	0xbb95bcb2	-0.0045696134
62	0x3e93445d	0.28763095
63	0xbd8c0d48	-0.06838471
64	0xbd1c9133	-0.03822441
65	0xbe86d24d	-0.26332322
66	0xbf0d817b	-0.55275697
67	0xbeb03468	-0.34414983
68	0xbe73bb40	-0.23801899
69	0x3d5720f4	0.05252166
70	0x3d82ebd6	0.063926384
71	0x3da3e055	0.08001772
72	0xbf243748	-0.6414685
73	0x3e8c225c	0.27369964
74	0x3ee66a30	0.4500289
75	0x3e5dd520	0.21663332
76	0xbdf63778	-0.120222986
77	0x3d2a8cf9	0.04163835
78	0xbe924631	-0.28569177
79	0x3f1503ad	0.58208734
80	0xbecbc8f3	-0.3980175
81	0x3f5bcb6c	0.8585727
82	0x3e7cb929	0.24680008
83	0xbf0cf2e6	-0.55058134
84	0x3e9afaaa	0.30269367
85	0x3dfb2ca2	0.122643724
86	0xbdb314d6	-0.087442085
87	0xbc0446bd	-0.008073506
88	0xbd119b41	-0.035548452
89	0xbef6c352	-0.48195893
90	0x3e6cc9b4	0.23123819
91	0x3e04efb5	0.12982066
92	0x3dbb5ffa	0.091491655
93	0xbea50268	-0.32228398
94	0xbe2fb6d5	-0.17159589
95	0x3f45c5e9	0.7725511
96	0xbe4e1e08	-0.20128644
97	0xbe8ede14	-0.27903807
98	0xbd36db49	-0.04464272
99	0xbe70884a	-0.2348949
100	0xbdbb1a58	-0.09135884
101	0x3d416a32	0.047220416
102	0x3e425c68	0.18980563
103	0xbe05ab02	-0.13053516
104	0xbce1d8c5	-0.027569184
105	0xbd92d6e3	-0.07169893
106	0xbe3a734a	-0.18208042
107	0xbe0779bc	-0.13230032
108	0xbdb7a05f	-0.08966135
109	0xbe1ab1d9	-0.15106906
110	0x3d144332	0.036196895
111	0x3d49820a	0.04919628
112	0xbdee8bd1	-0.116477616
113	0xbc044b9f	-0.00807467
114	0xbbc5eb20	-0.006039992
115	0xbdafa2d6	-0.0857598
116	0x3e379767	0.17928849
117	0xbd2a8c14	-0.041637495
118	0xbe24a056	-0.16076788
119	0xbd417104	-0.04722692
120	0xbd889f5d	-0.06671021
121	0x3fb44733	1.4084228
122	0xbe18eff5	-0.14935286
123	0x3d9cd9c9	0.07658727
124	0xbd1171b8	-0.03550884
125	0xbe2e4971	-0.17020203
126	0x3e0dd4bb	0.13850681
127	0x3c2512b5	0.010075261
128	0xbd16c11e	-0.036805265
129	0x3d25e8b6	0.040505134
130	0xbe345b52	-0.17612961
131	0x3dde156d	0.108439304
132	0xbdd6b5f3	-0.10483923
133	0xbddea9c1	-0.10872222
134	0xbd110ecf	-0.035414513
135	0x3d41bf43	0.047301542
136	0xbe604502	-0.21901324
137	0xbe2e0135	-0.16992648
138	0x3cef691d	0.029224927
139	0xbdfd46d8	-0.12367028
140	0xbcd68e72	-0.02619097
141	0x3d3626ff	0.044470783
142	0xbded8f0a	-0.11599548
143	0xbd751290	-0.059832156
144	0xbe29563a	-0.16536799
145	0xbd972fb9	-0.07382149
146	0xbc5b8832	-0.013399171
147	0x3b9fe862	0.004879997
148	0xbe0aa834	-0.13540727
149	0x3c458d5f	0.012057631
150	0xbbfe799a	-0.007765961
151	0xbdd68a14	-0.10475555
152	0xbd7d6bb1	-0.06187028
153	0x3d37cfc7	0.044875886
154	0xbc6c72f7	-0.014431707
155	0xbe7b6337	-0.24549566
156	0x3e045ab4	0.12925225
157	0xbe8e52c0	-0.27797508
158	0xbd9237c9	-0.071395464
159	0x3daf387a	0.08555694
160	0xbdef6b40	-0.11690378
161	0x3d02b3cd	0.031909753
162	0x3f35316b	0.7077853
163	0xbd48fefa	-0.04907129
164	0x3e06b6ca	0.13155666
165	0xbd3ca2a3	-0.04605354
166	0x3e503049	0.2033092
167	0xbea9b3ac	-0.3314489
168	0xbe97cb83	-0.29647455
169	0x3ed5b95e	0.41742986
170	0x3e92c62c	0.28666818
171	0x3ca20117	0.01977591
172	0xbd93c4a1	-0.07215238
173	0x3e804982	0.25056082
174	0x3e8e2099	0.27759245
175	0xbef38791	-0.47564366
176	0x3d22cd19	0.039746378
177	0xbd3045c7	-0.043035295
178	0xbe638f6a	-0.22222677
179	0x39c7d0ec	0.00038111897
180	0xbdc47220	-0.0959208
181	0xbe86ebee	-0.26351875
182	0xbedeb731	-0.4349914
183	0x3e40ab08	0.18815243
184	0xbe5158f1	-0.20444085
185	0xbeb4f7ef	-0.35345408
186	0x3ec254e9	0.37955406
187	0xbeee4555	-0.4653727
188	0xbdd300ea	-0.10302909
189	0x3d0cc87d	0.034370888
190	0x3e0e3ab7	0.13889585
191	0x3c8f6705	0.017505178
192	0xbe990412	-0.29885918
193	0x3ea94786	0.3306238
194	0xbe349ebd	-0.17638679
195	0xbe01fff5	-0.12695296
196	0xbe10483f	-0.1409006
197	0x3e8552cb	0.2603973
198	0xbed4f903	-0.4159623
199	0x3ec5c620	0.3862772
200	0xbd9ae4ce	-0.07563172
201	0xbda1b2f9	-0.078954645
202	0x3e7cbcf1	0.2468145
203	0xbe7d6a02	-0.2474747
204	0xbc8c92c4	-0.017159827
205	0xbd0a78a1	-0.033806447
206	0x3d029d2b	0.03188817
207	0xbc7a31f2	-0.015270697
208	0xbcc56aec	-0.024098836
209	0x3c01d784	0.007924918
210	0x3d9281c5	0.07153658
211	0x3c967f99	0.01837139
212	0x3c3c4eca	0.011493394
213	0x3caa1a7a	0.020764578
214	0xbbde1033	-0.0067768334
215	0x3dbb6cd2	0.09151615
216	0xbceb9fdc	-0.02876275
217	0x3bb6c67c	0.0055778604
218	0x3d6c6e3d	0.05772232
219	0xbbf4b3cb	-0.007467722
220	0xbb655346	-0.0034992262
221	0xbb8ed2a4	-0.0043586064
222	0x3d0fea9a	0.035135843
223	0xbcbac09f	-0.022796927
224	0x3e20a7bb	0.15688984
225	0x3d938b90	0.07204354
226	0xbdc31077	-0.09524625
227	0xbb97d3e1	-0.004633412
228	0xbb8a594b	-0.0042220703
229	0xbc6fb2c7	-0.014630026
230	0xbcf264aa	-0.029589016
231	0xbcf3b888	-0.029751077
232	0xbbc22f03	-0.0059260144
233	0xbe14d0cc	-0.14532775
234	0xbc9d74b2	-0.019220684
235	0x3b6b6ef5	0.003592429
236	0xbe0c139c	-0.13679355
237	0xbcc76645	-0.024340758
238	0xbcba965e	-0.022776779
239	0xbab209ad	-0.0013583206
240	0x3ab29233	0.0013623893
241	0xbb766fa3	-0.0037603162
242	0x3c9277bd	0.017879361
243	0xbbe31706	-0.006930235
244	0xbd04c05f	-0.032410022
245	0xbd86d900	-0.06584358
246	0x3d3a4099	0.04547176
247	0x3c03b764	0.008039329
248	0xba83c2a8	-0.0010052519
249	0x3cfde513	0.03099302
250	0x3aab77f3	0.0013082012
251	0xbb1e73a5	-0.0024177816
252	0xbd664848	-0.056221277
253	0x3d719927	0.058983948
254	0xbe07632c	-0.13221425
255	0xbde071a6	-0.10959177

encoder.fc1.bias f4 [256]
0	0xbf8de855	-1.1086527
1	0xbf8fc8ec	-1.1233191
2	0xbbab2ac2	-0.005223603
3	0xbf924be7	-1.1429414
4	0xbe1cc5cf	-0.15309833
5	0xbf401b5c	-0.7504175
6	0xbfed7773	-1.8552078
7	0xbf154563	-0.58309
8	0xbf44d0a4	-0.7688086
9	0xbfbaf592	-1.4606192
10	0xbf810f7f	-1.0082854
11	0xbf7b114f	-0.98073286
12	0xbf82480d	-1.0178238
13	0xbf14b591	-0.5808955
14	0xbfa21f95	-1.2665888
15	0xbf902276	-1.1260517
16	0xbf28d5ff	-0.6595153
17	0xbfa466af	-1.2843837
18	0xbf856c4f	-1.0423678
19	0xbf493b2e	-0.78605926
20	0xbf603a26	-0.8758873
21	0xbf94154a	-1.1568997
22	0xbf27cca0	-0.6554661
23	0xbf829d61	-1.0204278
24	0xbf456bdb	-0.771177
25	0xbeaa6da3	-0.3328677
26	0xbf896f5b	-1.0737108
27	0xbf3e6782	-0.7437669
28	0xbf203b6c	-0.6259067
29	0xbe69cc04	-0.22831732
30	0xbf720f50	-0.94554615
31	0xbf876f94	-1.0580926
32	0xbeb5a8a3	-0.35480222
33	0xbf7abb10	-0.97941685
34	0xbf7beaa4	-0.9840491
35	0xbf6a8e94	-0.91623807
36	0xbf99f798	-1.2028685
37	0x3cc768f5	0.02434204
38	0xbf34d89b	-0.70643014
39	0xbf351681	-0.70737463
40	0xbf8912e6	-1.0708892
41	0x3f13c10e	0.57716453
42	0xbf90a489	-1.1300212
43	0xbf4e6ae9	-0.8063188
44	0xbe655e93	-0.22399358
45	0xbf19332c	-0.5984371
46	0xbe8dffba	-0.27734166
47	0xbf4e27d3	-0.80529517
48	0x3d55d28e	0.052202754
49	0xbf615a14	-0.88028073
50	0xbf20810b	-0.62696904
51	0xbf48e623	-0.7847616
52	0xbf14845c	-0.58014464
53	0xbf81cd19	-1.0140716
54	0xbf6d9059	-0.9279838
55	0xbe567610	-0.20943475
56	0xbf05f6ed	-0.52329904
57	0xbfb49999	-1.4109374
58	0xbf3d7835	-0.74011546
59	0xbf3ec7f4	-0.74523854
60	0xbfd158ec	-1.6355262
61	0x3e2e6fad	0.17034788
62	0xbdaa558e	-0.083170995
63	0xbec5647a	-0.3855322
64	0xbf354162	-0.7080289
65	0xbf51085f	-0.816534
66	0xbf2ccfcf	-0.6750459
67	0xbf040127	-0.5156426
68	0xbf9bd82b	-1.2175344
69	0xbeb43377	-0.35195515
70	0xbee9d42d	-0.4566969
71	0xbf475b52	-0.7787372
72	0xbec47f81	-0.38378528
73	0xbf073889	-0.5282064
74	0xbecf68b4	-0.4050957
75	0xbfbb66d8	-1.464076
76	0x3ed0b106	0.40760058
77	0xbf6b3e72	-0.9189216
78	0xbf7ac66f	-0.97959036
79	0xbedd0816	-0.43170232
80	0xbea187d6	-0.31548947
81	0xbf364523	-0.71199244
82	0xbf3b61ec	-0.7319629
83	0xbf715887	-0.94275707
84	0xbf561d55	-0.8363851
85	0xbf47fb51	-0.78117853
86	0xbf79b90d	-0.9754799
87	0xbf2e8323	-0.6816885
88	0xbf69ed1c	-0.91377425
89	0xbf288726	-0.6583122
90	0xbf0a0b05	-0.53923064
91	0xbf148d36	-0.5802797
92	0xbf6d0d6f	-0.92598623
93	0xbfb1d607	-1.3893441
94	0x3dd0a8f8	0.10188478
95	0xbe997891	-0.29974797
96	0xbe2c1fd6	-0.1680902
97	0xbf8f9218	-1.1216459
98	0xbe38d74f	-0.18050884
99	0xbefe209f	-0.49634263
100	0xbee9d6d8	-0.45671725
101	0x3e127273	0.14301471
102	0xbf39f7de	-0.7264384
103	0xbf010b26	-0.50407636
104	0xbf09875d	-0.5372217
105	0xbf5ba1f6	-0.8579401
106	0xbf6d21cc	-0.92629695
107	0xbf94d43d	-1.162727
108	0xbf3092d5	-0.6897405
109	0xbfc393b0	-1.5279446
110	0xbf4ee817	-0.8082289
111	0xbfaf9a50	-1.3718967
112	0xbf4a4c04	-0.7902224
113	0xbf9da250	-1.2315159
114	0xbf826115	-1.0185877
115	0xbf1e9557	-0.61946625
116	0xbe45d08f	-0.1931784
117	0xbe28baa2	-0.16477445
118	0xbf05e437	-0.52301353
119	0x3f25d9d1	0.64785486
120	0xbd594fe6	-0.053054713
121	0xbf373b23	-0.7157461
122	0xbf908cb0	-1.1292934
123	0xbe845c86	-0.2585184
124	0xbfa9913a	-1.3247445
125	0xbf5f015f	-0.8711147
126	0xbf25a974	-0.6471169
127	0xbe60e1f5	-0.21961196
128	0xbfc580fb	-1.5429987
129	0xbf47a7fa	-0.77990687
130	0xbf76da88	-0.964272
131	0xbf5724fa	-0.84040797
132	0x3d44dcdb	0.048062187
133	0xbf0ce7b2	-0.5504104
134	0xbec5ae07	-0.38609335
135	0xbf52e061	-0.82373625
136	0xbea27802	-0.31732184
137	0xbfa7cfb7	-1.3110265
138	0xbf7f997a	-0.9984356
139	0xbf869de6	-1.0516937
140	0xbef0f575	-0.4706227
141	0xbf4f2fe7	-0.8093247
142	0xbf5b9d62	-0.8578702
143	0x3c35febf	0.0111080995
144	0xbf5dff11	-0.86717325
145	0xbf01beda	-0.5068184
146	0xbf1a2e02	-0.6022645
147	0xbf075012	-0.5285655
148	0xbecfb46f	-0.40567347
149	0xbfa9e0fa	-1.3271782
150	0xbd81843d	-0.063240506
151	0xbf1cf42a	-0.61310065
152	0xbec587d8	-0.38580203
153	0xbea90c5c	-0.33017242
154	0xbf3d5d7e	-0.7397078
155	0xbecc092d	-0.3985075
156	0xbe8b2190	-0.27174044
157	0xbf80d543	-1.0065082
158	0xbf8e6d5d	-1.1127125
159	0xbf3a96cd	-0.72886354
160	0xbf250e3b	-0.6447484
161	0xbfa4efac	-1.2885642
162	0xbf8ea6d6	-1.1144664
163	0xbf038568	-0.51375437
164	0xbf253287	-0.64530224
165	0xbf80ee6e	-1.0072763
166	0xbf103c8d	-0.56342393
167	0xbfaa20be	-1.3291242
168	0xbe9ed54e	-0.31022114
169	0xbf586740	-0.84532547
170	0xbf93f1e8	-1.1558199
171	0xbdf466b6	-0.11933653
172	0xbedb5500	-0.42838287
173	0xbfac1e6e	-1.3446786
174	0xbfa82d83	-1.3138889
175	0xbf9a28e7	-1.2043732
176	0xbf54577c	-0.8294599
177	0xbfa84e25	-1.3148848
178	0xbf96bb12	-1.1775839
179	0xbf417dbf	-0.755825
180	0xbee18f79	-0.44054773
181	0xbf56ede6	-0.83956754
182	0xbf9689a3	-1.1760753
183	0xbf1cfd46	-0.61323965
184	0xbfb79393	-1.4341911
185	0xbfbf24fd	-1.4933163
186	0xbf9eb013	-1.2397484
187	0xbf9ab15d	-1.2085377
188	0xbf47a29a	-0.77982485
189	0xbf427e17	-0.7597365
190	0xbf6912a1	-0.9104405
191	0xbf5a7fef	-0.8535146
192	0xbf738faa	-0.9514109
193	0xbed9b9f4	-0.42524683
194	0xbedae357	-0.42751572
195	0xbf7e97df	-0.99450487
196	0xbf8766f6	-1.0578296
197	0xbf5f2adc	-0.87174773
198	0xbd2f096e	-0.042733602
199	0xbf6dbad2	-0.9286319
200	0xbedf9779	-0.43670252
201	0xbf81bb20	-1.0135231
202	0xbf7d0d8f	-0.98848814
203	0xbf8419a0	-1.032032
204	0xbfd895fd	-1.6920773
205	0xbf39932f	-0.7249021
206	0xbf3d2e65	-0.7389892
207	0xbf30abc9	-0.69012123
208	0xbf8aacba	-1.0833962
209	0xbf2dba74	-0.6786263
210	0xbf4ae93d	-0.79262143
211	0xbf03d2b9	-0.5149341
212	0xbf5c950c	-0.8616493
213	0xbf20e34c	-0.6284683
214	0xbfae5c71	-1.3621961
215	0xbfea7b10	-1.8318806
216	0xbf27245c	-0.65289855
217	0xbf6b7c9c	-0.91987014
218	0xbeb31a7b	-0.3498114
219	0xbf52ec70	-0.82392025
220	0xbf625cb6	-0.88422716
221	0xbf319a60	-0.6937618
222	0xbf99229c	-1.1963687
223	0xbe94811b	-0.2900475
224	0xbf830b86	-1.0237892
225	0xbf4e4c61	-0.80585295
226	0xbed48134	-0.41504824
227	0xbf7a92f2	-0.9788047
228	0xbf1ab7c6	-0.60436666
229	0xbf4d346a	-0.801581
230	0xbf7849e6	-0.9698776
231	0xbec6906d	-0.38782063
232	0xbee02fd8	-0.43786502
233	0xbed5ca1c	-0.4175576
234	0xbf3dfa93	-0.7421047
235	0xbf4838bf	-0.7821159
236	0xbf707cf9	-0.93940693
237	0xbf01f25c	-0.50760436
238	0xbe174669	-0.14772953
239	0x3eb46eb2	0.35240704
240	0xbf0d5f36	-0.55223405
241	0xbf95475d	-1.1662403
242	0xbf4500a4	-0.769541
243	0xbfb0df22	-1.3818095
244	0xbf8a6b7e	-1.0814054
245	0xbf8597c6	-1.0436943
246	0x3f0e855c	0.5567224
247	0xbeffd1d4	-0.49964774
248	0xbf7a344a	-0.97736037
249	0xbf15125f	-0.5823116
250	0xbf597a76	-0.84952486
251	0xbe3f1d47	-0.18663512
252	0xbf45f3f7	-0.77325386
253	0xbf4354cc	-0.76301265
254	0xbfc3a323	-1.528416
255	0xbf9f42d4	-1.2442269

encoder.fc2.weight f4 [16, 256]
0	0x3c971210	0.01844123
1	0xbb9119a1	-0.004428104
2	0x3c66bb81	0.01408279
3	0x3b6d6c45	0.0036227864
4	0x3cdae6c8	0.026721373
5	0x3b749f59	0.0037326424
6	0x3b52621c	0.0032101935
7	0xbc4ad5fd	-0.01238012
8	0x3a4abe28	0.0007734024
9	0xbc19685a	-0.009363258
10	0x3c66bae6	0.014082646
11	0xbb0693d1	-0.0020534883
12	0xbc0ceda8	-0.008601584
13	0xbc4ed3a8	-0.012623705
14	0xbc884003	-0.016632086
15	0x3ba7d5ae	0.005121908
16	0x3d106b5c	0.035258636
17	0xbc8f94e2	-0.017527048
18	0x3b20c543	0.002453164
19	0x3c8026e0	0.015643537
20	0x3d74a083	0.05972339
21	0x3ae1b5c9	0.0017220314
22	0xbc6ab5bb	-0.0143255545
23	0xbca285f8	-0.019839272
24	0xbb17d3fb	-0.0023167122
25	0x3c67056f	0.014100417
26	0xba2dabf8	-0.00066250516
27	0x3bed026d	0.007232955
28	0x3cfb41e4	0.030671068
29	0xbbfa4598	-0.0076376908
30	0x3c22b9bc	0.009931978
31	0xbcf858cf	-0.030315785
32	0xbd0bc44e	-0.034122758
33	0xbc6a6b7a	-0.014307851
34	0x3cd7c315	0.02633814
35	0xbc3d9f05	-0.011573558
36	0xbc647088	-0.013942845
37	0xbbb34504	-0.005470874
38	0xba9857a2	-0.0011622796
39	0xbc5c8c93	-0.01346125
40	0x3c29ac37	0.010356001
41	0x3ba031ae	0.004888735
42	0x3c918e44	0.017768033
43	0xbc08dfe2	-0.008354159
44	0xbbc82ec5	-0.006109091
45	0x37f16a6c	2.8778995e-05
46	0x3bd64593	0.0065390556
47	0x3ba279c5	0.0049583637
48	0x3c103403	0.008801463
49	0xbc0d989f	-0.008642345
50	0xbc59d7e0	-0.0132960975
51	0x3ca38311	0.019959958
52	0x3b2d9ab5	0.0026489918
53	0x3bd55685	0.006510558
54	0x3c5115ad	0.012761516
55	0x3c95d2f1	0.018289061
56	0x3bef11f8	0.007295843
57	0xbb9d17f0	-0.0047941133
58	0x3d30102d	0.042984176
59	0xbc0e807f	-0.008697628
60	0x3c09c94c	0.008409809
61	0xbc07184c	-0.008245539
62	0xbc497345	-0.012295549
63	0xbc85f5a4	-0.016352482
64	0x3d4835ba	0.048879363
65	0x3c29bce5	0.010359977
66	0xbcf49448	-0.029855862
67	0x3b1c23f1	0.0023825134
68	0xbb819e56	-0.0039556427
69	0x3bf2f7cf	0.007414795
70	0xbc0ab2fa	-0.008465523
71	0xbb135ddb	-0.0022486362
72	0x3c7a8b99	0.015292072
73	0xbc64601a	-0.013938928
74	0xbca898b2	-0.020580623
75	0x3ad3b006	0.0016150482
76	0xba9c36cc	-0.0011918186
77	0x3c0ec742	0.008714499
78	0x3c102dc9	0.0087999785
79	0x3c8bfe27	0.017088963
80	0xbcce66b4	-0.025195457
81	0x3c05c6a0	0.008165032
82	0x3b43d6a6	0.002988258
83	0x3d3747f3	0.04474635
84	0x3bf943cd	0.0076069594
85	0xbbf55119	-0.0074864742
86	0x3b96045d	0.004578157
87	0x3c46f9a4	0.01214448
88	0xbab37c5b	-0.0013693677
89	0x3b4bfb9a	0.0031125308
90	0xbc6f8d08	-0.014621027
91	0x38eb0ff4	0.00011208645
92	0xbafd0a19	-0.0019305378
93	0xbbd4f0e1	-0.0064984416
94	0x3a80a41c	0.0009814533
95	0x3c496c80	0.012293935
96	0xbb41d8d9	-0.0029578714
97	0x3cb08b8c	0.021550916
98	0xbc0424dc	-0.008065429
99	0x3bb3a80b	0.005482679
100	0xbbaff08e	-0.0053692525
101	0x3bd975c4	0.006636353
102	0xbd2242e7	-0.039614584
103	0x3c42db31	0.01189308
104	0xbb16f6c7	-0.0023035274
105	0xbb8287a8	-0.0039834566
106	0xbb843408	-0.004034523
107	0x3cab893d	0.020939464
108	0x3c26dddd	0.010184732
109	0x3c28fcd5	0.010314186
110	0xbafff40d	-0.0019527689
111	0xbc88fd0c	-0.016722225
112	0x3ba6b2e5	0.005087244
113	0x3be338dd	0.006934269
114	0xbd104f8a	-0.035232104
115	0xbc00a7d3	-0.007852512
116	0xbbc39810	-0.005969055
117	0x3b1c3211	0.0023833553
118	0xbb07f5e8	-0.0020745937
119	0x3bafffca	0.0053710686
120	0x3b742acd	0.0037256957
121	0x3c07313d	0.008251485
122	0x3c7b73f9	0.015347474
123	0x3baf16ae	0.00534328
124	0x3bd8b79e	0.0066136857
125	0xba9bf7e6	-0.0011899441
126	0xbad8e3e0	-0.0016547404
127	0xbc511728	-0.012761869
128	0xbcaa5592	-0.020792756
129	0x3be0f112	0.0068646753
130	0xbba59a7b	-0.005053816
131	0xba6c0044	-0.0009002725
132	0x3b216c4a	0.0024631196
133	0x3c4f621e	0.01265767
134	0x3cce4b1a	0.025182296
135	0x3c91b975	0.017788628
136	0x3b9c1b10	0.0047639683
137	0xbceb9a54	-0.028760113
138	0xbd24d66c	-0.04024355
139	0x3c0ebd9b	0.008712198
140	0x3b97fe5b	0.004638476
141	0x3ce1bbf8	0.02755545
142	0x3c959089	0.018257396
143	0xbb7587c6	-0.003746496
144	0xbcd49982	-0.025952104
145	0x3a9e0a92	0.0012057594
146	0x3bfc1d82	0.0076939473
147	0x3d187dbe	0.037229292
148	0xbc22aadf	-0.009928434
149	0xbbef3cfd	-0.0073009715
150	0xbc79c01a	-0.0152435545
151	0xbc3bf77e	-0.011472581
152	0xbc7ecbd8	-0.01555153
153	0x3b07be0d	0.0020712644
154	0xbc5076d7	-0.012723646
155	0x3bd853d7	0.0066017914
156	0xbc834eba	-0.01602875
157	0x3ccaa7de	0.024738248
158	0xbd1d43b0	-0.03839463
159	0x3c3f9f9e	0.011695771
160	0xba314ee4	-0.000676377
161	0xbc6479d0	-0.013945058
162	0xbb77802b	-0.0037765603
163	0x3c5ea3a0	0.013588816
164	0xbbb4c25c	-0.0055163335
165	0x3d22f315	0.039782602
166	0x3c45cba4	0.0120724775
167	0xbbeb7ce9	-0.0071865213
168	0x3bc66862	0.006054924
169	0x3cc1f73f	0.023677466
170	0xbb85c120	-0.00408186
171	0xbc60b941	-0.013716043
172	0xbbb8f827	-0.0056448164
173	0x3d08c248	0.033388406
174	0xbcc39d73	-0.023878789
175	0xbc964dca	-0.01834764
176	0xbd2c4ffb	-0.042068463
177	0x3c03cedb	0.008044924
178	0x3cd0f430	0.025507063
179	0x3c0a11ef	0.008427127
180	0xbb1728f9	-0.0023065193
181	0x3c38c3f1	0.011277185
182	0x3bdfb25a	0.006826681
183	0x3a34e1b2	0.00069000863
184	0x3c63c729	0.013902464
185	0x3b6a988a	0.0035796487
186	0x3cb0bb61	0.021573724
187	0x3c3eea84	0.011652593
188	0xbc508af3	-0.012728441
189	0x3c87f5db	0.016596725
190	0x3b8fbc3c	0.004386453
191	0x3bb0d00a	0.005395894
192	0x3be69489	0.0070367497
193	0xbb03e54a	-0.002012568
194	0x3c0d31be	0.0086178165
195	0x3c28c771	0.010301457
196	0x3d0255dc	0.031820163
197	0xbc87ca25	-0.016575882
198	0x3b86a05e	0.0041084727
199	0xbc20feb0	-0.009826347
200	0xbba6b5e1	-0.0050875996
201	0xba1c2908	-0.0005957042
202	0xbc154d1e	-0.009112624
203	0x3cb85790	0.02250269
204	0x3afac8fe	0.0019133387
205	0x3be54744	0.006997021
206	0xbbe55f2f	-0.006999872
207	0x3cbe4a32	0.023228738
208	0xbc01fd55	-0.007933934
209	0x3c4c1371	0.012455807
210	0x3d01bfbe	0.031677
211	0xbcac9fc2	-0.021072272
212	0x3c48f3e3	0.012265178
213	0xbb91b4af	-0.004446588
214	0xbcaeb3e2	-0.02132601
215	0x3c1abbdb	0.009444202
216	0x3bc07534	0.0058733467
217	0xbb3db00d	-0.0028944046
218	0xbd14cf2e	-0.036330394
219	0x3c19c5c1	0.009385527
220	0xbc8be158	-0.017075226
221	0x3b5d72ca	0.0033790343
222	0x3bb44e95	0.005502532
223	0x3c3e6c8c	0.011622559
224	0xbc85140c	-0.01624491
225	0xbba69714	-0.005083928
226	0xbcadfbd5	-0.021238247
227	0x3c81a17d	0.015824074
228	0x3bdb6e38	0.0066964887
229	0xbc0b7240	-0.008511126
230	0x3d050db4	0.03248377
231	0x3a782d6f	0.00094672194
232	0xbbf86ea5	-0.007581549
233	0xbc685621	-0.014180691
234	0xbc12d297	-0.008961341
235	0x3d217df5	0.039426763
236	0xba1c2cb2	-0.0005957588
237	0x3c1d131b	0.009587075
238	0x3b605257	0.0034228766
239	0x3bf4a839	0.0074663428
240	0x3c737655	0.0148597555
241	0x3c0625c7	0.008187718
242	0x3cfa0486	0.030519735
243	0x3cd626f9	0.02614163
244	0x3ce49a79	0.02790569
245	0x3c886055	0.016647497
246	0x3b819ffb	0.0039558387
247	0x3add232f	0.0016871447
248	0xbd20331d	-0.039111245
249	0xbafecf0d	-0.0019440368
250	0x3d473578	0.048634976
251	0xbc2c0d1f	-0.010501175
252	0xbc6ec7c5	-0.014573996
253	0xbc62a3f1	-0.013833032
254	0xbc14998e	-0.009069813
255	0x3be8cf6d	0.007104805

encoder.fc2.bias f4 [16]
0	0x3ba69ae9	0.0050843847
1	0xbe436997	-0.19083248
2	0xbe27ff75	-0.16406043
3	0xbbef5a25	-0.0073044472
4	0xbf55c827	-0.83508533
5	0xbe83cfe3	-0.25744542
6	0xbdc1754b	-0.094462
7	0x3bc24879	0.0059290496
8	0xbc213f64	-0.009841774
9	0x3e700619	0.23439826
10	0xbe203d4f	-0.15648387
11	0xbeaed8e1	-0.3414984
12	0x3d299961	0.04140604
13	0x39e4fcb6	0.00043675833
14	0x3d479a22	0.048730977
15	0x3e2eefe3	0.17083697

encoder.fc3.weight f4 [16, 256]
0	0xbbf59f2d	-0.007495782
1	0x3b8bec6a	0.004270126
2	0xba1cb232	-0.0005977481
3	0xbc0cbf33	-0.008590507
4	0xbb923259	-0.0044615683
5	0xbbe79fc5	-0.0070686066
6	0x3c323130	0.010875985
7	0xbc48bc08	-0.012251861
8	0x3b668485	0.0035174203
9	0x3ba45b4f	0.0050157676
10	0xbb9b8852	-0.0047464753
11	0xbbc9a900	-0.0061541796
12	0xbc1c32b5	-0.009533574
13	0x3c09c426	0.008408582
14	0xbc225e81	-0.009910227
15	0xbb9a091b	-0.0047007925
16	0xbd11d621	-0.0356046
17	0xbb2c288f	-0.0026269292
18	0x3b81aefd	0.003957628
19	0xbd6202ef	-0.05517858
20	0xbc9988bc	-0.018741958
21	0x3b531040	0.003220573
22	0x3b8f035d	0.0043644146
23	0xbbe89f25	-0.0070990496
24	0xbc3ad8a7	-0.011404193
25	0xbbb60694	-0.0055549834
26	0xbc2ebb5b	-0.010664786
27	0xbb4ca6f2	-0.0031227437
28	0x3b95ba70	0.004569344
29	0x3b31682f	0.0027070155
30	0xbac2918a	-0.0014844399
31	0x3c7b347d	0.015332338
32	0x3be2687f	0.0069094296
33	0x3ca84b08	0.02054359
34	0xbd0a65dd	-0.03378855
35	0xbac6bf5c	-0.0015163231
36	0xbabd6fdf	-0.0014452896
37	0xb9dbfc20	-0.00041958783
38	0x3c986d96	0.018606942
39	0xbbab07c5	-0.005219432
40	0xbb382ac4	-0.0028101662
41	0xbb9560b2	-0.004558646
42	0xbbdddfa2	-0.006771044
43	0xbbabffea	-0.005249013
44	0x3c51371d	0.012769488
45	0x3b84134b	0.00403062
46	0xbacddcec	-0.0015706099
47	0xbb1b0534	-0.0023654224
48	0xbbf92897	-0.0076037156
49	0x3b1c5412	0.002385382
50	0x3a72d683	0.0009263532
51	0xbba5ad80	-0.005056083
52	0xb9f1a1d0	-0.00046087662
53	0xbbf61f76	-0.0075110747
54	0xbc0a000f	-0.0084228655
55	0x3a834b12	0.001001688
56	0x3b6fd806	0.0036597266
57	0xba256aaf	-0.00063101476
58	0xbc5d0cd9	-0.013491833
59	0x3ad17518	0.0015980331
60	0x3c399876	0.011327853
61	0x3b88c545	0.004173907
62	0x3aaf2f22	0.0013365487
63	0x3b81862b	0.0039527616
64	0x3c851788	0.016246572
65	0xb9ee9690	-0.00045507075
66	0x3b398ebf	0.0028313843
67	0xbc075311	-0.008259551
68	0x38bc54d4	8.980339e-05
69	0x3a5165b2	0.0007987871
70	0xbbf2f925	-0.0074149542
71	0x3ce52087	0.027969612
72	0xb99c7b30	-0.0002984642
73	0x3bb3efd8	0.005491238
74	0x3a60aa25	0.00085702754
75	0x3b09438b	0.00209448
76	0x3a906ef0	0.001101939
77	0x3ac732ea	0.0015197669
78	0x3afd5c55	0.0019329885
79	0xba5898f0	-0.00082625356
80	0x3b0e0074	0.002166775
81	0xbce44247	-0.027863635
82	0x3c58a4aa	0.013222853
83	0xbba2062f	-0.004944585
84	0xbc3fa03b	-0.011695917
85	0xbb874d8c	-0.0041291174
86	0x3a7f2043	0.00097322854
87	0x3a098d6d	0.00052472093
88	0xbc92469d	-0.017855937
89	0x3c1fbe3a	0.009749943
90	0x3cf74a52	0.030186806
91	0x3bad8639	0.0052955416
92	0xbc4c23e0	-0.012459725
93	0x3b8a8c2f	0.004228137
94	0xbb03533d	-0.0020038628
95	0xbb9a349c	-0.0047059786
96	0x38ee7e00	0.00011372194
97	0xbb593910	-0.0033145584
98	0x3a95e554	0.0011436143
99	0xbb84b7ee	-0.0040502464
100	0x38b2d520	8.527399e-05
101	0xbb815ef4	-0.003948087
102	0xbbb3cfa3	-0.0054873987
103	0x3c62b1dc	0.01383635
104	0xbc8ee1dc	-0.017441683
105	0x3c660288	0.014038689
106	0xbb0082e5	-0.001960927
107	0x3ca13593	0.019678866
108	0xbb31836a	-0.0027086386
109	0x3bb85648	0.00562552
110	0x3bc4935b	0.0059990115
111	0xbc5ecc9f	-0.01359859
112	0xbb6b7272	-0.003592637
113	0x3c5674ee	0.013089402
114	0x3bc1cb96	0.005914162
115	0xbc4eb8d7	-0.012617311
116	0xbb98abfa	-0.004659173
117	0x3bb06d14	0.005384097
118	0x3bcdc381	0.0062794094
119	0x39216130	0.00015390362
120	0xbb5512fe	-0.003251254
121	0x3abf13b0	0.0014578011
122	0xbd07cb40	-0.03315282
123	0xbadf1092	-0.0017018488
124	0xbb970930	-0.0046092495
125	0x3ac8016e	0.0015259215
126	0xbc54f0ba	-0.012996847
127	0xbb404f38	-0.0029344093
128	0xbb172f7c	-0.0023069074
129	0x3a492652	0.00076732517
130	0xbbe42f20	-0.0069636256
131	0xbb998112	-0.004684576
132	0x3bb3e8ef	0.0054904143
133	0x3c05ee63	0.008174512
134	0xbc8056e0	-0.015666425
135	0xbbb52dca	-0.00552914
136	0xbb32904d	-0.0027246654
137	0x3c3b4f6e	0.011432512
138	0xbc331414	-0.01093008
139	0x3ba92c62	0.0051627615
140	0x39e22ff9	0.00043141822
141	0x3cd08332	0.025453184
142	0x3c202650	0.009774759
143	0xbb3b826b	-0.002861167
144	0xbcb43810	-0.021999389
145	0x3b82e2d6	0.003994326
146	0x3b31b739	0.0027117266
147	0x3cfdc20f	0.030976323
148	0x3bf3e4b4	0.007443035
149	0x3bbbd4f1	0.0057321717
150	0x3b42fe57	0.002975365
151	0xbb7a52da	-0.0038196356
152	0xbb4dcd20	-0.0031402782
153	0x3a3f54b1	0.0007298692
154	0x3a1164a6	0.0005546309
155	0x3bf54020	0.007484451
156	0xbc5e3fab	-0.013564984
157	0xb950ac44	-0.000199006
158	0xbb4afeec	-0.00309747
159	0x3b6c8bb1	0.0036094005
160	0x3c0076f4	0.007840861
161	0x3bbf3905	0.0058356547
162	0xbb901b7c	-0.0043978076
163	0x3c33b30b	0.01096798
164	0x3ae676e2	0.0017583037
165	0x3bb94c8c	0.005654877
166	0xbad58a60	-0.0016291849
167	0x3bf02006	0.0073280362
168	0xbc1e66fa	-0.009668106
169	0xbbc658ad	-0.0060530514
170	0xbc2d3b60	-0.010573238
171	0x39b4c85e	0.0003448156
172	0x3b4a9ee2	0.0030917455
173	0x3bd381e7	0.0064546946
174	0x3c5c6d33	0.0134537695
175	0x3b02647c	0.001989632
176	0xbc253b0c	-0.010084879
177	0xbc41f897	-0.011839054
178	0xbbecd3ad	-0.007227382
179	0x3c1189d0	0.008882955
180	0x3a6539e0	0.0008744281
181	0x3c2861d0	0.010277227
182	0x3b9cd200	0.004785776
183	0xbb62b01c	-0.0034589833
184	0x3a114185	0.0005541074
185	0xbb79faa8	-0.0038143788
186	0xbb6726f9	-0.0035271032
187	0x3abf050b	0.0014573646
188	0x3a867c78	0.0010260483
189	0x3b9e5d63	0.00483291
190	0xbb26620a	-0.0025388026
191	0xbb95254e	-0.004551566
192	0x3bd108c0	0.006379217
193	0xbb40a1b8	-0.0029393267
194	0xbbda93a9	-0.0066704345
195	0xbc782d52	-0.015147524
196	0x3c07c6d8	0.008287154
197	0xbbb608e7	-0.0055552605
198	0xbb9fa519	-0.004871976
199	0x3c16860c	0.009187233
200	0xbbd86969	-0.0066043627
201	0x3c1f34d4	0.009717185
202	0x3c3058e6	0.010763383
203	0xbc1deb06	-0.0096385535
204	0xbba0470a	-0.004891281
205	0x3b35a402	0.0027716164
206	0xbbf742ec	-0.0075458195
207	0xbc369950	-0.011144951
208	0xbb72cf87	-0.0037049965
209	0x3bd841c8	0.0065996386
210	0xbbbe7c29	-0.005813141
211	0x3ac7fddc	0.0015258151
212	0x3c2dbf10	0.010604635
213	0x39ad5250	0.0003305846
214	0x3b5b247c	0.0033438494
215	0x3ca16058	0.01969926
216	0xbb1f1dd1	-0.0024279247
217	0xba923c26	-0.0011156842
218	0x3c0145d6	0.007890185
219	0xba924cac	-0.0011161766
220	0xbbd5f66b	-0.0065296195
221	0xba98960e	-0.00116414
222	0x3c8138af	0.0157741
223	0xbc68d298	-0.014210366
224	0x3c9aa1df	0.018876014
225	0x3c35e10a	0.011101017
226	0x3bbb2c44	0.005712064
227	0xbad39c48	-0.0016144598
228	0xbb923471	-0.004461818
229	0x3c1a4067	0.009414769
230	0x3d08e208	0.033418685
231	0xbb9f046c	-0.004852822
232	0xba089ff7	-0.0005211825
233	0x3b7ca0bc	0.0038547954
234	0x3bf7b4a8	0.0075593777
235	0xbccf5850	-0.025310665
236	0xbc7a55a2	-0.0152792055
237	0x3bfd1478	0.0077233873
238	0xb9b26ed0	-0.00034033367
239	0x3ae02aba	0.0017102577
240	0x3afede30	0.0019444879
241	0xbc6701a3	-0.014099511
242	0xbbeb63ac	-0.0071835127
243	0xba4baac2	-0.00077692803
244	0x3c80b19b	0.015709689
245	0x3bfef72e	0.007780931
246	0x3b3f94c6	0.0029232963
247	0xbc7c2474	-0.0153895505
248	0xbc9a28a6	-0.01881821
249	0xbab7afa0	-0.0014014132
250	0x3cd5fa08	0.0261202
251	0x3abb563c	0.0014292668
252	0xba33e45f	-0.0006862338
253	0xbc8504ec	-0.016237698
254	0x3acecb4b	0.0015777139
255	0x3b1b15ca	0.002366411

encoder.fc3.bias f4 [16]
0	0xbbd54122	-0.0065080086
1	0xc01a76ff	-2.413513
2	0xbf79213c	-0.97316337
3	0xbc24f27e	-0.01006758
4	0xbf99015a	-1.1953537
5	0xbfe4fd6e	-1.7889841
6	0xc0042f66	-2.065393
7	0xbbec5840	-0.0072126687
8	0xbbe11762	-0.0068692425
9	0xbf65ba67	-0.8973755
10	0xbe6f1b76	-0.2335032
11	0xbfa4a266	-1.286206
12	0xc002bbeb	-2.0427196
13	0xbc1c0f16	-0.009525081
14	0xbfd6745f	-1.6754264
15	0xbf5a6b1c	-0.85319686

decoder.fc1.weight f4 [256, 16]
0	0xbb4bf0f1	-0.0031118954
1	0xbf737ac5	-0.95109206
2	0x3e81ebcc	0.2537521
3	0xb9704aa6	-0.00022915992
4	0xbe641034	-0.22271806
5	0xbddb64d1	-0.107125886
6	0x3f8201b2	1.0156767
7	0xbb977d23	-0.0046230718
8	0xbb174950	-0.002308447
9	0x3c6206a0	0.013795525
10	0xbdc14251	-0.09436477
11	0x3d8715ad	0.06595931
12	0x3e103e2f	0.14086221
13	0x3c17da81	0.009268404
14	0xbf626cf6	-0.8844751
15	0xbdfc6dea	-0.12325652
16	0xbcccb9fd	-0.02499103
17	0xbf59d8e8	-0.850966
18	0x3df671ff	0.12033462
19	0xbb9bda15	-0.004756222
20	0x3dc305ad	0.09522567
21	0xbe61b4a1	-0.2204156
22	0xbf924ad0	-1.1429081
23	0xbc4e5b3b	-0.012594993
24	0x3c0d7a85	0.008635168
25	0x3c338cb7	0.010958842
26	0x3db7da15	0.08977143
27	0xbc9013d6	-0.017587584
28	0x3d6755a1	0.056478146
29	0xbb6d9107	-0.0036249773
30	0x3eb2b7b6	0.34905785
31	0xbe857e90	-0.26073122
32	0x3cea6cee	0.028616395
33	0x3ea1bc6c	0.31589067
34	0x3dd49e8e	0.103818044
35	0xbbc2a05a	-0.0059395256
36	0x3f9eea6c	1.241529
37	0x3dd2da68	0.10295564
38	0xbe170ca5	-0.14750917
39	0x3b6f49f8	0.0036512595
40	0x3cc756b9	0.024333345
41	0x3e6f9921	0.23398258
42	0xbc370492	-0.011170523
43	0x3d9d26ab	0.07673391
44	0x3dffc8c9	0.124894686
45	0x3c20ddd3	0.009818512
46	0x3e0e8970	0.13919616
47	0xbea122c4	-0.31471837
48	0x3c56fd9d	0.01312199
49	0xbed409ba	-0.4141367
50	0xbc636d0e	-0.013880981
51	0x3bab7f87	0.0052337083
52	0x3eac2733	0.33623657
53	0x3ef87ce8	0.48532796
54	0x3dd27e01	0.102779396
55	0xbc080315	-0.008301516
56	0x3b899fa8	0.0041999407
57	0x3e31d40c	0.17366046
58	0x3d842652	0.064526215
59	0x3f1cf006	0.61303747
60	0x3d0dd2dd	0.034624923
61	0xbc604f25	-0.0136907445
62	0x3f4886c7	0.78330654
63	0xbeb03f53	-0.34423313
64	0xbb656da2	-0.0035007973
65	0xbf28115a	-0.65651476
66	0xbe132aa4	-0.14371735
67	0xbcc6cbd5	-0.024267117
68	0xbf491b96	-0.7855772
69	0x3e77323a	0.24140254
70	0x3e7fd532	0.24983671
71	0xbc9bfd01	-0.01904154
72	0x3b8695c0	0.004107207
73	0x3da9da35	0.08293573
74	0x3e1076ad	0.14107771
75	0x3f0caa4e	0.54947364
76	0xbf0f6452	-0.5601245
77	0xbac41396	-0.001495945
78	0x3e59ec93	0.21281652
79	0xbecc7575	-0.39933363
80	0xbbb8c80b	-0.0056390814
81	0x3fafdb65	1.3738829
82	0xbd441778	-0.047873944
83	0xbc2233b3	-0.009900021
84	0x3ee8e596	0.4548766
85	0xbe7f16ce	-0.24911043
86	0xbf8732c0	-1.0562363
87	0xbcd01394	-0.02539996
88	0xbcd3c17e	-0.0258491
89	0xbc595ce9	-0.01326678
90	0xbdee6c23	-0.11641719
91	0xbe936c89	-0.28793743
92	0xbf8306e7	-1.0236481
93	0xbcdc4718	-0.026889369
94	0x3f1c8bd2	0.6115085
95	0x3f35c3fe	0.71002185
96	0x3c1c9fe1	0.0095596025
97	0xbf02a86b	-0.51038235
98	0x3e222b88	0.15836918
99	0xbc879c17	-0.016553922
100	0xbc54147f	-0.01294434
101	0x3e5533c5	0.2082053
102	0x3f00c918	0.50306845
103	0xba425a40	-0.0007413961
104	0x3bf4fddc	0.0074765515
105	0xbbe3a152	-0.006946721
106	0x3da1f29c	0.07907602
107	0xbe1dd64d	-0.1541378
108	0xbecd570a	-0.40105468
109	0x3c7dd822	0.015493425
110	0xbe38497c	-0.17996782
111	0xbe036b4d	-0.12833901
112	0x3b82df42	0.0039938996
113	0x3f03c190	0.5146723
114	0xbebe6802	-0.37188727
115	0xbc12cfe6	-0.0089607
116	0x3d2b13ee	0.041767053
117	0x3ef6f8b8	0.48236632
118	0xbeef0716	-0.46685094
119	0x396a3986	0.00022337408
120	0xbafa5eea	-0.0019101773
121	0x3cf955e1	0.030436458
122	0xbc956125	-0.018234799
123	0x3dbac9b7	0.09120505
124	0xbe55d1f9	-0.2088088
125	0xbc4deb85	-0.012568359
126	0xbe53537f	-0.2063732
127	0x3e085aa2	0.13315824
128	0x3bdbbe81	0.0067060594
129	0x3f30561c	0.6888139
130	0x3e621b22	0.22080663
131	0x3ae1ca2c	0.001722639
132	0x3b5d5b3d	0.0033776306
133	0xbf7ec8e2	-0.9952527
134	0x3f759240	0.95926285
135	0xbba9ac0e	-0.005177981
136	0x3a6b1f1b	0.00089691737
137	0xbe47c641	-0.19509222
138	0x3d32bbbd	0.043636072
139	0x3d2ab87c	0.041679844
140	0xbe9a43d0	-0.30129862
141	0x3c68d4b3	0.014210868
142	0x3f553d0c	0.83296275
143	0xbac2f9ec	-0.0014875508
144	0x3cf3095f	0.029667554
145	0xbfe53654	-1.7907205
146	0x3efb0492	0.49026924
147	0xbb9f5b67	-0.004863191
148	0xbee57e51	-0.44822934
149	0xbe82f903	-0.25580606
150	0x3f88bb71	1.0682203
151	0xbc8247ff	-0.015903471
152	0xbbc2666d	-0.0059326203
153	0x3d54b918	0.05193433
154	0xbe0ffcb3	-0.14061241
155	0x3ea0b075	0.31384626
156	0x3d05a2c7	0.03262594
157	0xbb0353d7	-0.0020038986
158	0xc0331499	-2.7981322
159	0xbe48bbee	-0.1960294
160	0xbc5a025f	-0.013306229
161	0xbca31ef2	-0.019912217
162	0x3d8288de	0.063737616
163	0xbc3fc6ed	-0.011705142
164	0x3d51e0d8	0.05123982
165	0xbe5aefa7	-0.21380483
166	0x3ec106ca	0.37700492
167	0xbc5b609c	-0.013389733
168	0xbae8445b	-0.0017720567
169	0x3dccf3e3	0.10007455
170	0xbcd6e1c4	-0.0262307
171	0xbeaf65ad	-0.3425726
172	0x3e6e7da2	0.23290113
173	0x3c98577c	0.018596403
174	0xbf6d3104	-0.92652917
175	0xbe0f4776	-0.13992104
176	0x3bc3fb0e	0.005980856
177	0xc082e1f4	-4.090082
178	0x3fae0537	1.3595341
179	0xbc7bfb8f	-0.0153798
180	0xbcea82c6	-0.02862681
181	0x3e4ab1f8	0.19794452
182	0xbffb60ed	-1.9638954
183	0xbd2f892b	-0.042855423
184	0xbd8cd50c	-0.06876573
185	0xbe7d6eb6	-0.24749264
186	0x3e0269dd	0.12735696
187	0x3f6b7bde	0.9198588
188	0x3e1e4956	0.15457663
189	0x3d064608	0.03278163
190	0xbfe4a2a2	-1.7862132
191	0xbe919e48	-0.28441072
192	0x3bec6258	0.007213872
193	0xbe374efe	-0.17901227
194	0x3e82e274	0.25563395
195	0x3c88abed	0.016683543
196	0x3db4d613	0.08829894
197	0x3f233e43	0.6376688
198	0x3eb8987b	0.36053833
199	0xba3b6a0d	-0.00071492867
200	0xbc98d6ec	-0.01865717
201	0x3e7a6504	0.24452597
202	0xbcc11161	-0.023567857
203	0x3f132a29	0.57486206
204	0x3e6a02e4	0.22852665
205	0xb982d85a	-0.00024956727
206	0x3e2dc2d8	0.16968858
207	0x3e6967af	0.22793458
208	0xbb1b694e	-0.002371389
209	0x3ffc6ad7	1.9720105
210	0xbd81c190	-0.06335747
211	0xbbbf9dc6	-0.0058476655
212	0x3e57ab7d	0.21061511
213	0x3e2e693d	0.17032333
214	0x3f72dad6	0.9486517
215	0xbc0fe902	-0.008783581
216	0x3bea758c	0.007155126
217	0xbe3525db	-0.17690222
218	0x3dbb8853	0.09156861
219	0x3ebf402e	0.37353653
220	0x3d10114d	0.03517275
221	0x3be13cab	0.0068736873
222	0xbf1f4f0a	-0.6222998
223	0x3e5357e1	0.20638992
224	0x3ca1e1cf	0.019760994
225	0xbeec287b	-0.46124634
226	0xbc23dd48	-0.010001488
227	0x3c533f4c	0.012893509
228	0x3ed53deb	0.41648802
229	0xbeb87ce6	-0.3603279
230	0xbf7d56da	-0.9896065
231	0xbc2ce944	-0.010553662
232	0x3bcd9fef	0.006275169
233	0x3da41b36	0.080130026
234	0xbd37c821	-0.044868592
235	0xbe9ece1b	-0.3101662
236	0x3e306227	0.17224942
237	0x3b976274	0.004619891
238	0xbdb21915	-0.0869619
239	0x3e620fd2	0.22076347
240	0x3b3b45b2	0.0028575477
241	0x3d8c3b70	0.06847274
242	0x3d941824	0.07231167
243	0x3b681004	0.0035409937
244	0x3d7a5e6c	0.061125204
245	0xbec4393c	-0.38324916
246	0xbf60f33c	-0.87871146
247	0xbc0a8159	-0.00845369
248	0x3c76515a	0.015034044
249	0xbd4b2eb1	-0.049605075
250	0x3de66141	0.112490185
251	0x3997b83e	0.00028938235
252	0xbfae2f41	-1.3608171
253	0xbb82de0f	-0.0039937566
254	0xbe4ca89b	-0.19986193
255	0xbca66a6c	-0.020314418

decoder.fc1.bias f4 [256]
0	0x3f739e14	0.95163083
1	0x3f76d051	0.96411616
2	0xbfbbee82	-1.4682162
3	0x3f01d0e0	0.5070934
4	0xbf3a73f8	-0.72833204
5	0xbed99118	-0.4249351
6	0x3f708b5d	0.9396265
7	0x3f1ccd53	0.612508
8	0xc01d8d31	-2.4617426
9	0xbf479286	-0.7795795
10	0xbecdad8c	-0.40171468
11	0xbf1cc10e	-0.6123208
12	0xbee55f7d	-0.44799414
13	0x3f5ef9af	0.87099737
14	0x3f5f94ef	0.8733663
15	0xbe8fdae9	-0.28096703
16	0x3f1a20f6	0.60206544
17	0xbf666ebe	-0.9001273
18	0xbfbf79d7	-1.4959058
19	0x3f2578ac	0.64637256
20	0x3fa62db6	1.29827
21	0xbf0da539	-0.55330235
22	0xc091af1e	-4.5526266
23	0xbf8cc433	-1.0997375
24	0xbf8e5477	-1.1119527
25	0x400080e6	2.0078673
26	0x3d77b1d8	0.06047234
27	0xc0189d74	-2.3846102
28	0xbef4f1ee	-0.47840828
29	0x3f6ae273	0.91751784
30	0xbe621f09	-0.22082151
31	0x3f57a5e6	0.84237516
32	0xbf27ec9e	-0.65595424
33	0x3c9251f9	0.017861353
34	0x3ed5245a	0.41629297
35	0xbf14b010	-0.5808115
36	0x3d3fc916	0.04682263
37	0xbfc8961d	-1.5670811
38	0xbff10d7a	-1.8832238
39	0xbbb6b124	-0.005575316
40	0xbf410a97	-0.75406784
41	0xbee16cdb	-0.44028363
42	0xbefd9c97	-0.4953353
43	0x3eea185f	0.4572172
44	0x3ed61100	0.41809845
45	0x3f20d42b	0.6282374
46	0xbf0ad13b	-0.5422551
47	0xbe967648	-0.29387116
48	0xbee5ae43	-0.44859514
49	0xbe817ca9	-0.2529042
50	0xbeab4a37	-0.3345506
51	0xbfdbe7ec	-1.7180152
52	0x3e9f3f80	0.31103134
53	0x3dfdb52f	0.12388074
54	0xbe7ecb8c	-0.24882334
55	0x3fd072d6	1.6285045
56	0xbefc489a	-0.4927414
57	0x3f62039f	0.88286775
58	0xbf745f0a	-0.9545752
59	0xbf5394da	-0.82649004
60	0x3f8785f2	1.0587752
61	0x3f8a2dc6	1.0795219
62	0xbf08018b	-0.53127354
63	0xbf83a34e	-1.0284212
64	0x3f4a8aae	0.7911786
65	0x3f747843	0.95496005
66	0xc014e0f9	-2.3262312
67	0x3e94e87d	0.29083624
68	0xbe60e847	-0.21963607
69	0x3e540567	0.20705186
70	0x3eca99e0	0.39570522
71	0x3f75c3c0	0.96001816
72	0xbf0020a0	-0.5004978
73	0xbee52326	-0.4475338
74	0xc001bd8b	-2.0271938
75	0xbf299249	-0.6623884
76	0xc032f689	-2.7962973
77	0xbf886d22	-1.0658305
78	0xc0002863	-2.002465
79	0x3faa49a4	1.3303723
80	0x3f7a691f	0.9781665
81	0x3f398a05	0.72476226
82	0x3f060823	0.52356166
83	0x3f43a144	0.76417947
84	0xc017a62d	-2.3695176
85	0x3ef40ec9	0.4766753
86	0xbf86ca1b	-1.0530428
87	0xbf492944	-0.7857859
88	0xbf9510ce	-1.1645753
89	0xbf0d6202	-0.55227673
90	0xbea4bcdb	-0.32175335
91	0x3fab521d	1.3384434
92	0x3dc3f676	0.09568493
93	0xbf113f96	-0.5673765
94	0x3e13a38b	0.14417855
95	0xbf039bdd	-0.51409703
96	0xbe440845	-0.1914378
97	0x3e0feccc	0.14055175
98	0x3e90a8cf	0.2825379
99	0x3f6b94fc	0.9202421
100	0x3e66d094	0.22540504
101	0xbf2e4656	-0.68076074
102	0x3f37b80e	0.7176522
103	0xbf610a2f	-0.87906164
104	0xbf890220	-1.0703773
105	0xbd06204f	-0.032745656
106	0xba9b81f6	-0.0011864293
107	0xbf9be909	-1.2180492
108	0xbf50daa3	-0.81583613
109	0xbf0ab9d6	-0.54189813
110	0xbbb3564f	-0.0054729353
111	0x3f00c3ce	0.50298774
112	0xc058a99d	-3.3853524
113	0xbf882295	-1.0635554
114	0xbe8d8a27	-0.27644464
115	0x3eea8b47	0.45809385
116	0xbfe9673c	-1.823463
117	0x3f76fd18	0.9647994
118	0xc01c2064	-2.439477
119	0xc014b6c1	-2.3236544
120	0x3f1094bf	0.5647697
121	0xbf20988e	-0.6273278
122	0x3d4be697	0.049780454
123	0x3e1aea80	0.15128517
124	0x3dadcada	0.084859565
125	0xbf1f1644	-0.6214335
126	0xbde423c9	-0.11139638
127	0xbfff526f	-1.9947032
128	0x3faa387b	1.3298486
129	0x3f9d5b65	1.2293516
130	0xbcefeffb	-0.029289236
131	0xbed337dc	-0.41253555
132	0xbf057f0c	-0.52146983
133	0x3f306bf6	0.68914735
134	0xc036ed91	-2.85825
135	0xbfb51150	-1.4145908
136	0x3f87d4ed	1.0611855
137	0xbf69be37	-0.9130587
138	0xbf91d23a	-1.1392281
139	0xbf9df63f	-1.2340773
140	0xbfb9e5a8	-1.452321
141	0x3d0a10d2	0.033707447
142	0xc024ce70	-2.5751
143	0x3cbb5891	0.02286938
144	0xbf2d59cc	-0.67715144
145	0xbfec479b	-1.8459352
146	0xbfcd8aae	-1.6057947
147	0x3f410517	0.7539839
148	0xbe98bc75	-0.2983128
149	0xbd5beeec	-0.05369465
150	0xbfb35091	-1.4008962
151	0xbf772bb5	-0.96551067
152	0xbefd16ea	-0.49431545
153	0xc04d6efc	-3.209899
154	0x3f0d0136	0.5507997
155	0x3f244ec3	0.6418268
156	0xbec2f73d	-0.38079253
157	0x3f48d1fb	0.78445405
158	0xbfcc8ef0	-1.5981121
159	0x3e1b50e8	0.15167582
160	0x3f4c43b0	0.7979078
161	0xbfc05552	-1.5026038
162	0x3ee01be3	0.43771276
163	0xbed44251	-0.41456845
164	0xc014e3c3	-2.3264015
165	0xbff00025	-1.8750044
166	0x3f738f8d	0.95140916
167	0x3ef609df	0.48054406
168	0x3fa14a06	1.2600715
169	0x3f8a34a4	1.0797315
170	0xbee08445	-0.43850914
171	0x3d647d07	0.055783298
172	0xbfb31573	-1.3990921
173	0xbf1f3ab7	-0.62198967
174	0x3ebcf1ec	0.36903322
175	0xbfad4c88	-1.353898
176	0x3f3c897c	0.73647285
177	0xbed6273c	-0.41826808
178	0x3f2e6497	0.6812224
179	0xbe532d0d	-0.20622654
180	0xc00728ba	-2.1118608
181	0x3faf78dc	1.3708758
182	0xbf9c4eb6	-1.2211521
183	0xbf423813	-0.7586681
184	0xbfa374e2	-1.2770045
185	0xbfa2d3a6	-1.272084
186	0x3eb3cf9a	0.35119325
187	0x3e1282fb	0.14307778
188	0xbe61e359	-0.22059382
189	0xbff549ca	-1.9163144
190	0xbc535374	-0.012898315
191	0x3f7e4b9b	0.99334115
192	0xbdba77c3	-0.09104874
193	0xc029594b	-2.646075
194	0x3e92a52d	0.28641644
195	0x3fb13533	1.384436
196	0x3f211ab1	0.6293135
197	0xbf4100ee	-0.75392044
198	0x3ef9078a	0.48638564
199	0xc01d61a3	-2.4590843
200	0xbf8497f3	-1.0358871
201	0x3f8f3f88	1.1191263
202	0x3f1fea05	0.6246646
203	0x3e8e7ed2	0.2783113
204	0xbf598e51	-0.8498278
205	0x3f57aa1f	0.8424396
206	0x3f32f037	0.6989779
207	0xbf5484bb	-0.8301503
208	0xbeb471a0	-0.3524294
209	0xbf611db8	-0.8793597
210	0xbf0c6a1d	-0.54849416
211	0xbf643a50	-0.8915148
212	0xbe87da60	-0.26533794
213	0xc03d1124	-2.9541712
214	0xbfa09057	-1.2544049
215	0xbd370205	-0.04467966
216	0x3de4c9b1	0.11171282
217	0x3f4da6ac	0.80332446
218	0xbf55b823	-0.83484095
219	0x3f7e0aeb	0.9923541
220	0x3ca48231	0.020081611
221	0xbe97e665	-0.29667965
222	0x3eded794	0.43523848
223	0x3e4787e0	0.19485426
224	0x3fb8f7f9	1.4450675
225	0xbe2fd46a	-0.17170873
226	0x3ea65582	0.32487112
227	0xbf70ce48	-0.9406476
228	0x3f51e86c	0.8199527
229	0xbe25217b	-0.16126053
230	0xbf724a89	-0.9464498
231	0xbfe26540	-1.7687149
232	0x3efbe80c	0.49200475
233	0xc03b2b74	-2.9245272
234	0x3f990fbe	1.1957929
235	0xbf2baaac	-0.670573
236	0x3f8cf010	1.1010761
237	0xbe08fe36	-0.13378224
238	0xbea49228	-0.32142758
239	0xbf244a46	-0.6417583
240	0xbfd68ee6	-1.6762359
241	0x3e91c20e	0.28468364
242	0x3e2fe012	0.1717532
243	0x3ebee2fc	0.3728255
244	0x3f16c69d	0.5889681
245	0x3ef06a80	0.46956253
246	0xbea25fdb	-0.31713757
247	0xc027e579	-2.623381
248	0x3e363d32	0.17796782
249	0x40057592	2.085301
250	0xbede9c26	-0.43478507
251	0xbe049d91	-0.12950732
252	0x3ca28f62	0.01984376
253	0x3f5633fe	0.83673084
254	0x3eb49436	0.35269326
255	0x3e930f37	0.28722546

decoder.fc2.weight f4 [51, 256]
0	0x3d884ea3	0.06655624
1	0xbe37d4b5	-0.17952235
2	0x3e14ee34	0.14543992
3	0xbe054b66	-0.13017043
4	0xbe405bab	-0.18784969
5	0xbd93a1ee	-0.0720862
6	0xbea2537b	-0.31704316
7	0xbec39003	-0.3819581
8	0xbee73ed2	-0.45165116
9	0x3e5ed854	0.2176221
10	0x3e95b35b	0.292384
11	0xbe51f11b	-0.2050213
12	0xbe4ac8db	-0.19803183
13	0x3d04c979	0.0324187
14	0xbe476d36	-0.19475254
15	0xbec0d686	-0.37663668
16	0x3d2b180f	0.04177099
17	0x3e1dab4e	0.15397379
18	0x3f8ae065	1.084973
19	0xbf22acef	-0.63545126
20	0xbd27519c	-0.040849313
21	0xbed13110	-0.40857744
22	0x3f54e56b	0.83162564
23	0x3d77a9d2	0.060464688
24	0xbe329081	-0.17437936
25	0x3e676645	0.22597606
26	0xbe83635b	-0.2566174
27	0x3fc38787	1.5275735
28	0x3d9c78d8	0.076402366
29	0x3fc1a6f2	1.5129073
30	0x3de64a10	0.11244595
31	0xbd9d27d1	-0.0767361
32	0xbd9cc112	-0.07654013
33	0xbefc55e4	-0.4928428
34	0xbe70ad53	-0.23503618
35	0xbef8866e	-0.48540062
36	0xbf05c62d	-0.5225552
37	0x3e82fbec	0.25582826
38	0xbe18d03e	-0.14923188
39	0xbe18bb4d	-0.149152
40	0xbe9267b7	-0.28594753
41	0x3dcedb49	0.10100419
42	0xbf9dc5e0	-1.2326012
43	0xbd672c2d	-0.056438614
44	0xbd9a3953	-0.07530465
45	0x3dfff10d	0.12497149
46	0xbe5a26a2	-0.213038
47	0x3ca65ca3	0.020307845
48	0xbeab579d	-0.3346528
49	0x3c94256f	0.018084256
50	0x3e1f5504	0.15559775
51	0x3f2750dc	0.65357757
52	0x3ee09215	0.43861452
53	0x3d8dabf3	0.06917562
54	0x3df3c3dd	0.11902592
55	0xbe55ffed	-0.20898409
56	0x3d9dba9a	0.07701607
57	0xbea0f89f	-0.31439683
58	0xbe4c4b6c	-0.19950646
59	0xbdba6e8c	-0.091031164
60	0x3dc974bf	0.09836721
61	0x3ee02a6c	0.43782365
62	0x3dd154da	0.10221262
63	0xbe35d217	-0.17755924
64	0xbe1cd0dd	-0.1531405
65	0xbf239361	-0.6389676
66	0xbdd0846f	-0.1018151
67	0x3e43419a	0.19067994
68	0xbcd438c6	-0.025905978
69	0xbc92264e	-0.01784053
70	0xbefd3918	-0.49457622
71	0x3ed91c34	0.4240433
72	0x3eabeae6	0.3357765
73	0xbe179601	-0.14803316
74	0x3ee647e1	0.44976714
75	0x3f16a763	0.5884916
76	0xbe908c67	-0.28232118
77	0xbd30a712	-0.04312808
78	0x3e5cf955	0.21579488
79	0xbec0a5ec	-0.37626588
80	0xbf14359e	-0.57894313
81	0xbe9f9117	-0.31165382
82	0x3e059e42	0.13048652
83	0xbeb39501	-0.35074618
84	0xc0145312	-2.3175702
85	0x3d4e381f	0.05034649
86	0x3df23cc2	0.11827995
87	0x3e07707a	0.132265
88	0xbec5c4ac	-0.3862661
89	0xbde427a6	-0.11140375
90	0x3d54aae7	0.051920798
91	0xbf06ad5b	-0.5260827
92	0x3da5d450	0.08097136
93	0xbe5999fe	-0.2125015
94	0x3f14a461	0.5806332
95	0x3ebb2dd9	0.36558416
96	0x3f08bdc2	0.5341455
97	0x3e1b8fc1	0.15191557
98	0xbf2fff61	-0.6874905
99	0xbeca91ae	-0.3956427
100	0x3d54c926	0.051949643
101	0x3e847c37	0.25876018
102	0x3df9a181	0.121890076
103	0x3ec14e5b	0.37755093
104	0xbf31e39c	-0.6948793
105	0x3e5e26aa	0.21694437
106	0x3e5e6894	0.21719581
107	0xbf1aca42	-0.6046487
108	0xbeec4b9c	-0.46151435
109	0xbd226ca3	-0.039654385
110	0x3c5427fa	0.012948984
111	0x3d1847c0	0.0371778
112	0xbe142b93	-0.14469747
113	0x3d8e0216	0.069339916
114	0x3ec6bff8	0.38818336
115	0xbe7c1533	-0.24617462
116	0xbd4b89f4	-0.04969211
117	0x3dd2df70	0.102965236
118	0x3decfa82	0.11571218
119	0x3e3cdd7d	0.18443866
120	0x3f1f769c	0.6229036
121	0x3cfb8171	0.03070137
122	0x3e9da276	0.3078801
123	0x3eeb8c7c	0.4600562
124	0xbd1731c0	-0.03691268
125	0xbf01749b	-0.5056855
126	0xbf3ea4b0	-0.74470043
127	0xbef6fb9c	-0.48238838
128	0xbd6d1de6	-0.05788984
129	0x3d62db87	0.05538514
130	0xbd6d4104	-0.05792333
131	0x3e7f39c4	0.2492438
132	0xbf056320	-0.5210438
133	0xbcc9af2a	-0.024619658
134	0xbe593b5d	-0.21214052
135	0xbe80dcfb	-0.25168595
136	0x3ead6382	0.3386498
137	0x3e196ebf	0.14983653
138	0xbe6a479a	-0.22878876
139	0x3ce2e149	0.027695315
140	0x3e18b273	0.14911823
141	0x3ea24287	0.3169138
142	0x3deedd51	0.116633065
143	0xbbe37958	-0.0069419555
144	0xbca3b850	-0.019985348
145	0xbe9d1524	-0.30680192
146	0x3e159991	0.14609362
147	0x3e9f0680	0.31059647
148	0xbdab3b73	-0.083609484
149	0x3e212024	0.15734917
150	0xbe51e0d9	-0.20495929
151	0xbf461fda	-0.7739235
152	0x3ec99711	0.39373067
153	0xbf7713fc	-0.9651487
154	0xbe9699d2	-0.2941423
155	0x3ed51de0	0.41624355
156	0x3e8934a8	0.26797986
157	0xbf09d9fc	-0.5384824
158	0xbfc8b280	-1.5679474
159	0xc01c2b07	-2.4401262
160	0x3e719129	0.2359053
161	0x3f064492	0.5244838
162	0x3a9a987d	0.0011794713
163	0x3ed8e5a3	0.423627
164	0x3f80dae8	1.0066805
165	0x3dc5c4ec	0.096567005
166	0xbcd601ab	-0.026123842
167	0xbe7e1a42	-0.24814704
168	0x3f4dc0c8	0.80372286
169	0xbddf3431	-0.108986266
170	0x3ea5fc48	0.32419038
171	0x3e27c5a0	0.16383982
172	0xbe9a8d5a	-0.30185968
173	0x3b634934	0.0034681084
174	0xbd83286f	-0.064041965
175	0x3d35c9ba	0.044381835
176	0x3e4f6871	0.20254685
177	0x3d9d9971	0.07695282
178	0xbe6d4ad5	-0.23173077
179	0xbd590379	-0.052981827
180	0x3ea1ef12	0.3162771
181	0xbdb92161	-0.0903957
182	0xbf549a28	-0.83047724
183	0x3e4afe86	0.19823655
184	0x3efd11b2	0.49427563
185	0x3df4f9dc	0.119617194
186	0xbda29eaf	-0.07940423
187	0x3dd3184b	0.10307368
188	0x3c88e726	0.016711783
189	0xbdabc9e4	-0.08388117
190	0x3ece6a43	0.40315446
191	0xbb88b2c0	-0.0041716993
192	0x3e52b957	0.20578514
193	0xbeca05a9	-0.39457443
194	0xbf09c7d2	-0.53820527
195	0xbd3a8e32	-0.045545764
196	0x3e1bfa36	0.15232167
197	0xbf0cdc5e	-0.55023754
198	0x3e737623	0.23775534
199	0xbf332114	-0.6997235
200	0x3f8b9dbc	1.0907512
201	0x3eafa4f1	0.34305528
202	0xbde7f921	-0.113268144
203	0x3ecf1f79	0.404537
204	0x3ee69747	0.4503729
205	0xbeff4a10	-0.49861193
206	0x3e986488	0.297642
207	0xbd90ee6a	-0.07076724
208	0xbf7e9528	-0.99446344
209	0xbe1fcf41	-0.15606405
210	0x3d032c8e	0.032024913
211	0xbf0f5d51	-0.56001765
212	0xbe41c81f	-0.18923996
213	0xbf83a978	-1.0286093
214	0xbf07bd64	-0.5302336
215	0x3e83f058	0.25769305
216	0xbdd3808b	-0.10327252
217	0xbe322c2f	-0.17399667
218	0x3cd7afff	0.026329039
219	0xbddc4d3e	-0.1075692
220	0x3c5f671e	0.013635425
221	0x3e967b26	0.2939083
222	0x3d5510e4	0.05201806
223	0x3e3ce4c8	0.18446648
224	0xbea93efd	-0.3305587
225	0x3e736c55	0.23771794
226	0xbef263fd	-0.4734191
227	0x3ea0a7d1	0.31378034
228	0xbf8701dc	-1.0547442
229	0x3deffbf8	0.11717981
230	0x40491cb7	3.1423776
231	0xbf88b438	-1.0679998
232	0xbdf5284c	-0.11970577
233	0xc03007d4	-2.7504778
234	0x3eeaee3a	0.45884877
235	0x3f2c4d47	0.67305416
236	0x3ddd70c4	0.10812524
237	0xbdbce660	-0.09223628
238	0xbdc21064	-0.094757825
239	0x3d0c78bf	0.03429484
240	0xbf7ba9cc	-0.98305964
241	0xbd079201	-0.033098225
242	0x3c5371fb	0.012905593
243	0x3e2437fb	0.1603698
244	0xbec1ffa1	-0.37890342
245	0xbea7e821	-0.32794288
246	0x3f6d0f4c	0.92601466
247	0x4003d62c	2.059947
248	0xbed3dbcc	-0.4137863
249	0xbdc9a693	-0.09846225
250	0xbea8a123	-0.32935438
251	0xbe4505f1	-0.19240548
252	0xbe30f865	-0.17282255
253	0xbf0dcd99	-0.5539184
254	0x3d9c01d3	0.076175354
255	0xbd1cf5d2	-0.03832037

decoder.fc2.bias f4 [51]
0	0xbf7e63dd	-0.9937113
1	0xbf29a730	-0.6627073
2	0xbe424d29	-0.18974747
3	0x3da5caa2	0.0809529
4	0x3f9479ee	1.159971
5	0xbe41d665	-0.18929441
6	0xbe34bfca	-0.17651287
7	0xbe945472	-0.28970677
8	0xbe4ca874	-0.19986135
9	0xbdba8100	-0.09106636
10	0x3e8fed14	0.28110564
11	0xbe55f4a9	-0.20894112
12	0x3f264e30	0.64963055
13	0x3f48e548	0.78474855
14	0xbf27c70a	-0.65538085
15	0xbe980658	-0.2969234
16	0xbdfe5710	-0.124189496
17	0xbe4db6e1	-0.20089294
18	0xbd790efe	-0.060805313
19	0x3e008345	0.12550075
20	0xbe571465	-0.21003874
21	0xbe587af5	-0.21140654
22	0x3eae9f38	0.3410585
23	0x3e659ddd	0.22423501
24	0xbf1eb684	-0.61997247
25	0x3dbdda76	0.09270184
26	0x3e397f5e	0.18114993
27	0xbed1b436	-0.40957803
28	0xbe925376	-0.285793
29	0xbdd5ae53	-0.1043364
30	0xbf8aa982	-1.083298
31	0xbe2375d4	-0.15962917
32	0x3e3e532d	0.18586417
33	0x3f220df0	0.63302517
34	0xbe173c1b	-0.14769022
35	0x3f4bdc00	0.7963257
36	0x3f1ea5c9	0.6197172
37	0xbe2664c3	-0.16249375
38	0xbecb430a	-0.39699584
39	0xbe66f3ca	-0.22553936
40	0xbef7a5c0	-0.48368645
41	0xbf0d861c	-0.5528276
42	0xbe04b892	-0.12961033
43	0xbe75f280	-0.24018288
44	0x3f9642d7	1.1739148
45	0xbecedb3c	-0.40401638
46	0x3e843bb2	0.25826794
47	0x3e10bf9f	0.14135598
48	0xbefd6ea3	-0.49498472
49	0xbe38e41d	-0.18055768
50	0x3f44f026	0.7692894
