model/vae_hd256_ld16_gamma1000.pth (torch, 159699 bytes, 10 tensors)

encoder.fc1.weight f4 [256, 51]
-0.26803923 -0.015781505 0.17791054 -0.41439673 -0.21146439 -0.20831169 -0.06863918 0.39129657
0.12298314 0.18452531 -0.041236203 0.32860813 -0.36855894 -0.007088089 0.2762108 -0.4377593
-0.19747211 0.045000844 0.2671914 0.11626978 0.31080723 0.1585672 0.0957461 -0.26988164
0.34767544 -0.23001128 -0.18383367 0.16833195 -0.28507364 -0.35570905 0.13257667 -0.31546885
-0.44388673 0.36612794 0.07210891 -0.0978706 -0.12661035 0.36297604 0.28917253 -0.31892264
0.038277663 0.30607447 0.03533782 -0.14567083 -0.29696465 -0.017135885 -0.018918235 0.13626134
0.27475744 -0.26053092 -0.006461596 0.055962805 -0.44018465 -0.3474156 -0.065671116 0.32945314
-0.25711 -0.09186376 0.36921054 -0.19974263 -0.12584671 0.02826626 0.3896951 0.08512879
-0.5925392 -0.11942169 -0.25358707 -0.02531745 0.05418869 -0.22162203 0.1484873 0.59352887
-0.0053466475 -0.0021372614 -0.54326826 -0.20080848 0.18758565 -0.3989032 -0.26697782 -0.08367424
-0.2998877 -0.12881699 -0.19856532 -0.20578723 -0.22553827 -0.14690572 -0.31499192 0.12885353
0.014743926 0.21807308 0.56965786 -0.119318545 -0.39771792 0.009419714 0.40921995 -0.09981171
0.37937912 0.1193803 0.18390305 0.3566372 0.17270437 -0.14753133 0.07907469 0.4387469
-0.02602981 0.23770767 0.36787707 -0.12945525 -0.13191625 0.16032903 0.24011385 -0.08684365
0.04806886 0.30547667 -0.13892359 -0.29262424 0.17364582 0.09773507 -0.28334823 -0.25715902
0.027644783 0.019825187 0.22633821 0.4759774 0.1697717 -0.117016666 0.3088801 -0.13659571
-0.068803124 -0.15818198 0.043029398 -0.049268954 0.09333419 -0.18997312 -0.15624237 -0.010457944
-0.10584392 -0.075454555 -0.7164322 -0.1827207 -0.42841223 -0.22441292 -0.14673145 -0.2673855
0.43227795 0.24786739 -0.14879352 -0.21581972 0.28268513 0.052415755 -0.12318915 0.24988374
0.11059422 -0.21564987 0.12219651 -0.05513237 -0.1458579 -0.27739048 0.054325312 -0.0403814
-0.010081616 0.12087571 -0.064695306 0.06150868 0.3000771 0.12310319 0.08453504 0.23548836
-0.04446748 -0.0641625 0.16023465 0.6872955 0.2262774 0.038994525 -0.13598445 0.17907305
-0.18504614 0.058822766 0.28670382 -0.0017762422 -0.2543861 -0.07836171 -0.17567943 0.12205429
0.039497156 -0.24521029 -0.2940538 0.009737613 -0.19133987 -0.16091047 0.18074353 0.11374183
0.0048954026 0.0059008943 -0.13614726 0.022990378 -0.008422334 -0.029424662 -0.084711984 0.004747474
-0.092128314 -0.07056268 -0.08341111 0.01965919 -0.121737435 0.11128257 -0.010122022 -0.13315675
-0.04503577 0.025208548 -0.20591931 0.06701145 0.20919463 -0.11673065 0.09778332 0.1164743
-0.07450962 -0.11284793 -0.084625654 0.08616201 0.05994169 0.0732954 0.7957006 0.4182229
0.08750137 -0.24395809 -0.13488396 -0.15869081 -0.26048768 0.014887396 -0.10603442 -0.15777968
0.029523266 -0.086838186 -0.21964148 -0.05600514 -0.069544904 -0.010202742 -0.2393167 -0.2180738
-0.10206039 -0.035423033 0.040978853 -0.060568064 0.020873891 0.08667872 -0.11630055 0.020328758
0.084091805 -0.19419362 -0.053642165 0.07581703 -0.12916726 0.025720075 0.10696512 0.26108652
00000000: 703c 89be 3748 81bc 2e2e 363e cf2b d4be
00000010: 1f8a 58be a94f 55be b392 8cbd 0658 c83e
00000020: 96de fb3d 34f4 3c3e 4be7 28bd 533f a83e
00000030: c2b3 bcbe 3343 e8bb 816b 8d3e fd21 e0be
00000040: 2136 4abe ce52 383d 50cd 883e da1e ee3d
00000050: 2022 9f3e 715f 223e 8816 c43d ed2d 8abe
00000060: 8402 b23e 1488 6bbe e53e 3cbe 365f 2c3e
00000070: 2cf5 91be 7f1f b6be 2ec2 073e 2285 a1be
00000080: 1f45 e3be 1f75 bb3e d6ad 933d 6270 c8bd
00000090: 25a6 01be ffd7 b93e 6c0e 943e d449 a3be
000000a0: 0ac9 1c3d cbb5 9c3e 64be 103d bc2a 15be
000000b0: c00b 98be 8e60 8cbc 6afa 9abc 1888 0b3e
000000c0: 02ad 8c3e 4f64 85be ccbb d3bb 4139 653d
000000d0: e25f e1be 75e0 b1be 947e 86bd 15ae a83e
000000e0: eca3 83be 1123 bcbd 2a09 bd3e 5589 4cbe
000000f0: f6dd 00be a58e e73c 1e86 c73e 0158 ae3d
00000100: a6b0 17bf 5c93 f4bd 2ad6 81be 8a66 cfbc
00000110: f6f4 5d3d e3f0 62be 0e0d 183e 82f1 173f
00000120: ee32 afbb 4c11 0cbb a113 0bbf bda0 4dbe
00000130: 7416 403e 0a3d ccbe 51b1 88be 665d abbd
00000140: e18a 99be 9ae8 03be b554 4bbe e3b9 52be
00000150: 81f3 66be 746e 16be 9f46 a1be 2ef2 033e
00000160: 8290 713c 8d4e 5f3e 19d5 113f 485d f4bd
00000170: afa1 cbbe 2555 1a3c 4785 d13e 156a ccbd
00000180: fb3d c23e a97d f43d 1551 3c3e 2799 b63e
00000190: 6ad9 303e 7412 17be e9f1 a13d 6fa3 e03e
000001a0: 783c d5bc a469 733e 625a bc3e eb8f 04be
000001b0: 0e15 07be 4b2d 243e 68e0 753e 15db b1bd
000001c0: dae3 443d 7067 9c3e fc41 0ebe d8d2 95be
000001d0: 36d0 313e 5329 c83d 0513 91be 59aa 83be
000001e0: 5077 e23c 6e68 a23c 34c5 673e 4fb3 f33e
000001f0: a2d8 2d3e 6fa6 efbd 8825 9e3e bfdf 0bbe
00000200: a7e8 8cbd 75fa 21be 983f 303d 3ece 49bd
00000210: ff25 bf3d 5088 42be 00fe 1fbe cc57 2bbc
00000220: b2c4 d8bd eb87 9abd 1a68 37bf 231b 3bbe
00000230: d958 dbbe 80cc 65be c540 16be c1e6 88be
00000240: 8953 dd3e f3d0 7d3e 545d 18be d8ff 5cbe
00000250: 1bbc 903e e7b1 563d 984a fcbd 86e1 7f3e
00000260: 397f e23d 52d3 5cbe 2a42 fa3d 7bd2 61bd
00000270: c65b 15be 2006 8ebe 3884 5e3d f866 25bd
00000280: 5d2d 25bc af8d f73d f97e 84bd 87f0 7b3d
00000290: b5a3 993e 861d fc3d b520 ad3d dc23 713e
000002a0: 8823 36bd a167 83bd 8d14 243e 99f2 2f3f
000002b0: 43b5 673e b9b8 1f3d 823f 0bbe ed5e 373e
000002c0: bc7c 3dbe 24f0 703d d8ca 923e ccd0 e8ba
000002d0: e53e 82be 1b7c a0bd 4fe5 33be 99f7 f93d
000002e0: c5c7 213d 6818 7bbe 388e 96be 828a 1f3c
000002f0: 99ee 43be b7c5 24be d514 393e 7af1 e83d
00000300: 9d69 a03b 4a5c c13b 306a 0bbe 5156 bc3c
00000310: d4fd 09bc fd0b f1bc 7a7d adbd b390 9b3b
00000320: c5ad bcbd 2b83 90bd 72d3 aabd 4f0c a13c
00000330: 7a51 f9bd 1ee8 e33d d6d6 25bc 3e5a 08be
00000340: 6d77 38bd 2882 ce3c 83dc 52be 4d3d 893d
00000350: 1e37 563e 7b10 efbd 9f42 c83d 148a ee3d
00000360: 8098 98bd d11c e7bd 3750 adbd b575 b03d
00000370: 6b85 753d e61b 963d 09b3 4b3f 5021 d63e
00000380: eb33 b33d 26d0 79be 051f 0abe d87f 22be
00000390: a45e 85be 44ea 733c 9328 d9bd ff90 21be
000003a0: c7da f13c 38d8 b1bd b2e9 60be a565 65bd
000003b0: 8f6d 8ebd 6729 27bc 700f 75be bd4e 5fbe
000003c0: 0a05 d1bd be17 11bd 71d9 273d 3816 78bd
000003d0: b9ff aa3c 9d84 b13d fc2e eebd 7f88 a63c
000003e0: 5338 ac3d b1da 46be e3b7 5bbd f645 9b3d
000003f0: 6c44 04be e8b2 d23c 8710 db3d 22ad 853e

encoder.fc1.bias f4 [256]
-0.7615136 -0.5503129 -0.32034433 -0.15926574 -0.15091045 -0.18211785 -0.2746611 -0.6625234
-0.26065752 -0.16024269 -0.20582971 -0.43657514 -0.6579974 -0.76152337 -0.81472546 -0.19259578
-0.7552709 -0.23621126 -0.43005267 -0.34526315 -0.48418543 -0.24310376 0.15410139 -0.1627229
-0.67173254 -0.72141284 -0.6988453 -0.2248887 -0.55564404 -0.6646125 -0.4546358 -0.6942039
-0.24619634 -0.3196476 -0.28628823 -0.384153 -0.72081006 -0.79429996 -0.2633034 -0.4949884
-0.5651774 -0.3011585 -0.31321323 -0.9974161 -0.69439745 -0.057950433 -0.43493465 -0.87836397
-0.7164632 -0.07141458 -0.47833434 -0.44245183 -0.1291654 -0.3786149 -0.462781 -0.52358437
-0.85708594 -0.36539143 -0.25155658 -0.94802773 -0.16805062 -0.50524175 -0.48075536 -0.5025927
-0.21854307 -0.6258357 -0.7024591 -0.10603582 -0.24840567 -0.40793797 -0.4730259 -0.18351674
-0.12025942 -0.5209147 0.56589997 -0.633793 -0.31390554 -0.7079272 -0.88518333 0.09201641
-0.3030307 -0.24898057 -0.67362654 -0.40121365 -0.31743792 -0.35834417 -0.23835044 -0.7163444
-0.6768553 -0.5685591 -0.9213845 -0.7728241 0.023582984 -0.5353422 -0.84037596 -0.29714733
0.22857252 -0.07196325 -0.33474308 -0.59310776 -0.5671185 -0.113183916 -0.15028414 -0.20065251
-0.3827522 -0.76308054 -0.2632607 -0.72460043 -0.74186635 -0.21020193 -0.37373766 -0.088209875
-0.21729636 -0.41566798 -0.53748685 -0.77602917 -0.4653419 -0.19935933 -0.70696396 -0.16001517
-0.4047876 -0.44747508 0.056272075 -0.82901484 -0.66690296 -0.5982858 -0.9798302 -0.40904433
-0.57852453 -0.6388025 -0.3732539 -0.26168233 -0.41638803 -0.33339912 -0.7150896 -0.39416096
-0.367192 -0.27260482 -0.53744775 -0.34521174 -0.7952908 -0.63385063 -0.73785067 -0.22369373
-0.67619056 -0.12488578 -0.5876293 -0.5473272 -0.6120475 -0.5841817 -0.64059234 -0.4697538
-0.4697872 -0.5097963 -0.35499805 -0.087109074 -0.31620982 -0.6381943 -0.16827562 -0.7080036
-0.13878207 -0.5969928 -0.06656381 -0.6951769 -0.14057171 -0.7974843 -0.44528827 0.19991466
-0.6976438 -0.40576494 0.13434125 -0.5308316 -0.4288285 -0.28222886 -0.50516975 -0.46561712
-0.6984145 -0.23701894 -0.64504004 -0.37439245 -0.63924676 -0.31878605 -0.7068181 -0.19064832
-0.64515144 -0.24136998 -0.3954592 -0.8959688 -0.3978087 -0.6010577 -0.5654924 -0.06831536
-0.16086803 -0.3798644 -0.19845346 -0.330258 -0.61896884 -0.36093247 -0.29697952 -0.69352627
-0.21635845 -0.226139 -1.0115904 -0.3164972 -0.6902588 -0.4645659 -0.39980316 -0.56906664
-0.16473329 -0.8030915 -0.4764763 -1.0513678 -0.39811987 -0.61968595 -0.97475433 -0.5776766
-0.44141123 -0.69475627 -0.35578796 -0.3829131 -0.5126002 -0.4141664 -0.73354685 0.093012154
-0.625027 -0.55968046 -0.87005275 -0.61062986 -0.27451584 -0.39618313 -0.6466027 -0.4621266
-0.45074797 -0.76260906 -0.8993099 -0.53443295 -0.6152327 -0.1974391 -0.6687741 -0.55686563
-0.4996066 -0.82323664 -0.681679 -0.47061726 0.23841281 -0.66586417 -0.21893512 -0.45808694
-0.31609562 -0.49928868 0.055229843 -0.6385962 -0.17651187 -0.32699025 -0.43557975 -0.9414557
00000000: 8ef2 42bf 4ee1 0cbf 2c04 a4be 8f16 23be
00000010: 4588 1abe 1a7d 3abe 61a0 8cbe 229b 29bf
00000020: e774 85be a916 24be 06c5 52be c786 dfbe
00000030: 8572 28bf 32f3 42bf d991 50bf d437 45be
00000040: 6f59 41bf 5de1 71be dd2f dcbe 55c6 b0be
00000050: 27e7 f7be 31f0 78be c1cc 1d3e d5a0 26be
00000060: aaf6 2bbf 83ae 38bf 87e7 32bf 3949 66be
00000070: b03e 0ebf 0b24 2abf 06c6 e8be 59b7 31bf
00000080: e51a 7cbe daa8 a3be 5f94 92be b4af c4be
00000090: 0287 38bf 3e57 4bbf b4cf 86be 1f6f fdbe
000000a0: 77af 10bf 7231 9abe 7c5d a0be a956 7fbf
000000b0: 08c4 31bf 6f5d 6dbd c1af debe 76dc 60bf
000000c0: 226a 37bf cf41 92bd 3de8 f4be 0c89 e2be
000000d0: ef43 04be d0d9 c1be a2f1 ecbe a009 06bf
000000e0: fc69 5bbf 9614 bbbe 06cc 80be f2b1 72bf
000000f0: 7615 2cbe 8657 01bf 9125 f6be eaa9 00bf
00000100: c1c9 5fbe c536 20bf 5cd4 33bf 4f29 d9bd
00000110: 0e5e 7ebe 3fdd d0be 7330 f2be d0eb 3bbe
00000120: 924a f6bd aa5a 05bf d2de 103f 4240 22bf
00000130: 3ab8 a0be b83a 35bf 609b 62bf 1973 bc3d
00000140: d726 9bbe c3f4 7ebe ca72 2cbf e06b cdbe
00000150: 3987 a2be e378 b7be 2312 74be 5962 37bf
00000160: 6446 2dbf 178d 11bf dbdf 6bbf cdd7 45bf
00000170: 1a31 c13c 300c 09bf e122 57bf b223 98be
00000180: ea0e 6a3e 7861 93bd 7263 abbe e9d5 17bf
00000190: ae2e 11bf f8cc e7bd 16e4 19be da77 4dbe
000001a0: 19f8 c3be 3f59 43bf 1bca 86be 6a7f 39bf
000001b0: f4ea 3dbf 2d3f 57be 8b5a bfbe 61a7 b4bd
000001c0: f082 5ebe 6fd2 d4be bd98 09bf d9a9 46bf
000001d0: 4b41 eebe da24 4cbe 97fb 34bf 04db 23be
000001e0: 5240 cfbe 741b e5be 8c7d 663d 513a 54bf
000001f0: 27ba 2abf 4229 19bf 27d6 7abf 426e d1be
00000200: 2f1a 14bf 9088 23bf 231b bfbe 3afb 85be
00000210: d030 d5be 4ab3 aabe 1d10 37bf 77cf c9be
00000220: 9700 bcbe dc92 8bbe 2d96 09bf 98bf b0be
00000230: 2e98 4bbf 0944 22bf c8e3 3cbf f80f 65be
00000240: d31a 2dbf 1ec4 ffbd e06e 16bf a31d 0cbf
00000250: 25af 1cbf ef8c 15bf dcfd 23bf 9283 f0be
00000260: f387 f0be 0382 02bf 4ec2 b5be 3e66 b2bd
00000270: 41e6 a1be b460 23bf 7250 2cbe b93f 35bf
00000280: e31c 0ebe 85d4 18bf 9b52 88bd 1df7 31bf
00000290: 08f2 0fbe ee27 4cbf d3fc e3be 6eb6 4c3e
000002a0: c998 32bf 6cc0 cfbe c190 093e 94e4 07bf
000002b0: 698f dbbe 4d80 90be ce52 01bf 5e65 eebe
000002c0: 4bcb 32bf 18b5 72be 5821 25bf 5eb0 bfbe
000002d0: ada5 23bf ed37 a3be 08f2 34bf 5039 43be
000002e0: a528 25bf b129 77be a179 cabe 365e 65bf
000002f0: 95ad cbbe ebde 19bf 1cc4 10bf ece8 8bbd
00000300: 97ba 24be 967d c2be 6237 4bbe 9417 a9be
00000310: be74 1ebf 24cc b8be b30d 98be f08a 31bf
00000320: 128d 5dbe fb90 67be cb7b 81bf ec0b a2be
00000330: cdb4 30bf 95db edbe 00b3 ccbe 5aae 11bf
00000340: d8af 28be 6897 4dbf b4f4 f3be 3893 86bf
00000350: 5ed6 cbbe bda3 1ebf 8089 79bf 9de2 13bf
00000360: a700 e2be 8cdb 31bf d729 b6be 300d c4be
00000370: c439 03bf 9e0d d4be bac9 3bbf 287d be3d
00000380: c501 20bf 3847 0fbf c7bb 5ebf 3d52 1cbf
00000390: 578d 8cbe 84d8 cabe c187 25bf dc9b ecbe
000003a0: 70c8 e6be 593a 43bf 2c39 66bf 99d0 08bf
000003b0: e47f 1dbf 7a2d 4abe c834 2bbf bf8e 0ebf
000003c0: 70cc ffbe a3bf 52bf 8482 2ebf bff4 f0be
000003d0: 7d22 743e 1376 2abf 8730 60be 5f8a eabe
000003e0: 49d7 a1be c4a2 ffbe b038 623d 0a7b 23bf
000003f0: 87bf 34be 446b a7be 4f04 dfbe 3e03 71bf

encoder.fc2.weight f4 [16, 256]
-0.004102692 0.0075766314 -0.0056112846 0.00536891 -0.00501672 -0.02573274 -0.0049601393 -0.0072742305
-0.0117796855 0.014377554 0.032411765 0.027449459 0.037957855 -0.012396666 0.058726944 -0.071165174
0.02282158 -0.041252226 -0.0052738977 0.028783303 0.01833193 0.053771406 0.014315773 -0.08534978
-0.061074585 0.02580876 0.00096121785 0.01286743 0.05483631 0.0331002 0.036497425 0.037530363
0.0022588135 0.04199537 -0.010234699 -0.032198068 0.01138659 -0.02702992 -0.024966925 -0.017290475
-0.013122068 0.005336646 -0.024639677 -0.023264276 -0.05619754 -0.0046141143 -0.032333966 -0.08443551
-0.031118508 0.026316134 -0.010946157 -0.0114826495 0.008992024 0.017552743 -0.0071058297 0.0028876814
0.034815192 0.016622052 -0.09027544 -0.09823424 -0.02530726 0.0017251924 0.016281515 -0.01969853
0.00019393027 -0.020056373 -0.019122675 0.0031900129 0.03313719 -0.011995156 0.031595647 0.040805668
-0.004694567 -0.06872864 -0.016258225 -0.00070284796 -0.04218764 -0.020988496 0.015656535 -0.0040149954
-0.008712059 -0.02006105 -0.053672943 -0.003094199 0.016067872 0.05919073 -0.046508618 -0.019209253
-0.026396122 -0.07168155 -0.011283314 0.12256581 0.026528642 -0.029239843 -0.006808137 -0.0073136846
0.0051830597 -0.03638049 0.0034057668 -0.0029394603 0.029251354 -0.0028299938 0.015673576 0.07117264
-0.094842605 0.003913972 -0.018778076 -0.02647678 0.01800722 0.0029884088 -0.009664385 0.020652765
0.021389121 -0.028322248 0.031822644 0.018724103 -0.006312036 -0.008535614 0.04760453 0.030798865
0.10220916 0.012147017 -0.005974429 -0.037145644 0.033727285 -0.010306265 0.00962305 0.029755594
-0.0047926046 -0.029112624 -0.0046778154 0.0039043438 -0.00021799597 0.014759073 0.0037133289 0.038518976
-0.0019646257 0.012881801 -0.072539985 0.023941603 -0.041896533 0.03734146 -0.03744786 0.016101928
-0.02191043 -0.005348583 0.06745396 0.00032466062 -0.022320947 -0.009226819 -0.04723178 0.012209135
0.027506383 -0.008981702 0.021206087 -0.010306332 -0.020972377 0.021524724 -6.920453e-07 -0.029564135
-0.024126893 -0.0033281539 -0.0015711496 0.046834283 -0.007959393 -0.0576949 0.030280028 -0.00932382
-0.0002830965 0.009370864 0.013586415 -0.014137227 -0.06450947 0.015707567 0.007689223 -9.953021e-05
-0.018484764 -0.026510421 -0.030135931 0.013690998 -0.035568103 -0.006441932 0.14413406 0.07016994
0.023917455 0.026889324 -0.061677497 -0.021182314 -0.022121843 -0.03599733 0.037484046 -0.0038846666
-0.00023418202 0.036365904 0.030469786 -0.067730665 -0.014913129 -0.009332405 0.0017565271 -0.0034413438
0.061235607 -0.09778945 -0.011354497 0.015978081 -0.010408503 0.022028804 0.023310317 0.0001388862
0.026434813 -0.041415077 -0.032591775 -0.014366183 -0.0027252736 -0.0119334655 -0.05602988 0.009504533
-0.0054892614 0.0096955625 0.042652763 -0.002447384 0.028388487 -0.0039457143 -0.0027881102 -0.016625047
0.025493564 -0.005049036 0.057988342 0.027007094 0.019436574 -0.0053248126 0.049117316 -0.028436484
-0.016072683 0.034246664 -0.051469896 0.014075277 0.011325824 -0.020010196 -0.0037417077 0.033929102
0.02287008 -0.026439752 -0.026276533 0.008129986 -0.0025632377 -0.03130014 0.0895971 0.016000206
-0.001966845 0.019635284 -0.019288601 0.018288983 0.029534465 -0.018910885 -0.0030597742 -0.0011601639
00000000: e06f 86bb 6445 f83b dede b7bb aeed af3b
00000010: 4c63 a4bb 78cd d2bc aa88 a2bb ab5c eebb
00000020: 95ff 40bc d58f 6b3c 33c2 043d b0dd e03c
00000030: b279 1b3d 631b 4bbc aa8b 703d 0cbf 91bd
00000040: 52f4 ba3c 18f8 28bd a9d0 acbb f6ca eb3c
00000050: d82c 963c 683f 5c3d b48c 6a3c decb aebd
00000060: 5829 7abd e56c d33c 3dfa 7b3a ead1 523c
00000070: 0a9c 603d 1394 073d 537e 153d 70b9 193d
00000080: 9a08 143b 5603 2c3d 70af 27bc 1fe2 03bd
00000090: d28e 3a3c da6d ddbc 7087 ccbc c1a4 8dbc
000000a0: f1fd 56bc 08df ae3b 26d9 c9bc b994 bebc
000000b0: 642f 66bd ff31 97bb 9f70 04bd 86ec acbd
000000c0: 3eec febc ef94 d73c 8357 33bc b921 3cbc
000000d0: 4853 133c c5ca 8f3c 05d8 e8bb 413f 3d3b
000000e0: 609a 0e3d f82a 883c 54e2 b8bd 092f c9bd
000000f0: 2c51 cfbc da1f e23a d060 853c d05e a1bc
00000100: c359 4b39 434d a4bc 28a7 9cbc 890f 513b
00000110: ddba 073d 5587 44bc 706a 013d d823 273d
00000120: e2d4 99bb 9ac1 8cbd f82f 85bc 543f 38ba
00000130: f2cc 2cbd 11f0 abbc 2242 803c 3990 83bb
00000140: 06bd 0ebc 1257 a4bc 29d8 5bbd 0cc8 4abb
00000150: c5a0 833c fb71 723d d27f 3ebd b95c 9dbc
00000160: ae3c d8bc c7cd 92bd a6dd 38bc c903 fb3d
00000170: 9852 d93c 6588 efbc cb16 dfbb a2a7 efbb
00000180: a8d6 a93b b503 15bd 4933 5f3b f6a3 40bb
00000190: 89a0 ef3c 6b77 39bb df65 803c f6c2 913d
000001a0: d73c c2bd c740 803b 7bd4 99bc d5e5 d8bc
000001b0: e183 933c 2ed9 433b 5e57 1ebc fd2f a93c
000001c0: 3d38 af3c 0f04 e8bc 7658 023d 4a63 993c
000001d0: 32d5 cebb f6d8 0bbc f8fc 423d e74d fc3c
000001e0: 0953 d13d 4804 473c 25c5 c3bb 0826 18bd
000001f0: 9f25 0a3d 9cdb 28bc ffa9 1d3c 01c2 f33c
00000200: 480b 9dbb 997d eebc 5c48 99bb 05e0 7f3b
00000210: d995 64b9 0ad0 713c 525b 733b 13c6 1d3d
00000220: f3c0 00bb 310e 533c d88f 94bd 2e21 c43c
00000230: b39b 2bbd 5cf3 183d ed62 19bd 31e8 833c
00000240: 817d b3bc 2b43 afbb 4d25 8a3d 3637 aa39
00000250: 6bda b6bc 152c 17bc 1c76 41bd d308 483c
00000260: 1155 e13c fd27 13bc 63b8 ad3c e4db 28bc
00000270: 43ce abbc 9e54 b03c fec4 39b5 7c30 f2bc
00000280: c3a5 c5bc 281d 5abb 08ef cdba 4ed5 3f3d
00000290: 1d68 02bc 7d51 6cbd d20d f83c efc2 18bc
000002a0: 926c 94b9 4188 193c 8e99 5e3c d49f 67bc
000002b0: 8a1d 84bd 28ad 803c e1f5 fb3b e0ba d0b8
000002c0: 5c6d 97bc 622c d9bc a1df f6bc 3550 603c
000002d0: dcaf 11bd d816 d3bb e197 133e 42b5 8f3d
000002e0: 8aee c33c 0047 dc3c 8ba1 7cbd 8886 adbc
000002f0: de38 b5bc f071 13bd df88 193d e495 7ebb
00000300: c28e 75b9 6af4 143d c69b f93c 60b6 8abd
00000310: 3256 74bc f2e6 18bc 453b e63a 2b88 61bb
00000320: 30d2 7a3d d645 c8bd 3608 3abc 77e4 823c
00000330: 6d88 2abc c075 b43c 47f5 be3c fba1 1139
00000340: d28d d83c dba2 29bd f47e 05bd 2460 6bbc
00000350: 819a 32bb 9584 43bc 967f 65bd e7b8 1b3c
00000360: 43df b3bb 23da 1e3c aab4 2e3d 4a64 20bb
00000370: f98e e83c 0d4b 81bb bab8 36bb 4031 88bc
00000380: e1d7 d03c 6272 a5bb 2f85 6d3d fb3d dd3c
00000390: 7339 9f3c c47b aebb 3d2f 493d a1f3 e8bc
000003a0: dcaa 83bc 3b46 0c3d 19d2 52bd fe9b 663c
000003b0: f38f 393c 6cec a3bc 7037 75bb 3ef9 0a3d
000003c0: 095a bb3c 2e98 d8bc e241 d7bc a233 053c
000003d0: fefb 27bb 9334 00bd af7e b73d dd12 833c
000003e0: 2fe6 00bb 2dda a03c 2103 9ebc c7d2 953c
000003f0: 43f2 f13c 00eb 9abc 7e86 48bb a410 98ba

encoder.fc2.bias f4 [16]
0.03154333 -0.059669025 0.016238414 -0.11788401 0.012476493 0.025073357 -0.114102624 -0.021605797
0.27370778 0.050960165 0.055179168 0.122912236 -0.44322157 0.17359896 0.32128948 0.44067127
00000000: 9433 013d 8267 74bd 6c06 853c 2c6d f1bd
00000010: 346a 4c3c a466 cd3c a3ae e9bd a4fe b0bc
00000020: 6d23 8c3e 9bbb 503d 8d03 623d 69b9 fb3d
00000030: f0ed e2be edc3 313e 0e80 a43e aa9f e13e

encoder.fc3.weight f4 [16, 256]
0.022805003 0.0069360267 -0.0153533155 -0.026243353 0.0039365287 -0.0087613 0.017606968 -0.013319511
-0.01640086 -0.034929663 -0.017205402 -0.055168137 0.014437592 -0.0020915612 -0.00060910295 -0.055085946
-0.04375186 -0.029504998 -0.006410621 0.015798066 -3.0144744e-05 0.062010203 -0.008020208 -0.052569974
-0.0017029353 -0.004611002 -0.004025671 0.0018017341 -0.02813486 0.025842283 -0.026576703 -0.0057710195
-5.9543796e-05 -0.05470911 -0.013381107 -0.010016663 0.013406339 -0.021889612 0.028315831 -0.029389348
0.008372601 -0.014513015 -0.011149788 0.027081413 -0.009935932 -0.0062143696 0.0103525175 -0.0017562065
-0.043283347 0.0330704 -0.045353554 0.016745117 -0.017142612 -0.015291901 -0.015071221 1.4579368e-07
-0.006447449 -0.046253618 0.10273991 0.010088497 0.0058754412 -0.029184071 0.038657986 -0.03975662
-0.03625521 0.028564038 0.047472663 0.008224575 0.037108045 -0.0042155976 -0.010664656 0.011590717
0.03159503 0.0027103783 0.019808877 -0.025513915 0.030518021 0.0070757344 0.027441334 0.008232052
-0.045096412 0.032400977 -0.053534694 -0.04938754 0.0047088424 0.013880567 0.028470522 0.01935874
-0.0067502786 -0.075164236 0.01659127 0.018500188 0.023409916 -0.013244493 -0.025242139 -0.0052170847
0.011523611 0.0033221284 -0.022621818 0.0024220883 0.089947686 -0.012934001 -0.038886778 0.05441554
0.058042277 -0.019232566 -0.01400201 -0.07106686 0.0049044006 0.0043900474 -0.006511832 0.05003379
-0.0034217625 -0.016539019 0.035246775 -0.014914231 -0.05627993 0.0117302425 0.011341757 -0.011903439
0.038121533 -0.0188485 0.008364157 -0.029842187 -0.032932967 -0.008468764 0.0065785088 -0.010796936
0.024239738 0.063190304 -0.021239068 0.002693265 0.06813779 0.006527211 -0.0071800495 -0.0024090554
0.007840605 0.009630609 -0.089497186 -0.0066688135 -0.021722639 -0.00820567 0.00698916 -0.0121560255
0.061890505 0.020635158 0.00045072025 -0.01359822 0.019923175 0.011512158 0.008212535 -0.014484149
-0.03708514 0.040868763 -0.009254976 0.06246153 0.0060334783 -0.047371887 -4.9809126e-23 -0.02567379
0.014425599 0.0049059223 -0.02278936 0.028208092 0.013714252 0.052699737 0.052982334 0.0063648857
-0.012654724 0.038769968 0.0022903187 0.01243639 -0.0026424334 -0.0024498042 -0.033167206 -1.07602936e-07
0.012700807 0.0047899294 -0.0022424269 -0.019741666 0.010228344 0.024102041 -0.094064355 -0.017954031
-0.03348863 -0.0022472267 0.027495587 0.062435254 0.0051774695 0.0015475828 0.00033784783 -0.004883502
-0.008829683 -0.054507505 -0.008194806 0.09627473 0.00015317783 -0.06664672 -0.027100556 -0.016916106
-0.042065144 -0.026349148 0.018436406 -0.0072633056 0.06554681 0.0088538565 -0.022872785 -1.03812e-07
-0.010083424 0.0002764818 0.010215076 -0.033763587 -0.026382025 0.034600258 -0.013123804 -0.028284857
-0.0043358766 -0.06832957 0.016073007 -9.374552e-06 0.021937147 -0.015983174 -0.00924466 0.019084971
0.027155532 0.073617555 0.006582052 -0.022395005 0.005405095 -0.068245254 0.06461019 0.025692375
-0.004154377 -0.023251668 -0.00929541 -0.0076482026 -0.037756905 0.06770111 0.06471712 0.035999507
0.049832135 0.027357548 0.00019635572 -0.0071674264 0.007669643 0.014098264 -0.055427905 -0.08766478
-0.011977267 -0.01041852 -0.0027897274 0.012918659 -0.019166756 0.002393136 0.043499313 0.04297421
00000000: 8fd1 ba3c 9c47 e33b 798c 7bbc 4dfc d6bc
00000010: fffd 803b 8e8b 0fbc 7d3c 903c 143a 5abc
00000020: 195b 86bc 6812 0fbd 58f2 8cbc fcf7 61bd
00000030: a68b 6c3c 9312 09bb 35ac 1fba cda1 61bd
00000040: 2635 33bd 77b4 f1bc 3010 d2bb f26a 813c
00000050: 58df fcb7 69fe 7d3d 3167 03bc 9d53 57bd
00000060: 0735 dfba e317 97bb c7e9 83bb 2a28 ec3a
00000070: 147b e6bc 32b3 d33c 63b7 d9bc d21a bdbb
00000080: aabe 79b8 a916 60bd 6e3c 5bbc ee1c 24bc
00000090: 43a6 5b3c d851 b3bc 9af6 e73c eec1 f0bc
000000a0: 3c2d 093c ffc7 6dbc 9aad 36bc d7d9 dd3c
000000b0: 52ca 22bc e9a1 cbbb 9b9d 293c 8330 e6ba
000000c0: e149 31bd d474 073d a6c4 39bd 0e2d 893c
000000d0: aa6e 8cbc e28a 7abc 48ed 76bc 768b 1c34
000000e0: 1f45 d3bb 6f74 3dbd 4d69 d23d 394a 253c
000000f0: c686 c03b 6f13 efbc d657 1e3d d6d7 22bd
00000100: 5880 14bd 21ff e93c b272 423d 5ec0 063c
00000110: 9bfe 173d ff22 8abb cfba 2ebc fee6 3d3c
00000120: ca69 013d 9aa0 313b 3a46 a23c 8f02 d1bc
00000130: ee00 fa3c 90db e73b a6cc e03c bbdf 063c
00000140: 04b7 38bd e3b6 043d 3247 5bbd 974a 4abd
00000150: a24c 9a3b 516b 633c 033b e93c 3896 9e3c
00000160: 7131 ddbb b5ef 99bd 6aea 873c b58d 973c
00000170: 27c6 bf3c 6eff 58bc 9ac8 cebc 14f4 aabb
00000180: 87cd 3c3c 11b8 593b 6451 b9bc e6bb 1e3b
00000190: 7e36 b83d 22e9 53bc be47 1fbd d4e2 5e3d
000001a0: bdbd 6d3d 9d8d 9dbc b068 65bc 808b 91bd
000001b0: 18b5 a03b 63da 8f3b 3561 d5bb 3bf0 4c3d
000001c0: a63f 60bb d67c 87bc ec5e 103d d25a 74bc
000001d0: c985 66bd 3430 403c c7d2 393c a406 43bc
000001e0: 5325 1c3d 2b68 9abc d109 093c 9a77 f4bc
000001f0: b8e4 06bd 92c0 0abc 8890 d73b a2e5 30bc
00000200: 6a92 c63c eb69 813d 8efd adbc 7d81 303b
00000210: d38b 8b3d 37e2 d53b 9f46 ebbb 3ee1 1dbb
00000220: e275 003c b4c9 1d3c 4d4a b7bd 1086 dabb
00000230: adf3 b1bc 1371 06bc 5305 e53b 112a 47bc
00000240: e680 7d3d 100b a93c a64e ec39 12cb 5ebc
00000250: ed35 a33c 7e9d 3c3c de8d 063c ed4e 6dbc
00000260: 96e6 17bd 0166 273d 2fa2 17bc a9d7 7f3d
00000270: 7cb4 c53b 0609 42bd b6dc 709a d751 d2bc
00000280: 5959 6c3c dcc1 a03b c0b0 babc a814 e73c
00000290: beb1 603c aedb 573d 0104 593d 8890 d03b
000002a0: c255 4fbc 42cd 1e3d 2c19 163b 00c2 4b3c
000002b0: ad2c 2dbb e58c 20bb 56da 07bd 5713 e7b3
000002c0: 0c17 503c d7f4 9c3b aef5 12bb 46b9 a1bc
000002d0: c994 273c a571 c53c d0a4 c0bd 5514 93bc
000002e0: 602b 09bd 3546 13bb 6d3e e13c 1cbc 7f3d
000002f0: c3a7 a93b 43d8 ca3a 2b21 b139 c905 a0bb
00000300: 60aa 10bc 4343 5fbd 8243 06bc b02b c53d
00000310: 5c9e 2039 137e 88bd fc01 debc a593 8abc
00000320: 804c 2cbd 2bda d7bc f207 973c 0601 eebb
00000330: 683d 863d c40f 113c b55f bbbc 40ef deb3
00000340: f234 25bc c2f4 9039 225d 273c b04b 0abd
00000350: 1e1f d8bc 00b9 0d3d 3905 57bc a5b5 e7bc
00000360: f813 8ebb 60f0 8bbd 8aab 833c 6547 1db7
00000370: 88b5 b33c 25ef 82bc ea76 17bc 1658 9c3c
00000380: 4775 de3c cdc4 963d 41ae d73b bb75 b7bc
00000390: 391d b13b 2bc4 8bbd 5952 843d d178 d23c
000003a0: 7121 88bb 487a bebc c64b 18bc c69d fabb
000003b0: fca6 1abd e1a6 8a3d 698a 843d 3874 133d
000003c0: c81c 4c3d f01c e03c d6e4 4d39 bbdc eabb
000003d0: a151 fb3b 68fc 663c 5f08 63bd 9889 b3bd
000003e0: 4d3c 44bc 71b2 2abc dcd3 36bb c8a8 533c
000003f0: 9a03 9dbc 29d6 1c3b 562c 323d ba05 303d

encoder.fc3.bias f4 [16]
-0.031655267 -1.329395 -0.027533356 -1.0860729 -0.024285465 -0.9968354 -0.41007105 -0.04348626
-1.2426909 -0.025028668 -0.051836055 -0.04849776 -1.2130986 -0.74392605 -1.6247871 -0.76515293
00000000: f4a8 01bd 9e29 aabf a28d e1bc 7004 8bbf
00000010: 50f2 c6bc 9b30 7fbf d5f4 d1be a61e 32bd
00000020: 7f10 9fbf ec08 cdbc 0b52 54bd 96a5 46bd
00000030: d146 9bbf f071 3ebf 06f9 cfbf 10e1 43bf

decoder.fc1.weight f4 [256, 16]
-0.028143073 0.10698359 -0.016998786 1.018727 0.0068031 -0.052607067 -0.03662161 0.016187765
0.75172347 -0.007082112 0.020893168 0.025246078 -0.352078 -0.20703942 0.17935026 0.08711163
0.001528264 -0.7428917 0.027522327 0.0071531828 0.008641347 -0.20523547 0.41158432 0.039820425
1.1406542 -0.000104884864 -0.018326266 0.0206071 0.30846402 -0.089741796 -0.49191996 0.050592978
-0.009588639 0.34811413 0.0048986883 -0.4076867 -0.0024619894 0.011158435 -0.11795184 -0.0022471424
-0.16116515 -0.008551434 0.0014285394 -0.00332513 -0.08949051 0.010046003 0.3143601 0.03680378
0.027216159 0.21578118 0.012097633 0.47712588 -0.017693592 0.3470752 -0.23738365 0.004817607
0.9972799 0.02921753 0.005109343 -0.03197885 -0.8613959 -0.02191963 -0.035883352 -0.2533175
0.0009571534 -0.55345476 0.033872288 0.1723853 0.015078667 -0.2716978 -0.0076623 0.016545055
-0.74220353 0.0058404836 -0.020145722 -0.017307842 -1.0008435 0.10239513 0.51926696 -0.16937783
-0.00044704578 -0.18954803 -0.02838331 0.2456397 -0.010215674 -0.4164469 -0.020031163 -0.012087588
0.34388018 0.005912849 -0.0025287648 -0.006912334 -0.36992136 0.3799514 0.40891063 -0.21931651
-0.021654712 -1.1785675 0.015338051 0.29285258 0.015501689 -0.027945137 -0.07135261 -0.0060159923
0.48359123 0.014420523 -0.0051978934 -0.0140776085 -0.9469024 0.034277808 -0.87593555 -0.12387948
0.07964088 -0.21459703 0.09254225 1.1679332 -0.046962738 -0.21812047 -0.5410999 0.0049199043
-1.1796863 0.06711138 -0.02760737 0.05846604 1.756822 -0.23116578 -1.039066 -0.29660657
0.009015835 -0.41507298 -0.05174586 -0.055343423 -0.061955433 -0.82274306 -0.15960202 -0.0053067612
0.2204614 0.038476944 0.07998309 0.07056735 -2.5037649 -0.9643375 -0.69020194 -0.63315624
0.021739097 -0.2427279 0.007721462 -0.8416675 0.0065800594 -0.010935101 -0.05508208 -0.0018875975
-0.5390608 0.020410897 -0.00652891 0.013259307 0.025405908 -0.11476882 1.6883444 -0.11824167
0.029542495 0.38612735 0.031249864 -0.13021661 0.04259079 1.0517664 0.286791 0.02977186
0.42955056 0.021662183 0.043030363 -0.023827216 1.6844372 0.17855598 -0.53269476 -1.0730691
-0.00911808 -0.587082 -0.00088605046 1.8218625 0.034876958 0.6493116 -0.08793722 -0.015464478
-0.56629306 0.0045184214 0.025316583 0.009703157 -0.7980256 -0.26695728 2.320157 -0.05099553
-0.02775576 -2.4667828 -0.007956128 -0.20325075 0.019885488 0.010072288 -0.10325286 -0.0065485495
0.28751823 -0.0071321777 -0.04284324 -0.027257083 -0.009993284 0.019186618 3.1741724 0.02409887
-0.00055125623 0.6101574 -0.01723505 0.35565713 0.001461977 -0.031203948 -0.08586799 -0.012697966
0.09178798 -0.00060832954 0.013970722 0.019368563 0.33806232 -0.07974333 -0.34602326 -0.061390854
0.005610228 0.25462243 0.02861372 -0.1235982 -0.01591244 -0.17887662 0.18617453 -0.008538014
0.3483363 -0.0011858898 -0.006419819 -0.028083595 0.5551386 -0.07508222 0.45484582 -0.58222353
-0.00814779 0.32222536 0.014232388 -0.9900142 -0.003231903 -0.32531354 -0.094251946 0.008174744
0.64962286 -0.001880481 -0.036310088 0.010140046 0.3006938 0.13178085 -1.1584107 -0.04758593
00000000: 4d8c e6bc 361a db3d 0a41 8bbc a565 823f
00000010: 8aec de3b 827a 57bd 8b00 16bd 349c 843c
00000020: f370 403f 1011 e8bb 2628 ab3c ddd0 ce3c
00000030: 9143 b4be 2402 54be 98a7 373e 9567 b23d
00000040: 0850 c83a 272e 3ebf 8176 e13c 3f65 ea3b
00000050: 7094 0d3c 3f29 52be 2ebb d23e be1a 233d
00000060: f500 923f a2f5 dbb8 f720 96bc 39d0 a83c
00000070: ffee 9d3e 8cca b7bd efdc fbbe 953a 4f3d
00000080: ab19 1dbc 043c b23e 2d85 a03b 50bc d0be
00000090: 5459 21bb ded1 363c bc90 f1bd cb44 13bb
000000a0: 7a08 25be 501b 0cbc d43d bb3a 6dea 59bb
000000b0: cd46 b7bd fe97 243c cff3 a03e 8fbf 163d
000000c0: 6cf4 de3c bef5 5c3e 2735 463c d849 f43e
000000d0: 27f2 90bc d7b3 b13e b314 73be 04dd 9d3b
000000e0: bc4d 7f3f 9a59 ef3c 476c a73b 41fc 02bd
000000f0: 7184 5cbf cc90 b3bc 6cfa 12bd d5b2 81be
00000100: 7ae9 7a3a 36af 0dbf abbd 0a3d c685 303e
00000110: 830c 773c f91b 8bbe 0814 fbbb 7f89 873c
00000120: 0d01 3ebf 8761 bf3b a408 a5bc 2dc9 8dbc
00000130: a41b 80bf 8ab4 d13d aeee 043f 6271 2dbe
00000140: 7861 eab9 e118 42be 1e84 e8bc f988 7b3e
00000150: a45f 27bc 8738 d5be 6518 a4bc 050b 46bc
00000160: 1011 b03e 93c0 c13b a2b9 25bb dc80 e2bb
00000170: 5566 bdbe fd88 c23e bc5c d13e 8294 60be
00000180: 3965 b1bc 4ddb 96bf 734c 7b3c c6f0 953e
00000190: ccfa 7d3c 33ed e4bc 5121 92bd cd21 c5bb
000001a0: 4599 f73e 0f44 6c3c 1753 aabb c5a5 66bc
000001b0: 3268 72bf e366 0c3d 503d 60bf 86b4 fdbd
000001c0: c21a a33d 53bf 5bbe cb86 bd3d d67e 953f
000001d0: 005c 40bd f95a 5fbe 8685 0abf 2637 a13b
000001e0: f6ff 96bf b171 893d da28 e2bc 167a 6f3d
000001f0: 8bdf e03f b9b6 6cbe 1d00 85bf d1dc 97be
00000200: 27b7 133c 7284 d4be 78f3 53bd c9af 62bd
00000210: fbc4 7dbd 4a9f 52bf b66e 23be 57e4 adbb
00000220: a2c0 613e 009a 1d3d 2dce a33d 9d85 903d
00000230: af3d 20c0 d3de 76bf 13b1 30bf 8716 22bf
00000240: 3116 b23c aa8d 78be 5104 fd3b 8577 57bf
00000250: 8a9d d73b 2329 33bc bf9d 61bd 4369 f7ba
00000260: e3ff 09bf c134 a73c 77f0 d5bb 903d 593c
00000270: 0d20 d03c ea0b ebbd ab1b d83f b028 f2bd
00000280: 1a03 f23c 7cb2 c53e b7ff ff3c 8157 05be
00000290: ae73 2e3d 48a0 863f 45d6 923e 1ee4 f33c
000002a0: 0dee db3e e474 b13c 9b40 303d 4b31 c3bc
000002b0: a39b d73f 61d7 363e af5e 08bf 545a 89bf
000002c0: 0064 15bc 024b 16bf d745 68ba ca32 e93f
000002d0: 24db 0e3d 4939 263f 6e18 b4bd b95e 7dbc
000002e0: 95f8 10bf 440f 943b b964 cf3c fdf9 1e3c
000002f0: 684b 4cbf a0ae 88be 747d 1440 b0e0 50bd
00000300: 0c60 e3bc c5df 1dc0 6b5a 02bc f720 50be
00000310: e4e6 a23c 3d06 253c 3c76 d3bd 3795 d6bb
00000320: 9735 933e 0bb5 e9bb 657c 2fbd 3f4a dfbc
00000330: dfba 23bc 412d 9d3c a425 4b40 fe6a c53c
00000340: 2e82 10ba 4633 1c3f 8530 8dbc b118 b63e
00000350: cf9f bf3a 6c9f ffbc 8fdb afbd 210b 50bc
00000360: 56fb bb3d 4e78 1fba 75e5 643c d2aa 9e3c
00000370: 8116 ad3e 7950 a3bd f629 b1be fa74 7bbd
00000380: 01d6 b73b df5d 823e 5267 ea3c 0e21 fdbd
00000390: ce5a 82bc 6f2b 37be 89a4 3e3e 07e3 0bbc
000003a0: 2359 b23e dc6f 9bba 585d d2bb 910f e6bc
000003b0: 901d 0e3f b5c4 99bd 8de1 e83e 9a0c 15bf
000003c0: 4f7e 05bc b9fa a43e f62e 693c 9271 7dbf
000003d0: 56ce 53bb 7f8f a6be 2a07 c1bd 5def 053c
000003e0: af4d 263f 797a f6ba e3b9 14bd 6f22 263c
000003f0: 8af4 993e 8ff1 063e cd46 94bf 77e9 42bd

decoder.fc1.bias f4 [256]
-0.16024199 -0.791027 0.2760587 1.3428913 -0.6097531 1.0998938 -1.0795835 0.20496488
0.97151875 -0.6504223 -2.3181534 -0.46760473 -2.1840746 -0.31108466 0.27712682 -1.1935332
0.1875853 -1.010184 -0.9250404 -2.0386226 -0.5661732 0.6550074 -0.8035549 -0.48343834
0.0998594 -2.6938412 1.0410504 0.5685798 -0.144335 0.3634915 1.6477009 0.11047632
0.60327595 0.47462177 0.6409334 -0.7242081 -0.4629535 -0.9645793 -0.065165095 -0.0009139662
-0.46591803 -2.3639297 1.9465103 1.1788604 -0.05381707 -1.4743369 -0.12148973 -0.3410244
-0.7451828 -2.5901034 0.48206142 1.4885042 -1.4490985 0.95051885 -0.025344403 0.6482211
-0.97078764 0.28105083 -1.4582258 1.7768843 0.8449643 -0.84285116 0.27826157 -0.38244984
0.44572964 0.02563528 -0.53710663 -0.18356888 -1.177431 0.14467102 -0.012818035 -2.3550727
-0.7270466 -1.1991569 -1.5411893 1.0300207 0.63245726 -0.97078526 0.7631522 -1.0653458
1.2085468 -0.9766075 -0.99335426 -0.18123311 -0.34219518 -2.9477959 -1.3571684 -1.4317185
-1.0555519 -1.0823352 -1.1138753 0.72345495 1.164377 -2.314441 -0.9626508 -1.7082719
0.102271296 -1.3710678 0.1655337 -1.4263229 -0.8927723 0.9034596 1.0960037 0.116239555
1.1524322 0.75560576 -1.0456978 -0.17578083 0.336905 -1.9622344 -0.27735838 -0.6479922
-1.7134238 0.38021952 -0.553722 0.05368306 0.8724922 -1.2663275 0.23999532 -0.11000538
-2.0686224 -1.0687965 -0.9526334 -1.1150693 -0.19290148 -0.00020941938 -0.22579157 -1.4295181
0.021641431 0.17821507 -0.18025553 1.4668571 -1.7866693 -1.0641795 -0.80294424 -0.95894736
1.0137486 0.76158476 0.33522707 -1.0385457 0.0994013 0.9795393 -1.3699818 0.01531079
0.08605744 -1.1603594 -0.28933161 1.049362 0.70837593 0.55730885 -1.5507631 -1.7784073
1.4194692 -1.3047802 -3.7684097 -2.8967528 0.79888713 -0.3308564 0.15917224 -0.27309135
-0.94048077 -1.0169221 -0.44966382 0.620316 -2.0150886 -0.38087708 -0.43111786 -0.29312027
-2.3353596 -2.4765668 -0.90441144 -1.0947311 -0.834378 0.6089474 0.4224365 -0.960224
1.5019661 -0.50277114 -0.32857007 -0.1564588 0.06946311 -1.3219678 1.2937398 -0.33506432
1.8321887 -0.853981 -1.655163 -0.7606258 -1.2800394 -0.5993953 -1.8311977 -0.1876094
1.6769017 0.8240688 1.3958789 1.1451129 0.44378197 -0.7222578 0.20567885 -0.976039
-1.2051255 -0.6917078 0.047487848 1.1875945 0.3595405 -1.450388 -0.22483464 -0.57933354
-1.00786 0.31499532 0.16542338 -0.5796862 0.18941808 -0.15119036 2.0175788 0.60055894
-1.0158461 -1.339766 -0.0864605 -0.7185971 0.20870697 -1.0915902 -0.8911161 0.8305912
-1.3871803 1.1085342 -2.1781847 -2.089171 -0.014586024 -1.966634 -1.1109673 -0.6721336
-2.2862463 -2.5559213 1.2599533 0.5700202 0.4009275 -0.68454254 -1.6436251 -0.0821241
-0.24772146 -0.11259889 -1.6636913 -1.9034177 0.088122 -1.0399789 0.51409245 -1.1003263
-0.76099753 1.2016377 1.3523216 -2.5767434 0.61478585 0.123249605 -0.624911 1.5298234
00000000: 7a16 24be bf80 4abf 9157 8d3e dde3 ab3f
00000010: c718 1cbf 52c9 8c3f cb2f 8abf 50e2 513e
00000020: 74b5 783f 1382 26bf a05c 14c0 e369 efbe
00000030: e1c7 0bc0 7d46 9fbe 91e3 8d3e b2c5 98bf
00000040: 5c16 403e b64d 81bf 73cf 6cbf cb78 02c0
00000050: baf0 10bf 91ae 273f c6b5 4dbf 3b85 f7be
00000060: 1683 cc3d e567 2cc0 2441 853f 728e 113f
00000070: 8ecc 13be 8f1b ba3e dde7 d23f 6941 e23d
00000080: 4b70 1a3f a001 f33e 3614 243f b465 39bf
00000090: 3e08 edbe abee 76bf 4775 85bd 3c97 6fba
000000a0: cf8c eebe a04a 17c0 4027 f93f e6e4 963f
000000b0: 4a6f 5cbd 12b7 bcbf 9ccf f8bd c09a aebe
000000c0: 4dc4 3ebf 41c4 25c0 c1d0 f63e 4e87 be3f
000000d0: 0f7c b9bf 3455 733f 119f cfbc d1f1 253f
000000e0: 8a85 78bf e5e5 8f3e 25a7 babf f270 e33f
000000f0: 954f 583f 18c5 57bf 4d78 8e3e 77d0 c3be
00000100: ad36 e43e 1401 d23c d27f 09bf 7bf9 3bbe
00000110: 0fb6 96bf a424 143e bc02 52bc 83b9 16c0
00000120: ba1f 3abf f97d 99bf b145 c5bf b8d7 833f
00000130: b8e8 213f 6285 78bf f15d 433f 405d 88bf
00000140: a9b1 9a3f f302 7abf 774c 7ebf 2c95 39be
00000150: 3534 afbe b0a8 3cc0 b2b7 adbf 8d42 b7bf
00000160: 531c 87bf f689 8abf 7793 8ebf 5834 393f
00000170: 4e0a 953f cd1f 14c0 4870 76bf a7a8 dabf
00000180: 9d73 d13d 267f afbf ab81 293e c091 b6bf
00000190: ba8c 64bf 2149 673f d949 8c3f 010f ee3d
000001a0: e682 933f 616f 413f 6dd9 85bf e4ff 33be
000001b0: d07e ac3e 7f2a fbbf eb01 8ebe d1e2 25bf
000001c0: 7951 dbbf 22ac c23e bac0 0dbf c5e2 5b3d
000001d0: a65b 5f3f 0517 a2bf 55c1 753e 804a e1bd
000001e0: 4f64 04c0 53ce 88bf c8df 73bf 97ba 8ebf
000001f0: f787 45be 9697 5bb9 e835 67be 73fa b6bf
00000200: 5f49 b13c 037e 363e e894 38be f9c1 bb3f
00000210: 94b1 e4bf 0937 88bf c18d 4dbf 937d 75bf
00000220: 84c2 813f 38f7 423f e2a2 ab3e 11ef 84bf
00000230: e992 cb3d 16c3 7a3f 905b afbf 1cda 7a3c
00000240: e23e b03d a886 94bf 4623 94be 7e51 863f
00000250: 2058 353f cbab 0e3f 687f c6bf daa2 e3bf
00000260: 2bb1 b53f 0a03 a7bf a02d 71c0 6664 39c0
00000270: de83 4c3f 0366 a9be 0cfe 223e a1d2 8bbe
00000280: 59c3 70bf 812a 82bf 563a e6be 08cd 1e3f
00000290: 36f7 00c0 5202 c3be 7bbb dcbe dc13 96be
000002a0: 8876 15c0 1280 1ec0 8287 67bf 2620 8cbf
000002b0: cc99 55bf fae3 1b3f 9949 d83e 3dd1 75bf
000002c0: 6d40 c03f 9cb5 00bf 563a a8be bc36 20be
000002d0: ad42 8e3d 3e36 a9bf 4499 a53f 8d8d abbe
000002e0: 2985 ea3f 809e 5abf 62dc d3bf 5fb8 42bf
000002f0: 55d8 a3bf f871 19bf b064 eabf ae1c 40be
00000300: b7a4 d63f 2cf6 523f 29ac b23f 0f93 923f
00000310: 6437 e33e e3e5 38bf 7a9d 523e b1dd 79bf
00000320: 8d41 9abf c313 31bf 9e82 423d 1903 983f
00000330: b115 b83e 50a6 b9bf 0d3b 66be 344f 14bf
00000340: 8e01 81bf 1147 a13e bf64 293e 5166 14bf
00000350: d0f6 413e a5d1 1abe 0320 0140 3bbe 193f
00000360: 3f07 82bf 747d abbf 3412 b1bd fbf5 37bf
00000370: 48b7 553e 3ab9 8bbf 2f20 64bf a0a1 543f
00000380: 208f b1bf 73e4 8d3f 6167 0bc0 fab4 05c0
00000390: 38fa 6ebc aaba fbbf 2d34 8ebf f310 2cbf
000003a0: dc51 12c0 3794 23c0 2646 a13f d8ec 113f
000003b0: 5f46 cd3e 2e3e 2fbf 4f62 d2bf ae30 a8bd
000003c0: b2aa 7dbe 3f9a e6bd d6f3 d4bf 31a3 f3bf
000003d0: 4f79 b43d 071e 85bf 909b 033f 7ed7 8cbf
000003e0: bcd0 42bf 44cf 993f e018 ad3f 5de9 24c0
000003f0: 9b62 1d3f 4a6a fc3d 2bfa 1fbf 41d1 c33f

decoder.fc2.weight f4 [51, 256]
0.032016728 0.14116617 -0.17844632 -0.09691561 -0.035724618 -0.051513672 -0.46082395 -0.029534474
0.25847855 0.21779592 -0.066911854 0.05761367 6.6940928 -0.22444843 -0.07985713 0.074852735
-0.22956416 0.32227182 -0.1293442 -0.1535686 -0.08815438 -0.021266362 0.005921535 -0.11428637
-0.16777931 -0.19354355 -0.06788339 -1.184999 0.077269614 -0.006695434 -0.21394676 0.5942301
-0.36007595 -0.090010986 -0.059450984 -0.08620072 0.047245376 -0.17457676 -0.48841283 0.08062119
-0.016551165 0.5001822 0.09303402 -0.08615191 -0.21241723 -0.10154558 0.118255064 -0.3762697
0.09074928 0.10773942 0.025713628 0.5746269 0.16595322 0.12178884 0.09349507 0.30509475
-0.11082196 0.11820547 -0.01129242 0.11913027 -0.047156103 -0.08893807 -0.058209307 0.15897678
0.063142456 -0.1875387 -0.08104661 0.14659482 0.3563456 0.19658999 -0.2069872 -0.7215656
0.10494817 -2.9956653 -0.14809494 -0.020710144 0.39862013 -0.007266694 0.012440744 0.06335859
-0.16790909 -0.10144483 0.23419568 0.39109373 0.13158542 0.055735487 0.0033525692 0.16467366
-0.0065786345 0.056980032 0.04136944 0.16516443 -0.62570345 -0.24028988 0.014272419 0.004703049
-0.08305153 -0.03280548 0.024499835 -0.27268842 0.05072325 0.072370335 0.38216776 -0.46740565
0.61489236 -0.36248857 0.103321925 -0.018999586 0.16104501 0.056589354 -0.09202807 -0.12787396
0.015860895 -0.06671092 0.073965155 0.23005007 -0.1184272 0.021087488 -0.0068745078 0.032283247
0.40880787 0.90795356 -5.329284 -0.18715666 0.36168754 -0.026284467 0.04177669 -0.06805819
0.017493336 0.07218198 0.04540429 0.1567613 0.022252623 0.12847978 -0.022899624 0.00035147893
0.38476604 0.12159425 -0.15344875 -1.9875065 -0.02144398 -0.060809195 0.03152303 -0.004402435
0.10298864 -0.2971633 0.058502015 -0.06985407 -0.14309351 -0.2069369 0.078339435 0.014549755
0.13568898 0.07404791 0.36283067 0.09629972 -0.9082367 -0.04775763 0.009851163 -0.016707135
0.041607235 -0.02872016 -0.004925159 -0.2426477 0.05985642 -0.038930137 0.054795586 0.31168598
-0.29608816 -0.48891607 -0.040745314 -0.10010557 -0.016269304 -0.29219127 -0.011873989 0.064122595
0.06357114 -0.016122593 -0.13308048 0.016719272 -0.15861528 -0.049415603 -0.038802035 -0.06539342
0.7008646 0.053152554 -0.28081888 0.18161507 0.38304737 -0.22048268 -0.28013635 2.2154
0.09376628 -0.13406256 0.085482195 0.069289446 0.02756199 -0.19198501 -0.1564556 -0.03612057
-0.10102582 -0.5508335 0.0012472577 0.48844162 -0.5783679 0.1414766 0.15076905 -0.22364941
-0.007522701 0.09468863 0.32185242 -0.4189625 -0.010475327 0.13925257 -0.084531754 1.0354475
0.04589753 0.05050705 -0.12493383 0.0012232658 0.08274459 -0.1777196 -0.013818384 -0.07289483
-0.034021195 -0.32715806 -0.8456186 0.07558575 0.31946275 0.13937253 0.08685582 -0.046046864
-0.116079986 0.30090824 0.67625 0.06454128 -0.051490273 -0.0804776 0.36074597 0.07702764
0.06609328 -0.0143357925 0.2925919 -0.6812125 -0.09571729 -0.09597247 0.06229554 0.2659032
0.029223999 0.5793702 0.1784357 2.641121 -0.020186793 0.006873928 0.047824997 0.11612305
00000000: f923 033d dd8d 103e a2ba 36be b17b c6bd
00000010: fa53 12bd 0000 53bd 1ef1 ebbe 48f2 f1bc
00000020: 4d57 843e e505 5f3e 1509 89bd 50fc 6b3d
00000030: 0236 d640 cfd5 65be 238c a3bd 644c 993d
00000040: de12 6bbe d000 a53e ce72 04be 1641 1dbe
00000050: 498a b4bd cb36 aebc 7009 c23b f90e eabd
00000060: 57ce 2bbe 4830 46be 7206 8bbd 0cae 97bf
00000070: 883f 9e3d 5f65 dbbb dc14 5bbe 771f 183f
00000080: e05b b8be ae57 b8bd e082 73bd 018a b0bd
00000090: 5e84 413d 40c4 32be 3f11 fabe b91c a53d
000000a0: 4f96 87bc f10b 003f 9f88 be3d 6a70 b0bd
000000b0: e783 59be 21f7 cfbd b62f f23d 6ca6 c0be
000000c0: c2da b93d 7ca6 dc3d 63a5 d23c c01a 133f
000000d0: a4ef 293e 6d6c f93d 587a bf3d 6135 9c3e
000000e0: a0f6 e2bd b615 f23d d803 39bc 92fa f33d
000000f0: c226 41bd 2a25 b6bd e26c 6ebd cfca 223e
00000100: d550 813d 250a 40be c4fb a5bd f41c 163e
00000110: ee72 b63e e34e 493e 74f4 53be 86b8 38bf
00000120: 11ef d63d fbb8 3fc0 33a6 17be 52a8 a9bc
00000130: f017 cc3e 731d eebb 43d4 4b3c 26c2 813d
00000140: 5cf0 2bbe 4fc2 cfbd fed0 6f3e 703d c83e
00000150: 54be 063e e54a 643d c7b6 5b3b 36a0 283e
00000160: 9691 d7bb e563 693d 0073 293d dd20 293e
00000170: 1a2e 20bf 8d0e 76be ddd6 693c 091c 9a3b
00000180: ec16 aabd 0a5f 06bd e1b3 c83c d19d 8bbe
00000190: 2fc3 4f3d e636 943d 7eab c33e cb4f efbe
000001a0: 9669 1d3f 1a98 b9be 729a d33d 05a5 9bbc
000001b0: fce8 243e 3dca 673d 3679 bcbd 64f1 02be
000001c0: b5ee 813c bc9f 88bd 0b7b 973d 3f92 6b3e
000001d0: f689 f2bd abbf ac3c 8d43 e1bb 703b 043d
000001e0: 444f d13e a56f 683f 7f89 aac0 ffa5 3fbe
000001f0: 1c2f b93e 8652 d7bc 091e 2b3d 1862 8bbd
00000200: 2f4e 8f3c 25d4 933d d9f9 393d 0986 203e
00000210: 224b b63c 3490 033e fe97 bbbc b446 b839
00000220: 0e00 c53e 6806 f93d ab21 1dbe 9d66 febf
00000230: 49ab afbc 1013 79bd 4b1e 013d 4d42 90bb
00000240: b5eb d23d ca25 98be cf9f 6f3d a70f 8fbd
00000250: 1b87 12be 44e7 53be 6d70 a03d 1862 6e3c
00000260: 0df2 0a3e 6ea6 973d f1c4 b93e ca38 c53d
00000270: 3382 68bf 819d 43bd c666 213c 67dd 88bc
00000280: 596c 2a3d 8a46 ebbc 3a63 a1bb a378 78be
00000290: 012c 753d 3575 1fbd 5671 603d 4e95 9f3e
000002a0: de98 97be 3553 fabe 8fe4 26bd 2604 cdbd
000002b0: 3447 85bc 189a 95be 1f8b 42bc b552 833d
000002c0: 9631 823d 8713 84bc 4046 08be dbf6 883c
000002d0: 0b6c 22be 0468 4abd e2ee 1ebd fcec 85bd
000002e0: dd6b 333f 7eb6 593d 7ec7 8fbe 4df9 393e
000002f0: c91e c43e 36c6 61be 086e 8fbe 1dc9 0d40
00000300: 8908 c03d b247 09be 4a11 af3d a0e7 8d3d
00000310: afc9 e13c b897 44be e635 20be 2af3 13bd
00000320: a0e6 cebd 6d03 0dbf 067b a33a 0515 fa3e
00000330: eb0f 14bf 3edf 103e 3463 1a3e 5a04 65be
00000340: fd80 f6bb 1dec c13d d7c9 a43e 4182 d6be
00000350: b5a0 2bbc 3a98 0e3e fc1e adbd 8b89 843f
00000360: 0cff 3b3d 7be0 4e3d 4fdd ffbd fd55 a03a
00000370: ff75 a93d 20fc 35be 8166 62bc e249 95bd
00000380: cf59 0bbd 4381 a7be 767a 58bf b4cc 9a3d
00000390: 9f90 a33e acb7 0e3e 77e1 b13d a39b 3cbd
000003a0: 58bb edbd a510 9a3e b81e 2d3f 382e 843d
000003b0: 77e7 52bd 71d1 a4bd b2b3 b83e abc0 9d3d
000003c0: ea5b 873d ace0 6abc 9bce 953e f163 2ebf
000003d0: 6d07 c4bd 378d c4bd 9c29 7f3d 7724 883e
000003e0: 2b67 ef3c 9b51 143f d9b7 363e 2008 2940
000003f0: c65e a5bc b03e e13b 25e4 433d ecd1 ed3d

decoder.fc2.bias f4 [51]
0.3960366 0.24706131 0.12641574 0.28291488 -0.19547205 -0.9587302 -0.051714588 -0.040098272
-0.13674764 -0.04023144 0.14696352 -0.14480774 -0.11500412 -0.20540603 -0.14204408 0.25092164
-0.16780362 -0.13714108 -0.12434774 0.27405524 -0.14564458 -0.07048477 -0.151926 -0.31089064
-0.34050938 0.09949571 0.13909058 0.18644965 0.10520884 0.445585 -0.38100258 0.03869767
0.13059291 0.017139116 0.034579054 -0.03074999 -0.05200658 -0.13719964 0.3261762 0.09916025
-0.13396606 -0.17872205 0.022220777 -0.31731495 0.101809695 -0.3666349 0.0816506 0.1846347
-0.767789 -0.48449254 -0.4045246
00000000: 4fc5 ca3e a4fd 7c3e 2173 013e 38da 903e
00000010: d329 48be 586f 75bf add2 53bd 163e 24bd
00000020: 9307 0cbe b9c9 24bd 9b7d 163e 7b48 14be
00000030: 4887 ebbd f555 52be 0174 11be cd78 803e
00000040: b6d4 2bbe b66e 0cbe 07aa febd f850 8c3e
00000050: da23 15be 525a 90bd 7d92 1bbe 0f2d 9fbe
00000060: 3f57 aebe 68c4 cb3d c36d 0e3e a8ec 3e3e
00000070: bb77 d73d b823 e43e c512 c3be 7381 1e3d
00000080: 26ba 053e 5567 8c3c c4a2 0d3d 67e7 fbbc
00000090: da04 55bd 107e 0cbe 9100 a73e 8714 cb3d
000000a0: 662e 09be ea02 37be 5908 b63c 1b77 a2be
000000b0: 9a81 d03d 92b7 bbbe 6e38 a73d e110 3d3e
000000c0: d28d 44bf 680f f8be d91d cfbe
