model/vae_hd128_ld16_gamma1000.pth (torch, 81875 bytes, 10 tensors)

encoder.fc1.weight f4 [128, 51]
0	0xbe3671bb	-0.17816822
1	0xbfa01c38	-1.2508612
2	0x3ef25a3d	0.4733447
3	0xbe37e557	-0.1795858
4	0xbfeb59af	-1.8386744
5	0x3efa89fc	0.489334
6	0x3d907f5d	0.070555426
7	0x3db6dd24	0.08928898
8	0x3d8680d6	0.06567542
9	0x3c22ab46	0.00992853
10	0x3da5f970	0.08104217
11	0x3ede0649	0.4336417
12	0x3da3f1f7	0.080051355
13	0x3eba1db2	0.3635078
14	0x3d4b32bf	0.049608942
15	0xbd1f1de7	-0.038846876
16	0x3d0dc95a	0.034615852
17	0xbe47f647	-0.19527541
18	0x3e3e1368	0.1856209
19	0x3e0620ce	0.13098451
20	0x3ebbe4c0	0.3669796
21	0xbda797e7	-0.0818327
22	0x3da0dacf	0.078542344
23	0xbee16462	-0.44021899
24	0x3d627561	0.055287722
25	0x3e9cba10	0.30610704
26	0xbe8c6cc6	-0.27426738
27	0x3d8db89c	0.06919977
28	0xbe6e0eeb	-0.23247878
29	0xbf0ccd79	-0.55001026
30	0x3d05f6b5	0.03270598
31	0x3e0f3542	0.1398516
32	0xbf027186	-0.50954473
33	0x3e5d8d37	0.216359
34	0x3ece1efd	0.40258017
35	0x3da888de	0.0822923
36	0x3d83e6be	0.06440495
37	0x3ead2c95	0.33823076
38	0xbe1b05dc	-0.15138954
39	0x3f037dfa	0.513641
40	0x3da7e307	0.08197599
41	0xbca8a843	-0.020588046
42	0xbe810e93	-0.25206432
43	0xbe53e8c9	-0.20694269
44	0xbe8a2ed4	-0.26988852
45	0xbe9b8616	-0.30375737
46	0x3d362b93	0.04447515
47	0x3e01bff5	0.12670882
48	0xbe2c28be	-0.16812417
49	0x3d12ede7	0.035871413
50	0xbe85ff3f	-0.261713
51	0x3e5d4aff	0.2161064
52	0x3d87ed75	0.06637088
53	0x3e96071e	0.29302305
54	0xbe22bfc1	-0.15893461
55	0xbd18ba31	-0.03728694
56	0x3e5165ab	0.2044894
57	0x3e2a34c3	0.1662169
58	0x3cfdc63c	0.030978315
59	0x3e449d70	0.19200683
60	0x3f0d7c93	0.5526821
61	0xbd1d4aac	-0.03840129
62	0x3db1a984	0.08674911
63	0x3e68da0c	0.22739428
64	0xbe288643	-0.16457467
65	0x3e0763a7	0.13221608
66	0xbe15722b	-0.14594333
67	0x3cf934d4	0.030420698
68	0x3e85c474	0.26126444
69	0xbe1fde74	-0.15612203
70	0xbd963f6d	-0.07336316
71	0x3db3f5a3	0.08787086
72	0x3e16156b	0.14656608
73	0x3d3c639c	0.045993432
74	0x3eab281f	0.33429047
75	0xbead3c6c	-0.3383516
76	0x3f016cdd	0.5055674
77	0xbc08f800	-0.008359909
78	0xbd323d6e	-0.043515615
79	0x3d8b2614	0.06794372
80	0x3d8a00af	0.06738412
81	0x3f07ee17	0.5309767
82	0x3da317a2	0.07963492
83	0xbe5eb1cd	-0.21747513
84	0xbe7b81e2	-0.24561265
85	0xbda79a3b	-0.08183714
86	0xbe9d6267	-0.30739138
87	0xbe614b25	-0.22001322
88	0xbe09e203	-0.13465123
89	0x3dc177f4	0.09446707
90	0xbd99c7ec	-0.07508835
91	0xbde3e94e	-0.11128484
92	0x3e4e30ba	0.20135775
93	0xbddac8b5	-0.10682813
94	0x3ef7462f	0.48295733
95	0xbe8894b6	-0.26675957
96	0x3e6babaa	0.23014703
97	0xbc464e82	-0.012103679
98	0x3dba73cb	0.09104117
99	0xbdc28f60	-0.09500003
100	0x3d5e9e89	0.05435041
101	0xbf43c933	-0.7647888
102	0xbd7a0ea1	-0.061049107
103	0xbe9971d2	-0.2996965
104	0xbc916db7	-0.017752511
105	0xbeb0f841	-0.34564403
106	0xbdf21dc8	-0.118220866
107	0x3e0c080f	0.13674949
108	0xbd884012	-0.066528454
109	0xbe80c30d	-0.25148812
110	0xbcf7f372	-0.030267451
111	0x3daf0e57	0.08547657
112	0xbe2f02c9	-0.17090906
113	0x3e6d6087	0.23181354
114	0x3e234cc5	0.15947254
115	0xbe71626c	-0.23572701
116	0xbe42a657	-0.19008766
117	0xbd93a9d1	-0.07210124
118	0xbde5ef12	-0.1122724
119	0xbe333c13	-0.17503385
120	0x3d046759	0.032325123
121	0xbe641f1e	-0.22277495
122	0x3e011d7c	0.12608904
123	0x3ecb2163	0.3967391
124	0xbf00286e	-0.5006169
125	0x3e03df49	0.12878145
126	0x3d560026	0.052246235
127	0xbd4d0210	-0.050050795
128	0xbea85fb6	-0.32885522
129	0xbe312d82	-0.17302516
130	0xbe9b8390	-0.30373812
131	0xbe2198d0	-0.1578095
132	0xbd950804	-0.072769195
133	0xbe64cae0	-0.22343016
134	0xbe7b8d7d	-0.24565692
135	0x3de8dbf5	0.113700785
136	0xbe7e1a38	-0.24814689
137	0x3d23aa1e	0.03995716
138	0x3e173dbb	0.14769642
139	0xbe0f4531	-0.13991238
140	0xbe062c6e	-0.13102886
141	0xbd0b54e0	-0.03401649
142	0xbe1d3d51	-0.15355422
143	0x3dc655db	0.096843444
144	0xbe84a7f0	-0.25909376
145	0x3e84b480	0.2591896
146	0xbe7fa043	-0.24963479
147	0x3e4b2d36	0.19841465
148	0xbe3629e0	-0.17789412
149	0x3eb74eac	0.3580221
150	0xbe0e4f4d	-0.13897438
151	0x3fb5de11	1.4208394
152	0x3f14280a	0.57873595
153	0x3def9532	0.116983786
154	0xbea86ed7	-0.32897064
155	0x3dd810af	0.10550057
156	0x3ac3d10f	0.0014939624
157	0xbe99c3f4	-0.30032313
158	0xbdc425f6	-0.09577553
159	0x3e3a5163	0.18195109
160	0xbe117b42	-0.14207175
161	0xbde187d7	-0.110122375
162	0x3d41ca9e	0.04731237
163	0xbe336427	-0.17518674
164	0x3e4d7578	0.20064342
165	0x3df35fac	0.11883482
166	0xbd4c7b78	-0.049922436
167	0x3b02639b	0.0019895795
168	0x3e1923fc	0.14955133
169	0xbe1ec1ed	-0.15503664
170	0xbe0f9402	-0.14021304
171	0x3e181293	0.14850836
172	0xbe54b66d	-0.20772715
173	0x3e92d5ce	0.28678745
174	0x3dbd8db6	0.09255545
175	0xbdf354ff	-0.11881446
176	0x3e4a5865	0.19760282
177	0x3d789024	0.06068434
178	0xbedc9ce5	-0.4308845
179	0xbd8ec610	-0.06971371
180	0x3e06b3a3	0.13154463
181	0x3ca0ff15	0.019652883
182	0xbda985c0	-0.08277464
183	0x3d2050da	0.039139606
184	0xbe35bae6	-0.17747077
185	0xbe237ca1	-0.15965511
186	0x3dfab27e	0.12241076
187	0xbd8b3f09	-0.067991324
188	0xbe335b6e	-0.17515346
189	0xbf8a9523	-1.0826763
190	0xbdd2c4f5	-0.10291473
191	0xbd872ea5	-0.066006936
192	0x3e8ff13c	0.28113735
193	0x3fb5024e	1.4141328
194	0xbe8a7c6b	-0.27048048
195	0x3e607ae0	0.21921873
196	0xbeea3565	-0.45743862
197	0xbe815a49	-0.25264195
198	0x3dbd30e3	0.0923784
199	0xbdfb0fe9	-0.12258894
200	0x3d5441e2	0.051820643
201	0x3d7815db	0.060567718
202	0xbe4bc701	-0.19900133
203	0xbd6ba548	-0.05753067
204	0xbc8ab000	-0.016929626
205	0x3ef40c0a	0.47665435
206	0x3d07e385	0.033175964
207	0xbea74667	-0.326709
208	0x3ece36b2	0.40276104
209	0x3ce44eda	0.02786963
210	0x3e616ad9	0.22013415
211	0xbe08176e	-0.13290188
212	0xbed5cbfc	-0.4175719
213	0x3cdd5947	0.02702011
214	0xbe8c9cb0	-0.27463293
215	0x3dfa5ac5	0.12224344
216	0xbdeb7e45	-0.114986934
217	0x3e86e7a6	0.2634861
218	0x3e14acd6	0.14519057
219	0xbe6204de	-0.22072169
220	0xbec0fa49	-0.37690952
221	0xbb1ae7d0	-0.0023636706
222	0x3aaab7e2	0.0013024772
223	0xbe84bfc2	-0.2592755
224	0x3f0084ae	0.50202453
225	0xbf0ea77f	-0.5572433
226	0xbd25a6e5	-0.040442366
227	0xbef2a23a	-0.47389394
228	0x3db3ce09	0.087795325
229	0xbb2a17d6	-0.0025954149
230	0xbe154f99	-0.14581145
231	0xbe3941da	-0.18091527
232	0x3c589e3c	0.01322132
233	0xbf08a69f	-0.53379244
234	0xbce30075	-0.027710179
235	0x3dbdb7fc	0.09263608
236	0xbeddd24d	-0.4332451
237	0xbdb9afea	-0.09066756
238	0xbd3eb146	-0.04655578
239	0x3c2b1ed8	0.010444365
240	0xbc018631	-0.007905529
241	0xbe5353fa	-0.20637503
242	0xbf1067ca	-0.5640837
243	0x3e95634f	0.2917733
244	0xbece1816	-0.4025275
245	0x3f522617	0.8208937
246	0x3ea9552e	0.330728
247	0xbd2b7ce4	-0.04186715
248	0xbe0bb6ab	-0.13643901
249	0x3d45228a	0.048128642
250	0x3dcb840a	0.09937294
251	0x3e7d48be	0.2473478
252	0xbd527b95	-0.05138739
253	0xbd445382	-0.0479312
254	0xbe74bd8f	-0.23900436
255	0x3df4813a	0.119387105

encoder.fc1.bias f4 [128]
0	0xbf21b7ed	-0.63171273
1	0xbee7dc97	-0.45285484
2	0xbf8fbf00	-1.1230164
3	0xbf41c74b	-0.7569472
4	0xbf95e59f	-1.17107
5	0xbf116ef6	-0.5680994
6	0xbf62f1c9	-0.88650185
7	0xbf6a4c5d	-0.9152277
8	0x3d907e49	0.07055337
9	0xbf4afb97	-0.79290146
10	0xbf691575	-0.91048366
11	0xbfa5a6b2	-1.2941496
12	0xbfb32628	-1.3996019
13	0xbf88f7c9	-1.0700618
14	0xbf8cdca0	-1.100483
15	0xbfa4e1bc	-1.2881389
16	0xbf6fbd38	-0.936481
17	0xbf21d417	-0.6321425
18	0xbe25ca75	-0.16190512
19	0xbdbbfe73	-0.09179392
20	0x3de54bc6	0.11196093
21	0xbcd196ae	-0.025584545
22	0xbf2ee1fc	-0.68313575
23	0xbebe79ae	-0.3720221
24	0xbf44e1ea	-0.7690722
25	0xbfaf99fe	-1.371887
26	0xbeac93f1	-0.3370662
27	0xbf891d2e	-1.071203
28	0x3e33fbc4	0.1757651
29	0xbfa13936	-1.2595584
30	0xbe76ab22	-0.2408872
31	0xbe09b622	-0.13448384
32	0xbf4430bf	-0.7663688
33	0xbec47377	-0.38369343
34	0xbd2fc98e	-0.042916827
35	0xbf4edc5e	-0.80805004
36	0xbfd1ae0e	-1.6381242
37	0xbf8e778a	-1.113023
38	0xbf8423d1	-1.032343
39	0x3d35796a	0.044305243
40	0xbf60aea7	-0.877665
41	0xbfb4246c	-1.4073615
42	0xbf6bd02c	-0.9211452
43	0xbf419000	-0.7561035
44	0xbf779fc5	-0.96728164
45	0xbf93b188	-1.1538553
46	0xbfab7650	-1.3395481
47	0xbea08ce5	-0.31357494
48	0xbf479c30	-0.779727
49	0xbf463fd5	-0.7744115
50	0x3d76ca70	0.060251653
51	0xbf1e727d	-0.61893445
52	0xbf23e91a	-0.6402756
53	0xbfce5d95	-1.6122309
54	0xbf4a7b9b	-0.79094857
55	0xbf898a95	-1.0745417
56	0x3dddd1fa	0.108310655
57	0x3e72d297	0.23713146
58	0xbf1618ac	-0.58631396
59	0xbf9c366d	-1.220411
60	0xbf789655	-0.9710439
61	0xbfab4f6f	-1.3383616
62	0xbf059e86	-0.5219501
63	0xbf937c8b	-1.1522382
64	0xbf09e32b	-0.53862256
65	0xbe90bcd4	-0.28269064
66	0xbf387209	-0.72049004
67	0xbf5716b8	-0.8401904
68	0xbfb14934	-1.3850465
69	0xbf667e2e	-0.90036285
70	0xbe19f91d	-0.15036435
71	0xbf5bbaf2	-0.8583213
72	0xbe406a4e	-0.18790552
73	0xbfb4cf2e	-1.4125726
74	0xbf91c06b	-1.1386846
75	0xbf354e34	-0.70822453
76	0xbf6f875b	-0.9356591
77	0xbe27d585	-0.16390045
78	0x3e72a877	0.23697077
79	0xbe65d165	-0.22443159
80	0xbf9450fc	-1.1587214
81	0xbfad543e	-1.3541334
82	0xbf871260	-1.0552483
83	0xbfcaf4e2	-1.5855982
84	0xbf4eba10	-0.8075266
85	0xbeb5ec8a	-0.35532027
86	0xbf589ab5	-0.84611064
87	0xbf46144f	-0.7737474
88	0x3f34b86d	0.7059391
89	0xbf5403b6	-0.8281816
90	0xbfc01669	-1.5006839
91	0xbf58836d	-0.8457554
92	0xbe2aa6cb	-0.16665189
93	0xbf38d39c	-0.7219789
94	0xbed3f3e8	-0.41397023
95	0xbf4a904e	-0.7912644
96	0xbf4cdc24	-0.8002341
97	0xbe7db0f0	-0.24774528
98	0xbf6381b0	-0.8886976
99	0xbfb070e7	-1.3784455
100	0xbf7c91df	-0.9866008
101	0xbf52c82c	-0.8233669
102	0xbf96f636	-1.1793888
103	0xbbb271f1	-0.005445712
104	0xbf88ab69	-1.067731
105	0xbfaa8d21	-1.3324319
106	0xbf769558	-0.9632163
107	0xbf9eac92	-1.2396414
108	0xbf51e08b	-0.8198325
109	0xbf9a7edb	-1.2069963
110	0xbf9e3a9a	-1.2361634
111	0xbe7c05db	-0.24611609
112	0xbfa30a35	-1.273749
113	0xbf0f769e	-0.5604037
114	0xbfafa39e	-1.3721807
115	0xbf92e907	-1.1477364
116	0xbf0e0dbb	-0.554897
117	0xbfb3d15d	-1.4048268
118	0xbfc3b6dd	-1.529018
119	0xbeffbfce	-0.49951023
120	0x3ced0893	0.028934753
121	0xbf4d1dec	-0.8012378
122	0xbee472cd	-0.44618836
123	0xbf8c13e2	-1.0943568
124	0xbfbc1b06	-1.4695747
125	0xbf9ca7b6	-1.2238681
126	0xbf649f39	-0.89305454
127	0xbf56c8a2	-0.8389989

encoder.fc2.weight f4 [16, 128]
0	0xbc3d2a68	-0.011545755
1	0xbe019f25	-0.12658365
2	0xbd4cf185	-0.05003502
3	0xbe54ae9e	-0.20769736
4	0xbd8d81b6	-0.06909506
5	0x3eb55e47	0.3542349
6	0xbec884b5	-0.39163747
7	0x3d52e4cf	0.05148774
8	0x3ed6a5a1	0.4192324
9	0xbb039db2	-0.0020083007
10	0x3d592e91	0.053022925
11	0xbdfa8233	-0.12231865
12	0x3d149792	0.03627736
13	0x3cd77614	0.026301421
14	0x3ed05fc4	0.40698063
15	0x3db40b64	0.08791235
16	0x3ef2ea09	0.4744418
17	0xbe836d9b	-0.2566956
18	0x3d383f32	0.044982143
19	0xbd9c3eea	-0.076291874
20	0x3dc5f77f	0.09666347
21	0xbc0727ec	-0.008249264
22	0xbe104801	-0.14089967
23	0xbe230f79	-0.15923871
24	0x3e23272a	0.15932909
25	0xbe2663a7	-0.16248952
26	0xbd89ee74	-0.067349344
27	0xbd95d678	-0.07316297
28	0xbe15920f	-0.14606498
29	0x3ce5fbbd	0.02807414
30	0x3d9d9ae6	0.0769556
31	0x3e5befd3	0.21478204
32	0x3e09c9c1	0.1345587
33	0xbe1d8704	-0.15383536
34	0x3e04de31	0.12975384
35	0xbe5c3b3d	-0.21506973
36	0xbde68878	-0.11256498
37	0x3d8aebbe	0.067832455
38	0xbbf06fe5	-0.0073375576
39	0xbf0d87db	-0.55285424
40	0xbe53ea1c	-0.20694774
41	0xbde85c02	-0.11345674
42	0x3e064e6d	0.13115855
43	0x3e9cb417	0.30606148
44	0x3e13d3dd	0.14436288
45	0xbd4c09b9	-0.04981396
46	0xbe5a39e3	-0.21311145
47	0x3c68bc96	0.014205119
48	0xbdcce22f	-0.100040786
49	0x3e54d8fd	0.207859
50	0x3e4649b1	0.19364049
51	0x3cec3fbb	0.028838983
52	0x3c8c9e5a	0.017165352
53	0x3e8eaf09	0.27867916
54	0xbe22c068	-0.1589371
55	0x3d34d39e	0.044147126
56	0x3eb1588a	0.34637862
57	0x3e3a7908	0.18210232
58	0x3d9cec72	0.07662286
59	0xbe36d658	-0.17855203
60	0xbd126763	-0.03574313
61	0xbe1090b3	-0.14117698
62	0x3e0707f6	0.1318663
63	0xbd9bada3	-0.07601478
64	0xbe974156	-0.29542035
65	0x3dfbfc8c	0.12304029
66	0xbba923ca	-0.005161737
67	0x3e33b5af	0.17549776
68	0xbc16f887	-0.009214527
69	0x3db8287e	0.08992098
70	0x3cfce544	0.030871041
71	0xbd40cc56	-0.04706987
72	0xbdb2af2a	-0.08724816
73	0xbe8daaa9	-0.27669266
74	0x3dd541e1	0.10412956
75	0xbeb83b04	-0.35982525
76	0xbdc15b63	-0.09441259
77	0x3e3711cf	0.17877887
78	0x3e05c1c9	0.13062204
79	0x3d947113	0.0724813
80	0xbd964dba	-0.07339044
81	0x3e18cb93	0.14921407
82	0x3de24731	0.11048735
83	0xbbb72fdf	-0.0055904235
84	0xbe45364d	-0.19258995
85	0xbe102f25	-0.14080484
86	0x3b0ce996	0.0021501533
87	0xbe47dde4	-0.19518238
88	0xbe266b35	-0.16251834
89	0x3e23465d	0.1594481
90	0xbde57a51	-0.11204971
91	0x3d5c75cd	0.05382328
92	0xbe148206	-0.14502725
93	0x3dc1c2bf	0.09460973
94	0x3d191253	0.03737099
95	0xbd53be12	-0.051694937
96	0x3de4d7a6	0.11173944
97	0xbc97f6a2	-0.01855022
98	0xbd4c5543	-0.049886
99	0xbde17b96	-0.110099
100	0xbc70a253	-0.014687139
101	0x3ca13ae1	0.019681396
102	0x3d541210	0.05177504
103	0xbd3cfd18	-0.046139807
104	0x3e5ea02a	0.21740785
105	0x3c854ca1	0.016271891
106	0x3e250d42	0.16118339
107	0xbd7e8b89	-0.06214479
108	0xbeaa474c	-0.3325752
109	0xbd898197	-0.067141704
110	0x3c0a7aa2	0.0084520895
111	0xbc917e47	-0.017760409
112	0x3cdbcb15	0.026830235
113	0x3cbf20b5	0.023331026
114	0xbd6ea1aa	-0.058259644
115	0x3d0da306	0.0345793
116	0x3d226eab	0.039656322
117	0x3e23e612	0.16005734
118	0xbd5e9dbb	-0.054349642
119	0xbd8f98cd	-0.07011566
120	0x3c5fae2c	0.013652366
121	0xbddb9d68	-0.10723382
122	0x3dc50483	0.09620001
123	0xbe89ac98	-0.2688949
124	0xbd4aec61	-0.049541835
125	0x3ea44e7f	0.32091138
126	0x3e1c37a8	0.15255606
127	0xbb696a5a	-0.003561637
128	0xbdfeb4cc	-0.12436828
129	0x3e27899e	0.1636109
130	0xbea9ebf5	-0.33187833
131	0x3ed57eae	0.4169821
132	0xbd46edd4	-0.048566654
133	0xbd187f27	-0.037230637
134	0xbea811e2	-0.32826144
135	0x3dc787ab	0.097426735
136	0xbe205699	-0.15658034
137	0x3da175da	0.078838065
138	0x3d1035ab	0.03520743
139	0xbe4aff0a	-0.19823852
140	0xbdcaad40	-0.09896326
141	0xbee40b3c	-0.4453982
142	0x3d846771	0.064650424
143	0xbda9335b	-0.082617484
144	0x3e2da66f	0.1695802
145	0x3e00ddac	0.12584561
146	0x3e925b13	0.2858511
147	0xbe9eb4b0	-0.3099723
148	0xbeb25e19	-0.34837416
149	0x3be19e12	0.0068852985
150	0x3dce29cd	0.100665666
151	0x3dbbd1b2	0.091708556
152	0x3d8a8fbf	0.06765699
153	0xbe4fcad1	-0.20292212
154	0x3cd17f01	0.025573255
155	0xbd1009ea	-0.035165705
156	0xbefcd22b	-0.49379095
157	0xbd00baf0	-0.031428277
158	0x3c0b82cc	0.008515071
159	0xbea1a899	-0.31573942
160	0xbd71da07	-0.059045818
161	0xbe41e401	-0.18934633
162	0x3ed3774d	0.41301957
163	0xbe3f92c0	-0.18708324
164	0xbdbaaa89	-0.09114558
165	0x3e28879d	0.16457982
166	0xbebeeb23	-0.3728877
167	0xbcf9ebb3	-0.030507898
168	0xbe8022ae	-0.25026459
169	0xbe05948f	-0.13044952
170	0x3cd19b83	0.02558685
171	0x3df4e1a4	0.119571
172	0xbc8ff9c5	-0.017575154
173	0xbe7bb3e8	-0.24580348
174	0xbe2d10f8	-0.16901004
175	0x3df66816	0.120315716
176	0x3ee0a035	0.43872228
177	0x3de2776b	0.110579334
178	0x3e6525fa	0.22377768
179	0x3d9f0d99	0.077662654
180	0x3ebf383f	0.373476
181	0x3db09de1	0.08623863
182	0x3e114682	0.14187053
183	0x3d573bac	0.052547142
184	0xbe44b0d6	-0.19208083
185	0x3e65562b	0.22396152
186	0xbdd94552	-0.10608925
187	0x3dcc3d5f	0.09972643
188	0x3db13b9b	0.08653947
189	0xbdaa38fb	-0.083116494
190	0xbf2cfd4b	-0.67573994
191	0xbb8ee737	-0.004361059
192	0xbe84c25c	-0.25929534
193	0xbe86ce34	-0.26329195
194	0x3e07325b	0.13202803
195	0x3e126b44	0.14298731
196	0x3da60b30	0.081076026
197	0xbe22650d	-0.1585886
198	0x3cfb071b	0.030643037
199	0x3dfa709a	0.12228508
200	0x3f44efa6	0.76928174
201	0x3d8de4fd	0.06928442
202	0x3cc6c264	0.024262615
203	0xbe60b086	-0.21942338
204	0x3dfabf68	0.12243539
205	0xbf3be516	-0.7339643
206	0x3ea6b8e1	0.32562926
207	0xbd637440	-0.055530787
208	0xbdad94fd	-0.08475683
209	0xbdee533c	-0.116369694
210	0xbda7879f	-0.081801645
211	0xbcfaaf30	-0.030601114
212	0xbdb53882	-0.08848669
213	0x3da7e1b8	0.08197349
214	0x3e2ccefe	0.16875836
215	0x3e59dcbb	0.21275608
216	0x3e88a52a	0.2668851
217	0xbd631a39	-0.05544493
218	0xbce9cb3a	-0.028539289
219	0xbce319e3	-0.027722305
220	0x3e325390	0.17414689
221	0xbb5b7664	-0.0033487314
222	0x3ded21e1	0.115787275
223	0x3d82b4f3	0.063821696
224	0xbad50441	-0.0016251878
225	0x3e8d5c59	0.27609518
226	0x3ddeaab1	0.108724006
227	0xbe59cf0b	-0.21270387
228	0x3e9660ef	0.2937083
229	0x3e1cbdac	0.15306729
230	0x3e92e7ea	0.2869256
231	0x3e620acd	0.22074433
232	0xbea9b972	-0.33149296
233	0xbe426bfb	-0.18986504
234	0xbe3aa2e2	-0.18226197
235	0x3e0ce903	0.13760762
236	0x3e4c9ce1	0.1998172
237	0x3e45a23e	0.19300172
238	0xbd0986a2	-0.03357566
239	0xbe35c762	-0.1775184
240	0x3e538d24	0.2065931
241	0xbd625c6b	-0.055263918
242	0x3b368b3f	0.0027853993
243	0x3dc5b527	0.09653693
244	0xbc6da297	-0.0145040965
245	0x3e50f637	0.20406424
246	0xbd63a315	-0.05557545
247	0x3f1fd3a6	0.62432325
248	0x3da22c56	0.07918613
249	0xbc382a1d	-0.011240509
250	0xbd5596f2	-0.052145906
251	0x3eac90e2	0.33704287
252	0xbbbf3097	-0.00583465
253	0x3ec285f0	0.3799281
254	0x3e8449f3	0.2583767
255	0xbcdf9e93	-0.027297294

encoder.fc2.bias f4 [16]
0	0xbc848ba8	-0.016179875
1	0xbd59e785	-0.05319931
2	0x3dfe07db	0.12403842
3	0xbc99c609	-0.018771188
4	0x3f52b42c	0.8230617
5	0xbc9c8aa5	-0.01910908
6	0xbd08c796	-0.033393465
7	0x3ef76f0a	0.48326904
8	0x3c89d5fe	0.016825672
9	0xbddf62d3	-0.10907521
10	0x3f029934	0.5101502
11	0xbc3cb87f	-0.011518597
12	0xbcb890a3	-0.022529906
13	0xbb916a26	-0.0044377027
14	0xbe475468	-0.19465792
15	0x3bd4f631	0.006499075

encoder.fc3.weight f4 [16, 128]
0	0xbd626266	-0.05526962
1	0x3d47899e	0.048715226
2	0xbd52eb9b	-0.051494222
3	0x3dc38a1e	0.09547828
4	0x3cf9f1b2	0.030510757
5	0xbe5afa19	-0.21384467
6	0x3e65a602	0.22426608
7	0xbc5c3b0b	-0.013441811
8	0x3d197b80	0.037471294
9	0x3d2db11f	0.042405244
10	0xbcf6c951	-0.030125292
11	0xbcb6559c	-0.022257619
12	0xbd3fe3be	-0.04684805
13	0x3dfa74b3	0.1222929
14	0x3dac5015	0.08413712
15	0x3ef9d1a4	0.48792756
16	0xbd1f216e	-0.03885024
17	0x3e978809	0.29595974
18	0xbda93936	-0.08262865
19	0xbdf7d697	-0.12101477
20	0xbd4d9b92	-0.05019719
21	0xbddbeaba	-0.1073813
22	0x3d393bd3	0.04522307
23	0xbd254259	-0.040346477
24	0x3d94bc57	0.072624855
25	0x3e18d139	0.14923562
26	0xbdf69cd7	-0.120416336
27	0x3e7b6ba2	0.24552777
28	0x3d1557bf	0.036460634
29	0x3bc6ba99	0.0060647246
30	0xbbf17b5a	-0.007369441
31	0xbe1f33c2	-0.15547088
32	0x3d2bfcc0	0.041989088
33	0xbcd7a448	-0.026323453
34	0xbcf8f965	-0.030392358
35	0xbe41ee79	-0.18938626
36	0x3e3b58a8	0.18295538
37	0x3eab213f	0.33423802
38	0x3db673e4	0.08908823
39	0x3e3bf3b2	0.18354681
40	0x3e17435d	0.14771791
41	0xbdaf0924	-0.08546665
42	0x3d39deb8	0.045378417
43	0x3b9dfd67	0.0048214677
44	0x3da7dce9	0.08196432
45	0xbc8cc1dc	-0.017182283
46	0xbd9f2bad	-0.07772002
47	0xbcaa59e9	-0.020794826
48	0x3c74cd2c	0.014941495
49	0xbe52b890	-0.20578218
50	0x3a0e87e6	0.00054371206
51	0xbccc3ecc	-0.024932288
52	0xbc7d36bd	-0.015454945
53	0x3d8af0a6	0.06784181
54	0xbd63ca50	-0.055612862
55	0x3db89d2d	0.09014354
56	0x3e789063	0.24273829
57	0xbcd88dde	-0.026434835
58	0x3cca4d71	0.02469513
59	0x3db93d2d	0.090448715
60	0x3e8ba349	0.27273014
61	0x3d7daf00	0.06193447
62	0xbd0b23b2	-0.03396959
63	0x3da51531	0.080606826
64	0xbc978bb3	-0.018499231
65	0x3cd98f32	0.026557539
66	0xbd6afcb5	-0.057369906
67	0xbc251e20	-0.010077983
68	0xbcf22111	-0.029556783
69	0x3dc8997e	0.09794901
70	0xbdc885ef	-0.09791171
71	0xbd21c019	-0.03948984
72	0x3d8c8efe	0.06863211
73	0xbe6f51bd	-0.23371024
74	0xbdee624b	-0.11639842
75	0xbc57f4c1	-0.0131809125
76	0xbe61a6dc	-0.22036308
77	0xbdc27087	-0.09494119
78	0xbd101511	-0.03517634
79	0x3deb6e8d	0.11495695
80	0xbe50499b	-0.20340578
81	0x3e0d539f	0.1380143
82	0x3da38dbc	0.07986018
83	0x3e83ccb8	0.25742126
84	0xbc86bf85	-0.016448746
85	0xbd2e0bc0	-0.042491674
86	0xbd4d8a48	-0.050180703
87	0xbc653aaf	-0.013991042
88	0xbe07344c	-0.13203543
89	0xbe29ab8b	-0.16569345
90	0x3c953ffd	0.018218989
91	0xbe62386f	-0.2209184
92	0xbcfd2d56	-0.030905407
93	0x3d07bd41	0.03313947
94	0xbc1fdc0a	-0.009757051
95	0x3bf64499	0.0075155017
96	0x3daa7170	0.08322418
97	0x394fa720	0.00019803317
98	0xbd38a52d	-0.0450794
99	0x3d76b34e	0.060229592
100	0x3cae0819	0.021244096
101	0xbe027f13	-0.12743787
102	0x3c36916c	0.01114307
103	0xbd957e4e	-0.07299481
104	0x3da07847	0.07835441
105	0x3d7657a1	0.060142163
106	0x3da714ad	0.081582405
107	0xbdf4d9c5	-0.11955599
108	0xbe889c33	-0.2668167
109	0x3d657f49	0.05602959
110	0xbd8d9248	-0.069126666
111	0x3d1657e5	0.036704917
112	0xbda9fa27	-0.08299666
113	0xbddd8094	-0.1081554
114	0xbcb468db	-0.022022655
115	0xbe198090	-0.14990449
116	0xbd8382de	-0.06421445
117	0xbd5d7792	-0.05406911
118	0x3dd2aefe	0.10287283
119	0x3d116a83	0.035501968
120	0x3dc19a09	0.09453208
121	0x3d3b3d8c	0.045712993
122	0xbd985885	-0.07438759
123	0xbcd52a6a	-0.026021201
124	0x3d03e5aa	0.032201447
125	0x3d55bc98	0.05218181
126	0xbbcbba8e	-0.0062173074
127	0x3da9646a	0.082711056
128	0xbd1409fe	-0.03614234
129	0xbd90ee99	-0.07076759
130	0x3df9b1ef	0.12192141
131	0x3dc2e6ed	0.09516702
132	0xba346fdf	-0.0006883125
133	0xbc01f0c7	-0.007930941
134	0x3db548f0	0.08851802
135	0x3d06bf9c	0.032897577
136	0x3d41c18e	0.04730373
137	0x3e3e1e6e	0.18566296
138	0xbc2fa758	-0.01072105
139	0x3cd647ee	0.026157346
140	0xbd218aa8	-0.039438874
141	0x3cca3b9e	0.02468663
142	0x3d61f8e4	0.055169
143	0x3e0d248a	0.1378347
144	0x3da234ea	0.07920249
145	0x3e1228e8	0.14273417
146	0x3ce3b149	0.027794497
147	0xbde150ab	-0.11001714
148	0xbd79c390	-0.06097752
149	0x3cd5fa29	0.026120262
150	0xbc095adf	-0.008383482
151	0xbd2875ec	-0.041128084
152	0x3d063620	0.03276646
153	0xbda78c2e	-0.08181034
154	0xbdb9536f	-0.09049117
155	0x3d6ff161	0.058579806
156	0x3c92b559	0.017908739
157	0xbaca9826	-0.0015456721
158	0xbd7ee79c	-0.0622326
159	0xbd90bd2d	-0.070673324
160	0xbd7b2d8b	-0.06132273
161	0xbd54a2e3	-0.051913153
162	0x3d53d9ec	0.0517215
163	0xbdbb17c7	-0.091353945
164	0xbd87e218	-0.06634921
165	0x3e0ee0cf	0.13952945
166	0x3de907bd	0.11378429
167	0xbb317ecd	-0.0027083636
168	0xbcac27dd	-0.021015102
169	0xbd8bb591	-0.068217404
170	0xbd53cc0d	-0.05170827
171	0x3cfa642c	0.030565344
172	0xbc8f8435	-0.017519096
173	0xbd692e2c	-0.0569288
174	0xbce9e70a	-0.02855255
175	0x3b416ae2	0.002951317
176	0x3d5dbaed	0.054133344
177	0xbcba0b6c	-0.022710524
178	0xbdf7001a	-0.12060566
179	0x3cc9bd39	0.024626361
180	0x3d334f03	0.043776523
181	0xbdd89437	-0.10575145
182	0x3bc13109	0.005895738
183	0x3c6847dc	0.014177289
184	0x3d85c419	0.06531543
185	0x3ca68e95	0.02033166
186	0xbcee66bf	-0.029101728
187	0x3d52a26e	0.051424436
188	0x3e938ce1	0.2881842
189	0x3e38c6f5	0.18044646
190	0xbda72362	-0.081610456
191	0x3c8be4ef	0.017076937
192	0x3d73f4ce	0.059559636
193	0xbce5f121	-0.02806908
194	0x3d681cc9	0.056668077
195	0x3e16d9b3	0.14731483
196	0xbcc83f18	-0.024444148
197	0x3aa2cafe	0.0012420116
198	0xbe89f19a	-0.2694214
199	0xbdc61872	-0.09672631
200	0x3e300c84	0.17192274
201	0xbd8e11fb	-0.06937023
202	0xbe254827	-0.16140805
203	0xbe2a962b	-0.16658847
204	0xbe4f6fad	-0.20257445
205	0x3d808cc8	0.06276852
206	0x3c9f926e	0.019479003
207	0x3cf11cb8	0.02943264
208	0xbd2da365	-0.042392153
209	0xbcd5fdc1	-0.026121976
210	0xba8b65d7	-0.0010635209
211	0x3eb89614	0.36052
212	0xbb97083f	-0.0046091373
213	0x3dbe33b5	0.09287206
214	0xbe43a9a2	-0.19107679
215	0xbdcf58c2	-0.10124351
216	0xbe0e4613	-0.13893919
217	0xbe1e976e	-0.15487453
218	0xbbf99ba6	-0.0076174317
219	0x38f2d45f	0.000115790164
220	0x3c8f66f3	0.017505145
221	0xbd5eae1d	-0.054365266
222	0xbd390008	-0.045166045
223	0x3e051003	0.12994389
224	0xbdaf45c0	-0.08558226
225	0x3d7cf9dc	0.061761722
226	0x3c686111	0.014183299
227	0x3c873c93	0.016508376
228	0xbca40230	-0.020020574
229	0x3bccc9a3	0.006249623
230	0xbdd53fb5	-0.10412542
231	0x3b8307da	0.0039987387
232	0x3de41565	0.11136893
233	0xbd80078e	-0.06251441
234	0xbd5296f3	-0.051413488
235	0x3d3f497f	0.04670095
236	0xbd771897	-0.060326185
237	0xbc946129	-0.018112736
238	0x3dcca3ed	0.09992204
239	0xbcac57e0	-0.021037996
240	0xbdec42f4	-0.11536208
241	0x3c2a178c	0.010381591
242	0xbd04f836	-0.032463275
243	0xbde46d5b	-0.111536704
244	0xbc796a9a	-0.01522317
245	0x3dd8cace	0.10585557
246	0x3d03347b	0.03203247
247	0xbd9ecc60	-0.07753825
248	0x3d726d15	0.05918606
249	0x3d9d2eb8	0.076749265
250	0xbdd6da42	-0.10490848
251	0x3bfb90bc	0.007677166
252	0x3d0b54ea	0.034016527
253	0x3e172969	0.1476189
254	0x3d3b3ae9	0.045710478
255	0x3d5aa712	0.053381987

encoder.fc3.bias f4 [16]
0	0xbffba10d	-1.9658524
1	0xbfc27283	-1.5191196
2	0xc06ae531	-3.6702387
3	0xbc84ef1e	-0.016227301
4	0xc01c74a5	-2.4446194
5	0xbcc570dc	-0.024101667
6	0xc034b2a7	-2.823404
7	0xc0059948	-2.0874805
8	0xbc51d683	-0.012807491
9	0xbf8ccf8c	-1.1000838
10	0xbf99dd1b	-1.2020601
11	0xbc553b3a	-0.013014609
12	0xbc34c38c	-0.01103295
13	0xbc9e9638	-0.01935874
14	0xc03349ec	-2.8013868
15	0xbc051105	-0.008121734

decoder.fc1.weight f4 [128, 16]
0	0xbd054d3e	-0.032544367
1	0xbe02dcbd	-0.12779517
2	0x3f71c716	0.94444406
3	0xbc3780fd	-0.011200187
4	0x3ecd7015	0.40124574
5	0x3c0fc2ff	0.008774518
6	0x3de09d3b	0.10967489
7	0xbb9bde6a	-0.0047567384
8	0x3ba6ea76	0.005093868
9	0x3c9d410e	0.01919606
10	0xbddfabc9	-0.10921437
11	0x3c1f3162	0.009716364
12	0x3b5e55bb	0.003392561
13	0xba6bff89	-0.0009002616
14	0x3fa7ef02	1.3119814
15	0xbc90df47	-0.017684592
16	0xbf18e61d	-0.59726125
17	0xbee416e7	-0.44548723
18	0x3f233baa	0.63762915
19	0xbab56954	-0.0013840594
20	0x3ed9892f	0.42487475
21	0xbc497477	-0.012295834
22	0x3f8db774	1.107161
23	0x3da582b1	0.08081568
24	0xbc43153a	-0.011906916
25	0x3ee9b231	0.45643762
26	0xbe637b1a	-0.22214928
27	0xbc123377	-0.008923403
28	0x3c9f0a6b	0.019414147
29	0xbbedfbe9	-0.007262696
30	0x3f278078	0.654304
31	0xbc538e9c	-0.012912419
32	0xbe6ee8bb	-0.23330967
33	0x3ca4fb86	0.020139467
34	0x3f67d38f	0.9055719
35	0x3c23a45c	0.009987917
36	0xbf847de2	-1.0350916
37	0x3ba1f7cd	0.0049428702
38	0xbcfebf8a	-0.031097192
39	0xbefd257c	-0.4944266
40	0x3c2e4a03	0.010637763
41	0x3c7c1e17	0.015388033
42	0x3eb31e55	0.3498408
43	0xbb0ccdac	-0.0021484895
44	0x3b5698d2	0.0032744897
45	0x3b0d8e71	0.0021599794
46	0xc034b0f4	-2.8233004
47	0x3c67cdb4	0.014148165
48	0xbe997ee9	-0.29979637
49	0x3e1ac467	0.15113984
50	0xbf36f760	-0.71471214
51	0x3ce44ed0	0.027869612
52	0x3ba689f1	0.005082362
53	0x3c6cf828	0.014463462
54	0xbd999d83	-0.07500746
55	0x3e8ce2dd	0.27516833
56	0xbc2b7eca	-0.010467241
57	0x3e579655	0.21053441
58	0x3f7b1bb7	0.98089164
59	0xbc930341	-0.017945888
60	0xbc905238	-0.01761733
61	0x3cede991	0.029042037
62	0xc006606c	-2.0996351
63	0x3d273213	0.04081924
64	0x3dcdd60a	0.1005059
65	0xbd3af4b9	-0.045643542
66	0x3f85b685	1.0446326
67	0x3c029b6c	0.007971626
68	0xbf56f408	-0.8396611
69	0xbc125000	-0.008930206
70	0xbe90d4bd	-0.28287306
71	0x3db38310	0.087652326
72	0x3c385d8d	0.011252773
73	0xbe51b916	-0.20480761
74	0xbd10f6b7	-0.035391536
75	0xbc8ffdce	-0.017577078
76	0xbba591b4	-0.0050527696
77	0xbc4a325e	-0.01234111
78	0xbfe2bfc5	-1.7714773
79	0x3c1aa36e	0.009438379
80	0xbea834b9	-0.32852724
81	0xbe9d10d6	-0.30676907
82	0x3e037c57	0.128404
83	0xbc10866e	-0.008821113
84	0x3f0d7a32	0.5526458
85	0x3b68343c	0.0035431525
86	0xbf123562	-0.57112706
87	0x3e1cc57d	0.15309711
88	0x3b8b2ef5	0.004247541
89	0x3e8fb9a0	0.28071308
90	0x3d9e2f49	0.07723863
91	0xbc06fb57	-0.008238635
92	0x3c7ff537	0.015622429
93	0xbbc75221	-0.0060827886
94	0x3f9dbf63	1.2324032
95	0xbbf5c28a	-0.0074999975
96	0x3de41094	0.111359745
97	0xbfb0857a	-1.3790734
98	0x4036cae8	2.8561344
99	0x3b357c87	0.0027692632
100	0xbfdd45f1	-1.728697
101	0xbbc2613c	-0.0059320014
102	0x3ee3425e	0.44386572
103	0xbfab3d18	-1.3378019
104	0x3cec8c33	0.028875446
105	0x3e280b03	0.1641045
106	0xbebd1e10	-0.36936998
107	0x3c887e6b	0.016661843
108	0x3c4566c8	0.012048431
109	0xbc555217	-0.01302006
110	0x3fad6b93	1.3548454
111	0x3b2460ee	0.0025082189
112	0xbeb7f3e7	-0.3592827
113	0x3c8d72d2	0.017266665
114	0xbe907f0f	-0.28221938
115	0x3c2cb187	0.010540373
116	0xbf3d95e8	-0.74056864
117	0x3d10a44e	0.035312943
118	0x4014ba01	2.3238528
119	0xbe79c1e1	-0.24390365
120	0x3be95e65	0.0071218484
121	0xbd955956	-0.0729243
122	0x3e6c3cb0	0.23070025
123	0xbc4f6baf	-0.012659951
124	0x3c6bb216	0.014385721
125	0x3c19eb60	0.009394497
126	0xbfadc478	-1.3575583
127	0x3c985fbe	0.018600341
128	0x3e800680	0.2500496
129	0x3e26d9a8	0.16293967
130	0xbfc41959	-1.5320235
131	0x3c44954c	0.011998486
132	0x3eb0437d	0.3442649
133	0x3a485972	0.0007642723
134	0xbf5653e1	-0.8372174
135	0x3e48c954	0.1960805
136	0x39df3cd4	0.00042579195
137	0xbcb50123	-0.022095269
138	0x3e2ff23a	0.17182246
139	0x3ab31da6	0.0013665452
140	0xbbf94b1f	-0.007607832
141	0x3bb388ed	0.0054789693
142	0x3e9f60dd	0.31128588
143	0x3b78708b	0.0037908878
144	0x3f044950	0.51674366
145	0x3f5f254a	0.87166274
146	0xbf8748c9	-1.0569087
147	0x3a77b4e7	0.0009449259
148	0x3f95ae05	1.1693732
149	0x3b7e0f30	0.0038766377
150	0xbf593983	-0.8485338
151	0x3f464597	0.77449936
152	0xbc74b213	-0.014935034
153	0xbdd3fea0	-0.103513
154	0xbe51c8b6	-0.20486721
155	0xba85b7cc	-0.001020187
156	0xbcc496db	-0.023997715
157	0x3cbbb09a	0.022911359
158	0xbda3ae24	-0.07992199
159	0xbc85d6ae	-0.016337719
160	0xbe0d270e	-0.1378443
161	0x3d83fa0d	0.06444178
162	0xbfb4e768	-1.413312
163	0x3c3b93a4	0.0114487745
164	0xbf4d54c6	-0.8020748
165	0xbcaecfd0	-0.021339327
166	0x3fd2ab68	1.6458559
167	0xbf53d58e	-0.82747734
168	0x3c9deec3	0.01927889
169	0xbf496ac9	-0.78678566
170	0x3edb48c3	0.4282895
171	0x3d0b16e7	0.03395739
172	0xbbadaf3a	-0.0053004296
173	0x3c9ae7e0	0.018909395
174	0x404b51a0	3.176857
175	0xbaaaadf1	-0.0013021809
176	0x3df81c94	0.12114826
177	0x3f7c48d0	0.98548603
178	0xbfeb2768	-1.8371401
179	0xbb317351	-0.002707679
180	0x3fa24e4f	1.2680148
181	0x3c4c12ee	0.012455685
182	0xbecfb34d	-0.40566483
183	0x3f730fea	0.9494616
184	0xbca3db4d	-0.020002032
185	0xbdec59a0	-0.11540532
186	0x3e00048e	0.12501737
187	0xbc8db87b	-0.017299881
188	0xbca1d1c7	-0.01975335
189	0x3cde737d	0.027154678
190	0xbf30b39c	-0.6902406
191	0xbab7b16e	-0.001401467
192	0x3e6d6a01	0.23184969
193	0x3d0b786a	0.034050383
194	0xbe9ca5a4	-0.30595124
195	0xbb2ac439	-0.00260569
196	0xbf8260ae	-1.0185754
197	0xbb08ac7e	-0.0020854766
198	0xbf8e1c7d	-1.1102444
199	0xbdca1276	-0.098668024
200	0xba329b94	-0.0006813344
201	0xbe8d28a7	-0.27570078
202	0x3e36e05a	0.17859021
203	0x3c6bd860	0.01439485
204	0xbc4fe410	-0.012688652
205	0x3bed8c69	0.007249404
206	0xbe64d710	-0.22347665
207	0xbd02738e	-0.031848483
208	0x3de5ea8b	0.11226376
209	0xbe1cdf9e	-0.15319678
210	0xbfba88a6	-1.4572952
211	0xbc66871e	-0.0140703
212	0xbf17e8be	-0.5933951
213	0xbcaa6d61	-0.020804109
214	0x3e5e688d	0.2171957
215	0x3e903f59	0.2817333
216	0x3b48d48f	0.0030644273
217	0xbc115e5a	-0.008872593
218	0xbdeca43d	-0.115547635
219	0x3c31e852	0.010858612
220	0xbbbdbb53	-0.005790153
221	0x3c2e0011	0.010620133
222	0xbe96c1c4	-0.29444706
223	0x3c2e0ffd	0.010623929
224	0xbde2ab55	-0.11067835
225	0xbce846cd	-0.028354073
226	0x3f5f2a0f	0.8717355
227	0x3cb0f8dd	0.021603042
228	0x3b9a682e	0.004712126
229	0xbc05c855	-0.008165439
230	0x403a6ec5	2.9130108
231	0x3da15279	0.078770585
232	0x3c1fef88	0.009761699
233	0xbfb1e482	-1.389786
234	0x3f43d471	0.76496035
235	0x3d07ce02	0.03315545
236	0xbd84b491	-0.06479753
237	0x3ce39c99	0.027784633
238	0x407aff0d	3.921817
239	0x3c2786ab	0.010224978
240	0x3d8d6906	0.06904797
241	0x3f5fe959	0.87465435
242	0xbf4693d7	-0.77569336
243	0x3c3d5c84	0.011557702
244	0xbe98b792	-0.29827553
245	0xbd24e2c2	-0.040255316
246	0x3f2b9f97	0.6704039
247	0x3d37aa59	0.04484019
248	0xbc74488f	-0.014909877
249	0x3e0b2f26	0.13592204
250	0xbed470ea	-0.41492397
251	0xbd2d4738	-0.042304248
252	0xbc5ae127	-0.013359345
253	0xbcf38b2b	-0.029729446
254	0xc069cef3	-3.6532562
255	0xbcc687ea	-0.02423473

decoder.fc1.bias f4 [128]
0	0x3ff8c000	1.9433594
1	0xbedd10bd	-0.43176833
2	0xc0755b32	-3.8336911
3	0xc038a976	-2.885343
4	0xbf964161	-1.1738702
5	0x3fc3ff8f	1.5312365
6	0x3fb3b988	1.4040995
7	0xc04f109e	-3.2353892
8	0x3f348cb8	0.7052722
9	0xbedc85f8	-0.4307096
10	0xbf685946	-0.9076122
11	0xbdc7aa6e	-0.09749304
12	0xbf9fa535	-1.2472292
13	0x3ee26a66	0.442218
14	0x3ff0b7c2	1.8806078
15	0xc0969565	-4.7057366
16	0x3f3da3e1	0.74078184
17	0x3f992032	1.196295
18	0xbe08b6b8	-0.13350952
19	0xbf9e2937	-1.2356328
20	0xc0ad3f44	-5.413973
21	0xc04d6f0f	-3.2099035
22	0x3fe30e1e	1.7738683
23	0x3f9123d2	1.1339056
24	0xbf95e301	-1.1709901
25	0x3f4f3811	0.80944926
26	0xbf06a6c3	-0.5259821
27	0x3cb2b01c	0.021812491
28	0x3f8d3cb2	1.1034148
29	0xbfcd273e	-1.6027601
30	0x3ecb629b	0.39723668
31	0x3e8384da	0.25687295
32	0xbe954d5b	-0.2916058
33	0x3ff6fc43	1.9295734
34	0x3f8c7813	1.0974144
35	0x3e7ce51e	0.24696776
36	0x3fbb8bdc	1.4652057
37	0xbed62153	-0.418223
38	0xbf110c38	-0.5665927
39	0xc057e38d	-3.3732636
40	0xbf283226	-0.6570152
41	0xc0343a60	-2.816063
42	0x3f988d11	1.191805
43	0xc08eb885	-4.4600244
44	0xbfdef248	-1.7417688
45	0xbd8bbf2f	-0.06823575
46	0x3fb0d66c	1.3815436
47	0xbfb49c36	-1.4110172
48	0x3f57c8db	0.84290856
49	0xc01173b7	-2.2726877
50	0x3ecdcfe3	0.40197667
51	0x3f7f6a6e	0.99771774
52	0x3ea8f3dd	0.32998553
53	0x3f3aec0a	0.7301642
54	0xbfc7d858	-1.5612898
55	0xbf9a977c	-1.2077479
56	0xbdc4159a	-0.09574433
57	0xc0503121	-3.2529986
58	0x3ec4bc2c	0.38424814
59	0x3fb9fa9a	1.4529603
60	0xc01de1e4	-2.4669123
61	0x3ea1b508	0.31583428
62	0x3f54d3f6	0.83135927
63	0xbe2a3d74	-0.16625005
64	0x3f03a8ad	0.51429254
65	0xc08a91c3	-4.330293
66	0x3f89bdff	1.0761107
67	0x3f8ecad6	1.1155651
68	0xbff52b1f	-1.9153785
69	0xbfce968a	-1.6139691
70	0xbf86ce61	-1.0531732
71	0xbe93b7bf	-0.28851125
72	0xbe8ee08c	-0.2790569
73	0x3fc6ccbe	1.5531232
74	0x3cd66565	0.026171396
75	0xbf6faa4a	-0.93619215
76	0x3f0acfcd	0.5422333
77	0xbf25a85b	-0.64710015
78	0xbfbbf310	-1.4683552
79	0x3fcc16a9	1.5944415
80	0xbfea1c6c	-1.8289924
81	0x3f92921a	1.1450837
82	0x3faa9e51	1.3329564
83	0x3fa1979f	1.2624396
84	0xbcdfb041	-0.027305724
85	0xbf9cd71f	-1.225315
86	0xbf6b58c6	-0.9193233
87	0x3f406c80	0.7516556
88	0xbf1488c8	-0.5802121
89	0xc04751cc	-3.1143675
90	0xc037dd85	-2.8728955
91	0x3f115dbc	0.5678365
92	0x3f4506c9	0.7696348
93	0x4006923f	2.1026762
94	0xbe37004c	-0.17871207
95	0x3f16a728	0.5884881
96	0xbe4d4cf6	-0.2004889
97	0xbf1d7c93	-0.6151821
98	0xbeac7361	-0.33681777
99	0xbf16399c	-0.58681655
100	0xbfce5b77	-1.6121663
101	0x3f089821	0.5335713
102	0xc022b2e4	-2.5421686
103	0x3fc0d6f1	1.5065595
104	0xbfa5244b	-1.2901701
105	0xbf692783	-0.91075915
106	0xc0245215	-2.56751
107	0xbf36cc6b	-0.7140567
108	0x3f5642df	0.8369579
109	0xbf3bfaf0	-0.73429775
110	0x3dbe31d1	0.092868455
111	0xbf38bfab	-0.7216746
112	0xbe45d739	-0.19320382
113	0x3fda86e2	1.7072413
114	0xbf6f7f45	-0.9355357
115	0x3f34f38a	0.7068411
116	0xbf24f319	-0.6443344
117	0x3dc256b3	0.09489193
118	0x3e8902a4	0.26759827
119	0xbe8966ba	-0.26836187
120	0x402894af	2.634075
121	0xc04ac2e1	-3.1681445
122	0xbf193588	-0.5984731
123	0xc00c82a1	-2.195473
124	0x3ff20ae7	1.8909577
125	0x3fd80951	1.6877843
126	0x3f7cb36c	0.98711276
127	0xbfde6dee	-1.7377298

decoder.fc2.weight f4 [51, 128]
0	0x3ea63284	0.32460415
1	0x3e295467	0.16536103
2	0xbfc47047	-1.5346764
3	0xc0708f01	-3.7587283
4	0xbf8a56c5	-1.080773
5	0xbf59fd3f	-0.8515205
6	0x3d8f5235	0.069981016
7	0xbf832ddd	-1.0248371
8	0x3e7a06b7	0.24416624
9	0xbf783af2	-0.96964943
10	0x3e539520	0.20662355
11	0x3e94cbc5	0.29061714
12	0xbe0b468e	-0.13601133
13	0xbd489a8c	-0.048975512
14	0x3d3140cc	0.043274686
15	0xbfc966b0	-1.5734463
16	0x3f3b139a	0.73076785
17	0x3e78b268	0.24286807
18	0xbe70c1e7	-0.23511468
19	0xbe1c1dff	-0.15245818
20	0xbe1f4f67	-0.15557633
21	0xbf847741	-1.0348893
22	0xbf15a874	-0.58460164
23	0xbf719f8f	-0.9438409
24	0xbec8e2bd	-0.39235488
25	0xbd1ba4ce	-0.037998967
26	0x3e9eb593	0.30997905
27	0x3e80df36	0.25170296
28	0xbe82770c	-0.2548145
29	0xbf1de0e7	-0.616713
30	0xbd10149f	-0.035175916
31	0x3e280f5a	0.16412106
32	0xbd14abda	-0.036296703
33	0xbe5804dd	-0.21095605
34	0x3dbb3169	0.091402836
35	0xbe1d27b2	-0.15347174
36	0x3dca8680	0.09888935
37	0x3cca71b1	0.024712415
38	0x3d433e81	0.04766703
39	0xbe25d778	-0.16195476
40	0xbf1e6481	-0.61872107
41	0x3e709832	0.23495558
42	0xbda751ae	-0.08169876
43	0x3fa5e707	1.2961129
44	0x3eab8598	0.3350036
45	0x3ea4fe4b	0.3222526
46	0x3c13d9d8	0.009024106
47	0xbe84eaee	-0.25960487
48	0xbc95b008	-0.018272415
49	0x3e549cf1	0.20762993
50	0x3ec2cfcc	0.3804916
51	0x3de5d0b3	0.11221447
52	0x3e411c9f	0.18858574
53	0xbd94ea38	-0.07271236
54	0xbf93a051	-1.15333
55	0x3ba585a9	0.005051334
56	0xbe1d534d	-0.15363808
57	0xbd9c5a63	-0.076344274
58	0x3efd8376	0.4951436
59	0xbf9e4de3	-1.2367519
60	0x3f5f700c	0.87280345
61	0xbce29383	-0.02765823
62	0x3df9a79b	0.12190171
63	0x3e73673c	0.2376985
64	0x3ed42ca9	0.41440323
65	0x3e81f488	0.25381875
66	0x3e8a0440	0.26956367
67	0xbe20015e	-0.15625522
68	0x3e141c3e	0.14463899
69	0xbe7b744e	-0.24556085
70	0x3f1297c2	0.57262814
71	0xbdf28a02	-0.11842729
72	0xbede5f2a	-0.4343198
73	0x3fb87672	1.4411147
74	0xbdee4ca9	-0.116357155
75	0x3e205d51	0.15660597
76	0xbda6c0d3	-0.08142247
77	0x3e07474d	0.13210793
78	0x3fca8922	1.58231
79	0xbd65153a	-0.055928446
80	0xbe8ff4a2	-0.28116328
81	0x3c72d160	0.014820427
82	0x3e934384	0.28762448
83	0xbec9b1f1	-0.3939357
84	0x3d88f84e	0.06687985
85	0x3dd97278	0.10617536
86	0x3c2b6ea0	0.010463387
87	0xbd879e6e	-0.06622015
88	0x3d542395	0.051791746
89	0xbefa041d	-0.48831263
90	0x3faa2f9c	1.3295779
91	0x3eb915b5	0.36149374
92	0xbf36a251	-0.71341425
93	0xbe934f14	-0.2877127
94	0xbc10211e	-0.008796958
95	0xc02809aa	-2.6255898
96	0x3d909ebe	0.07061528
97	0xbe82d695	-0.25554338
98	0xbf0bcb20	-0.5460682
99	0xbe3ae431	-0.1825111
100	0xbe8f3b7c	-0.2797507
101	0x3e12cea7	0.14336644
102	0x3ef85ed0	0.48509836
103	0x3e0aa300	0.13538742
104	0xbe8f8519	-0.28031233
105	0x3e21ec5e	0.15812823
106	0xbea71ec7	-0.3264067
107	0x3d9f5173	0.07779207
108	0xbd2d0b9f	-0.04224741
109	0xbe655f2b	-0.22399585
110	0xbdf91142	-0.12161495
111	0xbe9fe0bc	-0.31226146
112	0x3ee093a2	0.43862635
113	0x3e1a7f32	0.15087584
114	0x3de6b995	0.11265866
115	0x3c5a92fa	0.013340706
116	0xbcdede12	-0.0272055
117	0xbd52f344	-0.051501527
118	0x3e4f34ed	0.20235033
119	0xbe73c48f	-0.2380545
120	0x3e90dbc5	0.2829267
121	0x3e6e0be3	0.23246722
122	0xbd3ebf52	-0.046569176
123	0xbe854f67	-0.26037142
124	0xbd9d8e69	-0.07693178
125	0x3eaf52df	0.34242913
126	0xbe59ee4e	-0.21282312
127	0xbec35810	-0.38153124
128	0x3f04a7ea	0.51818717
129	0x3e1d5ea5	0.15368135
130	0xc07e14e0	-3.970024
131	0xbc8bffb9	-0.017089712
132	0xbddc9214	-0.1077005
133	0x3e407b48	0.18797028
134	0xbeca7d12	-0.39548546
135	0xbd9ce683	-0.07661154
136	0x3f83bc9b	1.0291933
137	0xbeb72c56	-0.35776013
138	0xbddd2c87	-0.107995085
139	0x3f42435b	0.75884026
140	0x3ee3f6af	0.44524142
141	0x3df0b353	0.117529534
142	0xbf8dae0b	-1.1068739
143	0xbf46aec7	-0.7761044
144	0x3d649e40	0.05581498
145	0xbe910dde	-0.28330892
146	0x3ec847c6	0.3911726
147	0x3f4fea23	0.8121664
148	0xc01d4bd9	-2.4577544
149	0x4074f27d	3.8273003
150	0xbd149f43	-0.036284696
151	0x3daa74ca	0.08323057
152	0x3dd97097	0.10617178
153	0x3ecdc921	0.40192512
154	0x3f19a3c1	0.60015494
155	0xbe4ae9a2	-0.19815686
156	0xbed906e6	-0.42388076
157	0xc06de89e	-3.7173228
158	0x3e8d5ca9	0.27609757
159	0xbe74d9c5	-0.23911197
160	0xbf377b62	-0.7167264
161	0x3f537588	0.82601213
162	0xbf7bf96e	-0.98427474
163	0x3f9be9ee	1.2180765
164	0xbf3b2a5b	-0.73111504
165	0xc097e36a	-4.7465105
166	0xbefc71ba	-0.49305516
167	0x3def1b45	0.11675123
168	0x3ec71973	0.38886604
169	0x3dc52cec	0.09627709
170	0x3e85e2fd	0.2614974
171	0xbe4fcd36	-0.20293126
172	0x3de86f55	0.1134936
173	0xbe1b7105	-0.15179832
174	0xbe31213e	-0.17297837
175	0x3f63bc0d	0.8895882
176	0x3ddee676	0.10883801
177	0xc006eab3	-2.108075
178	0xbe9bda4f	-0.30439994
179	0xbe17bfb2	-0.1481922
180	0xbcd9fd82	-0.02661014
181	0xbf05e01a	-0.52295077
182	0x3f81cfdc	1.0141559
183	0x3e4796c3	0.19491105
184	0xbbfa5474	-0.007639462
185	0x3f245ba4	0.6420233
186	0xbd5dacf8	-0.054120034
187	0x3f3d96b5	0.74058086
188	0xbfc8e670	-1.5695324
189	0xbefc2f4c	-0.49254835
190	0xbebdcb5d	-0.37069216
191	0xbe3fcd2a	-0.18730608
192	0x3e0efae0	0.13962889
193	0x3cd63f95	0.026153365
194	0x3eb5d141	0.3551121
195	0xbec78416	-0.3896796
196	0xbf267b6e	-0.6503209
197	0x3cae5731	0.02128181
198	0xbeae939c	-0.34096992
199	0x3ef4271a	0.47686082
200	0x3d83b5d8	0.06431168
201	0xbf9249c2	-1.1428759
202	0xbe639f7c	-0.22228807
203	0xbe43e72c	-0.19131154
204	0x3e086e58	0.13323343
205	0x3e7b37f4	0.24533063
206	0xbe87e012	-0.2653814
207	0x3f73c948	0.95229006
208	0x3efef8d0	0.49799204
209	0xbe57e117	-0.21081959
210	0xbf65d704	-0.8978121
211	0xbc5b0899	-0.013368749
212	0x3d9fa7b5	0.077956595
213	0xbd131d41	-0.03591657
214	0xbe2b6115	-0.16736253
215	0xbddec520	-0.10877442
216	0x3de56a7c	0.11201951
217	0xbf2c68e1	-0.6734753
218	0xbfd20ed8	-1.641078
219	0x3dca70e8	0.098848164
220	0xbee961c8	-0.45582414
221	0x3e43c40c	0.19117755
222	0xbe9a0c4d	-0.3008751
223	0xbe8a9e97	-0.2707412
224	0x3edaedde	0.42759603
225	0xbeffa183	-0.4992791
226	0xbeea7a3f	-0.4579639
227	0x3da7c8cb	0.08192595
228	0xbf64b4f6	-0.89338624
229	0x3d6c0ac5	0.057627458
230	0xbf2106f0	-0.6290121
231	0xbf3a18e8	-0.72694254
232	0x3f19dc77	0.6010203
233	0xbe86eb09	-0.26351193
234	0xbf6b9e80	-0.92038727
235	0xbd25280e	-0.040321402
236	0xbee0d43b	-0.4391192
237	0xbe0918f9	-0.13388433
238	0x3d91cbfc	0.07118985
239	0x3e758319	0.23975791
240	0xbdc3745c	-0.09543678
241	0xbf89e646	-1.0773399
242	0xbea4d48c	-0.3219341
243	0x3ec35841	0.3815327
244	0x3f238fc1	0.63891226
245	0xbf92fa37	-1.148261
246	0x3e15c409	0.14625563
247	0x3edd9b55	0.4328257
248	0xbd943158	-0.07235974
249	0x3e9aa0dd	0.30200854
250	0x3d3d698d	0.04624324
251	0x3d73361a	0.059377767
252	0x3dd27aeb	0.10277351
253	0x3e8e8428	0.27835202
254	0x3db30670	0.08741462
255	0xbf3a26c5	-0.7271541

decoder.fc2.bias f4 [51]
0	0xbfc36bfc	-1.5267329
1	0xbf548892	-0.8302089
2	0xbe34bcef	-0.17650197
3	0x3d8739fd	0.06602857
4	0xbf2f252c	-0.68416095
5	0xbf4a8e6c	-0.7912357
6	0xbf2ffa76	-0.6874155
7	0xbd0a6cd8	-0.033795208
8	0xbe3b1993	-0.18271475
9	0xbe093321	-0.1339841
10	0xbecaef11	-0.39635518
11	0xbe40a3b6	-0.18812451
12	0x3e97279a	0.295224
13	0x3edfcab3	0.43709335
14	0xbf8a6680	-1.081253
15	0xbf208151	-0.6269732
16	0xbe388d63	-0.18022685
17	0xbe376dc8	-0.17912972
18	0xbb0839d4	-0.0020786421
19	0xbd98b873	-0.07457056
20	0xbe41118e	-0.18854353
21	0x3e1fecc0	0.15617657
22	0x3f1fd97b	0.62441224
23	0xbec000ec	-0.37500703
24	0xbec1c408	-0.37844872
25	0xbe95d0f0	-0.2926097
26	0xbf45ac00	-0.77215576
27	0x3f4d850a	0.80281126
28	0x3eeab28c	0.45839345
29	0x3f955b7b	1.1668543
30	0xbf13a3ea	-0.5767199
31	0xbe2ae645	-0.16689403
32	0x3e2b97cd	0.16757126
33	0x3fea7b60	1.8318901
34	0xbe15e434	-0.14637834
35	0x3fa39787	1.2780617
36	0x3fbb6595	1.4640375
37	0x3f66b69a	0.9012238
38	0xbded32f6	-0.11581986
39	0xbe036d17	-0.12834583
40	0x3d2a00f2	0.041504808
41	0x3f8512d9	1.0396377
42	0x3ec44f49	0.3834174
43	0xbf1599a4	-0.5843756
44	0x3eed9d52	0.46409088
45	0xbf418795	-0.75597507
46	0x3e57ec75	0.21086295
47	0x3d7e219b	0.062043767
48	0xbe8573e9	-0.26064995
49	0x3ebf1164	0.37317955
50	0x3fa01f9e	1.2509649
