model/vae_hd64_ld16.pth (torch, 42767 bytes, 10 tensors)

encoder.fc1.weight f4 [64, 51]
0	0x3d355fb3	0.04428072
1	0xbb5950e7	-0.0033159794
2	0x3d23a6b7	0.039953914
3	0xbe42f063	-0.19037013
4	0xbd5a33ab	-0.05327193
5	0x3d0c1bd7	0.034206238
6	0x3d14f3f2	0.036365457
7	0xbd567e79	-0.052366707
8	0xbeb206ad	-0.34770718
9	0x3cab8ccc	0.02094116
10	0xbf1f95ca	-0.62337935
11	0xbe012b1f	-0.12614106
12	0xbd03c436	-0.032169543
13	0x3da29755	0.079390205
14	0x3b1e44a1	0.0024149793
15	0xbea5d0f6	-0.32385987
16	0xbd5a57ae	-0.053306274
17	0x3d5ef320	0.05443108
18	0x3d0a9262	0.033831008
19	0x3e1550e1	0.14581634
20	0xbe20c1c4	-0.15698916
21	0x3db4cbc1	0.088279255
22	0x3cf497a4	0.029857464
23	0x3d4b1201	0.049577717
24	0xbe796e39	-0.24358453
25	0x3d82a67d	0.06379411
26	0x3e55be6b	0.2087342
27	0xbeb9aa50	-0.3626275
28	0x3dae1c42	0.085014835
29	0x3e16afe9	0.14715542
30	0xbe1f1eb8	-0.15539062
31	0x3db9c7e1	0.09071327
32	0x3d2f1a10	0.042749465
33	0x3ee7ab4f	0.45247886
34	0x3e34d571	0.17659546
35	0x3e5fafc8	0.21844399
36	0x3d980488	0.07422739
37	0xbc8feb66	-0.017568301
38	0x3dd3877a	0.103285745
39	0xbcb2e752	-0.021838818
40	0x3e041373	0.12898044
41	0xbcf4e315	-0.029893437
42	0x3d20af1f	0.03922951
43	0x3bf21589	0.007387821
44	0x3e7311af	0.23737215
45	0x3e3c5ccc	0.18394774
46	0x3da39d9c	0.07989046
47	0x3e0906e9	0.13381542
48	0x3cce1a01	0.025158884
49	0x3d6b4df3	0.057447385
50	0x3cb8b513	0.02254728
51	0xbe9133f0	-0.28359938
52	0x3ecbd108	0.39807916
53	0xbd64a817	-0.055824365
54	0xbe2e5bb6	-0.17027172
55	0xbde24820	-0.11048913
56	0x3c78303f	0.0151482215
57	0xbe26000b	-0.16210954
58	0xbdbdb5c3	-0.09263184
59	0xbdc6a516	-0.096994564
60	0xbe89f7f4	-0.26946986
61	0xbd6b5f36	-0.057463847
62	0x3dc2efb0	0.09518373
63	0xbd60faf9	-0.054926846
64	0x3f063028	0.5241723
65	0x3e9565ed	0.29179326
66	0xbb8be223	-0.004268901
67	0xbddbb438	-0.107277334
68	0x3d687de2	0.056760676
69	0x3f4adbbe	0.7924155
70	0xbbad035d	-0.005279942
71	0x3e1deea9	0.15423073
72	0xbd789f4a	-0.060698785
73	0x3d32cad0	0.04365045
74	0xbe82d46f	-0.255527
75	0x3e09b76c	0.13448876
76	0x3cb3b553	0.021937048
77	0x3db2bb3b	0.08727118
78	0x3d0716ee	0.03298085
79	0x3dbdf93f	0.092760555
80	0xbe01e90a	-0.12686554
81	0x3be939c5	0.0071174824
82	0xbda4160e	-0.08012019
83	0xbe77fe16	-0.2421802
84	0x3db1d785	0.08683685
85	0xbd9bb105	-0.07602123
86	0x3e6e9702	0.23299792
87	0x3e18a923	0.1490827
88	0x3ea3c2e5	0.3198463
89	0xbd74c6e4	-0.05975999
90	0x3ea956f1	0.33074144
91	0xbe312a8a	-0.17301384
92	0x3d55a4a2	0.05215896
93	0xbeb2378b	-0.34808
94	0x3bb040d4	0.005378822
95	0xbe38b920	-0.1803937
96	0xbe791a3f	-0.24326418
97	0xbb880340	-0.004150778
98	0x3d83a0ae	0.064271316
99	0xbe7c9f80	-0.2467022
100	0xbddcc31c	-0.10779402
101	0xbd9ff58f	-0.078105085
102	0x3e7c82f8	0.24659336
103	0xbda06991	-0.07832635
104	0x3e02a48a	0.12758079
105	0x3e4a92aa	0.1978251
106	0xbd456444	-0.048191324
107	0x3ef100ba	0.47070867
108	0xbdba210c	-0.090883344
109	0xbe0b40fe	-0.13599011
110	0xbd09afac	-0.0336148
111	0x3d522671	0.05130619
112	0x3c380858	0.011232458
113	0x3dd88adc	0.1057336
114	0x3e1fd77a	0.15609542
115	0xbcdb49e0	-0.026768625
116	0x3d7d7a45	0.061884183
117	0x3e1e20c4	0.15442187
118	0xbe058777	-0.13039957
119	0xbcaa0b13	-0.020757234
120	0x3d5890ed	0.052872587
121	0x3e147ba8	0.14500296
122	0xbd46cc50	-0.04853469
123	0x3e679e0b	0.22618882
124	0x3e970bb5	0.2950112
125	0xbefb6b98	-0.49105525
126	0xbdefd010	-0.11709607
127	0x3dc83c50	0.09777129
128	0xbd8af888	-0.06785685
129	0x3ca137aa	0.019679863
130	0xbe113a40	-0.14182377
131	0x3daf57a2	0.085616365
132	0x3e191ca5	0.14952333
133	0x3e93ab29	0.28841522
134	0xbdbad634	-0.09122887
135	0xbef6d2d0	-0.48207712
136	0xbed8b9d0	-0.42329264
137	0xbd0a858d	-0.03381877
138	0x3f070a48	0.5275006
139	0x3d3803c8	0.04492548
140	0x3efd38e6	0.49457473
141	0x3c3eb447	0.011639661
142	0x3def199d	0.11674807
143	0xbdd60ea5	-0.10452012
144	0xbca12847	-0.019672526
145	0x3e6d82ff	0.23194502
146	0xbe41fbfc	-0.1894378
147	0xbe84646d	-0.2585787
148	0xbd91fed3	-0.07128682
149	0xbedd3bcf	-0.43209693
150	0xbe5830c0	-0.21112347
151	0xbd4de5ed	-0.050268102
152	0x3ec65acf	0.38741156
153	0xbe61c289	-0.22046866
154	0x3e3d8124	0.18506294
155	0x3e550dd3	0.20806055
156	0xbe22aecf	-0.15886997
157	0x3df85be5	0.121269025
158	0x3e8c92e3	0.27455816
159	0x3dd32a9f	0.10310864
160	0xbd7678b3	-0.0601737
161	0xbd967abf	-0.07347631
162	0xbd6b4ce4	-0.057446375
163	0xbd72259d	-0.059117902
164	0xbc93d003	-0.018043524
165	0xbdaade97	-0.08343237
166	0x3e6ee650	0.23330045
167	0x3e5933fd	0.21211238
168	0xbd433dfd	-0.04766654
169	0x3cc4c654	0.024020351
170	0xbda5bf65	-0.08093146
171	0x3e24eea4	0.16106659
172	0xbddfe52d	-0.10932384
173	0xbdcccf18	-0.100004375
174	0xbdc33eee	-0.09533487
175	0x3eae7224	0.34071457
176	0xbedc1a72	-0.42988926
177	0xbdabd4d4	-0.08390203
178	0xbda8e219	-0.0824625
179	0xbc49e692	-0.012323039
180	0x3d4a3f40	0.049376726
181	0x3e31494d	0.17313118
182	0x3dcce801	0.10005189
183	0x3d701301	0.058611874
184	0x3dc1ed80	0.09469128
185	0x3d445a32	0.04793758
186	0xbdfcd87b	-0.12345978
187	0x3e8c9018	0.27453685
188	0xbe369bf0	-0.17832923
189	0xbd054988	-0.032540828
190	0xbcab4271	-0.020905705
191	0x3e8739dc	0.2641133
192	0xbde94280	-0.11389637
193	0x3d0048bf	0.031319376
194	0x3d2a17bf	0.041526552
195	0x3e5978df	0.21237515
196	0xbe1d52e4	-0.15363652
197	0xbe511e08	-0.20421612
198	0x3c12e29c	0.008965161
199	0xbef5e1fc	-0.48023975
200	0xbd2aaead	-0.04167049
201	0xbe66946a	-0.22517553
202	0xbe123fb4	-0.14282113
203	0x3be4ef78	0.0069865547
204	0xbd585363	-0.0528139
205	0x3b203bf1	0.002444979
206	0xbe2fc445	-0.17164715
207	0x3bceed87	0.0063149366
208	0x3dab05ba	0.08350702
209	0xbd631290	-0.055437624
210	0x3c5b36dc	0.013379779
211	0xbbc9a8ec	-0.0061541703
212	0xbd8d0ab0	-0.06886804
213	0xbc13be41	-0.009017528
214	0x3c3f0a94	0.011660237
215	0xbd4225f1	-0.047399465
216	0xbd9730e2	-0.073823705
217	0x3d190e86	0.037367366
218	0xbd512347	-0.051059034
219	0x3d04a868	0.032387167
220	0xbca2731c	-0.019830279
221	0xbd8735dc	-0.0660207
222	0x3c8129cc	0.015767
223	0xbc61778c	-0.013761412
224	0xbd0cd343	-0.034381162
225	0x3c8e47ed	0.017368281
226	0x3c93f229	0.018059807
227	0xbd36aec9	-0.044600282
228	0xbda187c1	-0.07887221
229	0x3c088acb	0.008333872
230	0xbea99c31	-0.33126977
231	0xbd471bb0	-0.04861039
232	0xbdc87da1	-0.09789587
233	0xbeb16853	-0.34649906
234	0x3d496662	0.049169905
235	0x3d365df3	0.04452319
236	0x3e316f19	0.17327537
237	0x3dc8f49e	0.09812282
238	0x3cb93447	0.022607936
239	0xbde96e71	-0.11398018
240	0x3cd08e7a	0.025458563
241	0xbd4975ea	-0.049184717
242	0xbe19cfc4	-0.15020663
243	0x3c863d6f	0.016386716
244	0x3b4fea4c	0.0031725345
245	0xbd84c4b1	-0.064828284
246	0x3df10f06	0.117704436
247	0x3dae5145	0.08511595
248	0xbefa4fd8	-0.4888904
249	0x3b9e8e8e	0.004838771
250	0xbe093e7f	-0.13402747
251	0x3f3c5721	0.7357045
252	0x3b9894e9	0.0046564233
253	0x3d022be3	0.031780135
254	0x3fce619c	1.6123538
255	0xbed4d1f9	-0.41566446

encoder.fc1.bias f4 [64]
0	0x3eaebfb6	0.3413064
1	0xc00d1b16	-2.2047782
2	0xbef12fb1	-0.47106698
3	0x3e85617b	0.26050934
4	0x3f02bf4b	0.5107314
5	0x3ddf2a99	0.10896797
6	0x3fa5a5a4	1.2941175
7	0xbeffe70e	-0.49980968
8	0x3f46922a	0.7756678
9	0x3f756642	0.9585916
10	0xbf378e69	-0.71701676
11	0x3f0177de	0.5057353
12	0xbe3d68fd	-0.18497081
13	0xbf1ddf8a	-0.6166922
14	0x3e86538a	0.2623561
15	0x3e18bbd5	0.14915402
16	0xbfec6d89	-1.8470927
17	0xbe0e2b4b	-0.13883702
18	0x3f2c1c3a	0.6723057
19	0x3e9708dd	0.2949895
20	0x3f6a091f	0.9142017
21	0xbde609b2	-0.11232318
22	0x3f2b6a29	0.6695886
23	0x3f4f846d	0.8106144
24	0xbfc58b24	-1.5433087
25	0xbe907657	-0.28215286
26	0xbe91dcd7	-0.284888
27	0x3f0c1319	0.5471664
28	0x3f29d172	0.66335213
29	0x3da6cd96	0.08144681
30	0xbcb6fcb5	-0.022337297
31	0xbf550e70	-0.83225155
32	0x3f71e0b2	0.9448348
33	0xbde031cb	-0.10946997
34	0xbeb91a2b	-0.36152777
35	0x3f2e20f0	0.6801901
36	0xbeeda3cc	-0.4641403
37	0x3f5e5ed2	0.86863434
38	0xbf940ce9	-1.156644
39	0x3f64c669	0.8936525
40	0xbf96d09c	-1.1782413
41	0x3ea31c75	0.31857648
42	0xbfd55054	-1.6665139
43	0xbe60d8c7	-0.21957694
44	0xbe04eed2	-0.12981728
45	0x3df5d86d	0.120041706
46	0xbf67c85a	-0.9054009
47	0x3d278a71	0.040903512
48	0x3f131baf	0.57464117
49	0x3e7dd60c	0.24788684
50	0xbfce7563	-1.6129574
51	0xbf752885	-0.9576495
52	0xbe9e5c24	-0.30929673
53	0x3e9d2de5	0.30699077
54	0x3ec9b141	0.39393046
55	0x3f215b78	0.63030195
56	0xbf140a3e	-0.5782813
57	0x3f41d721	0.75718886
58	0x3e974610	0.2954564
59	0xbec8836d	-0.3916277
60	0x3f0bcfd2	0.54613984
61	0x3da1a830	0.07893407
62	0xbc786d71	-0.015162812
63	0xb90b54c9	-0.00013287658

encoder.fc2.weight f4 [16, 64]
0	0xbd277314	-0.04088123
1	0xbeaec120	-0.34131718
2	0x3a103534	0.0005501092
3	0xbb2f6331	-0.0026762004
4	0x3c808871	0.01569006
5	0x3c1ed086	0.009693271
6	0x3dfc1b4c	0.12309894
7	0xbde29a60	-0.11064601
8	0x3c220f53	0.009891349
9	0x3dd245e5	0.102672376
10	0xbd7ebb59	-0.062190387
11	0x3ac7dd69	0.001524848
12	0x3dcaa3d8	0.09894532
13	0x3d374d65	0.044751544
14	0x3d038a18	0.03211412
15	0x3d8b35c8	0.06797367
16	0xbea20f93	-0.31652507
17	0xbdd74af6	-0.105123445
18	0x3dab654a	0.08368929
19	0x3de8b126	0.113619134
20	0x3d8bb1b1	0.06821001
21	0xbd321257	-0.04347452
22	0xbe00d14f	-0.12579845
23	0xbca39fc5	-0.019973645
24	0xbddc7d1e	-0.10766052
25	0xbd9e3266	-0.077244565
26	0xbc3bb023	-0.0114555685
27	0x3d9ff151	0.07809699
28	0x3d32144b	0.043476384
29	0xbdf17ceb	-0.11791404
30	0xbc46cc67	-0.012133694
31	0x3d51a86d	0.051186014
32	0x3d5f75bb	0.054555636
33	0xbdaa5393	-0.08316722
34	0x3caa5a67	0.02079506
35	0x3d0e6014	0.034759596
36	0x3ddcb443	0.1077657
37	0x3ad345c4	0.0016118814
38	0xbdc1e5f4	-0.09467688
39	0x3adc2896	0.0016796764
40	0xbe02b161	-0.12762977
41	0xbd97eb23	-0.07417896
42	0xbe454d64	-0.19267803
43	0xbd024cdf	-0.03181159
44	0xbdc5002e	-0.09619175
45	0x3e1dcb4e	0.15409586
46	0x3e0d4b4d	0.13798256
47	0xbc94d2f6	-0.018167
48	0xbba232a7	-0.004949886
49	0xbc33d8a5	-0.010976945
50	0xbe364a11	-0.17801692
51	0xbd61b827	-0.055107262
52	0x3da84eeb	0.082181774
53	0x3d38cb84	0.045115963
54	0x3d4d5e6a	0.05013887
55	0xbca0968c	-0.019603036
56	0xbdae21fa	-0.08502574
57	0x3db73be4	0.0894697
58	0x3da60fad	0.08108459
59	0x3d059fdf	0.032623168
60	0x3d7b3ead	0.06133907
61	0x3d0ffeb6	0.03515502
62	0x3d893e8c	0.06701383
63	0x3cd5f216	0.026116412
64	0xbe0eceeb	-0.1394612
65	0x3d5b39c8	0.0535219
66	0x3da3fc73	0.08007135
67	0xbe170da5	-0.14751299
68	0xbe5ae9d2	-0.21378258
69	0x3d28bfb6	0.041198455
70	0x3d05959b	0.032613378
71	0xbae9ce25	-0.0017837925
72	0x3dab30d2	0.08358921
73	0xbc8684d5	-0.016420761
74	0xbe84667d	-0.25859442
75	0x3ece4821	0.40289405
76	0xbc8e1635	-0.017344574
77	0x3e0a8f59	0.13531245
78	0x3c41a638	0.011819415
79	0xbd6bb2a0	-0.057543397
80	0xbbc989ca	-0.006150459
81	0xba86e140	-0.0010290518
82	0xbddfb370	-0.10922897
83	0xbe66f78e	-0.22555372
84	0x3ddfbc9a	0.10924645
85	0x3cc8567f	0.024455307
86	0x3d4ff7d6	0.050773464
87	0x3c02ac25	0.007975613
88	0x3c406636	0.011743119
89	0xbe4f1ed4	-0.20226604
90	0xbcc324de	-0.02382129
91	0x3d123436	0.035694323
92	0xbe385268	-0.18000185
93	0xbd651dcc	-0.05593662
94	0x3dc5fd61	0.09667469
95	0xbd1a1b66	-0.037623785
96	0xbe86ca34	-0.26326144
97	0x3e0148ec	0.12625474
98	0x3dc20036	0.094726965
99	0xbd3fac74	-0.046795323
100	0xbbdd07d6	-0.006745319
101	0x3c9ba5fe	0.01900005
102	0xbe686343	-0.22694115
103	0xbdd05a80	-0.101735115
104	0xbed9ebd3	-0.42562732
105	0x3e8a25da	0.26982003
106	0x3d2b0d27	0.04176059
107	0xbe04f089	-0.12982382
108	0x3c3ef468	0.011654951
109	0x3efb70ee	0.49109596
110	0xbe756938	-0.23965919
111	0xbdc76bb1	-0.097373374
112	0x3c03c0d3	0.008041578
113	0xbcd8a976	-0.026447993
114	0xbaa11fc9	-0.0012292798
115	0x3c875ce7	0.016523791
116	0xbc7fd0c7	-0.015613741
117	0xbe08ced9	-0.13360156
118	0xbd7b335e	-0.061328284
119	0xbd0209f2	-0.031747766
120	0xbda75ad1	-0.08171619
121	0xbe0c829e	-0.13721702
122	0x3ec566de	0.38555044
123	0x3dd9f56b	0.10642513
124	0xbe06c89f	-0.13162468
125	0x3d90e4ba	0.07074876
126	0xbe37bc5c	-0.17942947
127	0x3e36b3a7	0.1784197
128	0xbe59e064	-0.21277004
129	0xbc84f2df	-0.016229091
130	0x3ccbb4e1	0.024866523
131	0x3cfec807	0.03110124
132	0x3a1ef08d	0.00060630665
133	0x3e203cd8	0.1564821
134	0x3b673ec3	0.0035285212
135	0x3d809aae	0.06279503
136	0x3e8616ce	0.26189274
137	0x3ddee9a2	0.10884406
138	0x3b762b6f	0.003756251
139	0x3c89ac1e	0.016805705
140	0x3d9fe55d	0.078074194
141	0xbbe5cdec	-0.007013073
142	0xbc004a86	-0.007830268
143	0x3e2ba3c4	0.1676169
144	0xbd83a27e	-0.06427477
145	0xbe016e88	-0.1263982
146	0xbe4c1127	-0.19928418
147	0x3d687b80	0.056758404
148	0x3ea82c6a	0.32846385
149	0xbee2e75e	-0.44317144
150	0x3d041b84	0.032252803
151	0xbc8094d8	-0.015695974
152	0xbd8118e7	-0.06303578
153	0x3e0a585c	0.13510269
154	0x3bcae8ca	0.0061923014
155	0x3cdb8403	0.026796347
156	0x3d4fe62b	0.050756615
157	0xbc6d5356	-0.014485201
158	0x3caadbce	0.020856764
159	0xbc35f8f3	-0.011106717
160	0xbd37a9e1	-0.044839744
161	0xbd3149f5	-0.04328342
162	0xbccd0c85	-0.025030384
163	0xbd526f84	-0.05137588
164	0xbeaad85e	-0.333682
165	0x3c964227	0.01834209
166	0x3d260dca	0.040540494
167	0x3cbcc0a5	0.023041079
168	0xbbf77f74	-0.0075530354
169	0x3cd3dff0	0.025863618
170	0x3c815108	0.015785709
171	0xbc24ab51	-0.010050611
172	0xbdc9f1a1	-0.0986054
173	0xbc7656c6	-0.015035337
174	0xbd2f9bee	-0.042873316
175	0x3dedf6ef	0.116193645
176	0x3bb93dd1	0.005653121
177	0xbe7734aa	-0.24141183
178	0xbd01b6c6	-0.031668447
179	0x3e137197	0.143988
180	0x3f0c5ccd	0.548291
181	0xbe277cea	-0.16356245
182	0xbe53b56c	-0.20674676
183	0x3e3dad96	0.18523249
184	0xbe874f98	-0.26427913
185	0xbe8a54fb	-0.2701796
186	0xbd547070	-0.05186504
187	0x3ec10bd8	0.3770435
188	0x3e386430	0.18006968
189	0xbdd4bf4f	-0.10388052
190	0x3a538c26	0.0008069895
191	0x3ce778d4	0.028255858
192	0x3c5ea1fa	0.013588423
193	0x3984482f	0.00025230783
194	0xbc7c6ff8	-0.015407555
195	0xbb376aef	-0.0027987321
196	0xbb9658a8	-0.0045882054
197	0xbb6dd7bc	-0.0036291918
198	0x3b93302f	0.004491828
199	0x3b9f994e	0.0048705703
200	0xbb893786	-0.004187527
201	0xbbc09a9f	-0.0058778073
202	0x3c38abb9	0.011271411
203	0x3bb565df	0.0055358256
204	0x3b85ea54	0.004086772
205	0x3b8bb4ce	0.004263497
206	0xbb8c3e8c	-0.004279917
207	0xbcfda172	-0.030960772
208	0xbad38a02	-0.0016139152
209	0x3add3678	0.0016877195
210	0x3cc0c603	0.02353192
211	0x3ae4bb3a	0.0017450817
212	0xbbbf4198	-0.005836677
213	0xbb9c836a	-0.004776408
214	0xbb56e136	-0.0032788045
215	0x3c0b0e3c	0.00848728
216	0xbb58d561	-0.0033086168
217	0xbc168743	-0.009187522
218	0x3a8d0f93	0.0010762088
219	0xbc086c8a	-0.008326659
220	0x3c103cc6	0.008803552
221	0xbaa92fa7	-0.0012907878
222	0x3ca7588c	0.020427965
223	0x3bd53cc2	0.006507487
224	0x3c30cfaa	0.0107916985
225	0xbc5da212	-0.01352741
226	0x3b8325fe	0.0040023318
227	0xbc06ae52	-0.008220272
228	0xbc0ae3fd	-0.008477208
229	0xbc432d53	-0.011912662
230	0xbbab7a6a	-0.0052330988
231	0x3be82b34	0.0070852283
232	0xbc89b126	-0.016808104
233	0x3b819df4	0.003955597
234	0x3c3d4103	0.0115511445
235	0xbb00378b	-0.0019564356
236	0x3ab3fdaf	0.001373222
237	0x3c541b0c	0.012945902
238	0xbb62de17	-0.003461724
239	0x3ba625ff	0.0050704475
240	0x3c746c4f	0.014918401
241	0x39af8e4e	0.00033484626
242	0xb9957834	-0.00028509053
243	0xbb80cf37	-0.003930952
244	0x3a9033b5	0.0011001738
245	0xbc769037	-0.015049032
246	0xba89178c	-0.0010459288
247	0x3bb7c4e9	0.0056081903
248	0x3be37f8e	0.006942696
249	0x3a27c108	0.00063993083
250	0xbbf3baca	-0.0074380385
251	0x3cb20365	0.021730134
252	0xbb515023	-0.0031938634
253	0xbbc16fde	-0.005903228
254	0x3c95ad21	0.01827103
255	0x3b6e4c92	0.0036361557

encoder.fc2.bias f4 [16]
0	0x3e8e9a25	0.27851978
1	0xbe0f36c1	-0.1398573
2	0xbecbb20e	-0.39784282
3	0xbac93cff	-0.0015353261
4	0x3df4d57c	0.119547814
5	0x3f0bb4a8	0.54572535
6	0x3bc7b7c9	0.006094907
7	0xbb6e5933	-0.0036369085
8	0xbb94d58f	-0.0045420597
9	0x3f3c1a2a	0.73477423
10	0x3ed5cce3	0.4175788
11	0x3c9d0d6d	0.019171441
12	0x3f563eb0	0.83689404
13	0x3e986802	0.29766852
14	0xbbe3978a	-0.006945555
15	0xbda7e38d	-0.08197699

encoder.fc3.weight f4 [16, 64]
0	0xbe3070ca	-0.17230526
1	0x3dcf477b	0.10121056
2	0xbdca0a56	-0.09865253
3	0x3cd39023	0.025825566
4	0xbd83dca4	-0.06438568
5	0xbda46833	-0.08027687
6	0xbd96583f	-0.0734105
7	0x3c729374	0.014805663
8	0xbbce746b	-0.006300499
9	0xbe767e5f	-0.24071644
10	0xbdd695d5	-0.10477797
11	0xbd4631c0	-0.04838729
12	0xbe005fa1	-0.1253648
13	0xbde6a486	-0.11261849
14	0xbd87ac7c	-0.06624696
15	0x3ca47cc0	0.020079017
16	0x3e2c18e9	0.16806377
17	0xbc841cb8	-0.016126975
18	0x3ddb2bc0	0.10701704
19	0x3e0ec7f1	0.13943459
20	0xbdedebf9	-0.11617274
21	0xbd66a174	-0.056306317
22	0x3d13e1ac	0.03610389
23	0x3d0b70da	0.03404317
24	0x3e95ab90	0.29232454
25	0xbe8aedd3	-0.2713457
26	0xbe2b1fde	-0.16711375
27	0xbd0b5b86	-0.03402283
28	0xbca3f942	-0.020016316
29	0xbbaa1380	-0.005190313
30	0x3e025ce4	0.12730747
31	0xbdca41bf	-0.09875821
32	0xbdf1d6f5	-0.11808578
33	0x3e22f903	0.15915303
34	0xbdece97c	-0.11567971
35	0xbe125c4c	-0.14293021
36	0x3cada158	0.021195099
37	0xbdf8e374	-0.12152758
38	0x3dd4a912	0.1038381
39	0x3c36e638	0.011163287
40	0x3d6c4482	0.05768252
41	0xbd667dae	-0.0562722
42	0x3eac46c5	0.33647743
43	0x3e500fa1	0.20318462
44	0x3e794c5e	0.24345538
45	0xbd565b83	-0.052333366
46	0xbd82f15d	-0.06393693
47	0x3c87d990	0.016583234
48	0xbcf5982b	-0.029979786
49	0x3d6aa984	0.05729057
50	0x3e913d7b	0.28367218
51	0x3e0d250b	0.13783662
52	0x3da60b1b	0.08107587
53	0xbd9f4586	-0.077769324
54	0xbd99c21c	-0.075077266
55	0xbe503ee4	-0.20336491
56	0x3ddbbad5	0.10728995
57	0xbe1049a1	-0.14090587
58	0xbe24e5eb	-0.16103332
59	0x3e458222	0.19287923
60	0xbdb0ca31	-0.08632315
61	0xbcecf204	-0.028923996
62	0xbe031d30	-0.12804103
63	0xbdb1d7dd	-0.08683751
64	0xbe5b05c2	-0.21388915
65	0xbcaa8ffd	-0.020820612
66	0xbe6cefc6	-0.23138341
67	0x3e2f3a45	0.17112072
68	0xbc46d065	-0.012134646
69	0x3cee36ef	0.029078929
70	0x3c48f84a	0.012266228
71	0xbd75b3c4	-0.05998589
72	0x3d0da098	0.034576982
73	0xbd33574d	-0.04378443
74	0xbe5bd129	-0.21466507
75	0x3d75caf2	0.060007997
76	0xbce55a4e	-0.027997162
77	0x3d3d1012	0.046157904
78	0xbbec0a25	-0.0072033578
79	0xbce83758	-0.028346702
80	0x3dcc1d05	0.099664725
81	0xbcf0f635	-0.029414276
82	0xbd8fed67	-0.07027703
83	0xbca2620a	-0.01982214
84	0x3cf42147	0.029801024
85	0x3e06674e	0.13125345
86	0xbb37f99f	-0.002807237
87	0x3dc7cb74	0.097556025
88	0xbd30fde1	-0.043210868
89	0x3dea1b96	0.11431043
90	0xbd509a88	-0.050928622
91	0xbc563f4f	-0.013076617
92	0xbd7d4709	-0.061835323
93	0xbdae7d62	-0.085200086
94	0xbd1b7639	-0.037954543
95	0x3d48d1a5	0.049028058
96	0xbdb264ca	-0.0871063
97	0xbcb4eb8c	-0.022084974
98	0x3e73db17	0.23814045
99	0x3ce0d581	0.027445557
100	0x3e19e31b	0.1502804
101	0x3d8d34e3	0.06894853
102	0xbd8368e2	-0.06416489
103	0x3b287b8d	0.0025708408
104	0xbe456c33	-0.19279556
105	0xbd6fcb1e	-0.058543317
106	0x3e118326	0.14210185
107	0x3e7f4755	0.24929555
108	0x3d6599d2	0.056054898
109	0x3e586507	0.21132289
110	0x3dc51f29	0.09625084
111	0xbb014261	-0.0019723403
112	0xbd2a2984	-0.0415435
113	0xbc1d20aa	-0.009590307
114	0xbd976391	-0.07392038
115	0x3df1b9cf	0.11803018
116	0x3c309bc8	0.010779329
117	0xbca0e067	-0.019638253
118	0xbda5d036	-0.08096354
119	0xbe1b75d2	-0.15181664
120	0xbd8a77cc	-0.06761131
121	0x3c51e013	0.012809771
122	0xbdb2ea6d	-0.087361194
123	0xbe28b9bf	-0.16477107
124	0xbab5f35c	-0.0013881731
125	0xbc27e979	-0.010248535
126	0x3d2c7363	0.04210223
127	0xbda199b8	-0.07890648
128	0xbe31e7fc	-0.17373651
129	0xbca222a2	-0.019791905
130	0xbe126a61	-0.14298393
131	0x3d8ab4ce	0.06772767
132	0xbd2e4c21	-0.04255307
133	0xbd5cc82b	-0.053901833
134	0xbcdf7c3d	-0.027280921
135	0x3e5152a3	0.2044168
136	0xbd5b517e	-0.053544514
137	0xbd1af01a	-0.037826635
138	0xbd20e008	-0.039276153
139	0x3c391c54	0.011298258
140	0x3d135643	0.035970937
141	0xbd8829ad	-0.06648574
142	0xbc915a00	-0.01774311
143	0xbc9aa9ba	-0.01887976
144	0xbd4942e5	-0.04913606
145	0x3e0b3a5f	0.13596486
146	0x3df3851c	0.11890623
147	0xbd6c0585	-0.05762245
148	0xbd60c592	-0.054875918
149	0xbd081aaa	-0.033228554
150	0xbe6cb99a	-0.23117676
151	0x3c361a35	0.011114647
152	0x3dc5b60f	0.096538655
153	0xbd984f69	-0.07437021
154	0xbd03e450	-0.032200158
155	0xbd86007c	-0.06543061
156	0x3c36dd12	0.011161106
157	0xbdc7435e	-0.09729646
158	0xbd143b1c	-0.036189184
159	0x3dd49e8f	0.10381805
160	0xbd90389f	-0.070420496
161	0x3d9759a1	0.07390142
162	0xbdf0f639	-0.11765713
163	0x3bb06326	0.005382913
164	0x3e3c5473	0.1839159
165	0xbe11ccc9	-0.14238276
166	0x3e15259e	0.14565131
167	0xbdb8e134	-0.09027329
168	0xbd647066	-0.055771254
169	0xbd735a1e	-0.059412114
170	0xbcbd842f	-0.02313432
171	0xbbb9c06a	-0.0056686895
172	0x3c8332c9	0.016015427
173	0x3c2eb8de	0.010664193
174	0xbd2602b5	-0.040529925
175	0xbe35080a	-0.17678848
176	0xbc88576a	-0.016643245
177	0x3e78061b	0.24221079
178	0x3e13b7be	0.14425561
179	0x3f02f4ec	0.5115497
180	0xbdc1d586	-0.094645545
181	0x3dae6790	0.08515847
182	0xbd8bd4a5	-0.06827668
183	0xbe8f4929	-0.27985504
184	0xbcf99a3a	-0.030469049
185	0x3dd78fbc	0.10525462
186	0x3c274435	0.010209133
187	0xbe4a4318	-0.19752157
188	0xbc96f4a4	-0.0184272
189	0xbb13847d	-0.002250939
190	0x3d07052e	0.032963924
191	0xbd0db425	-0.034595627
192	0xbaa317d6	-0.0012443017
193	0x3b470ff6	0.0030374504
194	0xbac32a0f	-0.0014889854
195	0x3aef525d	0.0018258799
196	0x3b9dea89	0.0048192185
197	0x3b11d742	0.0022253548
198	0xbb4caffd	-0.0031232827
199	0x3b67318e	0.003527734
200	0x3a56f8ab	0.00082005066
201	0x3aedd328	0.0018144595
202	0x3b1601f7	0.0022889355
203	0xba3d6580	-0.00072249025
204	0x3aff0e11	0.0019459148
205	0x3b279947	0.0025573538
206	0xbb4bde75	-0.0031107937
207	0x398360b9	0.0002505833
208	0x3b8015e4	0.0039088596
209	0xbb4f17a1	-0.0031599777
210	0x3b650f5b	0.003495178
211	0xb9a17e7e	-0.00030802557
212	0xb8b3b8ef	-8.569832e-05
213	0x3b6162d4	0.0034391182
214	0xbaa50b7a	-0.0012591921
215	0x39b40ba6	0.00034340954
216	0x3b099d32	0.0020998237
217	0x3b2c8222	0.0026322682
218	0xba24d567	-0.0006287903
219	0xbb7541ea	-0.003742332
220	0x3a05ea03	0.0005108418
221	0x3ac6f877	0.001518025
222	0xb9de7d0e	-0.00042436313
223	0x3b037df4	0.0020064088
224	0x3bb631b5	0.0055601248
225	0xb84bc09b	-4.857835e-05
226	0xbbb4c3f1	-0.005516522
227	0x3b17da60	0.0023170933
228	0xba077056	-0.00051665807
229	0x3a84fead	0.00101467
230	0x3a672c85	0.00088185846
231	0x3b45ab7d	0.003016203
232	0x3b9a7932	0.0047141546
233	0x3ad95804	0.0016582017
234	0x39c7df45	0.00038122587
235	0xba93e972	-0.0011284782
236	0x3ad4a360	0.0016223006
237	0x3b2d7c00	0.0026471615
238	0xbb7ac729	-0.0038265681
239	0x36cc45f9	6.0878197e-06
240	0xbb8b9ded	-0.0042607696
241	0x3a4b0d74	0.000774584
242	0x3b704877	0.0036664286
243	0x3b7a5397	0.0038196796
244	0x3bc49951	0.005999722
245	0x3aeb87d1	0.0017969554
246	0xb9035f5c	-0.00012528658
247	0xbb0f5caf	-0.0021875312
248	0x38703c6f	5.7276742e-05
249	0xbb4780da	-0.0030441792
250	0x3b1c2bdf	0.002382986
251	0x3c05c9da	0.008165801
252	0x3b589972	0.0033050445
253	0x3b47cfa0	0.0030488744
254	0x3b109dc9	0.0022066704
255	0x3be6d2f2	0.0070441896

encoder.fc3.bias f4 [16]
0	0xc016ab9d	-2.3542244
1	0xbfe4fda0	-1.78899
2	0xbfc85a9c	-1.5652652
3	0xbb49b989	-0.0030780754
4	0xc012c002	-2.2929692
5	0xbf91e403	-1.1397709
6	0xbb0445eb	-0.0020183276
7	0xbf282e8b	-0.6569602
8	0x38302afc	4.2001702e-05
9	0xbead7b8d	-0.33883324
10	0xbff2bbcb	-1.896356
11	0xbb8eccb5	-0.004357899
12	0xbf31cdaa	-0.69454443
13	0xbf30d27f	-0.6907119
14	0xbab27f7f	-0.0013618319
15	0xbf5030f8	-0.8132472

decoder.fc1.weight f4 [64, 16]
0	0xbd9aca2f	-0.07558095
1	0x3ee2609a	0.44214326
2	0xbf47ec19	-0.7809463
3	0x3c2ad496	0.010426661
4	0xc018fb2b	-2.39033
5	0xbe370cf1	-0.1787603
6	0xbac32558	-0.0014888449
7	0xbe0276db	-0.12740652
8	0x3c28f36e	0.010311944
9	0xbdd860e6	-0.10565357
10	0x3e82a907	0.25519583
11	0xbc34669b	-0.011010791
12	0x3cee4b59	0.029088663
13	0x3e480c23	0.1953588
14	0x3bfc680a	0.007702832
15	0x3cd10177	0.025513394
16	0xbfe56e33	-1.7924255
17	0x3d885a06	0.066577956
18	0x3f0c1ac2	0.5472833
19	0x3bcbe47f	0.006222307
20	0x3efcf9c0	0.49409294
21	0x3d8a3b97	0.06749647
22	0x3b029770	0.001992669
23	0x3d35ab7e	0.044353
24	0xbb5dbbeb	-0.0033833932
25	0x3db0075e	0.08595155
26	0x3f06ca21	0.52652174
27	0xbbe3b597	-0.0069491374
28	0x3daa1a77	0.08305829
29	0xbed6fb51	-0.41988614
30	0x3bb76997	0.005597304
31	0xbd2bc05d	-0.0419315
32	0xbe8c9473	-0.27457008
33	0xbf121875	-0.5706857
34	0xbf17bcb5	-0.5927232
35	0xb9e24c32	-0.0004316285
36	0xbe660628	-0.22463286
37	0x3df09645	0.11747412
38	0xbc477edf	-0.0121762445
39	0xbeb9deb2	-0.36302716
40	0xbc3b8e9c	-0.011447575
41	0xbd51ef54	-0.05125363
42	0x3e1436d3	0.14474039
43	0x3be4cdf5	0.00698256
44	0xbe6e3998	-0.23264158
45	0xbf024448	-0.5088544
46	0x3afc1e86	0.0019235171
47	0xbdb305e4	-0.08741358
48	0xbf8133d5	-1.0093943
49	0xbf50bf43	-0.8154184
50	0x3eda24f1	0.4260631
51	0xbc52e0ec	-0.012871008
52	0x3e7244fb	0.23659126
53	0xbd25d9fc	-0.04049109
54	0xba9f8541	-0.001217045
55	0x3e8b3434	0.27188265
56	0xba270e31	-0.0006372659
57	0xbdea8221	-0.11450601
58	0xbe28c12a	-0.16479936
59	0xbc131efa	-0.008979553
60	0xbd32ffa2	-0.04370082
61	0xbd7b4fa9	-0.061355267
62	0xbca12425	-0.019670555
63	0xbf0e7ecd	-0.5566223
64	0xbf6f3263	-0.9343626
65	0xbfb3464d	-1.4005829
66	0x3d0ba4a2	0.034092553
67	0x3bb591b9	0.005541053
68	0x3f2c0eaf	0.67209905
69	0xbcd8f5a2	-0.026484314
70	0x3c11a09a	0.008888388
71	0x3df2007d	0.118164994
72	0x3c7dea83	0.0154978065
73	0xbdef109e	-0.11673091
74	0x3f0e40e4	0.55567765
75	0x3cbabfaa	0.02279647
76	0x3c96eb60	0.018422782
77	0xbd59e3f7	-0.05319592
78	0xbba36605	-0.004986527
79	0x3ebdbe10	0.3705907
80	0xbfa48926	-1.2854354
81	0x3e2bb3b4	0.1676777
82	0x3f302bdb	0.6881692
83	0xbb90211d	-0.0043984787
84	0x3f23856b	0.63875455
85	0xbe07a815	-0.13247712
86	0x3c4ff526	0.012692725
87	0xbb26128a	-0.002534064
88	0x3baa51d7	0.0051977444
89	0xbe0a421e	-0.13501784
90	0x3efb5d84	0.49094784
91	0xbc8aac48	-0.016927853
92	0x3dd1691b	0.102251254
93	0x3f5ca542	0.86189663
94	0xb90aeedf	-0.00013249692
95	0x3d2d8e51	0.04237205
96	0x3e4af3a1	0.198195
97	0xbf059ed9	-0.5219551
98	0xbff675e0	-1.9254723
99	0xbbbd2be3	-0.005773054
100	0xbdce578f	-0.10075294
101	0x3d1cd5c1	0.03828979
102	0xbc7457c8	-0.014913507
103	0xbdd40138	-0.10351795
104	0x3b9ff179	0.0048810807
105	0xbb981656	-0.0046413345
106	0x3e5499ae	0.20761749
107	0x3c5b8cba	0.013400251
108	0xbd47d78d	-0.04878955
109	0x3c4606a8	0.012086548
110	0x3bc91225	0.006136196
111	0xbdac8549	-0.084238596
112	0xbf8248de	-1.0178487
113	0x3e0319f0	0.12802863
114	0x403f1f67	2.9862916
115	0x3c2d2ebd	0.010570225
116	0x3f46f6bc	0.77720237
117	0xbc96f160	-0.018425643
118	0x3c211504	0.009831671
119	0xbd105510	-0.035237372
120	0x3b7c19b8	0.0038467478
121	0x3d7f8813	0.06238563
122	0x3edb11e1	0.42787078
123	0x3c75920b	0.014988433
124	0x3ce754f8	0.028238758
125	0xbd47671c	-0.048682317
126	0xbc633e8d	-0.013869894
127	0xbe822083	-0.2541543
128	0x3ec3f951	0.3827615
129	0x3e953448	0.2914145
130	0xbe821aa9	-0.25410965
131	0x3bee5751	0.0072735925
132	0xbdea6bb5	-0.11446325
133	0x3eb98663	0.3623534
134	0xb9a807c9	-0.00032049257
135	0xbc25686e	-0.010095699
136	0x3b935161	0.004495785
137	0xbf6846ab	-0.9073283
138	0xbe9b222a	-0.30299503
139	0xbb2d4f68	-0.0026445035
140	0x3edc0055	0.42969003
141	0x3f0b9d64	0.54537034
142	0xbc57ac70	-0.013163671
143	0xbd80e197	-0.06293028
144	0x3fdda8c3	1.7317127
145	0xbd001d02	-0.031277664
146	0x3f5f1efd	0.8715666
147	0x3c2b69f7	0.010462276
148	0xbeba7dd4	-0.36424124
149	0xbe2a5fb9	-0.16638078
150	0x3c89489c	0.016758256
151	0xbd66f93e	-0.05639004
152	0xbca85208	-0.020546928
153	0xbee29529	-0.44254425
154	0x3f0e7c9a	0.55658877
155	0x3aab1ff6	0.001305579
156	0xbda077ed	-0.07835374
157	0x3da969b8	0.082721174
158	0x3c8bbb47	0.017057074
159	0x3dded59a	0.10880585
160	0xbe5cdff5	-0.21569808
161	0x3efcbeac	0.4936422
162	0xbf39d68a	-0.72592986
163	0xbba9fa02	-0.005187274
164	0xbebd3115	-0.3695151
165	0xbc39d865	-0.011343096
166	0xbaade41e	-0.0013266837
167	0x3eb1ce7d	0.3472785
168	0x3c0983bd	0.008393225
169	0xbdd15d20	-0.1022284
170	0x3fd2f163	1.6479915
171	0xbbee5642	-0.0072734663
172	0xbd855d55	-0.06511942
173	0xbe4db7a0	-0.20089579
174	0xbb30e219	-0.0026990233
175	0x3e4c66ef	0.19961141
176	0xbe90fd5a	-0.28318292
177	0xbd114d4f	-0.035474118
178	0xbf927af5	-1.1443774
179	0xba8f7ecb	-0.0010947821
180	0x3fff89c8	1.9963923
181	0xbf21211b	-0.6294114
182	0xbc4704a5	-0.012147103
183	0x3c6db217	0.014507792
184	0x3bf00b48	0.0073255636
185	0xbd73cb8e	-0.059520297
186	0xbc869c55	-0.016431967
187	0xbc2344fe	-0.0099651795
188	0x3e015bb3	0.12632637
189	0xbe52a726	-0.20571575
190	0xbb391a10	-0.0028244294
191	0x3e01554f	0.12630199
192	0xbe8baac5	-0.27278724
193	0x3cf5de9e	0.030013379
194	0x3fa79ca0	1.3094673
195	0x38a8d75c	8.050978e-05
196	0xbddb97b0	-0.107222915
197	0xbe327886	-0.17428789
198	0xbb68ce40	-0.0035523325
199	0xbe4e753b	-0.20161907
200	0xb9b7daef	-0.00035067598
201	0xbde40d8a	-0.11135395
202	0xbf230a49	-0.6368757
203	0x3b8e7ab8	0.0043481253
204	0xbe090674	-0.13381368
205	0x3ece6b8b	0.40316424
206	0xbc176646	-0.0092406925
207	0xbcf85a64	-0.03031654
208	0x3f6337a2	0.88756764
209	0xbe555dc2	-0.20836547
210	0x3e1eca16	0.15506777
211	0xbb9b3a4e	-0.004737175
212	0xbddd4686	-0.10804467
213	0x3df40707	0.11915403
214	0xb9b79bae	-0.0003502047
215	0xbddad9ed	-0.10686097
216	0xb9c682c7	-0.0003786294
217	0x3ca0e39b	0.01963978
218	0xbf533ac9	-0.82511574
219	0xbbe9a9b5	-0.0071308264
220	0x3d467fbe	0.04846167
221	0x3d447f43	0.04797293
222	0x3cf41bdf	0.029798446
223	0xbf848ddf	-1.0355796
224	0xbf3aeb4f	-0.730153
225	0x3ef3632f	0.4753661
226	0x4038d368	2.8879032
227	0x3c313f09	0.010818251
228	0x3f298f2a	0.66234076
229	0xbc14e6ee	-0.009088261
230	0x3cdb1678	0.026744112
231	0x3c80ab6f	0.015706746
232	0x3b903e35	0.004401947
233	0x3d931dfc	0.071834534
234	0x3ef00629	0.468797
235	0x3bbb47fd	0.005715369
236	0xbab903da	-0.0014115528
237	0xbcc551e2	-0.024086896
238	0xbafc95f1	-0.001927076
239	0xbd9a85f0	-0.07545078
240	0xbfbc1dc3	-1.4696583
241	0x3dc49f85	0.096007384
242	0x3f2d5dc3	0.67721194
243	0x3cab8eb1	0.020942064
244	0xbed9535c	-0.4244641
245	0x3d4883dc	0.048953876
246	0x3a597907	0.00082959275
247	0x3ea15277	0.31508228
248	0x3ba41a47	0.0050080153
249	0xbdda4507	-0.10657697
250	0xbcfe25a9	-0.031023817
251	0xbc2ef9b8	-0.010679655
252	0x3e9c6330	0.30544424
253	0xbcb82ffc	-0.022483818
254	0xbc7fd484	-0.0156146325
255	0xbde988ac	-0.11403021

decoder.fc1.bias f4 [64]
0	0xbf523599	-0.82113034
1	0x3fee234f	1.8604525
2	0x406007be	3.5004725
3	0x3f9f93d3	1.2466987
4	0x3e827272	0.2547794
5	0xbcfa22d0	-0.030534178
6	0x4021a53a	2.5257096
7	0xc02ad595	-2.669286
8	0x401c70e8	2.4443913
9	0x3e91fce2	0.28513247
10	0xc03bc63e	-2.9339747
11	0x402aa1c8	2.6661243
12	0x404151c2	3.020615
13	0xbf7c997d	-0.98671705
14	0xbfa767e4	-1.307858
15	0x3ff156bf	1.8854598
16	0xbf8d5033	-1.10401
17	0xbebf6dc9	-0.37388447
18	0xbee18eb9	-0.440542
19	0x4013562b	2.3021343
20	0xbf8915ef	-1.0709819
21	0x3fe38d42	1.7777483
22	0x3ee387b4	0.4443947
23	0xbfd45c94	-1.6590753
24	0x3f955f48	1.1669703
25	0x3f1c7186	0.61110723
26	0xbfa571e6	-1.2925384
27	0x3f524d93	0.8214962
28	0x3e15caa4	0.14628083
29	0x3fc9f15b	1.5776781
30	0xbe83bc4b	-0.25729594
31	0x4015c36e	2.340053
32	0x3dd60869	0.10450823
33	0x40121134	2.2823
34	0xbfe26f5a	-1.7690232
35	0x3fa21cf0	1.2665081
36	0xbf72e404	-0.94879174
37	0x4029f5df	2.6556318
38	0xc0598de5	-3.3992856
39	0xbf4c3ef1	-0.7978354
40	0x4053154c	3.2981749
41	0xc0229918	-2.540594
42	0xbfe0eedb	-1.7572893
43	0x4022d741	2.544388
44	0x3fc881dd	1.5664631
45	0x40174360	2.3634872
46	0x3fea3c46	1.8299644
47	0x3fc52992	1.5403311
48	0x3f7b1e3a	0.98093
49	0x3f05c339	0.5225101
50	0xbf9ad2ce	-1.2095582
51	0x3fed561d	1.8541905
52	0xbecd0f30	-0.4005065
53	0x3f582c88	0.8444295
54	0xbf123a84	-0.5712054
55	0xbf148011	-0.58007914
56	0xbf5a8efb	-0.8537442
57	0xbf40b7f4	-0.7528069
58	0x3e074051	0.13208129
59	0xbe90fc43	-0.2831746
60	0x3e15dfc2	0.14636138
61	0x3fe53903	1.7908024
62	0x3fa8abd2	1.3177435
63	0xbfc702b6	-1.5547702

decoder.fc2.weight f4 [51, 64]
0	0xbe8bd8c5	-0.2731382
1	0xbeb29beb	-0.3488458
2	0x3eb88411	0.3603826
3	0xbe774586	-0.24147615
4	0xbedd714a	-0.43250495
5	0xbec99159	-0.39368704
6	0x3e53a740	0.2066927
7	0x3ea00a41	0.31257823
8	0xbed5efd6	-0.41784543
9	0xbd791c0f	-0.060817774
10	0xbe86be25	-0.26316944
11	0x3f0376b5	0.5135301
12	0x3f36067c	0.71103644
13	0x3dd67cec	0.10473046
14	0xbec1f195	-0.37879625
15	0x3af03ed0	0.0018329266
16	0xbec63ff1	-0.38720658
17	0x3e962236	0.29322976
18	0xbd3b440c	-0.04571919
19	0xbf470c72	-0.77753365
20	0xbd8a3c51	-0.06749786
21	0xbe091d2d	-0.13390036
22	0xbd753755	-0.05986722
23	0x3eb0a457	0.3450038
24	0xbf074864	-0.52844834
25	0x3f4dd02e	0.8039578
26	0x3d2d2266	0.042269133
27	0x3ec46112	0.3835531
28	0xbd8adb46	-0.06780104
29	0xbeedfa62	-0.4648009
30	0xbe9ddbef	-0.3083186
31	0x3ebf40fb	0.37354264
32	0xbf3a6a3d	-0.72818357
33	0xbe55b867	-0.20871125
34	0x3dc1ba30	0.094593406
35	0xbeebbf6a	-0.46044475
36	0x3f756719	0.9586044
37	0x3e3f9176	0.18707833
38	0x3cf2e81b	0.029651692
39	0x3e904bac	0.28182733
40	0x3e93b46a	0.28848583
41	0xbf9353e1	-1.1509973
42	0x3e8a1045	0.26965538
43	0xbf41fb24	-0.75773835
44	0xbe86d198	-0.26331782
45	0xbf3621a5	-0.7114509
46	0x3da42fd9	0.08016939
47	0x3e96e3c2	0.2947064
48	0xbf6317a8	-0.8870797
49	0x3d963fc9	0.07336385
50	0xbe89373c	-0.26799953
51	0x3eff6e50	0.4988885
52	0x3ed42def	0.41441295
53	0xbf1ec5ac	-0.62020373
54	0xbe4f5d48	-0.20250428
55	0xbdb19f90	-0.08673012
56	0xbed1be4a	-0.40965492
57	0xbd536392	-0.05160863
58	0x3db1c387	0.08679872
59	0xbe9eac05	-0.30990615
60	0xbc5e18dd	-0.013555733
61	0xbe8e6ad7	-0.27815887
62	0xbe84077e	-0.25786966
63	0x3d70d190	0.058793604
64	0xbda6b893	-0.081406735
65	0x3ef69e76	0.4816777
66	0x3fa14241	1.2598344
67	0x3ebae503	0.36502847
68	0xbb1e635d	-0.0024168112
69	0x3e358958	0.17728174
70	0xbf37c935	-0.7179139
71	0xbf08b58f	-0.53402036
72	0x3e6625ae	0.22475311
73	0xbe3ab383	-0.18232541
74	0x3df46c04	0.11934665
75	0xbdb61d49	-0.088923045
76	0xbf922bbb	-1.1419595
77	0x3ab7f5a2	0.0014034996
78	0x3f8fb4c2	1.1227038
79	0xbe230c6a	-0.15922704
80	0xbe9ba3a6	-0.3039829
81	0xbe3e381f	-0.18576096
82	0xbb3c5510	-0.0028737225
83	0x3d1b0deb	0.03785507
84	0xbcdcc1e8	-0.02694793
85	0xbe6fe60f	-0.23427604
86	0x3d805b6a	0.06267436
87	0xbdd52fdc	-0.10409519
88	0xbcff3583	-0.031153446
89	0xbe059924	-0.130467
90	0x3da4d6a0	0.08048749
91	0xbe2849ed	-0.1643445
92	0xbdaee2fd	-0.08539388
93	0x3cdd3bdc	0.027006082
94	0xbd77454b	-0.060368817
95	0xbf363837	-0.7117953
96	0xbdf12139	-0.11773915
97	0xbea18636	-0.31547707
98	0xbdd3b032	-0.10336341
99	0x3c60838e	0.01370324
100	0xbdc413ff	-0.095741265
101	0x3cb90876	0.022587042
102	0xbd551488	-0.052021533
103	0xbe91f03c	-0.28503597
104	0x3d69615c	0.056977615
105	0x3f2cd6c4	0.67515206
106	0x3ec30c31	0.3809524
107	0x3f85d980	1.0457001
108	0xbe592307	-0.21204768
109	0xbec11098	-0.37707973
110	0xbe4d16d8	-0.20028245
111	0xbf46ae19	-0.776094
112	0x3d50eb67	0.051005747
113	0x3de5301f	0.11190819
114	0x3d0c1210	0.034196913
115	0x3de40a19	0.111347385
116	0xbeb8f25c	-0.36122406
117	0xbdde3558	-0.10850018
118	0xbe233bd9	-0.15940799
119	0x3e72dc7f	0.23716925
120	0xbd69148d	-0.056904364
121	0xbd17091c	-0.03687392
122	0x3e0dbefd	0.13842387
123	0x3e131c01	0.14366151
124	0x3dbaa9e0	0.09114432
125	0x3e8b3298	0.27187037
126	0xbe8727ac	-0.26397455
127	0xbe40c8da	-0.18826619
128	0xbd9d3320	-0.07675767
129	0xbf42fe25	-0.76169044
130	0xbf3e3428	-0.74298334
131	0xbd0247b3	-0.03180666
132	0x3d62750b	0.055287402
133	0x3ea73f15	0.32665315
134	0x3e4b736c	0.19868249
135	0x3ea14178	0.3149526
136	0xbec19721	-0.37810615
137	0xbf0eb59f	-0.5574588
138	0x3ee7bd6f	0.45261714
139	0xbe34a16e	-0.17639706
140	0xbd512810	-0.051063597
141	0xbe83e6b3	-0.25761947
142	0xbeeda97f	-0.46418378
143	0xbd327ef8	-0.043578118
144	0x3d06a5cc	0.03287296
145	0x3e2b241c	0.16712993
146	0xbf1c86d6	-0.61143243
147	0x3f01b585	0.506676
148	0x3eebb4af	0.46036288
149	0xbe3c015d	-0.18359895
150	0xbe9421c0	-0.28932
151	0xbdd07b88	-0.10179812
152	0x3b25baa6	0.0025288253
153	0x3ec829c5	0.39094368
154	0x3e9e61c6	0.3093397
155	0xbe9b8f0b	-0.3038257
156	0x3d8b808a	0.06811626
157	0x3dc5993f	0.0964837
158	0x3eb29e76	0.3488652
159	0x3ef616f9	0.48064402
160	0xbe4eb94f	-0.20187877
161	0xc084a160	-4.144699
162	0x3f9f62b1	1.2451993
163	0xbd934c9e	-0.07192348
164	0x3e7c9cb7	0.24669157
165	0xbe972da5	-0.29527012
166	0xbeec0e90	-0.4610486
167	0x3c91c92f	0.017796127
168	0xbf289fd3	-0.6586887
169	0xbe93380a	-0.28753692
170	0x3f712b0b	0.94206303
171	0xbe50e53f	-0.2039995
172	0x3d111392	0.035419054
173	0x3de72a88	0.11287409
174	0xbe771b1a	-0.24131432
175	0x3e54eee1	0.2079425
176	0x3f02d75c	0.5110986
177	0x3d780abc	0.060557112
178	0xbedf9d0d	-0.43674508
179	0x3e1e2e6a	0.15447393
180	0xbcbc4d2f	-0.022986023
181	0x3eec4ea4	0.46153748
182	0xbd0af34c	-0.033923432
183	0x3f470452	0.7774097
184	0x3ebe5ec6	0.3718168
185	0xbeaaa271	-0.33327058
186	0x3e0b3fd0	0.13598561
187	0xbf04e6d5	-0.5191472
188	0xbd0510ae	-0.03248661
189	0x3e67aa4f	0.22623561
190	0x3e75cc3e	0.24003693
191	0x3df2adb5	0.11849538
192	0x3d14b0b9	0.03630135
193	0xbb57abd4	-0.0032908814
194	0x3f0ed3c8	0.557919
195	0xbeaf7bed	-0.34274235
196	0x3c3827f6	0.011239996
197	0x3ef862e5	0.4851295
198	0xbcd2821a	-0.025696803
199	0xbf0a1b85	-0.5394824
200	0xbe8e255f	-0.27762887
201	0xbe3baa17	-0.18326603
202	0xbdef200e	-0.11676036
203	0xbd9818b3	-0.07426586
204	0x3f81cb0b	1.0140089
205	0x3e6b9bde	0.23008677
206	0xbec4d406	-0.3844301
207	0xbf8a841b	-1.0821565
208	0xbe8ba798	-0.272763
209	0xbe1dd5ab	-0.15413539
210	0xbe286729	-0.16445602
211	0xbf4b1226	-0.7932457
212	0xbe09b36a	-0.13447347
213	0xbf4f45b0	-0.8096571
214	0x3ec29cf7	0.3801038
215	0x3e83e5d9	0.25761297
216	0xbec9e07b	-0.39429078
217	0x3f307134	0.68922734
218	0xbf181f62	-0.59422886
219	0x3e93acc2	0.2884274
220	0x3ea1bb9d	0.3158845
221	0xbf227878	-0.6346507
222	0xbd802129	-0.06256325
223	0xc0a306a3	-5.09456
224	0x3ef6e95e	0.4822492
225	0xbf02baad	-0.51066095
226	0x3ebbd089	0.36682537
227	0x3dc9a0fa	0.09845157
228	0xbe8bac9d	-0.2728013
229	0xbf2919a2	-0.6605474
230	0xbf5ac5c3	-0.8545801
231	0x3f25f161	0.6482144
232	0x3eecae90	0.4622693
233	0xbee6c25b	-0.45070156
234	0x3f2e19a4	0.68007874
235	0xbfdbd121	-1.7173196
236	0xbe85350e	-0.2601704
237	0xbf65b142	-0.897236
238	0x3f46702d	0.77514917
239	0x3ee18f26	0.44054526
240	0xbefb6ea2	-0.49107844
241	0x3dff79da	0.12474413
242	0x3d920405	0.07129673
243	0xbe259900	-0.16171646
244	0xbe293761	-0.16525032
245	0xbf0146d1	-0.5049868
246	0x3f1c61eb	0.6108691
247	0x3e838ebf	0.25694844
248	0x3ecc29b7	0.39875576
249	0xbe7ef9d6	-0.24899992
250	0xbef607c5	-0.48052803
251	0x3e91b79b	0.28460392
252	0x3c3799a5	0.011206065
253	0xbf1bff5b	-0.60936517
254	0xbd9972e7	-0.07492619
255	0x3eb591c4	0.35462773

decoder.fc2.bias f4 [51]
0	0x3f45689b	0.7711274
1	0x3f29f41f	0.66388124
2	0xbf8d6c49	-1.1048671
3	0x3f5bc8f8	0.8585353
4	0x3f9bb01c	1.2163119
5	0xbf2004da	-0.625074
6	0xbdeaae0c	-0.11458978
7	0xbe061afc	-0.13096231
8	0xbe09987f	-0.13437079
9	0xbf40a391	-0.7524958
10	0x3e19e6cb	0.15029447
11	0xbe0fd11d	-0.14044614
12	0x3f9a111a	1.2036469
13	0x3fc2423c	1.5176463
14	0xbf4593b8	-0.77178526
15	0xbef750a9	-0.48303726
16	0x3d0a0dfd	0.033704747
17	0xbe075d85	-0.13219269
18	0xbf87c9c7	-1.0608453
19	0x3f3a2f89	0.7272878
20	0xbe0f3cf7	-0.139881
21	0x3e55bdd9	0.20873202
22	0xbe267cba	-0.16258517
23	0xbf541601	-0.82846075
24	0x3d2ec422	0.042667516
25	0xbf15b3b5	-0.58477336
26	0x4031cc95	2.7781117
27	0xbf711b0e	-0.9418191
28	0x3e782c36	0.24235615
29	0x3f82959f	1.0201911
30	0xbf555270	-0.83328915
31	0x3f199bbb	0.6000325
32	0x3e026c29	0.12736572
33	0x3f46765f	0.7752437
34	0xbe97c784	-0.29644406
35	0x400a2530	2.1585197
36	0x3fa47229	1.2847339
37	0xbf0bcbff	-0.5460815
38	0x3f93c1ab	1.1543478
39	0xbf84d56b	-1.037763
40	0xbe228d16	-0.15874133
41	0xbf533da8	-0.82515955
42	0x3e8b7629	0.27238587
43	0xbed73186	-0.4202997
44	0x400b24ba	2.1741166
45	0xbdedd0a9	-0.116120644
46	0xbea2147e	-0.3165626
47	0x3f01e996	0.5074705
48	0xbf7b3ea6	-0.9814247
49	0x3e3b43a1	0.18287517
50	0x3eabf4eb	0.33585295
