model/vae_hd64_ld16_gamma1000.pth (torch, 42951 bytes, 10 tensors)

encoder.fc1.weight f4 [64, 51]
0	0x3d0ab4a2	0.03386367
1	0x3f1eaef0	0.61985683
2	0xbdda2f1d	-0.106535174
3	0x3f02abb4	0.5104325
4	0xbda1e9e1	-0.07905937
5	0xbe288964	-0.1645866
6	0x3ce28be7	0.027654601
7	0xbe9a1103	-0.30091104
8	0x3ebe0732	0.37114865
9	0xbf0e9112	-0.5569011
10	0x3e42338f	0.1896498
11	0x3e596d6a	0.21233144
12	0xbe674e87	-0.2258855
13	0x3ea37d07	0.31931326
14	0xbea3903e	-0.31945986
15	0x3f251a59	0.6449333
16	0xbd49e45d	-0.04929005
17	0x3e93a726	0.28838462
18	0xbe950beb	-0.29110655
19	0x3ef14125	0.47120014
20	0x3db3886d	0.087662555
21	0xbee4c820	-0.44683933
22	0xbea84991	-0.32868627
23	0xbe4b6131	-0.19861294
24	0xbe6b186f	-0.2295854
25	0xbd1057a9	-0.03523985
26	0xbede5708	-0.43425775
27	0x3d4ff213	0.05076797
28	0xbed7b75e	-0.42132086
29	0xbee43637	-0.44572613
30	0xbe403879	-0.18771543
31	0xbf056fdc	-0.5212381
32	0xbe4ffa8e	-0.20310423
33	0xbec82418	-0.39090037
34	0x3e03831b	0.12842982
35	0xbd94e8fc	-0.07271001
36	0xbefdaea5	-0.49547306
37	0xbc20ba22	-0.0098100025
38	0xbf34a919	-0.7057052
39	0xb8e23562	-0.00010786463
40	0x3c220125	0.009887968
41	0xbd803206	-0.06259541
42	0x3f1ce6ed	0.61289865
43	0xbecabae7	-0.3959572
44	0x3ebf9d4e	0.374247
45	0x3f0a982f	0.54138464
46	0xbdcb0415	-0.09912888
47	0x3d59d6aa	0.053183235
48	0xbde4cdbb	-0.111720525
49	0xbcfbc82d	-0.0307351
50	0xbe1cc544	-0.15309626
51	0x3d0c2e00	0.034223557
52	0x3e0546bc	0.13015264
53	0xbd5ed864	-0.054405585
54	0x3dbbde17	0.0917322
55	0xbe8a6ba8	-0.2703526
56	0xbf14b97d	-0.5809553
57	0xbf129668	-0.5726075
58	0xbe9192d6	-0.2843234
59	0x3ca52610	0.020159751
60	0xbebe12c7	-0.371237
61	0xbc3d6ac9	-0.011561104
62	0x3e9bc024	0.3042003
63	0x3dcebb5f	0.10094332
64	0x3f1a7d3b	0.60347337
65	0x3f481833	0.78161925
66	0xbe54cb36	-0.20780644
67	0xbe279d2c	-0.1636855
68	0x3daca0f6	0.08429138
69	0xbecb07e0	-0.39654446
70	0x3f4989d7	0.7872595
71	0xbd341c83	-0.043972503
72	0xbe385520	-0.18001223
73	0xbe0189b7	-0.1265019
74	0xbf00e0a0	-0.5034275
75	0x3e11c8a8	0.142367
76	0xbe86ed0f	-0.26352736
77	0xbe88a969	-0.2669175
78	0x3da3e036	0.08001749
79	0xbf027571	-0.5096045
80	0xbe77b5d1	-0.24190451
81	0xbde2348f	-0.11045181
82	0x3e87d507	0.26529714
83	0xbebad433	-0.3649002
84	0x3d34b1d2	0.044114895
85	0x3e9c020d	0.30470315
86	0xbd86cb09	-0.06581695
87	0xbda137f3	-0.078719996
88	0xbe3ed21e	-0.18634841
89	0x3e025d4a	0.127309
90	0xbe31356c	-0.17305535
91	0x3d4d5cc0	0.05013728
92	0x3cd303a0	0.025758564
93	0x3d91b500	0.07114601
94	0x3ce6c9f8	0.028172478
95	0x3cadc6e9	0.021213012
96	0x3e57b5ff	0.2106552
97	0xbe32425b	-0.17408125
98	0x3d14de99	0.0363451
99	0x3f0579fb	0.5213925
100	0xbe404fc3	-0.18780427
101	0x3efe7b15	0.4970328
102	0xbdcf4f5a	-0.10122557
103	0xbd2850fa	-0.04109285
104	0xbc88128f	-0.016610412
105	0x3e94f88e	0.29095882
106	0x3dce32e8	0.10068303
107	0x3e4cf1af	0.2001407
108	0xbeda66be	-0.4265651
109	0x3dc64364	0.096808225
110	0x3dc0561b	0.09391423
111	0x3f1ea9c1	0.61977774
112	0x3f3d915a	0.74049914
113	0xbe15be5b	-0.14623396
114	0xbef65acc	-0.48116148
115	0xbe032aca	-0.12809291
116	0x3eb7df1d	0.3591241
117	0x3e8b7269	0.27235726
118	0xbdd13bc6	-0.10216479
119	0x3e529853	0.2056592
120	0xbebe1f98	-0.3713348
121	0xbe71fe59	-0.23632182
122	0x3e9cbebe	0.30614275
123	0xbd113860	-0.035454154
124	0xbec95332	-0.39321285
125	0xbec6077b	-0.38677582
126	0xbf0200fc	-0.5078275
127	0xbd025cce	-0.031826787
128	0xbdef6da8	-0.11690837
129	0xbedad3c7	-0.42739698
130	0xbdce496b	-0.10072597
131	0xbef19928	-0.4718716
132	0xbd38c552	-0.045110054
133	0xbe7040bf	-0.23462199
134	0xbde29fec	-0.11065659
135	0xbeae495a	-0.34040338
136	0x3ea09a9e	0.31367964
137	0x3da2aad6	0.079427406
138	0x3e4a060a	0.19728866
139	0xbea1298d	-0.31477013
140	0xbd70bab3	-0.0587718
141	0xbe1312e2	-0.14362672
142	0xbbd363f3	-0.006451124
143	0x3e5b665f	0.2142577
144	0x3db3f628	0.08787185
145	0xbeb0c205	-0.34523025
146	0xbe8fe1c2	-0.28101927
147	0x3d17cd07	0.037060764
148	0xbe241eec	-0.16027421
149	0x3ee6c5bb	0.4507273
150	0xbe9b96e4	-0.30388558
151	0x3de6daed	0.112722255
152	0x3de11bcb	0.10991629
153	0xbe3ecfa1	-0.18633892
154	0xbe1d336a	-0.15351644
155	0x3e1bc39d	0.1521134
156	0xbea74453	-0.32669315
157	0xbe8577a1	-0.26067832
158	0x3da552e2	0.08072449
159	0xbaa12e1a	-0.0012297065
160	0xbe80f814	-0.2518927
161	0x3cb1c292	0.021699224
162	0xbea23995	-0.31684557
163	0x3b7c6b49	0.0038516095
164	0xbc1979b8	-0.009367399
165	0xbd02d296	-0.03193911
166	0xbd9eb2da	-0.07748957
167	0xbd8d5bdc	-0.069022864
168	0xbd2e347d	-0.042530525
169	0xbde0b7e7	-0.109725766
170	0x3de3d06e	0.11123739
171	0x3fb163c3	1.385857
172	0x3fd8bbda	1.6932328
173	0x3ea763f7	0.32693455
174	0x3e5b47a9	0.21414055
175	0xbe6de4f1	-0.23231865
176	0xbe51c550	-0.20485425
177	0xbea181e9	-0.31544426
178	0xbe4d7c6f	-0.20066999
179	0xbe8d51e3	-0.27601537
180	0xbe290824	-0.16507012
181	0xbd9d4657	-0.07679432
182	0xbec15abf	-0.37764546
183	0xbdee061d	-0.1162226
184	0xbeae3780	-0.34026718
185	0xbeec0711	-0.4609914
186	0x3ad18469	0.0015984896
187	0xbe6178bf	-0.22018717
188	0xbe88db1c	-0.26729667
189	0xbd60b7de	-0.05486285
190	0xbe2ff014	-0.17181426
191	0xbd7f3ee5	-0.06231584
192	0xbdbeb6e5	-0.09312228
193	0xbe2d2c2d	-0.16911383
194	0xbe079392	-0.13239887
195	0x3e2ac237	0.1667565
196	0xbdf377bb	-0.11888071
197	0xbd9a6b4b	-0.07539996
198	0xbcb2e6b6	-0.021838527
199	0xbe0e0fc7	-0.13873206
200	0x3d8729df	0.06599783
201	0xbdc824fd	-0.0977268
202	0xbe64cf65	-0.2234474
203	0xbdb9671c	-0.0905287
204	0x3c2195f3	0.009862411
205	0xbd2d0ae5	-0.042246718
206	0x3beeee6c	0.0072916057
207	0xbe9f5181	-0.3111687
208	0xbe0d4019	-0.13793983
209	0x3f3698cb	0.71326894
210	0x3f273a10	0.6532297
211	0x3d9da179	0.07696814
212	0x3e2f8541	0.17140676
213	0xbe5d1d17	-0.21593128
214	0x3cfce6ba	0.030871738
215	0x3ee9bcc5	0.45651832
216	0x3eb31ba1	0.34982017
217	0x3d640c76	0.055675946
218	0xbeb7ef7b	-0.35924897
219	0x3e196f3e	0.14983842
220	0xbe47c78f	-0.1950972
221	0xbca82602	-0.020525936
222	0xbdca7289	-0.09885127
223	0x3dfd9729	0.12382347
224	0x3e1c621d	0.15271802
225	0x3e165329	0.1468016
226	0x3e988295	0.29787126
227	0xbf32d9f7	-0.6986384
228	0xbe3c472c	-0.18386525
229	0xbe040a84	-0.12894636
230	0xbe157d85	-0.14598663
231	0x3f256978	0.6461406
232	0xbdcb929f	-0.09940075
233	0xbccaa1a8	-0.024735287
234	0xbe65af37	-0.2243012
235	0x3e8cb082	0.27478415
236	0xbee8223a	-0.45338613
237	0x3e036d12	0.12834576
238	0xbe819f9c	-0.25317085
239	0xbeb889d2	-0.3604265
240	0xbe6e6031	-0.23278882
241	0x3ec3b55c	0.38224304
242	0x3ecf5cb8	0.40500426
243	0x3e5d2f05	0.21599968
244	0x3f192f15	0.59837466
245	0xbcad3362	-0.021142665
246	0xbe9606ca	-0.29302055
247	0x3ead1072	0.3380161
248	0xbdad4d45	-0.084620036
249	0x3d89941d	0.067177035
250	0xbf2b04a6	-0.6680397
251	0x3d012271	0.031526987
252	0xbd7c662b	-0.061620872
253	0xbeee00ed	-0.4648508
254	0xbdb63d36	-0.08898394
255	0xbd9aab96	-0.07552259

encoder.fc1.bias f4 [64]
0	0xbebb9cbf	-0.36643025
1	0xbe5b7e4b	-0.21434896
2	0xbeb846d8	-0.3599155
3	0xbe6b1039	-0.22955407
4	0xbf27b0c9	-0.6550413
5	0xbf487c71	-0.7831488
6	0xbfb6ee58	-1.4291487
7	0x3e1d9508	0.15388882
8	0xbe50a77e	-0.20376393
9	0xbf8824ca	-1.0636227
10	0xbf1f8644	-0.6231425
11	0xbf18dffe	-0.59716785
12	0xbf70e762	-0.9410306
13	0xbea878d3	-0.32904682
14	0xbf92ec19	-1.1478301
15	0x3c761d05	0.015021567
16	0xbf1a4602	-0.60263073
17	0x3eaa2e26	0.33238333
18	0xbfbe70d1	-1.4878179
19	0xc0369e2e	-2.8534045
20	0xbf2ccb2c	-0.67497516
21	0xbf2a3e59	-0.66501385
22	0xbe948920	-0.29010868
23	0xbe97ab14	-0.2962271
24	0xbf005e87	-0.5014424
25	0xbfaa2491	-1.3292409
26	0xbfd08c26	-1.629277
27	0x3dc629a9	0.09675915
28	0xbf4b8b55	-0.7950948
29	0xbe8b5440	-0.27212715
30	0xbea6419d	-0.32471934
31	0x3ea1c06e	0.31592125
32	0x3f18225d	0.59427434
33	0xbecaba5e	-0.39595312
34	0x3ee85bce	0.4538254
35	0x3e983c58	0.2973354
36	0xbf26f801	-0.65222174
37	0xbfa62fcf	-1.298334
38	0xbe2bca60	-0.16776419
39	0xbf420a44	-0.75796914
40	0x3e75cfe8	0.24005091
41	0xbeefeb3f	-0.46859166
42	0x3ddfa115	0.10919396
43	0xbfbebf3d	-1.4902111
44	0xbfcfa481	-1.6222078
45	0x3e8ee130	0.2790618
46	0x3e8cb5a0	0.2748232
47	0xbe998701	-0.29985812
48	0xbf556ac4	-0.83366036
49	0x3f0bf372	0.54668343
50	0xbdba7988	-0.091052115
51	0xbfbe0d26	-1.4847763
52	0xbf17ef6c	-0.59349704
53	0xbf8863ee	-1.0655496
54	0xbf3243c0	-0.6963463
55	0xbf3cb2c4	-0.73710275
56	0x3e14d43a	0.14534083
57	0x3d3e5162	0.04646433
58	0xbf6eaec3	-0.93235415
59	0xbfcfe15a	-1.6240647
60	0x3f71581e	0.9427508
61	0x3ed35dda	0.4128254
62	0xbf37f6b8	-0.7186084
63	0xbf563fc5	-0.83691055

encoder.fc2.weight f4 [16, 64]
0	0xbe94ad15	-0.290383
1	0xbd687d70	-0.05676025
2	0x3dc88cc4	0.09792474
3	0xbc93f59f	-0.018061457
4	0xbe1187da	-0.1421198
5	0xbef5c0e6	-0.47998732
6	0xbdb0ce3d	-0.08633087
7	0x3cee3664	0.02907867
8	0xbe1b43d8	-0.15162599
9	0x3e60bbf9	0.21946706
10	0xbc8780df	-0.016540943
11	0xbdc02f75	-0.09384052
12	0xbe2db085	-0.16961868
13	0xbe28970b	-0.16463868
14	0x3c879dae	0.01655468
15	0xbe243b6c	-0.16038293
16	0xbd733999	-0.0593811
17	0xbe69d79e	-0.22836158
18	0xbed7297b	-0.42023835
19	0xbd7d02b2	-0.06177015
20	0x3ec44117	0.3833091
21	0xbdd1512d	-0.10220561
22	0x3d8273bc	0.06369731
23	0x3de1b6d4	0.110212
24	0xbd6646ca	-0.056219853
25	0xbda4305f	-0.080170386
26	0x3d9be6af	0.07612359
27	0xbca55541	-0.020182254
28	0x3e778428	0.24171507
29	0x3dbabf0a	0.09118469
30	0x3e67e4a6	0.22645816
31	0x3d427cb1	0.047482196
32	0xbed7dac2	-0.42159086
33	0xbdd4967e	-0.103802666
34	0x3ea477d8	0.32122684
35	0x3ec58fa1	0.38586143
36	0x3e388d89	0.18022741
37	0xbeed94db	-0.4640263
38	0xbd376192	-0.044770785
39	0xbe925f23	-0.2858821
40	0x3db4f4a9	0.08835728
41	0xbcd37b6c	-0.025815688
42	0xb9ae8b6d	-0.00033291747
43	0x3f417dc9	0.7558256
44	0xbebd28f7	-0.36945316
45	0x3e59cae5	0.21268804
46	0xbf0b0d43	-0.5431711
47	0xbec20f1d	-0.37902156
48	0x3e4617e0	0.19345045
49	0xbd6c2b44	-0.05765845
50	0x3d09a636	0.033605777
51	0x3e31b850	0.17355466
52	0x3e0ed3df	0.1394801
53	0xbeafbde3	-0.3432456
54	0xbe5e5c07	-0.21714793
55	0xbe783370	-0.24238372
56	0xbdf50ec3	-0.11965706
57	0x3e4d13f9	0.2002715
58	0x3e098057	0.13427864
59	0x3e84d7bd	0.25945845
60	0x3dff8b3b	0.12477728
61	0x3e12519c	0.14288944
62	0xbde18296	-0.110112354
63	0x3df1a2c7	0.117986254
64	0xbc3d01ea	-0.011536101
65	0x3c285de8	0.010276295
66	0x3c2b5dd1	0.010459379
67	0xbab95c02	-0.00141418
68	0x3a481935	0.00076331507
69	0xba39bee2	-0.00070856337
70	0x3c349b12	0.0110233
71	0xbb302e6a	-0.0026883134
72	0xbb7d3dc6	-0.0038641556
73	0x3c098122	0.008392604
74	0xbac99d5a	-0.0015381977
75	0xbc420f0e	-0.01184441
76	0xbc54d5e2	-0.012990447
77	0xbaf9f5bc	-0.0019070427
78	0xbb143b40	-0.0022618324
79	0x3aa79044	0.0012784083
80	0x3c340659	0.0109878415
81	0x3a2114b7	0.00061447493
82	0xb9bb17ab	-0.00035685053
83	0xba64c298	-0.00087265065
84	0xbc4dc7f1	-0.012559877
85	0x3c14c6df	0.009080618
86	0xbb59eea2	-0.0033253809
87	0xbc723374	-0.014782775
88	0x3a93d079	0.001127734
89	0x3b9ac3fb	0.0047230697
90	0x3bae7cfd	0.0053249584
91	0xbc152d18	-0.0091049895
92	0x3c0a7efc	0.008453127
93	0x3b883f51	0.0041579385
94	0x3c572448	0.013131209
95	0xbb7991cb	-0.0038081284
96	0x3a0bf563	0.00053389947
97	0x3b9fd8e6	0.004878151
98	0xbb9471a0	-0.0045301467
99	0x3c517383	0.012783888
100	0x3a780299	0.00094608363
101	0x3b2d4fa7	0.0026445182
102	0x3b7c3880	0.0038485825
103	0x3c67717c	0.014126178
104	0xbb40d0ca	-0.0029421323
105	0xbc57d487	-0.013173229
106	0xbbec8cd8	-0.0072189383
107	0x3bbb3f97	0.0057143676
108	0xbc7d038c	-0.01544274
109	0x3bf88d98	0.0075852387
110	0x3b89cb3b	0.004205135
111	0xbab8f368	-0.0014110627
112	0x3a91ef34	0.001113391
113	0xbb8172d6	-0.003950457
114	0xbb967289	-0.0045912904
115	0x3c2b2b35	0.010447313
116	0xbc3b5897	-0.011434696
117	0xbb93dc4e	-0.0045123463
118	0xbbb8fb8b	-0.0056452206
119	0x3babdb70	0.005244665
120	0xbc57962e	-0.013158364
121	0x3be3fb9c	0.0069574844
122	0xbb74868e	-0.0037311646
123	0x3b059fb8	0.002038939
124	0x380b510c	3.3215663e-05
125	0x3a172a91	0.0005766536
126	0x3c593377	0.013256899
127	0x3bb5eab4	0.0055516604
128	0x3c520a90	0.012819901
129	0x3b80dbb5	0.003932441
130	0xbc014cdd	-0.007891861
131	0x3b00eed8	0.0019673612
132	0x3c15a311	0.009133116
133	0xbbb2ac3d	-0.0054526613
134	0xbbac935b	-0.0052665896
135	0xbc22ce3e	-0.009936867
136	0xbc67f461	-0.014157386
137	0xbbc525f0	-0.0060164854
138	0x3b93750f	0.0045000385
139	0xbba09a08	-0.0049011745
140	0xbbfeb9a2	-0.007773594
141	0x3bf4fbe5	0.007476317
142	0xbadcb888	-0.0016839663
143	0xbc40374c	-0.011731934
144	0xbb74a942	-0.003733233
145	0xbc46c31d	-0.01213148
146	0xbc270893	-0.010194915
147	0x38a5c34c	7.90419e-05
148	0x3c28e955	0.010309537
149	0xb96bc903	-0.00022486229
150	0x3c6722ec	0.014107447
151	0xbc55b52d	-0.013043684
152	0x39aaed6c	0.0003260182
153	0x3c9749d9	0.01846783
154	0x3bfa4800	0.0076379776
155	0xba8e36c5	-0.0010850063
156	0xbc8c7396	-0.01714496
157	0x3c2681ee	0.010162814
158	0x3c360f9c	0.01111212
159	0x3a9547e4	0.0011389223
160	0xbc398626	-0.011323487
161	0x3bd1c420	0.0064015538
162	0xbcadd104	-0.02121783
163	0x3bada979	0.0052997437
164	0xbbeb9604	-0.007189514
165	0xbcf80e22	-0.030280177
166	0xbbed0c44	-0.007234128
167	0x3b84aa01	0.0040485864
168	0xbcb7ce1c	-0.022437148
169	0x3c8eeff0	0.017448395
170	0x395fbc4e	0.00021337086
171	0x3c636b50	0.013880566
172	0x3b41e788	0.0029587466
173	0x3953ffce	0.00020217823
174	0xbc4f0d22	-0.012637408
175	0x3c449876	0.01199924
176	0xbc26ab4f	-0.010172679
177	0xbbb70fce	-0.005586601
178	0xbbdb0604	-0.0066840667
179	0x3ab9cf2f	0.0014176125
180	0x3bed4619	0.0072410223
181	0xba1ad4b6	-0.000590633
182	0xbbbc85dc	-0.005753262
183	0xbc6216ee	-0.013799412
184	0x39464f94	0.00018912397
185	0x3b8c7d03	0.0042873635
186	0xbb7ad524	-0.0038274014
187	0x395cb677	0.00021048808
188	0xbc657478	-0.014004819
189	0xbba969db	-0.0051700897
190	0xbb04151a	-0.002015418
191	0x3b95649c	0.0045591127
192	0x3bd7f0b9	0.0065899757
193	0x3c3e5d52	0.011618929
194	0xbc88e63f	-0.016711352
195	0x3b73d3f9	0.0037205203
196	0x3c8bd0c3	0.017067319
197	0x3b3abb3f	0.0028492955
198	0x3c0d716a	0.008632997
199	0xbc379c35	-0.011206676
200	0xbc198369	-0.0093697095
201	0xbc735e68	-0.014854051
202	0xbc59fe30	-0.013305232
203	0x3b0e3489	0.0021698794
204	0x3c3edb04	0.011648897
205	0x3b87a7b7	0.004139866
206	0x3a18ce06	0.000582904
207	0xbc908784	-0.017642744
208	0x3c15fac2	0.009154024
209	0x3ca1e55e	0.019762691
210	0x3a3de882	0.0007244424
211	0x3bb3a22f	0.0054819803
212	0x3c0e6636	0.008691361
213	0xbc5017b8	-0.0127009675
214	0x3c07e91e	0.008295326
215	0xbc5152dc	-0.012776103
216	0x3c08d605	0.0083518075
217	0x39b67edd	0.00034808266
218	0x3c694709	0.0142381275
219	0x398dda9c	0.00027056492
220	0xbc5b2620	-0.013375789
221	0xbb766627	-0.0037597509
222	0xbcaeec67	-0.02135296
223	0xba406325	-0.00073389924
224	0xbbd69e83	-0.006549658
225	0x3bf22e99	0.007390809
226	0x3b96279c	0.0045823585
227	0xbc380d8e	-0.0112337
228	0xbbc71bdd	-0.0060763196
229	0xbc03b465	-0.008038615
230	0xba66c0d3	-0.0008802537
231	0xbb3b45eb	-0.002857561
232	0x3c2736f7	0.010205976
233	0x3c138591	0.009004013
234	0x3b38510f	0.0028124487
235	0x3c2e1b7f	0.010626673
236	0xbaa67841	-0.0012700633
237	0x36ff3a80	7.6064025e-06
238	0xbca4a0b6	-0.020096164
239	0x3bcd387f	0.0062628384
240	0xba8df276	-0.0010829705
241	0xbba5a7da	-0.00505541
242	0xbb26ef41	-0.0025472196
243	0xbce3d87b	-0.027813187
244	0x3b94e7a0	0.0045442134
245	0xbc23e30c	-0.010002863
246	0xbb8a87c0	-0.0042276084
247	0xbc5cf512	-0.013486164
248	0x3bbcf26b	0.005766203
249	0xbb8c3256	-0.0042784614
250	0x3ab57cef	0.0013846437
251	0xbcaecc5d	-0.021337682
252	0xbbe43a05	-0.0069649243
253	0x3c86945c	0.016428165
254	0xbbf8df55	-0.0075949826
255	0xbbbf0abf	-0.0058301385

encoder.fc2.bias f4 [16]
0	0x3f0f9ec1	0.56101614
1	0x3c918db5	0.017767766
2	0x3cecec2f	0.028921215
3	0x3d13e824	0.03611006
4	0xbf02c343	-0.51079196
5	0x3c44d61f	0.012013941
6	0xbf46a5ee	-0.7759694
7	0x3ea0f7d6	0.31439084
8	0x3e042f0d	0.12908573
9	0xbc555d4b	-0.013022731
10	0x3d0a4020	0.03375256
11	0xbe117699	-0.14205398
12	0xbc3baf3a	-0.0114553515
13	0x3acde1aa	0.0015707512
14	0x3ee2eda4	0.4432193
15	0xbeb32d21	-0.34995368

encoder.fc3.weight f4 [16, 64]
0	0xbde37271	-0.11105812
1	0x3cbab8cc	0.022793196
2	0xbb9b5522	-0.004740373
3	0x3d305d1c	0.043057546
4	0x3e1ab9ba	0.15109912
5	0x3e80dda4	0.25169098
6	0x3d3839ff	0.044977184
7	0x3d487de8	0.0489482
8	0xbde029a0	-0.10945439
9	0xbde1d9bb	-0.11027857
10	0xbd54b5ac	-0.05193107
11	0x3e26e5c4	0.16298586
12	0xbd55848f	-0.05212837
13	0xbcc07852	-0.023494873
14	0x3c83d77e	0.016093966
15	0x3c63be67	0.013900376
16	0xbcbc8d8c	-0.023016714
17	0xbc9c9234	-0.019112684
18	0xbd62a646	-0.055334352
19	0x3dd37413	0.10324874
20	0xbe02f131	-0.1278732
21	0x3af70cb9	0.0018848396
22	0x3d3284e4	0.043583766
23	0x3d8bc782	0.068251625
24	0xbdd49b93	-0.10381236
25	0xbd87109f	-0.06594967
26	0x3e8d3680	0.27580643
27	0xbd24c302	-0.040225036
28	0x3d82ce82	0.063870445
29	0xbc2fd45e	-0.010731785
30	0xbd55d89c	-0.052208528
31	0xbde9cec5	-0.11416391
32	0x3dc79722	0.09745623
33	0xbdb87d2d	-0.090082504
34	0x3d484bc4	0.04890038
35	0xbd1a6069	-0.0376896
36	0x3e015cf9	0.12633123
37	0xbda403fe	-0.08008574
38	0x3d27b56b	0.040944498
39	0x3e1b0cc0	0.15141582
40	0xbdf987f5	-0.12184135
41	0xbd21e30f	-0.03952318
42	0xbcadc765	-0.021213243
43	0xbd9d07b7	-0.07667487
44	0x3d2e31aa	0.042527832
45	0x3d7195ce	0.058980756
46	0xbc51bd88	-0.012801535
47	0xbd3cd54a	-0.046101846
48	0x3dc10a01	0.09425736
49	0xbe2a3d05	-0.1662484
50	0x3ce4e741	0.027942302
51	0x3d912359	0.0708682
52	0xbc0436bd	-0.008069691
53	0x3d1896d9	0.037253235
54	0x3dd9f351	0.10642112
55	0xbcce304f	-0.02516952
56	0x3d169b94	0.036769465
57	0xbdd5b6d9	-0.10435266
58	0x3d825c1f	0.06365227
59	0x3aebfb3a	0.0018003948
60	0xbd9cf6ee	-0.076642856
61	0x3da28df3	0.07937231
62	0x3d11c622	0.035589345
63	0xbc11409d	-0.008865503
64	0xbc06fc2e	-0.008238835
65	0x3a83abac	0.0010045669
66	0x39020f72	0.0001240352
67	0x3acffce6	0.0015868216
68	0x380f9c70	3.423955e-05
69	0xb99ffa24	-0.00030513213
70	0xba967d77	-0.0011481483
71	0xbb549aa2	-0.00324408
72	0xb98bff9c	-0.0002670259
73	0xbac92258	-0.0015345318
74	0x3bbba2fa	0.0057262154
75	0x3baabf3f	0.0052107866
76	0xbb14303b	-0.0022611755
77	0x3a5c9741	0.00084148726
78	0xbb9aebc6	-0.0047278134
79	0xbb4a8f2c	-0.003090809
80	0x3adeaf42	0.0016989487
81	0x3b69daea	0.0035683461
82	0x3b02334f	0.0019867008
83	0xbab5fbd1	-0.0013884251
84	0x382e68ab	4.1582312e-05
85	0x3c168f11	0.009189383
86	0xbbfdd2a1	-0.007746056
87	0xba9fbce1	-0.0012187028
88	0x3b2b3c82	0.0026128595
89	0xbb11d146	-0.002224998
90	0xba09bb5a	-0.0005254053
91	0x3b1483e1	0.0022661614
92	0xbb62d700	-0.0034613013
93	0xbb6232e7	-0.0034515203
94	0x3b400bd7	0.0029303932
95	0xbb9f5951	-0.0048629423
96	0x399a616e	0.0002944576
97	0xbc1b3ec7	-0.0094754165
98	0x3a50b036	0.0007960828
99	0x3bb67544	0.0055681784
100	0x3a87c4f1	0.0010358376
101	0x3b39b2d7	0.0028335357
102	0x3b19f720	0.0023493245
103	0xbb2b2a51	-0.0026117752
104	0x3b271898	0.0025496837
105	0x3bbbeb2f	0.005734823
106	0x3b33c4cf	0.002743054
107	0xbae1f274	-0.0017238394
108	0x3b0381e8	0.0020066444
109	0xba87c8de	-0.0010359546
110	0x3a349ad6	0.00068895274
111	0xbb8827d7	-0.00415514
112	0xbb5c4239	-0.0033608808
113	0xbc011544	-0.007878605
114	0xbbf11b51	-0.0073579927
115	0x3c2c00e4	0.010498259
116	0x3959c9fb	0.00020769976
117	0x3aadc448	0.0013257349
118	0xba060801	-0.0005112887
119	0x3a973a4e	0.0011537762
120	0x3ab930ab	0.0014128884
121	0x3b25dd91	0.0025309066
122	0xbb3d7a59	-0.0028912036
123	0xba1a2d83	-0.00058814156
124	0xb93d274c	-0.00018039084
125	0x382c5520	4.1087274e-05
126	0x3a7e4137	0.0009699049
127	0x3b371235	0.0027934436
128	0xbb9057f8	-0.004405018
129	0x3b59ab5a	0.0033213706
130	0xbc71bd73	-0.014754641
131	0xbb59b302	-0.003321827
132	0x3ac9a5f7	0.0015384544
133	0xbb7c435a	-0.0038492293
134	0x3b36299d	0.00277958
135	0x39fe06d5	0.00048451746
136	0xba818ed4	-0.0009884485
137	0xbc083254	-0.00831278
138	0x3b87cb43	0.0041441037
139	0xbb46a968	-0.0030313376
140	0xbbbfee9c	-0.005857302
141	0x3c1abc35	0.009444286
142	0xbab94eda	-0.001413788
143	0xbb1029b8	-0.0021997523
144	0xbac5fde9	-0.0015105578
145	0x3aca9655	0.0015456179
146	0x3b38c0fd	0.0028191202
147	0xba47cc6a	-0.00076217076
148	0x3b686f7b	0.0035466838
149	0xbb24a35a	-0.002512178
150	0x3aa8d606	0.0012881167
151	0x3bcc604c	0.0062370654
152	0xb94f4122	-0.00019765322
153	0xbc92225a	-0.017838646
154	0xbab8687a	-0.0014069222
155	0x3a8d8963	0.0010798391
156	0x3ab923fd	0.0014125105
157	0xba16c527	-0.0005751424
158	0x3b06d18e	0.0020571682
159	0x388c2d4c	6.6841574e-05
160	0x3b5eb6d7	0.0033983493
161	0xbbe88c70	-0.0070968196
162	0x3b0b9b0a	0.0021302127
163	0xbad89f3f	-0.0016526951
164	0x3a63385d	0.00086677616
165	0xbb97cb9e	-0.0046324274
166	0x3b2c2c8d	0.0026271672
167	0xba0db0cb	-0.00054050673
168	0xb9eae8b6	-0.0004480534
169	0x3b456092	0.0030117375
170	0x3be05207	0.006845716
171	0xbb81931e	-0.0039543053
172	0x3afef94b	0.0019452957
173	0xba6ca3bb	-0.0009027083
174	0x3beb58fe	0.0071822396
175	0xbac1ec3e	-0.0014795137
176	0xbba8a25c	-0.005146308
177	0xbc1d56e0	-0.009603232
178	0x3b50d0be	0.0031862701
179	0x3b109851	0.0022063444
180	0xbb3de545	-0.0028975767
181	0x3bfd722f	0.007734559
182	0x3b0546bc	0.002033635
183	0x39c02815	0.00036650957
184	0xbb890302	-0.0041812668
185	0x3b530dcd	0.003220427
186	0xba49c6c2	-0.0007697159
187	0xbb868cd1	-0.004106142
188	0xbae3018d	-0.0017319188
189	0xba536611	-0.00080642203
190	0xbafeca79	-0.0019439004
191	0xb958722c	-0.00020641898
192	0xba1a5779	-0.0005887668
193	0xbc484740	-0.012224019
194	0xbb4452a5	-0.0029956487
195	0xb9a91d3c	-0.00032255973
196	0x3c33b5eb	0.010968666
197	0xbb8bdb79	-0.0042681065
198	0x3b5de796	0.003385996
199	0x3b25ff7d	0.0025329285
200	0x3b07ff7e	0.002075165
201	0xbb529d31	-0.003213715
202	0x3c36e51b	0.011163021
203	0xbb9996f6	-0.0046871854
204	0x3c2baf34	0.010478783
205	0x3ac16486	0.001475469
206	0x386caf28	5.642991e-05
207	0xb87aac00	-5.9764832e-05
208	0x3be40e3a	0.0069597038
209	0xbc51d5b9	-0.012807303
210	0xba6ec32c	-0.00091080624
211	0xbac90ee6	-0.0015339523
212	0x3b845ea4	0.0040396024
213	0xbb5e2fef	-0.0033903082
214	0x3b9d45df	0.004799589
215	0xbb6d5ce8	-0.0036218707
216	0xbb136b04	-0.0022494206
217	0x3bbb1e67	0.0057104114
218	0x3a307bb5	0.0006732301
219	0x3a3466da	0.0006881781
220	0xbbcd4800	-0.0062646866
221	0x39bd79a1	0.0003613951
222	0x3be46a81	0.006970704
223	0x3b0d372f	0.0021547785
224	0x3b1d156e	0.0023969072
225	0xbc82ec8b	-0.015981933
226	0x3b7983f0	0.0038073026
227	0xb9bddab5	-0.0003621184
228	0x3b4d68ee	0.003134306
229	0x3c7249a5	0.014788066
230	0x3b1dec3e	0.002409711
231	0xbb600c2b	-0.003418694
232	0x3b1cb809	0.0023913404
233	0xbbdb6194	-0.006694982
234	0x3a9445f6	0.0011312354
235	0x3b084e19	0.0020798503
236	0x3be458a5	0.006968575
237	0xb90ab407	-0.00013227771
238	0xbbb86dfa	-0.0056283446
239	0x39fd19a4	0.00048275024
240	0xbb9b0533	-0.0047308444
241	0xbbea0665	-0.0071418756
242	0xba8d174c	-0.0010764389
243	0x3c838f0e	0.016059425
244	0x3c171c10	0.009222999
245	0xbc37bbcf	-0.011214211
246	0x3a5dafa1	0.00084566517
247	0x3b8e6235	0.0043452033
248	0x3bb647b9	0.005562749
249	0xbb38edce	-0.0028217915
250	0xbb27781c	-0.0025553769
251	0xba3e294e	-0.00072540797
252	0xbb882dda	-0.0041558566
253	0x3a2ff89c	0.0006712766
254	0xbbdfc030	-0.0068283305
255	0x3c0df7f9	0.008665078

encoder.fc3.bias f4 [16]
0	0xbff2096e	-1.8909128
1	0xbc47516d	-0.0121654095
2	0xbc9942b7	-0.01870857
3	0xbc20365e	-0.009778587
4	0xc0633bb7	-3.5505197
5	0xbc443329	-0.011975088
6	0xc04884e9	-3.1331122
7	0xc03e941d	-2.97779
8	0xbfebf961	-1.8435479
9	0xbc493d03	-0.012282613
10	0xbc341d87	-0.010993368
11	0xc001c176	-2.027433
12	0xbc77a25b	-0.015114392
13	0xbc0a6f11	-0.008449332
14	0xbf8e76b7	-1.1129979
15	0xc0626b61	-3.537804

decoder.fc1.weight f4 [64, 16]
0	0xbf2b6a00	-0.6695862
1	0x3c9b9c9f	0.018995581
2	0x3be764dd	0.0070615844
3	0x3c423cb3	0.011855292
4	0x405f821b	3.492316
5	0x39ea882b	0.0004473341
6	0xc0015e5c	-2.0213842
7	0xbe127dde	-0.14305827
8	0xbddab83a	-0.1067967
9	0x3c5a324b	0.013317655
10	0xbc9de2a8	-0.019273117
11	0x3f0faba3	0.5612127
12	0xbc0ef1dc	-0.008724656
13	0xbbc876a1	-0.0061176573
14	0x3f1ed791	0.6204768
15	0x3f5fbfe4	0.87402177
16	0x3e02edf7	0.12786089
17	0xbc7804a7	-0.015137828
18	0x3c5960f7	0.013267747
19	0x3c6e927b	0.014561291
20	0x3e958b8a	0.29208022
21	0x3c996492	0.018724713
22	0xbf48c737	-0.7842898
23	0x3ed73784	0.42034543
24	0x3e57a496	0.21058878
25	0xbb06f18b	-0.0020590748
26	0x3c9467c3	0.018115884
27	0xbf12b402	-0.5730592
28	0xbb5ebcab	-0.0033986967
29	0x3c76067d	0.015016195
30	0x3e4e18f3	0.20126705
31	0x40039a3e	2.0562892
32	0xbda6682d	-0.08125339
33	0xbbd5de86	-0.006526771
34	0x3b602090	0.0034199096
35	0xbb97db59	-0.0046343026
36	0x400831dd	2.1280434
37	0x3b9a8cfa	0.0047165127
38	0x3f0aff68	0.5429597
39	0xbc8c289a	-0.017109204
40	0x3dd18fa3	0.10232475
41	0x3b10b17c	0.0022078445
42	0xbba75a4c	-0.0051072
43	0xbe2597db	-0.1617121
44	0x3bbc318a	0.00574321
45	0xbc17e10d	-0.009269965
46	0xbdbf9563	-0.09354665
47	0xbe4339ab	-0.19064967
48	0xbde332c0	-0.11093664
49	0x3c0fcf71	0.008777485
50	0xbb38fa2c	-0.0028225286
51	0x3bc7b273	0.006094271
52	0xc008442e	-2.1291614
53	0xbc86cb93	-0.016454494
54	0x3ff77ef2	1.9335616
55	0x3ecf6b3a	0.40511495
56	0x3de2d2ac	0.11075339
57	0x3b91fa60	0.004454896
58	0xbab61f57	-0.0013894838
59	0x3e24a080	0.16076851
60	0xba11a900	-0.0005556494
61	0x3c811357	0.015756292
62	0xbe30efd4	-0.17278987
63	0xbf1b99f7	-0.60781807
64	0x3e8321f6	0.25611848
65	0x3ca2e23c	0.019883268
66	0x3b8fbd32	0.0043865675
67	0xbc943ad6	-0.018094461
68	0xbf088dff	-0.5334167
69	0x3c91c242	0.017792825
70	0xbffed2e1	-1.9908105
71	0xbed07a8d	-0.407185
72	0xbe5c9e42	-0.21544746
73	0x3c9035e6	0.017603826
74	0x3c03ae4b	0.00803716
75	0x3f0b20bc	0.54346824
76	0xbbecbcec	-0.0072246697
77	0x3bde4c9c	0.006784035
78	0x3eb69f16	0.35668248
79	0x3f61ca5f	0.8819942
80	0xc0229e47	-2.5409105
81	0xbb58e5a0	-0.0033095852
82	0x3b1c7276	0.0023871935
83	0xbb974e0d	-0.0046174587
84	0xbf06be83	-0.5263445
85	0xbcd49bdf	-0.025953231
86	0xc021f7ae	-2.5307422
87	0xc0414ce2	-3.0203176
88	0x3e370684	0.1787358
89	0xbcdcaee3	-0.026938861
90	0xbcefea5f	-0.029286562
91	0x3eddf01e	0.43347257
92	0x3c81818a	0.01580884
93	0xbcc10b09	-0.023564832
94	0xbf10a760	-0.56505394
95	0x3e9df2a0	0.3084917
96	0xbda26efe	-0.07931326
97	0x3bffd381	0.0078071957
98	0xbbd14f08	-0.006387595
99	0xbc9138ca	-0.017727274
100	0xbe108956	-0.1411489
101	0xbbabb172	-0.005239659
102	0x3fb6e1f0	1.4287701
103	0x3ede7726	0.43450278
104	0x3e45e5b5	0.19325908
105	0x37486440	1.194427e-05
106	0x3b6c7f35	0.0036086563
107	0xbec35780	-0.38152695
108	0x392af244	0.00016302714
109	0xbc434145	-0.011917417
110	0xbe9b4d07	-0.30332205
111	0xbf1bec3a	-0.6090733
112	0xbde1aea2	-0.11019637
113	0x3c482d3a	0.012217814
114	0xbb412666	-0.002947235
115	0xbbf7f585	-0.00756711
116	0x3f8e780e	1.1130388
117	0xbc4b605e	-0.012413112
118	0xbe8ce082	-0.27515036
119	0x403a15a5	2.907571
120	0x3dccc332	0.09998168
121	0x3c671852	0.0141049195
122	0x3aab5574	0.0013071732
123	0x3ed86f38	0.42272353
124	0xbcaf2e44	-0.021384366
125	0x3c3db415	0.011578579
126	0xbed64fbb	-0.41857705
127	0xbeb1133a	-0.3458498
128	0x3e0a88f5	0.13528807
129	0xbc3d0014	-0.011535663
130	0xb9f544e3	-0.00046781366
131	0x3bae67cf	0.0053224335
132	0x3fa4f5e8	1.2887545
133	0x3be75e24	0.007060783
134	0xbfbaec84	-1.4603429
135	0x400f9497	2.2434442
136	0x3da94fec	0.08267197
137	0xbc496be8	-0.012293793
138	0xbc0c7b9d	-0.008574394
139	0x3e0333ce	0.1281273
140	0x3b274d8a	0.0025528395
141	0x3c5923da	0.013253177
142	0xbed1d4a8	-0.40982556
143	0xbd9d742c	-0.07688174
144	0xbf4d429a	-0.8017975
145	0x3b0048de	0.0019574682
146	0x3aec10cd	0.0018010378
147	0x3c8fe7fe	0.017566677
148	0xbe938938	-0.28815627
149	0xbce4155d	-0.027842218
150	0x3f86947a	1.0514061
151	0x3f8f4efd	1.119598
152	0x3da23afa	0.07921405
153	0x3ccb16d9	0.024791168
154	0x39b74965	0.00034959163
155	0x3e3aecfe	0.18254468
156	0xbc998fae	-0.01874527
157	0x3b577e03	0.0032881505
158	0xbe620dd1	-0.22075583
159	0x3ead32e7	0.33827898
160	0xbda3547d	-0.07975099
161	0xbc1fee8a	-0.009761462
162	0xbd1bc417	-0.038028803
163	0xbc3d9dc9	-0.011573263
164	0x3fb27d60	1.3944511
165	0xbcd11b40	-0.02552569
166	0x3f6e05cc	0.92977595
167	0xbe7d2768	-0.24722064
168	0xbd1fe840	-0.03903985
169	0x3af33b20	0.0018557049
170	0xbd0b8a27	-0.0340673
171	0xbf69f826	-0.9139427
172	0xbb20aed8	-0.0024518277
173	0x3c68404c	0.014175486
174	0xbe60cc08	-0.21952832
175	0xc05f82f7	-3.4923685
176	0xbebb3436	-0.3656327
177	0xbae7a59c	-0.0017673257
178	0xbb300264	-0.0026856894
179	0x3be9c40e	0.0071339672
180	0x3f3aecbb	0.7301747
181	0xbcc0d30b	-0.023538133
182	0x3ed22b7f	0.4104881
183	0x3e8369ba	0.256666
184	0xbe328da6	-0.17436847
185	0x3c4e93fc	0.012608524
186	0x3a51eeeb	0.0008008319
187	0xbf16fede	-0.58982646
188	0x3cc06750	0.023486763
189	0xbc0d1bf8	-0.008612625
190	0x3d9e7a26	0.07738142
191	0xbfa0bf87	-1.255845
192	0x3f8c5a73	1.0965103
193	0x3a5a4d79	0.00083275844
194	0xbc2ec6ac	-0.010667484
195	0xbc4c74c4	-0.012479011
196	0x3fc4d39e	1.537708
197	0xbc3f949c	-0.011693146
198	0xbe12d2d1	-0.14338233
199	0x3fe561da	1.7920487
200	0xbd53f207	-0.051744487
201	0x3c63563a	0.0138755385
202	0x3c1e8e76	0.00967752
203	0xbd7499f6	-0.05971714
204	0xbb51a953	-0.0031991794
205	0x3c8ece95	0.01743249
206	0xbcc05ac8	-0.023480788
207	0xbf90f00c	-1.1323256
208	0xbe18c3a6	-0.14918384
209	0xbab4f64e	-0.0013806315
210	0xbc938616	-0.018008273
211	0xbc133a8e	-0.0089861285
212	0xc0223c7e	-2.5349422
213	0xbc192072	-0.0093461145
214	0x3c96bf06	0.018401634
215	0x3ecc665f	0.39921853
216	0xbd128be0	-0.035777926
217	0xbac978b8	-0.001537106
218	0xbb97522a	-0.004617949
219	0xbe9a605d	-0.30151644
220	0x3ca85595	0.020548621
221	0x3c5c6392	0.013451474
222	0xbe6807a4	-0.22659165
223	0x3d8fce85	0.07021812
224	0x3f16d2f7	0.58915657
225	0x3c12d398	0.008961581
226	0xbc236ee5	-0.00997517
227	0xbaed7322	-0.0018115977
228	0xbf8f1302	-1.1177676
229	0xbc0c6eb1	-0.008571313
230	0x3ee2abd9	0.44271734
231	0xbf3db69c	-0.74106765
232	0x3d5ec295	0.054384787
233	0xba8c44f9	-0.0010701708
234	0xbaa4f8d8	-0.0012586368
235	0xbe822e4c	-0.25425947
236	0x3c4f7f34	0.012664605
237	0x3a41c420	0.00073915906
238	0xbee07991	-0.43842748
239	0xbef3cf70	-0.476192
240	0xbde644bc	-0.11243579
241	0x3c30bdef	0.010787471
242	0xbc0d7d1c	-0.008635785
243	0xbd964d77	-0.07338994
244	0x3f74263d	0.95370847
245	0xbd1b898c	-0.03797297
246	0x3f4553a7	0.7708077
247	0x3f51ed41	0.82002646
248	0xc010666b	-2.256251
249	0x3d911081	0.07083226
250	0xbd83e420	-0.06439996
251	0xbf57504f	-0.84106916
252	0x3d342bf8	0.043987244
253	0x3c806423	0.015672749
254	0x3c2e9539	0.010655695
255	0x409ff78f	4.9989696

decoder.fc1.bias f4 [64]
0	0xc008b627	-2.1361177
1	0xbd86b9e3	-0.06578424
2	0x403e091a	2.9693055
3	0x3e874b49	0.26424626
4	0xc02cc7f8	-2.6997051
5	0xc0079565	-2.1184933
6	0x401e5653	2.4740188
7	0x3f534d61	0.82539946
8	0x3f707272	0.9392463
9	0x3e82a9d3	0.2552019
10	0x3fa717cc	1.3054137
11	0x4012dabd	2.2946007
12	0xbe6c98cf	-0.23105167
13	0xc01be3e4	-2.4357843
14	0x3faef957	1.3669842
15	0xbfc5b7b8	-1.5446692
16	0x3ed0bb3d	0.4076785
17	0xc05e382c	-3.4721785
18	0x3fcfe7e3	1.6242641
19	0xbfc6ef32	-1.5541747
20	0x3faa0694	1.3283257
21	0xc01a6cce	-2.412891
22	0x404795a8	3.1185093
23	0x4014e691	2.3265727
24	0xc00cde10	-2.2010536
25	0xbf9ff65c	-1.2497058
26	0xbf10a77c	-0.5650556
27	0x3e1a05a9	0.15041222
28	0xc01af833	-2.4213989
29	0xc01dfe14	-2.4686327
30	0x403a473a	2.9105973
31	0x3fd68643	1.6759723
32	0xc0311413	-2.7668502
33	0xc07818d9	-3.8765166
34	0x3ec1d27c	0.378559
35	0xbf5506f8	-0.8321376
36	0x40079d17	2.118963
37	0x3fe2c1c6	1.7715385
38	0x3e329d39	0.17442788
39	0x3f8e5505	1.1119696
40	0xbcfe6829	-0.031055527
41	0xbf4e6edf	-0.80637926
42	0x3f4e2e62	0.80539525
43	0xbeedcb1d	-0.46444026
44	0xbe2b3ef0	-0.16723228
45	0xc065de67	-3.5916994
46	0x3fb97ae9	1.4490634
47	0xbe48fb14	-0.19627029
48	0xbfabd9fb	-1.3425897
49	0xc0661bbc	-3.5954428
50	0xbf05491d	-0.52064687
51	0x3f04f2c9	0.5193296
52	0x3ce5bb4e	0.028043415
53	0xc02115bb	-2.5169513
54	0xbf27939a	-0.654596
55	0x3f95f4fe	1.1715391
56	0xbfc37118	-1.5268888
57	0x3f849cbc	1.0360332
58	0xbe9c8f7f	-0.3057823
59	0x3d6ac556	0.0573171
60	0xbf3176a1	-0.6932164
61	0xc022d838	-2.544447
62	0x3fe6a253	1.8018287
63	0x3ffaa43e	1.9581373

decoder.fc2.weight f4 [51, 64]
0	0x3d8b4739	0.06800694
1	0x3d5f51db	0.054521423
2	0x3deec8e5	0.11659411
3	0xbdad681f	-0.08467125
4	0x3e9e1784	0.30877316
5	0x4158278e	13.509657
6	0x3d4510f5	0.048111875
7	0xbc287bea	-0.01028345
8	0xbcbbebb5	-0.022939542
9	0x3d9e311b	0.0772421
10	0x3c97d766	0.018535327
11	0x3d651413	0.055927347
12	0x3c29f78b	0.01037396
13	0xbdab4a48	-0.083637774
14	0xbcd1f519	-0.025629567
15	0x3e628a76	0.22123131
16	0xbd2d2694	-0.04227312
17	0x3e2a06dc	0.16604179
18	0xbc89833b	-0.016786208
19	0xbcf1ad37	-0.02950154
20	0xbd8e2409	-0.06940467
21	0xbf30092f	-0.68764013
22	0xbd8591fe	-0.065219864
23	0xbd92786c	-0.07151875
24	0xbe445fb6	-0.19177136
25	0xbd8024d5	-0.06257025
26	0x3da4e1bb	0.08050867
27	0xbd1c736d	-0.038196016
28	0x40ee5248	7.447544
29	0x3bacc4b0	0.0052724704
30	0x3cc6937d	0.02424025
31	0xbdd17cd8	-0.1022889
32	0x3e5581bc	0.20850271
33	0x3d1986c0	0.037482023
34	0xbc903dcd	-0.017607594
35	0xbd592595	-0.053014357
36	0x3bc003ee	0.0058598435
37	0xbcd0f45c	-0.025507145
38	0xbd3d360f	-0.046194132
39	0xc07ce420	-3.9514236
40	0x3d4b09e7	0.04956999
41	0x3e90720b	0.28212008
42	0x3c5026dd	0.012704578
43	0xbc9b9c1b	-0.018995335
44	0xbcda6e2e	-0.026663866
45	0xbe06d9ff	-0.13169096
46	0x3c1aab26	0.009440219
47	0x3db1a0bb	0.08673235
48	0xbcf18664	-0.029483028
49	0x3ebf4051	0.37353757
50	0x3c6aa97b	0.014322634
51	0x3e13feb4	0.1445263
52	0x3cde54ba	0.02714001
53	0xbdbc228f	-0.09186279
54	0xbcd19170	-0.025582045
55	0xbd82f3f6	-0.06394188
56	0x3c627abf	0.01382321
57	0xbbb8e1cb	-0.005642151
58	0x3d5d7b8d	0.054072905
59	0x3d2787d9	0.04090104
60	0xbd19e7a1	-0.037574414
61	0xbd0872e8	-0.03331271
62	0x3cf2f341	0.029657008
63	0x3e117e43	0.14208321
64	0x3e1816e3	0.1485248
65	0x3e8e0bdc	0.27743423
66	0xbe08968a	-0.13338676
67	0x3d044597	0.03229293
68	0xc08f685a	-4.481488
69	0xbca8fced	-0.020628417
70	0x3ecdc346	0.40188044
71	0xbc23ce3c	-0.009997901
72	0xbc05a857	-0.008157811
73	0x3d318c9c	0.043346986
74	0x3e8cacd7	0.27475616
75	0xbf90c4a9	-1.1310016
76	0xbd49ae3f	-0.04923844
77	0x3dd5b5ce	0.10435067
78	0x3e820baf	0.2539954
79	0xbdb69c2d	-0.08916507
80	0xbe46418c	-0.19360942
81	0x3e99141f	0.29898164
82	0xbca1abc1	-0.019735219
83	0x3e604145	0.21899898
84	0x3e498f3c	0.19683546
85	0xbe78023b	-0.24219601
86	0xc1122fc9	-9.136666
87	0x3eb9f2d0	0.36318064
88	0x3dfa664d	0.122265436
89	0x3e3025c5	0.17201908
90	0xbce8d70d	-0.028422857
91	0xbc85e2b0	-0.016343445
92	0xbd031eef	-0.032011922
93	0x3d3819e7	0.044946577
94	0xbd61a63b	-0.05509017
95	0xbe6af7be	-0.22946069
96	0xbffc9975	-1.9734331
97	0xbca060ff	-0.019577501
98	0x3ddac993	0.106829785
99	0xbeb6dd03	-0.35715494
100	0xbd96913b	-0.07351919
101	0xbe613183	-0.21991543
102	0x3e103e81	0.14086343
103	0x3e36cc1b	0.17851298
104	0x3d9c3b45	0.07628492
105	0xbed9e941	-0.4256077
106	0xbd9d3e68	-0.07677919
107	0x3cdb4615	0.026766816
108	0x3d73baae	0.059504203
109	0xbff5c5a7	-1.9200944
110	0x3d560a66	0.05225601
111	0xbeb6ba10	-0.3568883
112	0x3d6d3924	0.05791582
113	0xbf046aa1	-0.517252
114	0x3b7641a4	0.0037575746
115	0x3d7167a2	0.058936723
116	0xbcb87eb7	-0.02252136
117	0xbc5ad801	-0.013357163
118	0x3d2a6102	0.04159642
119	0xbeb169d0	-0.3465104
120	0xbe960805	-0.29302993
121	0xbce989f8	-0.028508171
122	0x3ddf98f4	0.10917845
123	0xbb903e3c	-0.00440195
124	0xbe217114	-0.15765792
125	0x3d530ead	0.051527668
126	0xbde84b3e	-0.11342476
127	0x3f0b16f2	0.54331887
128	0xbd49d54b	-0.049275678
129	0xbf2e5e6f	-0.68112844
130	0x3dee2fa9	0.11630184
131	0xbc6644e8	-0.0140545145
132	0xc0005f97	-2.0058343
133	0x3e82c0ca	0.2553771
134	0xbe99986d	-0.29999104
135	0xbdaf67ff	-0.085647576
136	0xbda0191f	-0.078172915
137	0x3de01a80	0.109425545
138	0x3e5a6e4a	0.21331134
139	0xbd881344	-0.066442996
140	0xbb95f0db	-0.0045758313
141	0xbf7bb3b0	-0.98321056
142	0xbc9ec83e	-0.019382592
143	0x3d9c51aa	0.07632764
144	0x3b2c9f73	0.0026340156
145	0xbe38bc9d	-0.180407
146	0x3dff36a2	0.12461592
147	0x3c1a8773	0.009431708
148	0x3df08e16	0.11745851
149	0x3e12e957	0.14346825
150	0xc10142a2	-8.078768
151	0xbeff8117	-0.49903175
152	0xbd5a4c68	-0.053295523
153	0xbd18104c	-0.037124917
154	0x3ee4ea55	0.4471003
155	0xbe253b8a	-0.16135994
156	0xbdb9ac96	-0.09066121
157	0x3f2419d0	0.64101887
158	0xbdf854a0	-0.12125516
159	0xbe7bd79a	-0.24593964
160	0xbe987d2b	-0.29782996
161	0x3c70a7b1	0.014688418
162	0x3bf88d8a	0.007585232
163	0xbf45482f	-0.7706327
164	0x3e47b77c	0.19503587
165	0xbdd60c3f	-0.104515545
166	0x3e4832ec	0.19550675
167	0x3e98ac5a	0.29818994
168	0x3e6270e6	0.2211338
169	0xbfc13c0f	-1.5096453
170	0xbc0017b8	-0.007818155
171	0x3cfb7548	0.030695572
172	0xbe2138ac	-0.15744275
173	0xbf22c6da	-0.63584673
174	0xbddbac9b	-0.10726281
175	0xc06a8684	-3.6644602
176	0xbbc2dc28	-0.005946655
177	0xbf6b0980	-0.9181137
178	0x3d20bb7f	0.03924131
179	0xbd968305	-0.07349209
180	0x3d3985f5	0.045293767
181	0xbd70391c	-0.058648214
182	0xbd336280	-0.04379511
183	0x3deefcc3	0.11669304
184	0xbd0936b5	-0.03349944
185	0x3c5d311c	0.013500478
186	0x3ddae55f	0.1068828
187	0x3bdc3e55	0.0067212977
188	0x3e5f659c	0.21816105
189	0x3ed78d7d	0.42100134
190	0xbd7c255f	-0.061559077
191	0xbe348fd1	-0.17632987
192	0x3d7a8f1d	0.06117164
193	0xbe98c228	-0.2983563
194	0xbf85bd60	-1.0448418
195	0x3f95cdcd	1.170343
196	0xbf850b55	-1.0394083
197	0xbec45282	-0.38344198
198	0xc040d951	-3.013264
199	0xbd9601bc	-0.073245496
200	0xbc49d6d9	-0.01231929
201	0xbe8e2c58	-0.27768207
202	0xbe480fc0	-0.19537258
203	0x3fee96cf	1.8639773
204	0xbe12c76b	-0.14333884
205	0x3e33a86d	0.17544718
206	0xbf247750	-0.64244556
207	0x3eca8dab	0.3956121
208	0x3eae966a	0.34099132
209	0x3e56a9c2	0.20963195
210	0x3ed7ed6c	0.42173326
211	0xbe9734da	-0.2953251
212	0xbf3c68ca	-0.73597395
213	0xbee409a8	-0.44538617
214	0xbeafba4c	-0.3432182
215	0xbf60cde1	-0.87814146
216	0xbeb05855	-0.34442392
217	0x3ede486e	0.43414634
218	0x3f1c3abb	0.61027116
219	0xbe2a6fdf	-0.16644238
220	0x3f18c6ba	0.5967823
221	0xbf0c55e9	-0.5481859
222	0xbe4a6a43	-0.19767098
223	0xbe1741d7	-0.1477121
224	0xbe111d6a	-0.14171377
225	0x3df3edc2	0.11910583
226	0xbe14a64f	-0.14516567
227	0x3e9a11d2	0.3009172
228	0x3d4517a3	0.048118245
229	0xbdd61875	-0.104538836
230	0xbdeadece	-0.11468278
231	0xbf3482dd	-0.7051218
232	0x3e129354	0.14314014
233	0x3e231c75	0.15928824
234	0x3e78b40d	0.24287434
235	0xbb3435d0	-0.0027497895
236	0x3d91783e	0.071030125
237	0x3f172973	0.5904762
238	0x3dee5a87	0.116383605
239	0x3fae6df6	1.3627307
240	0x3e0f62a3	0.1400247
241	0xbe2bf622	-0.16793111
242	0xbeaaaf8a	-0.3333705
243	0xbe3ad1a0	-0.18244028
244	0xbc9b4f8e	-0.018958833
245	0xbf01027e	-0.5039443
246	0xbd7ec4cc	-0.0621994
247	0xbf253615	-0.6453565
248	0xbecdcb62	-0.4019423
249	0x3e253fc6	0.16137609
250	0xbf8c08ea	-1.094022
251	0x3d8a91a6	0.067660615
252	0x3eb891e1	0.36048797
253	0x3f484471	0.78229433
254	0x3ec417ed	0.38299504
255	0x3eaf7780	0.3427086

decoder.fc2.bias f4 [51]
0	0xbf76d3ea	-0.96417105
1	0xbe4bda48	-0.19907486
2	0xbe6b0424	-0.22950798
3	0x3d4870f2	0.048935838
4	0x3faa6ded	1.3314797
5	0x3e4c9368	0.19978106
6	0x3ed445d8	0.41459537
7	0xbf856885	-1.0422522
8	0xbe13579e	-0.14388892
9	0x3e8715d6	0.26383847
10	0x3ee2fa7d	0.44331732
11	0xbe18c654	-0.14919406
12	0x3f33ae92	0.7018825
13	0xbf13ba2f	-0.5770597
14	0xbe472f5d	-0.19451661
15	0xbe6711a0	-0.22565317
16	0x3e86e8ed	0.26349583
17	0xbd8f29ad	-0.06990371
18	0xbf1f802b	-0.62304944
19	0x3e9f7f6e	0.3115191
20	0xbe18d9a0	-0.14926767
21	0x3e13e48f	0.14442657
22	0x3f13792d	0.57606775
23	0x3f5133c9	0.8171964
24	0xbfef4364	-1.8692441
25	0xbfae63f3	-1.3624252
26	0x3e119ca1	0.14219905
27	0xbe53bb2a	-0.20676866
28	0x3f85cc14	1.0452905
29	0xbdf672b2	-0.12033595
30	0xbfc20bc8	-1.5159845
31	0xbfaa4dc7	-1.3304986
32	0x3e0f2c70	0.13981795
33	0x3ee58da1	0.44834617
34	0x3f55d51e	0.83528316
35	0xbfcdcfeb	-1.6079077
36	0x3efac392	0.48977333
37	0xbfa63f76	-1.2988117
38	0x3e12a2a8	0.14319861
39	0x3ef4a7c6	0.4778425
40	0xbf829597	-1.0201901
41	0x3fb061bf	1.377983
42	0x3e3cf812	0.18454006
43	0xbfd44195	-1.6582514
44	0xbfa82903	-1.3137516
45	0xbfa415a7	-1.2819108
46	0xbe93dd8a	-0.28879958
47	0x3f3a7bee	0.7284535
48	0xbfa7bcd9	-1.3104507
49	0xbf05a144	-0.52199197
50	0x3cf6e6b4	0.030139305
