model/vae_hd64_ld16_gamma10000.pth (torch, 42963 bytes, 10 tensors)

encoder.fc1.weight f4 [64, 51]
-0.26528785 0.21319015 0.026328094 -0.057305764 -0.1266686 0.05309653 -0.14656147 0.076319724
0.24627766 -0.34046054 0.044929158 0.14331967 -0.1728583 0.182934 -0.04138513 0.008433884
0.08264952 -0.13650103 -0.30691832 -0.016529365 0.3193895 -0.14357796 -0.043029867 0.068769395
-0.170762 0.23318402 -0.122952804 0.30234486 0.026472487 -0.1547719 -0.29536837 0.008017552
-0.41328833 0.020305956 -0.1951527 -0.21400306 -0.776207 0.23616649 0.6514138 1.4778816
0.26876968 -0.52414864 -0.33444992 -0.5828849 -0.23777431 -0.06318325 -0.6126261 0.09430915
-0.11177217 -0.24092108 -0.1001791 0.6234933 -0.67524385 0.44673997 0.099771485 -0.61547124
0.8276455 -0.013174296 -0.08048445 -0.16727194 -0.03244983 0.03880257 -0.16625424 0.25903523
-0.2241782 0.22243191 -0.39301005 -0.062254455 -0.49879166 0.0026191035 0.02567918 -0.3066383
0.49979702 -2.0923681 0.24093664 -0.106912896 -1.290663 -0.024271121 0.12902816 -0.7226974
0.1482143 0.11550852 -0.44292003 -0.039354287 -0.21334417 -0.37081686 -0.026244871 -0.3628056
-0.110785514 0.49082965 -0.025901025 -0.2968485 0.46084732 0.3068251 -0.60966253 0.19386372
0.3986802 1.5762191 0.5036051 0.092433445 1.8143283 0.06182934 0.083903104 -0.07944637
0.16528118 -0.07210404 0.12834467 -0.40443882 -0.064549394 0.17855543 -0.086996205 -0.43907166
0.2410605 -0.17951486 0.16024156 -0.24733178 0.55070573 -0.21458824 0.40740106 0.12959616
-0.15947609 0.068450935 0.104963206 -0.22821414 -0.56287336 -0.025661085 0.23882537 -0.072490044
-0.091880284 0.13045189 0.0135523565 -0.25220203 0.06062699 0.13960823 -0.02533162 -0.059434853
-0.056662384 0.10236151 0.058342755 -0.12822543 0.3949006 -0.107344985 -0.1735593 0.25826603
-0.14427593 -0.22651981 -0.15791689 0.3139083 -0.28918803 -0.25985217 0.4156037 0.047317095
0.075401716 -0.31965467 -0.15953015 0.025742684 -0.06458616 0.07837888 -0.07505416 0.6498601
-0.049996175 -0.028108317 0.95153606 0.8714803 0.12308288 -0.2592378 -0.14673336 -0.06109768
-0.26383847 -0.13073872 -0.08552324 -0.1731997 -0.11431993 -0.14078589 -0.19313635 -0.17298861
-0.012960862 -0.3493692 -0.13180444 0.1456874 0.031221878 -0.063384876 0.1421488 -0.032188423
-0.053129185 0.007346057 -0.21188204 -0.08663747 -0.06547855 -0.2276169 -0.14597477 -0.09225935
-0.16381595 -0.13915314 0.063757315 -0.19465467 -0.18867812 0.30960953 -0.04523055 -0.14522661
0.107399456 -0.030368669 -0.110992245 -0.07569992 0.011096764 0.11826958 0.00056719664 -0.052328583
-0.7994475 -0.052534807 0.2822175 0.05925166 0.01847915 -0.12542209 0.04743898 0.6743008
-0.091792025 0.60304284 0.24842893 -0.026022132 -0.088628195 0.021363346 0.07328946 -0.14298774
0.7726305 0.20301335 0.04140301 -0.35595566 0.40166 -0.6883487 -0.16549695 0.52462506
-1.1996576 -0.5126112 0.07493454 0.13613573 -0.32890007 0.36805952 0.34584573 0.07492379
-0.33720127 0.5988371 0.07117123 -0.48885316 0.19007888 -1.0664089 0.47525033 -0.742964
-0.07578078 -0.07719788 0.24223018 -0.3315279 -0.6608013 0.36297393 0.37504148 0.16914031
00000000: cfd3 87be 854e 5a3e 04ae d73c 73b9 6abd
00000010: 6ab5 01be bf7b 593d 3614 16be 844d 9c3d
00000020: 3630 7c3e d850 aebe a307 383d 64c2 123e
00000030: c401 31be 0d53 3b3e 7483 29bd 462e 0a3c
00000040: 2744 a93d edc6 0bbe 6624 9dbe 9768 87bc
00000050: 0587 a33e 1a06 13be 1640 30bd f8d6 8c3d
00000060: 3cdc 2ebe cbc7 6e3e aece fbbd f2cc 9a3e
00000070: d4dc d83c 867c 1ebe 863a 97be 0d5c 033c
00000080: 879a d3be ad58 a63c 1cd6 47be 9e23 5bbe
00000090: 80b5 46bf a1d5 713e 0ec3 263f 392b bd3f
000000a0: 2e9c 893e 9b2e 06bf 053d abbe f237 15bf
000000b0: 1c7b 73be 3866 81bd 10d5 1cbf 2825 c13d
000000c0: cfe8 e4bd 04b4 76be b32a cdbd 429d 1f3f
000000d0: c8dc 2cbf 1abb e43e fe54 cc3d 868f 1dbf
000000e0: 93e0 533f 01d9 57bc 08d5 a4bd 5649 2bbe
000000f0: 1dea 04bd 72ef 1e3d 8d3e 2abe 44a0 843e
00000100: f88e 65be 31c5 633e 9d38 c9be 87fe 7ebd
00000110: 9f61 ffbe 44a5 2b3b 255d d23c b2ff 9cbe
00000120: 65e5 ff3e 5ce9 05c0 18b8 763e 26f5 dabd
00000130: 7234 a5bf 3bd4 c6bc f51f 043e b202 39bf
00000140: 7dc5 173e bb8f ec3d 6ac6 e2be f631 21bd
00000150: e576 5abe b5db bdbe 7cff d6bc a8c1 b9be
00000160: 84e3 e2bd 064e fb3e 632e d4bc 87fc 97be
00000170: 2ef4 eb3e 2e18 9d3e d812 1cbf 3684 463e
00000180: d01f cc3e 8cc1 c93f 44ec 003f bf4d bd3d
00000190: e93b e83f c340 7d3d 64d5 ab3d c7b4 a2bd
000001a0: 783f 293e 48ab 93bd c96c 033e 9b12 cfbe
000001b0: 7932 84bd 3cd7 363e 112b b2bd 00ce e0be
000001c0: 90d8 763e bed2 37be 5d16 243e 8b44 7dbe
000001d0: 0dfb 0c3f 05bd 5bbe df96 d03e dbb4 043e
000001e0: b34d 23be 0130 8c3d f3f6 d63d f8b0 69be
000001f0: 7818 10bf 3237 d2bc a38e 743e a975 94bd
00000200: bb2b bcbd 2e95 053e b40a 5e3c a020 81be
00000210: 0254 783d 76f5 0e3e 4284 cfbc f671 73bd
00000220: d116 68bd e9a2 d13d d0f8 6e3d 874d 03be
00000230: 6930 ca3e b0d7 dbbd 87b9 31be 723b 843e
00000240: 12bd 13be cff4 67be f7b4 21be 97b8 a03e
00000250: 7410 94be 580b 85be 02ca d43e 92cf 413d
00000260: 376c 9a3d c7a9 a3be df5b 23be 52e2 d23c
00000270: c045 84bd 1b85 a03d ffb5 99bd 3b5d 263f
00000280: cac8 4cbd 6a43 e6bc de97 733f 5519 5f3f
00000290: e112 fc3d d1ba 84be 4541 16be 9041 7abd
000002a0: d615 87be 5fe0 05be cf26 afbd 435b 31be
000002b0: 9120 eabd 2d2a 10be 89c5 45be ed23 31be
000002c0: cc59 54bc 85e0 b2be bef7 06be 142f 153e
000002d0: 06c5 ff3c eecf 81bd 748f 113e 02d8 03bd
000002e0: fd9d 59bd 31b7 f03b 9bf7 58be fc6e b1bd
000002f0: 9e19 86bd 6814 69be 697a 15be 78f2 bcbd
00000300: 5ebf 27be 297e 0ebe 3293 823d 8e53 47be
00000310: d634 41be 2485 9e3e ab43 39bd 49b6 14be
00000320: 3ff4 db3d b7c7 f8bc e74f e3bd 8f08 9bbd
00000330: 34cf 353c 5237 f23d ecaf 143a 7f56 56bd
00000340: 97a8 4cbf bd2e 57bd d07e 903e deb1 723d
00000350: 9661 973c a66e 00be 604f 423d fa9e 2c3f
00000360: 75fd bbbd 0461 1a3f 2764 7e3e 5e2c d5bc
00000370: b382 b5bd 2f02 af3c c918 963d 616b 12be
00000380: 1dcb 453f bbe2 4f3e 3496 293d d23f b6be
00000390: 61a6 cd3e 9f37 30bf 0878 29be d44d 063f
000003a0: 618e 99bf 7d3a 03bf 4877 993d 2a67 0b3e
000003b0: 9765 a8be 4c72 bc3e b112 b13e a571 993d
000003c0: a5a5 acbe 634d 193f 39c2 913d f64a fabe
000003d0: 0aa4 423e 1680 88bf 0354 f33e e432 3ebf
000003e0: f432 9bbd ec19 9ebd 300b 783e 06be a9be
000003f0: 462a 29bf b8d7 b93e 7005 c03e 1e33 2d3e

encoder.fc1.bias f4 [64]
-1.1074805 0.21612112 0.009228388 0.2704221 -1.3018817 -0.7759129 -0.17532815 -1.6389515
-0.8892831 -1.3358691 -1.2879297 -0.37090993 -0.8110694 -0.18695526 -0.6554187 -0.99062145
-0.7362365 -0.7961195 -1.1482031 0.27465457 0.3776893 -0.33823052 -0.3633712 -1.519113
-0.754835 -0.35823795 -0.22827366 -0.7376736 0.053708624 -1.7496326 -0.036978707 -0.66503584
-0.12933785 -0.84536296 -1.0231464 -0.96486837 -0.9667776 -0.54141706 -1.5196478 -0.5942406
-0.83002204 -1.5561968 -0.048831142 -0.6449471 -0.6369699 0.23243997 -0.5594404 -0.23480989
0.0992527 -0.5227672 -0.7471579 -0.4225684 -0.2912287 -0.56895006 -0.7362754 -0.874217
0.33225325 -1.8792737 0.08550372 -0.23375459 -0.41210118 0.778546 -1.4170403 -0.5983621
00000000: ecc1 8dbf db4e 5d3e aa32 173c c474 8a3e
00000010: 0fa4 a6bf 3aa2 46bf 3989 33be 2ac9 d1bf
00000020: 0fa8 63bf c2fd aabf e1da a4bf e8e7 bdbe
00000030: 3fa2 4fbf 3371 3fbe 85c9 27bf 5e99 7dbf
00000040: ff79 3cbf 7dce 4bbf 52f8 92bf 869f 8c3e
00000050: 7e60 c13e 8d2c adbe ca0b babe 4b72 c2bf
00000060: de3c 41bf f76a b7be 92c0 69be 2dd8 3cbf
00000070: 93fd 5b3d f6f3 dfbf fc76 17bd ca3f 2abf
00000080: 2471 04be b569 58bf 76f6 82bf 9d01 77bf
00000090: bd7e 77bf 4f9a 0abf d283 c2bf 2720 18bf
000000a0: 537c 54bf 7531 c7bf 2a03 48bd 411b 25bf
000000b0: 7610 23bf be04 6e3e 7c37 0fbf 0172 70be
000000c0: 0045 cb3d 12d4 05bf bd45 3fbf e35a d8be
000000d0: ee1b 95be b6a6 11bf 8b7c 3cbf afcc 5fbf
000000e0: 191d aa3e 0a8c f0bf 931c af3d 5d5d 6fbe
000000f0: edfe d2be ca4e 473f 9461 b5bf 422e 19bf

encoder.fc2.weight f4 [16, 64]
-0.06946599 -0.25191993 -0.15329152 0.7588542 0.23606184 0.07678398 0.09115722 -0.13510108
-0.010520933 0.09446285 0.024912046 -0.037168685 -0.7804566 0.18498607 -0.03454013 -0.2834331
-0.072036855 -0.017974334 0.046167705 -0.12108722 -0.06281618 -0.10623844 0.16101812 -0.1362887
-0.07176525 0.19942701 0.030341228 0.17864777 -0.22672817 0.018410422 0.02487515 0.014909956
0.025091898 -0.15714619 -0.12626933 -0.04105246 0.021737782 0.013057452 -0.054236494 -0.030977428
-0.05200431 0.00745255 0.15553269 0.0041519497 0.05187445 -0.097021386 -0.021351477 0.07524149
0.0878193 -0.19839156 0.45419827 0.4297281 0.052060876 -0.22186401 -0.032757066 -0.13145685
-0.09724973 0.009178018 0.00091675203 0.042286195 0.0049515697 -0.20566225 0.10715536 0.028958404
0.06588775 -1.1497066 -0.020003509 0.00046714683 0.16080196 0.019798903 -0.036878236 0.23166506
-0.07175405 0.046566095 0.10902846 0.13849863 0.020943541 -0.21731769 0.14190836 0.06863311
0.038192175 -0.30924374 -0.094310045 0.3994833 0.053030424 -0.0482944 -0.006725156 0.2563879
-0.11891554 1.1398349 0.17486443 -0.091754645 0.06011342 -0.055149425 0.036744434 -0.072162546
-0.00041519475 0.19626257 -0.009739649 -0.048389908 0.057024885 -0.036082685 -0.14273237 -0.1798635
-0.1543761 0.17366001 -0.3492216 0.1605678 -0.1594589 0.03438361 -0.38769567 0.13906835
0.0033034342 -0.15488108 -0.119477 0.022011187 0.26648384 -0.25282127 -0.4762797 -0.13146393
0.12593755 -0.2661639 0.42453763 0.15814006 -0.10211217 0.03831138 -0.09605596 0.34109682
0.008132851 -0.011211471 -0.0050594117 0.006777525 -0.011935125 -0.048231855 0.0006919905 -0.009581598
-0.0030300734 0.007650191 -0.00018800815 -0.009416464 -0.0061158203 0.0019933258 -0.006285449 -0.0025114003
-0.00087973906 0.00015075505 -0.002592505 -0.0010311604 -0.00067132874 -0.0027578683 -0.0017802108 0.0067120083
-0.0075926874 0.012151218 0.009761045 0.024230195 -0.00037955257 0.009361027 0.00051507866 0.0133661665
0.035171404 3.455374e-06 0.0033255704 -0.00046451399 0.0023653936 0.014791142 -0.0073175416 0.0054403134
-0.0025849966 0.00084569043 0.002202309 -0.0065821493 0.011306662 -0.0070094 -0.0006120652 0.0119409
0.0031240617 -0.0033226032 0.010021531 0.0012986446 -0.003162865 -0.0029053027 -0.004732589 0.008795704
5.0191025e-05 0.0026848437 0.0089012245 0.02268182 -0.0032673595 0.0026418925 0.0077582295 -0.0032180052
-0.009392971 -0.0057584634 0.007421423 -0.0044485712 -0.024522386 -0.0136065595 0.0023339575 0.013055294
0.0052734674 -0.017982695 -0.0032631615 -0.0034089796 0.0083486475 0.0020170005 0.008036262 -0.018933773
0.0032739814 0.0019267842 0.0013227394 -0.002249902 0.003224222 -8.8972316e-05 -0.0021161705 0.008498176
-0.0076735104 0.0059709996 -0.0046423296 0.030500839 0.006270566 -0.0056836903 0.001975528 0.013656704
0.0081980545 0.0072340085 0.007307193 0.013312954 -0.009507283 0.0016658364 -0.0013913934 -0.00036190066
-0.016759966 0.011151914 0.005327261 -0.0032265899 -0.005698947 -0.005419665 -0.004682452 -0.010577784
0.0028183798 -0.0069311513 -0.010538104 -0.009450022 0.0025955085 -0.0023127578 -0.015539845 -0.011622353
0.00526751 -0.022240993 -0.008216265 -0.010694346 -0.0009899023 0.002625404 0.0061062593 0.0076469863
00000000: 2f44 8ebd a6fb 80be 74f8 1cbe 4544 423f
00000010: 32ba 713e eb40 9d3d a3b0 ba3d f057 0abe
00000020: fe5f 2cbc bd75 c13d 5914 cc3c 313e 18bd
00000030: 01cc 47bf fd6c 3d3e f479 0dbd 251e 91be
00000040: 0f88 93bd e93e 93bc 591a 3d3d 94fc f7bd
00000050: c5a5 80bd 8a93 d9bd efe1 243e 448f 0bbe
00000060: a9f9 92bd 9836 4c3e 2b8e f83c 71ef 363e
00000070: 6e2b 68be 74d1 963c f8c6 cb3c e348 743c
00000080: 868d cd3c eeea 20be bf4c 01be a026 28bd
00000090: 6f13 b23c ecee 553c 1627 5ebd 60c4 fdbc
000000a0: 7902 55bd 8534 f43b f643 1f3e 140d 883b
000000b0: 4e7a 543d 26b3 c6bd 4be9 aebc 3618 9a3d
000000c0: 9bda b33d 2827 4bbe ad8c e83e 5205 dc3e
000000d0: c93d 553d 5230 63be 462c 06bd a09c 06be
000000e0: de2a c7bd 665f 163c 3052 703a 4a34 2d3d
000000f0: c740 a23b 2099 52be 4574 db3d 2d3a ed3c
00000100: 28f0 863d 9629 93bf 66de a3bc 63eb f439
00000110: 45a9 243e 4f31 a23c a20d 17bd 9b39 6d3e
00000120: caf3 92bd 17bc 3e3d 504a df3d 96d2 0d3e
00000130: ca91 ab3c 8788 5ebe 6d50 113e 848f 8c3d
00000140: 666f 1c3d 3255 9ebe a025 c1bd 1389 cc3e
00000150: 6e36 593d 59d0 45bd b35e dcbb 4645 833e
00000160: fe89 f3bd 1ce6 913f a90f 333e dce9 bbbd
00000170: 7d39 763d 5de4 61bd 5581 163d f5c9 93bd
00000180: 7fae d9b9 0ef9 483e 0c93 1fbc 7f34 46bd
00000190: ed92 693d 70cb 13bd 6f28 12be 232e 38be
000001a0: c514 1ebe eed3 313e 2ccd b2be e36b 243e
000001b0: 3249 23be d4d5 0c3d 0c80 c6be ef67 0e3e
000001c0: 6e7e 583b 2599 1ebe 5bb0 f4bd ce50 b43c
000001d0: 9270 883e ca71 81be efda f3be 7b9e 06be
000001e0: c6f5 003e a246 88be ff5c d93e 78ef 213e
000001f0: 2f20 d1bd 65ec 1c3d fdb8 c4bd 3ea4 ae3e
00000200: a63f 053c 51b0 37bc 6cc9 a5bb 0016 de3b
00000210: 8b8b 43bc c48e 45bd b266 353a 23fc 1cbc
00000220: 3294 46bb 74ae fa3b 0e24 45b9 8347 1abc
00000230: 3867 c8bb 75a2 023b 2bf6 cdbb 4e96 24bb
00000240: 4a9e 66ba 0014 1e39 04e7 29bb 0028 87ba
00000250: 1cfc 2fba 5abd 34bb f655 e9ba 68f0 db3b
00000260: 14cc f8bb e715 473c caec 1f3c 677e c63c
00000270: affe c6b9 fe5e 193c 5806 073a c4fd 5a3c
00000280: e40f 103d e0e2 6736 d0f1 593b 038a f3b9
00000290: b804 1b3b 8c56 723c fdc7 efbb a844 b23b
000002a0: 0c69 29bb 53b1 5d3a 9d54 103b 12af d7bb
000002b0: 943f 393c 1caf e5bb 0073 20ba c4a3 433c
000002c0: 0fbd 4c3b 08c0 59bb 5931 243c 4837 aa3a
000002d0: 1248 4fbb e466 3ebb d513 9bbb db1b 103c
000002e0: 3484 5238 34f4 2f3b 71d6 113c 39cf b93c
000002f0: 3221 56bb 9a23 2d3b bf38 fe3b 2be5 52bb
00000300: fae4 19bc 7eb1 bcbb 692f f33b 52c5 91bb
00000310: 2ce3 c8bc 0cee 5ebc 4ff5 183b dfe5 553c
00000320: 0dcd ac3b 7250 93bc c4da 55bb 3069 5fbb
00000330: c4c8 083c a72f 043b 87aa 033c 001b 9bbc
00000340: 4b90 563b 268c fc3a c55f ad3a 1873 13bb
00000350: 784d 533b a696 bab8 73af 0abb ef3b 0b3c
00000360: 1272 fbbb 60a8 c33b af1e 98bb e5dc f93c
00000370: 5279 cd3b 403e babb dc77 013b 5ec0 5f3c
00000380: 2251 063c 430b ed3b 2d71 ef3b 941e 5a3c
00000390: 6fc4 1bbc 3258 da3a 6a5f b6ba 7cbd bdb9
000003a0: 324c 89bc 84b6 363c 4e90 ae3b 3275 53bb
000003b0: 3bbe babb 7297 b1bb 416f 99bb 714e 2dbc
000003c0: 91b4 383b b61e e3bb 03a8 2cbc 44d4 1abc
000003d0: 6819 2a3b a391 17bb d69a 7ebc af6b 3ebc
000003e0: 149b ac3b be32 b6bc 839d 06bc 5737 2fbc
000003f0: 9cbf 81ba f80e 2c3b 0417 c83b 9293 fa3b

encoder.fc2.bias f4 [16]
-0.054666094 0.04727473 0.011919471 0.013972236 -0.40493006 0.0015113745 0.002585881 -0.0006298937
0.018617077 -0.011255938 -0.007494387 -0.0054489747 -0.0111567965 -0.8346702 0.008796155 -0.00217875
00000000: 8ee9 5fbd 26a3 413d e349 433c ceeb 643c
00000010: fe52 cfbe 5019 c63a e277 293b 731f 25ba
00000020: d782 983c d36a 38bc 7a93 f5bb 508d b2bb
00000030: ffca 36bc f2ac 55bf c01d 103c 5cc9 0ebb

encoder.fc3.weight f4 [16, 64]
0.04006805 -0.17654333 0.18249245 -0.15512726 -0.047831237 -0.232601 -0.0075024823 -0.12855984
0.048643082 0.08070295 0.0861172 0.027436208 0.030846953 0.12481095 0.012529463 0.124370895
-0.09209995 0.13779339 -0.02198975 0.0023754851 -0.024007047 -0.096165575 -0.014991074 0.070555106
-0.045494992 0.18531668 -0.14763053 -0.12061482 -0.074710585 0.046271723 -0.028300663 0.037623115
0.028096294 0.1875131 0.1094462 -0.16986407 0.0069051078 -0.032469664 0.11689435 -0.14573157
0.06837199 -0.0014215992 0.055378873 0.11766167 0.04133262 -0.020754088 -0.11538873 -0.28248
0.060256317 0.20881091 0.07195625 0.28257057 -0.13494208 -0.15497954 0.24097763 0.014329515
-0.08963437 0.006206146 0.14303724 -0.29314372 -0.03168468 -0.12926637 -0.060447127 0.0051691206
0.22506925 0.033287097 -0.20574097 -0.111272216 0.27845684 0.068412304 0.16925451 0.0039753295
-0.20604938 0.11433506 0.16246438 -0.0034109438 0.045655143 -0.046328355 0.115734644 -0.8429045
-0.020966286 -0.4258645 0.09203799 0.020571996 -0.19527802 -0.16639256 -0.03162727 -0.352662
-0.025183551 -0.052256756 0.06589665 0.4848134 0.12060539 -0.05107647 -0.02823941 0.33958882
0.033804893 0.030454755 0.15728015 -0.1381793 0.08815603 -0.030476449 0.121209234 0.11107293
0.07405183 -0.12491185 -0.12167312 0.16400829 -0.013366446 -0.287594 0.008201012 -0.36498263
0.00690316 0.04270582 0.0826829 0.023590298 0.47404447 0.073719375 0.36697793 -0.026350882
0.05291792 0.044969283 -0.082869954 -0.20582049 0.036342524 -0.33709005 -0.085099496 0.104791924
0.00012945035 0.00068729615 0.01250564 -0.003962083 0.031260613 0.013342321 -0.0011271187 -0.005213675
0.0067205727 0.020007327 -0.0016438448 -0.00024183287 0.002562544 0.0058494695 -0.005109156 -0.016562492
0.008359221 -0.0030375707 0.0053115143 0.0013835405 0.0008864091 0.00845978 0.0027068264 -0.012673934
0.0041128024 0.0019037094 -0.0021311066 0.027363013 0.00531166 0.003987292 -0.000298438 0.0045127906
-0.024807138 0.01265481 -0.0053308057 -0.0004391534 -0.008413418 -0.008527114 -0.0016786567 -0.0065493262
0.0009732957 -0.00053682 2.103275e-05 -0.0023641263 -0.006010514 -0.002068539 0.002057553 -0.001482256
0.0010228613 -0.00068079267 0.001039244 -0.011453214 0.0041971733 -0.0064553884 -0.007791863 0.023820816
-0.007731988 -0.0019035552 -0.002997427 -0.012761966 0.00401409 0.0031851542 0.0022103619 -0.00069750554
0.0024030763 -0.0042467955 -0.012788166 0.00056056207 0.028045604 -0.0008686369 0.005818368 -0.0031753317
-0.007159914 0.0007120474 0.0012125705 -0.0016904974 0.0022021173 0.003067498 -0.0045645996 -0.02187049
0.0014213764 0.0039691725 -0.0038103014 0.0016015925 -0.0033631225 0.0014748643 -0.00076449616 -0.0001920459
-0.004275401 0.004000947 0.0100869695 0.014015297 -0.0026934724 -0.018306065 0.0007656836 -0.0010250713
0.0039928528 0.0034628378 -0.007278337 -0.007964508 0.0069731968 0.006789102 -0.006338254 0.004841263
0.0011830516 -0.0018915011 0.0032922288 -0.0014295181 -0.0090550585 -0.003650069 0.0050518024 -5.331514e-05
0.0027824775 -0.011018317 -0.002065054 -0.0028796333 0.001453999 -0.0014208341 -0.013340851 0.011035025
-0.002862369 -0.011521185 -0.003451486 0.007777524 0.002167168 -0.001078845 0.000782788 0.003999888
00000000: 651e 243d c6c7 34be 4ddf 3a3e aed9 1ebe
00000010: b0ea 43bd f52e 6ebe 62d7 f5bb 31a5 03be
00000020: f83d 473d 9747 a53d 375e b03d e6c1 e03c
00000030: c0b2 fc3c e29c ff3d 6048 4d3c 2bb6 fe3d
00000040: e69e bcbd b619 0d3e d923 b4bc 07ae 1b3b
00000050: 6daa c4bc 75f2 c4bd 1f9d 75bc 327f 903d
00000060: f558 3abd a8c3 3d3e 752c 17be e704 f7bd
00000070: dd01 99bd 6b87 3d3d cbd6 e7bc b21a 1a3d
00000080: 332a e63c 6f03 403e 5425 e03d d9f0 2dbe
00000090: 3e44 e23b e9fe 04bd 4e66 ef3d a83a 15be
000000a0: 9d06 8c3d f454 baba f5d4 623d 9af8 f03d
000000b0: 654c 293d 7a04 aabc ed50 ecbd 38a1 90be
000000c0: 54cf 763d 87d2 553e cc5d 933d 17ad 903e
000000d0: 422e 0abe f5b2 1ebe d7c2 763e 58c6 6a3c
000000e0: 3992 b7bd ed5c cb3b 5b78 123e ef16 96be
000000f0: ccc7 01bd 675e 04be 6897 77bd ba61 a93b
00000100: 8e78 663e 0d58 083d c3ad 52be b0e2 e3bd
00000110: e591 8e3e c01b 8c3d 0e51 2d3e 7b43 823b
00000120: 9cfe 52be 8028 ea3d 105d 263e 248a 5fbb
00000130: e300 3b3d cdc2 3dbd 4906 ed3d 97c8 57bf
00000140: 7dc1 abbc e90a dabe 6a7e bc3d 9a86 a83c
00000150: f6f6 47be d062 2abe 998b 01bd 1d90 b4be
00000160: bc4d cebc 2e0b 56bd d3f4 863d 7639 f83e
00000170: f5ff f63d 9035 51bd 5656 e7bc 96de ad3e
00000180: 0077 0a3d 407c f93c 0c0e 213e e07e 0dbe
00000190: 268b b43d bfa9 f9bc 8c3c f83d 347a e33d
000001a0: 7ca8 973d c9d1 ffbd c22f f9bd caf1 273e
000001b0: f0fe 5abc 853f 93be 8a5d 063c 01df babe
000001c0: e733 e23b 4cec 2e3d a755 a93d 7140 c13c
000001d0: f5b5 f23e 2ffa 963d 88e4 bb3e cedd d7bc
000001e0: 76c0 583d b631 383d b9b7 a9bd 9bc2 52be
000001f0: e6db 143d 1197 acbe a548 aebd 269d d63d
00000200: 10bd 0739 aa2b 343a 75e4 4c3c 5cd4 81bb
00000210: 210b 003d c099 5a3c d4bb 93ba 7ad7 aabb
00000220: 4038 dc3b 68e6 a33c 4776 d7ba 8494 7db9
00000230: 5bf0 273b e8ac bf3b b56a a7bb 10ae 87bc
00000240: 1df5 083c fb11 47bb 360c ae3b ea57 b53a
00000250: e85d 683a e49a 0a3c 0365 313b 55a6 4fbc
00000260: b0c4 863b e385 f93a 09aa 0bbb 6628 e03c
00000270: 6f0d ae3b d4a7 823b ac77 9cb9 08e0 933b
00000280: 5738 cbbc 1f56 4f3c 0aae aebb 2c3e e6b9
00000290: 6fd8 09bc 4fb5 0bbc 5f06 dcba bb9b d6bb
000002a0: c524 7f3a 61b9 0cba 7d6f b037 75ef 1abb
000002b0: d9f3 c4bb 5390 07bb 03d8 063b 4248 c2ba
000002c0: 8811 863a 3977 32ba 3e37 883a 43a6 3bbc
000002d0: 7188 893b b987 d3bb e252 ffbb df23 c33c
000002e0: 9e5c fdbb b780 f9ba 7b70 44bb 9117 51bc
000002f0: a188 833b 05be 503b b8db 103b ced8 36ba
00000300: ee7c 1d3b b428 8bbb 7585 51bc aff2 123a
00000310: e5bf e53c 3cb5 63ba 02a8 be3b 3a19 50bb
00000320: b69d eabb b1a8 3a3a 1def 9e3a ae93 ddba
00000330: 6651 103b 1408 493b a392 95bb be29 b3bc
00000340: 7a4d ba3a d50f 823b 40b6 79bb 87ec d13a
00000350: d567 5cbb 3c50 c13a 7868 48ba ee5f 49b9
00000360: aa18 8cbb 601a 833b d143 253c 6ba0 653c
00000370: f884 30bb 9af6 95bc 28b8 483a af5b 86ba
00000380: 7ad6 823b c7f0 623b 1e7f eebb 917d 02bc
00000390: 6a7f e43b 1e77 de3b 21b1 cfbb 75a3 9e3b
000003a0: a010 9b3a 3fec f7ba 6fc2 573b ab5e bbba
000003b0: ab5b 14bc ff35 6fbb 9789 a53b b29e 5fb8
000003c0: 3a5a 363b 2c86 34bc db55 07bb 3bb8 3cbb
000003d0: 1c94 be3a 483b baba 9693 5abc 40cc 343c
000003e0: 9596 3bbb 5ac3 3cbc 5332 62bb 9ada fe3b
000003f0: 0c07 0e3b 0868 8dba 0334 4d3a 7e11 833b

encoder.fc3.bias f4 [16]
-0.9187839 -2.1330323 -0.0075892466 -0.019681597 -2.6011722 -0.02177647 -0.019863259 -0.024347948
-0.012191394 -0.01868596 -0.016663358 -0.012710545 -0.015397933 -2.226678 -0.015374671 -0.015381097
00000000: 6c35 6bbf 9a83 08c0 37af f8bb 4d3b a1bc
00000010: 9b79 26c0 9164 b2bc 46b8 a2bc 5975 c7bc
00000020: 6abe 47bc 4c13 99bc 9881 88bc e43f 50bc
00000030: 9d47 7cbc e481 0ec0 0be6 7bbc ff00 7cbc

decoder.fc1.weight f4 [64, 16]
0.0020146905 1.0219551 0.012902829 0.007459714 -0.1524802 -0.0034651165 0.0035529577 -0.007671329
-0.009768877 0.0036780923 -0.0010150345 -0.005939132 -0.0014376931 0.70017385 0.00095731945 -0.0014847527
0.3087597 -1.9684544 0.029801344 0.022454914 -4.848146 -0.0033871727 0.026814332 0.03194848
0.09750636 -0.021348547 -0.021972083 -0.03535488 -0.05266316 -2.5281875 0.002455796 -0.016644934
0.12021458 -0.46004218 0.0036164268 -0.0008761755 -2.780336 0.001659042 -0.005532584 0.004513822
0.009024966 0.008382542 -0.0018701395 7.392932e-05 0.0044897315 0.3795193 -0.0013661683 -0.004648333
0.15651624 -0.08295702 0.008670241 0.00083808834 -2.8165832 -0.0017991258 -0.0008965207 0.00026034797
0.0011564553 0.0073765926 0.0028820967 -0.0006848569 0.00894848 -0.6770009 -0.0027402255 -0.0031584296
-0.15564832 -0.42321128 -0.007981068 -0.004823245 2.0717578 0.007694785 -0.004457973 0.0042062653
0.0007527423 -0.017239815 -0.01058081 0.011970692 -0.014196443 -0.4050096 -0.003466551 -0.010981261
0.010409586 -2.3410592 -0.011549708 -0.011485906 0.63833976 0.013049893 -0.0037403086 0.01949754
0.0057778615 0.008101135 -0.016250188 0.019815499 0.00071403873 -1.1378934 0.001558277 -0.011005897
0.11326425 -0.5539368 0.00035852706 -0.0030591371 -1.719744 0.0002736178 -0.0023013111 0.0050823633
-0.0014934873 0.006779369 -0.0004330451 0.00010606629 0.005656103 0.4084862 -0.0070811706 -0.008045791
0.21065901 1.539694 0.01110836 0.0026003015 -2.9200597 -0.0033641118 0.009870337 -0.02656514
-0.01667492 -0.021454941 -0.0066521415 -0.004911102 -0.0036889787 -2.612156 0.016207697 -0.0052564917
0.07863274 0.3661381 -0.00048488885 0.0023280247 -1.2562848 0.0037764155 -0.0035704486 0.005395572
-0.0031869826 0.010589067 0.0022769775 0.002415306 0.0053262888 0.24491496 -0.0037347877 0.008516127
-0.10929547 0.7252964 0.0067135366 0.0010510805 1.2732363 -0.005383742 -0.00095271267 -0.0031590243
-0.015874228 0.007643346 -0.0067415372 -0.0045428793 -0.002570124 -0.85870564 0.0016730878 -0.0014636753
0.16773877 -0.19216523 0.014066463 -0.008063287 -3.5447528 0.0019615283 -0.0023773806 -0.001078823
0.003534858 0.007479792 -0.0025002775 0.004564298 0.004078641 0.1627974 -0.0026760804 -0.0046609845
-0.038266663 1.0257027 0.0038067484 0.0022486309 2.1672986 0.001199706 -0.008370636 -0.0046011577
-0.0011111245 -0.0062476145 -0.0073568504 0.0025079786 -0.0017070726 2.0786233 -0.013065753 0.012641081
0.08047901 1.7595739 0.0075658006 0.007807266 -2.5126922 -0.017674 -0.0032825056 -0.029095592
-0.010118734 -0.010323684 0.0077484963 -0.0041106595 0.004204588 -1.8340248 0.004863553 0.004793441
0.0016654878 -0.32592773 -0.0014161544 -0.0027330513 -0.10973762 -0.0043491744 0.0054644584 0.0009807154
0.00033300792 -0.0029539198 0.0011974471 -0.0028654656 -0.0018839618 -1.9330034 0.010308862 -0.0027806482
0.045952875 -0.63284737 -0.0017829478 0.0012415571 -1.2703115 -0.0036317457 -0.0046845637 -0.0023607677
-0.00060728844 0.007448499 0.0054000113 0.007023641 -0.00072556897 -1.2464949 -0.0024219577 -0.012461358
0.1565718 1.1072545 0.004247263 0.001885955 -2.1716623 -0.015042594 0.008714092 -0.021862265
-0.009753202 -0.012953835 0.001755425 -0.013563062 -0.0011404327 -1.9362074 0.017189797 0.0067684525
00000000: e608 043b 6dcf 823f 6366 533c 9e70 f43b
00000010: c523 1cbe 0217 63bb bdd8 683b c65f fbbb
00000020: a40d 20bc 260c 713b e80a 85ba 0d9d c2bb
00000030: fa70 bcba 983e 333f 9ff4 7a3a 099c c2ba
00000040: c015 9e3e 50f6 fbbf f321 f43c 5ef3 b73c
00000050: 0324 9bc0 54fb 5dbb bba9 db3c 69dc 023d
00000060: 6ab1 c73d 26e3 aebc ccfe b3bc 47d0 10bd
00000070: 53b5 57bd d3cd 21c0 6cf1 203b f55a 88bc
00000080: 1033 f63d a68a ebbe 9301 6d3b 24af 65ba
00000090: 06f1 31c0 3674 d93a ae4a b5bb afe8 933b
000000a0: 73dd 133c ee56 093c 781f f5ba 800a 9b38
000000b0: 991e 933b 5b50 c23e 0011 b3ba 0b51 98bb
000000c0: cb45 203e 5fe5 a9bd a00d 0e3c 28b3 5b3a
000000d0: e642 34c0 a5d0 ebba 7c04 6bba 507f 8839
000000e0: 3394 973a 58b7 f13b 8fe1 3c3b f887 33ba
000000f0: a59c 123c ee4f 2dbf 5b95 33bb a8fd 4ebb
00000100: 4662 1fbe 26af d8be 07c3 02bc 500c 9ebb
00000110: ae97 0440 8924 fc3b 3014 92bb b6d4 893b
00000120: ae53 453a 833a 8dbc 225b 2dbc b920 443c
00000130: 3398 68bc 6b5d cfbe 132f 63bb bfea 33bc
00000140: f88c 2a3c ead3 15c0 fd3a 3dbc 622f 3cbc
00000150: 3c6a 233f 38cf 553c f71f 75bb 4eb9 9f3c
00000160: 3754 bd3b 9fba 043c 1d1f 85bc 1d54 a23c
00000170: 542e 3b3a 7ea6 91bf 1a3f cc3a 1452 34bc
00000180: 16f7 e73d cdce 0dbf b0f8 bb39 ce7b 48bb
00000190: 9220 dcbf 5c74 8f39 98d1 16bb f489 a63b
000001a0: 1ec1 c3ba 7825 de3b 540a e3b9 e86f de38
000001b0: d556 b93b 1a25 d13e 2a09 e8bb 7ed2 03bc
000001c0: ffb6 573e b114 c53f d7ff 353c d269 2a3b
000001d0: 42e2 3ac0 6e78 5cbb 32b7 213c 239f d9bc
000001e0: d899 88bc 46c2 afbc 35fa d9bb 4fed a0bb
000001f0: cbc2 71bb 902d 27c0 01c6 843c a63e acbb
00000200: 340a a13d 7476 bb3e ae38 feb9 c691 183b
00000210: f1cd a0bf bd7d 773b 30fe 69bb 57cd b03b
00000220: b2dc 50bb c47d 2d3c 5839 153b 1c4a 1e3b
00000230: 2688 ae3b fdca 7a3e 57c3 74bb 3a87 0b3c
00000240: 4ed6 dfbd 06ad 393f 3afd db3b 69c4 893a
00000250: 68f9 a23f 1a6a b0bb 77bf 79ba a207 4fbb
00000260: ab0a 82bc 0975 fa3b 1de8 dcbb 6fdc 94bb
00000270: 876f 28bb 22d4 5bbf 834b db3a cbd8 bfba
00000280: b6c3 2b3e f6c6 44be 0677 663c e01b 04bc
00000290: 3bdd 62c0 fc8c 003b d4cd 1bbb 4b67 8dba
000002a0: 14a9 673b 0b19 f53b b2db 23bb 1b90 953b
000002b0: 1fa6 853b 5db4 263e 2e61 2fbb 2cbb 98bb
000002c0: 81bd 1cbd 3a4a 833f a47a 793b c45d 133b
000002d0: 05b5 0a40 743f 9d3a fe24 09bc 4fc5 96bb
000002e0: 27a3 91ba cab8 ccbb bc11 f1bb e65c 243b
000002f0: dabf dfba 2a08 0540 bd11 56bc 891c 4f3c
00000300: 2ed2 a43d b839 e13f 89ea f73b 18d4 ff3b
00000310: f3cf 20c0 10c9 90bc 4e1f 57bb e159 eebc
00000320: 0cc9 25bc ab24 29bc 19e7 fd3b b6b2 86bb
00000330: a4c6 893b 53c1 eabf 715e 9f3b 4c12 9d3b
00000340: 7f4c da3a 00e0 a6be 429e b9ba fe1c 33bb
00000350: 1ebe e0bd 8583 8ebb 330f b33b 598b 803a
00000360: 9197 ae39 8d96 41bb a8f3 9c3a 89ca 3bbb
00000370: 45ef f6ba a86c f7bf 80e6 283c 893b 36bb
00000380: 1539 3c3d 4902 22bf cdb1 e9ba bebb a23a
00000390: 9199 a2bf 9502 6ebb f880 99bb 1cb7 1abb
000003a0: 7032 1fba 8a12 f43b 94f2 b03b 9226 e63b
000003b0: 1c34 3eba 258d 9fbf b5b9 1ebb b92a 4cbc
000003c0: 5c54 203e 84ba 8d3f a02c 8b3b 2632 f73a
000003d0: 84fc 0ac0 3675 76bc 8dc5 0e3c 7e18 b3bc
000003e0: e5cb 1fbc 523c 54bc 4a16 e63a 9b37 5ebc
000003f0: 927a 95ba a5d5 f7bf 9ed1 8c3c e5c9 dd3b

decoder.fc1.bias f4 [64]
0.6606407 -2.019798 2.0451465 2.7570004 -3.9501853 -0.6178759 1.5227153 -0.8299589
1.5311747 -1.3236945 1.7879572 -2.6510234 -0.044885267 1.6204336 1.8482044 -0.62872493
-1.5252926 0.7756213 0.31230816 -0.21951768 2.004248 0.23895161 1.7618918 0.25812057
1.7257317 -1.9619054 0.42877 0.75784236 0.37553212 1.3363882 -2.1034179 0.23478186
-0.3268119 2.231623 1.170958 1.401741 0.2037291 0.46926492 2.1193955 1.3593167
2.0707002 -0.37875384 0.09781309 -1.6612581 2.3463874 -0.12834038 1.5920384 -0.84274733
0.90875006 0.8753566 -0.65879095 -1.44017 1.5909334 1.5500894 -0.55589664 2.0461185
-1.4625429 0.61342376 0.5693769 0.8347614 0.5920159 -2.132551 0.9415757 -0.19731261
00000000: c01f 293f 5f44 01c0 aee3 0240 b272 3040
00000010: d6cf 7cc0 1d2d 1ebf 56e8 c23f 3078 54bf
00000020: 88fd c33f d26e a9bf c8db e43f 5eaa 29c0
00000030: 9dd9 37bd 5e6a cf3f f691 ec3f 1ef4 20bf
00000040: ca3c c3bf 1e8f 463f dbe6 9f3e 3ec9 60be
00000050: 9945 0040 bbaf 743e ac85 e13f 6128 843e
00000060: c7e4 dc3f b71f fbbf be87 db3e f501 423f
00000070: bf45 c03e c50e ab3f 669e 06c0 a86a 703e
00000080: e453 a7be e9d2 0e40 f4e1 953f 406c b33f
00000090: 5c9e 503e 7e43 f03e 2da4 0740 17fe ad3f
000000a0: 5a86 0440 06ec c1be 3b52 c83d 1ba4 d4bf
000000b0: 362b 1640 a96b 03be eac7 cb3f 4abe 57bf
000000c0: d8a3 683f 5f17 603f 86a6 28bf 7e57 b8bf
000000d0: b5a3 cb3f 5469 c63f 3e4f 0ebf 9bf3 0240
000000e0: 9b34 bbbf 5709 1d3f afc2 113f ecb2 553f
000000f0: 5b8e 173f b77b 08c0 1b0b 713f 510c 4abe

decoder.fc2.weight f4 [51, 64]
-0.120814994 0.029552285 -0.11001041 -0.0475605 0.045411713 0.044475704 -0.33643964 -0.05115669
-0.11368627 -0.10739988 0.154167 0.077204525 0.40365613 -0.15674123 -0.036339488 -0.100394405
-0.14691338 0.021860804 0.22259174 -0.1216247 -0.22716543 -0.06276961 -0.3412158 -0.11929986
0.18256176 0.27446678 -0.44636562 0.037116967 -0.31055 -0.14643577 0.7155706 -0.41992885
0.08588933 0.24323605 0.09159141 0.1216755 -0.1350508 -0.020531572 -0.040707354 0.083615825
0.32133144 0.07772746 -0.049419608 0.24859887 -0.18923365 0.24976152 0.48741823 -0.14404033
0.02363794 0.30510104 0.057671096 -0.24173035 0.014297303 0.9402562 -0.07764938 0.043784767
-0.07148498 0.17210288 -0.010804427 -0.085493326 0.20396854 -0.39650297 0.065288715 0.087938204
0.1492256 -0.02821756 0.20191246 -0.06765533 0.04091124 0.055401806 -0.2600597 -0.035494477
-0.27529314 -0.19365984 0.10040423 -0.18579064 -0.45407262 0.17788078 -0.019249277 0.0152795175
-0.10251541 -0.06227235 -0.08981011 0.05764266 -0.0023223544 -0.1220073 -0.3971827 0.7036396
0.041152045 -0.0017004188 0.14367446 0.06299892 0.29142523 0.15522742 1.3341032 0.533697
-0.092765495 0.4884918 0.10116483 0.57296824 0.0430482 -0.079592094 -0.01440485 -0.12879324
0.3759349 -0.021217443 0.32679248 0.064789936 0.04416886 -0.028706674 -0.07035685 -0.08297882
0.022100305 0.009187793 0.056877073 1.0110701 0.15773757 -1.3791776 -0.0057171844 0.07763401
-0.030136148 0.0032239633 -0.02737929 0.08406797 0.25196823 0.3705014 -0.15162048 -0.31820238
-0.13354123 -0.015202328 0.32064715 -0.23208103 -0.0007238408 0.07288254 0.1284074 0.18837625
0.07123808 -0.638386 -0.09613635 0.05708749 -0.16794924 0.023070805 0.16982737 0.33632416
-2.3714733 0.09300793 -0.096619576 0.05744336 -0.18427528 -0.06728665 0.0668027 0.04295753
-0.26454657 -4.6193795 -0.046837404 -0.13410819 -0.16812119 -0.023448851 0.6408748 -0.526998
-0.3266697 0.071932554 -0.026965015 0.22282796 0.1462182 -0.15507892 -0.018194301 -0.06685713
-0.27678895 -0.08431065 0.15261817 0.012548865 0.27560177 0.13188301 -0.21076733 0.009809465
-0.11033253 -0.1576173 -0.52231 -1.5327638 0.026848182 -0.45509332 -0.10525219 0.2816793
0.038644135 -0.079554275 0.021326626 -0.0029104357 0.07427028 -0.29531333 -0.038845316 -0.036812074
-0.23177138 -0.00070847315 -0.9072553 -0.08858173 -0.005578184 0.29995295 -0.31549123 0.031247053
-0.774221 -0.56214446 0.98636144 -0.06573353 0.04434333 -0.2482535 -0.58868504 -0.16223419
0.008097114 -0.06388491 0.6014004 0.24198109 -0.21960866 -0.119326636 -0.5666712 -0.029188808
-0.2399563 -0.30665696 0.028445078 0.31374797 1.1388404 0.37420678 -0.6092318 1.0526358
0.117584005 1.0314658 0.02140868 0.44817147 -0.12779044 -0.20524646 -0.17924137 -2.3606577
0.7427149 -0.10409651 -0.2024554 0.23333308 -0.6505267 -0.03968467 -1.0780735 -0.19088623
0.20670898 1.142668 0.28291947 -0.16090748 1.9973522 -1.3173572 -0.3154438 -0.24035582
0.08121798 0.21940848 0.21229503 0.20013188 0.26328227 0.29760855 0.016545083 0.055996474
00000000: da6d f7bd a217 f23c 234d e1bd cdce 42bd
00000010: a201 3a3d 282c 363d d141 acbe ad89 51bd
00000020: 59d4 e8bd 78f4 dbbd f4dd 1d3e 681d 9e3d
00000030: 04ac ce3e c680 20be b7d8 14bd 959b cdbd
00000040: 7670 16be 6e15 b33c 17ef 633e 5f16 f9bd
00000050: 0e9e 68be 5a8d 80bd d6b3 aebe 7c53 f4bd
00000060: 78f1 3a3e e986 8c3e 098a e4be f607 183d
00000070: 6900 9fbe 42f3 15be a32f 373f ea00 d7be
00000080: bfe6 af3d df12 793e 4794 bb3d 0131 f93d
00000090: c24a 0abe d431 a8bc c1bc 26bd c63e ab3d
000000a0: 8e85 a43e 932f 9f3d 376c 4abd b490 7e3e
000000b0: 77c6 41be 7cc1 7f3e e28e f93e 4f7f 13be
000000c0: 5aa4 c13c 3436 9c3e 8738 6c3d 2988 77be
000000d0: 3c3f 6a3c a1b4 703f a306 9fbd a857 333d
000000e0: b866 92bd bd3b 303e 0d05 31bc 2017 afbd
000000f0: 21dd 503e 7002 cbbe 17b6 853d f218 b43d
00000100: 98ce 183e 8328 e7bc 24c2 4e3e e18e 8abd
00000110: 8b92 273d 01ed 623d 8c26 85be a862 11bd
00000120: 39f3 8cbe c44e 46be bca0 cd3d e73f 3ebe
00000130: 357c e8be 6126 363e a9b0 9dbc f156 7a3c
00000140: 99f3 d1bd 4b11 7fbd 5dee b7bd b61a 6c3d
00000150: a432 18bb f7de f9bd 885b cbbe ba21 343f
00000160: 0c8f 283d 96e0 deba 661f 133e 9405 813d
00000170: b035 953e f0f3 1e3e e5c3 aa3f 5ea0 083f
00000180: d6fb bdbd 991b fa3e 822f cf3d 0cae 123f
00000190: 4f53 303d 2e01 a3bd 5202 6cbc 60e2 03be
000001a0: 8a7a c03e 34d0 adbc 5851 a73e 96b0 843d
000001b0: 68ea 343d 422a ebbc 4117 90bd cdf0 a9bd
000001c0: b30b b53c 6688 163c eff7 683d bf6a 813f
000001d0: f585 213e e488 b0bf 3857 bbbb 94fe 9e3d
000001e0: 15e0 f6bc 2149 533b 884a e0bc d42b ac3d
000001f0: fb01 813e 5cb2 bd3e 6642 1bbe 6ceb a2be
00000200: 08bf 08be 2f13 79bc dd2b a43e a6a6 6dbe
00000210: 22c0 3dba 7143 953d 3b7d 033e b4e5 403e
00000220: 45e5 913d 446d 23bf 22e3 c4bd 92d4 693d
00000230: e3fa 2bbe fcfe bc3c 3ae7 2d3e ae32 ac3e
00000240: 38c6 17c0 f17a be3d 7ce0 c5bd bb49 6b3d
00000250: a9b2 3cbe 95cd 89bd dbcf 883d 3cf4 2f3d
00000260: a672 87be f5d1 93c0 94d8 3fbd a853 09be
00000270: f627 2cbe ce17 c0bc 5f10 243f 57e9 06bf
00000280: 4041 a7be 6051 933d bce5 dcbc 032d 643e
00000290: 39ba 153e 02cd 1ebe 370c 95bc 64ec 88bd
000002a0: 48b7 8dbe 10ab acbd f047 1c3e c199 4d3c
000002b0: ad1b 8d3e 570c 073e 64d3 57be e1b7 203c
000002c0: 06f6 e1bd 6e66 21be 1cb6 05bf 9b31 c4bf
000002d0: b8f0 db3c fe01 e9be 768e d7bd 4538 903e
000002e0: 5049 1e3d 5aed a2bd 2db5 ae3c 02bd 3ebb
000002f0: 041b 983d 4f33 97be 441c 1fbd 42c8 16bd
00000300: 7a55 6dbe d4b8 39ba e241 68bf 576a b5bd
00000310: 33c9 b6bb 6f93 993e 1188 a1be d2f9 ff3c
00000320: 5933 46bf b3e8 0fbf 2f82 7c3f 4d9f 86bd
00000330: 5aa1 353d 2a36 7ebe 10b4 16bf b820 26be
00000340: c2a9 043c 17d6 82bd 60f5 193f e4c9 773e
00000350: 18e1 60be 8661 f4bd 5d11 11bf 5e1d efbc
00000360: 1bb7 75be 2402 9dbe a705 e93c 93a3 a03e
00000370: 86c5 913f 0898 bf3e 9ef6 1bbf c5bc 863f
00000380: e2cf f03d 1207 843f 4261 af3c bb76 e53e
00000390: 7fdb 02be 212c 52be 0d8b 37be 0415 17c0
000003a0: 9022 3e3f 8d30 d5bd 7850 4fbe deee 6e3e
000003b0: eb88 26bf 648c 22bd 50fe 89bf ae77 43be
000003c0: 85ab 533e f242 923f d2da 903e eec4 24be
000003d0: 3da9 ff3f 299f a8bf da81 a1be d61f 76be
000003e0: 9d55 a63d 9eac 603e de63 593e 5fef 4c3e
000003f0: efcc 863e 2660 983e 8e89 873c 8f5c 653d

decoder.fc2.bias f4 [51]
0.54109424 0.4032753 -0.56025183 0.061563928 -0.1778627 0.5207465 -0.040224843 0.19273482
-0.18642604 0.056191675 0.1331662 -0.1891751 -0.014609199 0.020018132 0.12302247 0.25988802
-0.22657858 0.5320189 0.46538958 -0.2979261 -0.18982795 -0.09169613 0.16502994 0.112245485
-0.114107184 -0.35904709 -0.3673893 0.57773805 -0.2599038 -0.3944068 -0.18678346 -0.1858679
-0.8944747 -0.13440889 0.11735268 0.021361921 0.070721515 0.06710085 -0.34111512 0.4347595
-0.34697777 0.17148024 -0.02818858 -0.15451765 0.65407103 -1.0721124 -0.03867045 0.20559295
0.22723523 -0.17388937 0.48018235
00000000: 2785 0a3f 1a7a ce3e aa6c 0fbf 752a 7c3d
00000010: a421 36be a54f 053f cec2 24bd 475c 453e
00000020: 78e6 3ebe 3e29 663d b85c 083e 1eb7 41be
00000030: 6c5b 6fbc 11fd a33c 34f3 fb3d 0b10 853e
00000040: 3704 68be 6432 083f 8b47 ee3e c589 98be
00000050: 4262 42be 2ecb bbbd 9cfd 283e f6e0 e53d
00000060: 07b1 e9bd 05d5 b7be 731a bcbe a4e6 133f
00000070: 1c12 85be b0ef c9be 2a44 3fbe 2854 3ebe
00000080: 4bfc 64bf 7ca2 09be 9a56 f03d 32ff ae3c
00000090: 71d6 903d 2c6c 893d a4a6 aebe cc98 de3e
000000a0: 12a7 b1be 8498 2f3e bdeb e6bc e039 1ebe
000000b0: 3371 273f fb3a 89bf e864 1ebd f586 523e
000000c0: 5ab0 683e 0e10 32be 76da f53e
