model/angles/vae_angle_hd128x64_ld32.pth (torch, 158143 bytes, 32 tensors)

encoder.0.weight f4 [128, 47]
-0.28882444 -0.25034198 -0.2362251 -0.8722054 -0.028047033 -0.9723186 0.18437396 -0.12146477
0.17490645 -0.0040090047 0.59865224 -0.02620115 -0.25803554 -0.18463708 -0.21119547 0.055480815
0.16348861 0.14761892 0.33817545 0.18246555 0.14746834 -0.03625296 0.16538881 -0.47987387
0.10051121 -0.08556666 0.0435735 -0.2632062 0.82700413 0.045575228 -0.07551749 0.091341294
-0.316151 -0.03378912 0.18390498 -0.11845264 0.004859907 0.17802578 -0.14781213 -0.11124709
-0.19006072 -0.032863516 0.1172044 0.1907667 0.037407685 2.3652346e-05 -0.054475125 -0.40171063
-0.123603664 1.0681242 -0.0109561095 0.10528126 0.094282314 -0.0060435967 0.084213205 0.0762188
-0.07709984 -0.019875176 0.08599909 -0.072185345 0.005214815 0.25407025 0.0069317627 0.006469945
-0.18046859 -1.0865058 0.61001956 1.1641433 0.005509126 -0.13456443 0.17061378 0.013194646
-2.3073502e-05 0.10214375 0.13569933 -0.04996159 -0.04113726 0.083874315 0.052796707 0.02476226
0.0482076 -0.11204905 -0.030176187 -0.04955742 -0.11184322 -0.021330403 0.124104336 0.08465716
-0.04065723 -0.13400106 -0.086443156 0.04889441 8.23476e-05 -0.07592584 -0.38832256 -0.17749311
-0.19714555 -0.09547813 0.079616226 0.182907 0.073358305 -0.061339274 0.046335876 -0.059183355
0.04055689 0.068952024 -0.011236856 -0.082124315 -0.14524843 -0.069413 -0.14106047 -0.19890174
-0.0276815 0.03168092 0.13575135 0.074099906 -0.021269565 0.1283746 -1.1890218 -0.26712897
1.2570549 -0.2083093 0.09526255 -0.05289692 -0.069013774 0.118626066 -0.032294206 0.04643104
-0.16221647 0.10490069 -0.04184978 -0.16451707 0.10610704 0.008832058 -0.022767171 -0.23761263
0.00342134 0.022612829 0.23499462 0.00017724762 0.058684956 -0.9901924 0.2556738 -0.17893648
-0.06288434 0.2903371 0.058738552 -0.370044 -0.113082 0.4806686 -0.1448698 -0.25047258
0.30917394 -0.08697374 -0.07167137 -0.058244918 0.2608801 0.1383716 0.041013654 -0.70667416
-0.51876974 -0.57881254 -0.24869709 0.44438893 -0.4115053 -0.039931584 -0.11528523 -0.2938123
-0.8020424 0.2898645 -0.050688434 0.025835235 0.3697619 0.9683349 0.24545011 -0.25029987
-0.3923826 -0.26550132 -0.24167733 -0.39356261 0.5006304 0.03710886 0.21907815 -0.46743515
-0.047948495 -0.19806553 0.00036173916 0.15101218 0.0697797 0.04229773 0.2184677 -0.15082215
-0.06302493 -0.02323887 -0.16540097 -2.1813602 -0.35700455 -0.0037036426 -0.13489625 0.071729995
-0.14542572 0.28684038 -0.22507642 0.00436681 -0.042839862 0.002443204 -0.047587167 0.0035659366
-0.25548562 -0.0581041 -0.10413079 -0.037248526 0.016065788 0.002876735 0.22943361 -0.08631224
-0.14482239 0.0066441363 0.08244558 0.1625911 -0.040205844 0.11809106 0.017247504 -0.04449007
-0.10338837 0.046127398 -0.055143066 0.3505826 -0.11993444 -0.00678061 -0.35552108 0.12071775
0.044047717 5.4687203e-05 -0.13920671 -0.38778934 0.15492792 -0.057496563 -0.011719937 0.24709238
-0.0077840122 -0.07244681 0.04928509 0.062474307 -0.55664325 -0.117862105 -0.65306765 -0.16635826
0.0246458 -0.19503556 0.3294816 -0.14151128 -0.37439698 0.11237024 0.20154005 0.010205243
00000000: cce0 93be d32c 80be fee4 71be da48 5fbf
00000010: e4c2 e5bc dfe9 78bf 87cc 3c3e 85c2 f8bd
00000020: ad1a 333e f85d 83bb 4641 193f cba3 d6bc
00000030: 3c1d 84be 8111 3dbe a043 58be da3f 633d
00000040: 8f69 273e 6a29 173e 5525 ad3e 40d8 3a3e
00000050: f101 173e fc7d 14bd af5b 293e 07b2 f5be
00000060: d2d8 cd3d 933d afbd 207a 323d f7c2 86be
00000070: 8bb6 533f 17ad 3a3d eaa8 9abd 2511 bb3d
00000080: 8bde a1be 7666 0abd 9651 3c3e 4c97 f2bd
00000090: db3f 9f3b 644c 363e 105c 17be 84d5 e3bd
000000a0: 479f 42be e59b 06bd dc08 f03d 5958 433e
000000b0: cd38 193d 0769 c637 4f21 5fbd 04ad cdbe
000000c0: eb23 fdbd 4bb8 883f 4181 33bc b49d d73d
000000d0: 1617 c13d 5d09 c6bb f977 ac3d 9a18 9c3d
000000e0: 85e6 9dbd 44d1 a2bc 4a20 b03d e9d5 93bd
000000f0: 0ae1 aa3b 7f15 823e d723 e33b d501 d43b
00000100: c2cc 38be 9f12 8bbf 3e2a 1c3f a602 953f
00000110: e685 b43b 42cb 09be 61b5 2e3e 5b2e 583c
00000120: f88d c1b7 be30 d13d c4f4 0a3e 86a4 4cbd
00000130: 8b7f 28bd 4cc6 ab3d 5c41 583d 39da ca3c
00000140: 5575 453d f979 e5bd 0d34 f7bc b9fc 4abd
00000150: 0f0e e5bd 19bd aebc 6a2a fe3d bc60 ad3d
00000160: 3288 26bd 9337 09be 1c09 b1bd 8145 483d
00000170: 08b2 ac38 027f 9bbd 37d2 c6be c1c0 35be
00000180: 86e0 49be 0a8a c3bd d50d a33d f94b 3b3e
00000190: e13c 963d e43e 7bbd b0ca 3d3d 3f6a 72bd
000001a0: fb1e 263d b836 8d3d ca1a 38bc cb30 a8bd
000001b0: 01bc 14be 6728 8ebd 2872 10be e6ac 4bbe
000001c0: 50c4 e2bc dac3 013d 6702 0b3e b1c1 973d
000001d0: 833d aebc a274 033e de31 98bf 21c5 88be
000001e0: 2de7 a03f 084f 55be 0319 c33d 71aa 58bd
000001f0: 1857 8dbd 39f2 f23d ee46 04bd 792e 3e3d
00000200: 131c 26be 2cd6 d63d ad6a 2bbd 2a77 28be
00000210: a64e d93d 56b4 103c 3882 babc ba50 73be
00000220: 8f38 603b 8a3e b93c 6ea2 703e 8cdb 3939
00000230: a35f 703d 407d 7dbf ade7 823e 203b 37be
00000240: 81c9 80bd 10a7 943e d697 703d 6876 bdbe
00000250: 8997 e7bd 321a f63e c058 14be f13d 80be
00000260: 0c4c 9e3e 4a1f b2bd 70c8 92bd 3992 6ebd
00000270: 1492 853e 49b1 0d3e effd 273d 99e8 34bf
00000280: 18ce 04bf 0f2d 14bf 73aa 7ebe f286 e33e
00000290: d3b0 d2be 4d8f 23bd aa1a ecbd 916e 96be
000002a0: a752 4dbf 1f69 943e ad9e 4fbd 6aa4 d33c
000002b0: 6f51 bd3e cce4 773f 4657 7b3e 4e27 80be
000002c0: 5fe6 c8be caef 87be 437a 77be 0a81 c9be
000002d0: 5029 003f 76ff 173d 0656 603e a953 efbe
000002e0: a465 44bd b1d1 4abe cfa7 bd39 f0a2 1a3e
000002f0: a9e8 8e3d 6240 2d3d ffb5 5f3e 1f71 1abe
00000300: 3713 81bd 715f bebc df5e 29be 689b 0bc0
00000310: 4dc9 b6be d0b8 72bb 3e22 0abe 2de7 923d
00000320: 7bea 14be bedc 923e 6f7a 66be 7517 8f3b
00000330: da78 2fbd 291e 203b c3ea 42bd 7db2 693b
00000340: 03cf 82be 91fe 6dbd 8642 d5bd e991 18bd
00000350: 669c 833c 9b87 3c3b a5f0 6a3e 79c4 b0bd
00000360: 524c 14be 0eb7 d93b 3ad9 a83d 487e 263e
00000370: e2ae 24bd bad9 f13d a34a 8d3c 383b 36bd
00000380: 48bd d3bd 15f0 3c3d b2dd 61bd 907f b33e
00000390: 30a0 f5bd e12f debb dc06 b6be de3a f73d
000003a0: 616b 343d f05f 6538 348c 0ebe 538c c6be
000003b0: 6da5 1e3e 8481 6bbd fb04 40bc c905 7d3e
000003c0: 0711 ffbb fe5e 94bd 2adf 493d 0fe5 7f3d
000003d0: 2c80 0ebf b061 f1bd 712f 27bf d259 2abe
000003e0: fde5 c93c 67b7 47be d0b1 a83e 55e8 10be
000003f0: f6b0 bfbe 5e22 e63d 8460 4e3e e433 273c

encoder.0.bias f4 [128]
-0.00013445866 0.00017459577 0.00013380888 0.00059163466 0.00025634328 -7.382766e-05 -0.00024118682 0.00036579656
-9.378221e-05 6.3131374e-06 -0.00027580088 0.0007195426 6.2011095e-06 -0.00016005122 0.00033230364 0.00039727977
0.0005016722 0.00016331204 -0.0002445976 0.00020038564 -0.00016950569 0.0003487611 6.2954e-05 0.0001340932
-4.0199404e-05 -6.047698e-05 -0.00016586232 -2.0571744e-05 0.00027791644 -0.0005078276 -0.00032534008 -0.0001121011
0.00022941742 9.2312184e-05 0.00014717839 -0.00019924123 4.117749e-05 9.1530135e-05 -2.1790576e-05 6.494814e-05
0.0001920251 0.000121986945 -6.112014e-05 0.0002683524 -6.9041365e-05 -6.563948e-05 0.00014265651 0.00014789973
0.00020192159 1.2526121e-05 0.00024924817 -0.00010327497 -0.000833076 9.852034e-05 -0.00012485373 0.0020453192
-0.00024430244 9.845968e-05 -0.00023128359 -6.440788e-05 0.00015064659 -0.0003611653 -1.6481426e-05 5.0500643e-05
-7.575474e-05 -0.0004274107 0.00022244676 6.622086e-05 5.1443792e-05 0.00042749543 0.00025455776 -0.00018946153
0.00014724785 -0.00019195056 -0.0002619246 -4.2184325e-05 -0.00015467635 0.00018977099 -0.0006325104 0.0006379066
-3.4409284e-05 -5.204196e-05 0.00013068432 -5.8529404e-05 -5.2749587e-05 -0.00010132227 -5.5311757e-05 -0.00015269188
0.00021280572 -0.000100038014 -5.6765803e-06 0.00025360935 -0.00019670601 0.00014509118 0.00025368296 0.00014294949
-8.82769e-05 0.00015152976 -0.00036094157 0.00034497905 0.00022554811 -3.5364596e-05 2.4710818e-05 -0.00018054494
-8.360395e-06 0.0002842875 8.8349996e-05 -0.00012326315 5.6739198e-05 5.6037556e-05 5.858134e-05 -0.00016418565
-0.00034299027 7.372078e-05 -0.0002702173 -0.00023292984 -2.940929e-05 0.00032026938 -0.00026636495 -0.00018274608
0.00033843808 -8.8269386e-05 -0.00023990718 -0.00014187308 -5.4120075e-05 4.9346567e-05 1.824594e-05 2.86227e-05
00000000: 79fd 0cb9 b213 3739 0c4f 0c39 ee17 1b3a
00000010: d065 8639 ecd3 9ab8 18e7 7cb9 62c8 bf39
00000020: f1ac c4b8 70d5 d336 5e99 90b9 b09f 3c3a
00000030: 2013 d036 6cd3 27b9 0a39 ae39 fd49 d039
00000040: a782 033a be3e 2b39 563d 80b9 9c1e 5239
00000050: 56bd 31b9 ecd9 b639 2c06 8438 5f9b 0c39
00000060: c89b 28b8 aaa8 7db8 54eb 2db9 7c91 acb7
00000070: 50b5 9139 bc1f 05ba 6892 aab9 d217 ebb8
00000080: c58f 7039 ba97 c138 e653 1a39 69eb 50b9
00000090: feb5 2c38 def3 bf38 e8ca b6b7 c434 8838
000000a0: 585a 4939 3ed3 ff38 a02d 80b8 a6b1 8c39
000000b0: 4dca 90b8 eda7 89b8 1196 1539 8815 1b39
000000c0: eaba 5339 4827 5237 86ad 8239 5495 d8b8
000000d0: c962 5aba b49c ce38 2beb 02b9 c30a 063b
000000e0: b815 80b9 237c ce38 b784 72b9 b812 87b8
000000f0: e3f6 1d39 c95a bdb9 9841 8ab7 a7d0 5338
00000100: 84de 9eb8 1816 e0b9 9940 6939 0ee0 8a38
00000110: 5ac5 5738 7721 e039 2a76 8539 31aa 46b9
00000120: 8b66 1a39 5646 49b9 ed52 89b9 13ef 30b8
00000130: 9e30 22b9 43fd 4639 0ecf 25ba 3039 273a
00000140: b052 10b8 a147 5ab8 4e08 0939 787d 75b8
00000150: 703f 5db8 fb7c d4b8 8cfe 67b8 ea1b 20b9
00000160: 9a24 5f39 80cb d1b8 7479 beb6 dff6 8439
00000170: de42 4eb9 9e23 1839 c000 8539 b6e4 1539
00000180: 4d21 b9b8 f6e3 1e39 c23c bdb9 4ede b439
00000190: 1c81 6c39 7254 14b8 144a cf37 aa50 3db9
000001a0: a043 0cb7 6c0c 9539 8b48 b938 3340 01b9
000001b0: 40fb 6d38 de09 6b38 3cb5 7538 4029 2cb9
000001c0: 60d3 b3b9 8b9a 9a38 f4ab 8db9 a13e 74b9
000001d0: f8b3 f6b7 d4e9 a739 e6a6 8bb9 879f 3fb9
000001e0: 6470 b139 441d b9b8 988f 7bb9 c4c3 14b9
000001f0: fdfe 62b8 79f9 4e38 dc0e 9937 c81a f037

encoder.1.weight f4 [128]
0.91243184 0.7279854 0.6747885 0.7317904 0.85253704 0.8024225 0.6388445 0.70154387
0.6986815 0.61105263 0.7726825 0.80244535 0.6447807 0.81847626 0.95057654 0.7787216
0.8830876 1.1687313 0.7727858 0.8964314 0.654005 0.8322475 0.9390951 0.822168
0.67193365 0.74477565 0.80209213 0.7153657 0.63566023 1.1553894 0.783289 0.740179
1.145765 0.9250892 0.72800744 0.9054487 0.6996401 0.7211107 0.9705306 0.7229984
0.7416259 0.7659063 0.6659066 0.7551974 0.72880626 0.7054635 0.64127415 0.81339157
0.86366445 0.6507252 0.6096297 0.8020041 0.7493423 0.7600322 0.7487229 1.163337
0.879627 1.0731454 1.024686 0.796036 0.74588066 1.0075858 0.60079515 0.61649144
0.593006 0.7454483 0.8083347 0.6462528 0.9249592 0.9102403 0.7741559 0.7600728
0.7182965 0.76146305 1.1704872 0.60962325 0.656337 0.7950841 1.276706 0.6917825
0.9697278 0.77413636 0.6854041 0.6619018 0.5991883 0.7753752 0.79040956 0.97876275
0.7682458 0.70148504 0.6980416 0.58721673 0.9250367 0.72556424 1.1461437 0.76791185
1.1347235 0.84903806 0.9403966 0.9282904 0.9451094 0.78476644 0.88026583 0.7107518
0.86381036 0.71578944 0.58173597 0.6782802 0.87860173 0.857018 0.9899731 0.62256175
1.186486 0.6612344 0.70990485 0.72450674 0.6663378 0.7466879 1.2040454 0.89762723
0.70140827 0.7776256 0.9460245 0.7053154 0.6671937 0.97437733 0.7300444 0.69375336
00000000: 2295 693f 405d 3a3f f0be 2c3f 9e56 3b3f
00000010: de3f 5a3f 906b 4d3f 508b 233f 6198 333f
00000020: cadc 323f f26d 1c3f 85ce 453f 0f6d 4d3f
00000030: 5910 253f a987 513f fc58 733f 4c5a 473f
00000040: 0712 623f fd98 953f 4ad5 453f 877c 653f
00000050: df6c 273f 2c0e 553f 8968 703f 9a79 523f
00000060: d803 2c3f 9ea9 3e3f e955 4d3f 3522 373f
00000070: a1ba 223f cde3 933f a185 483f 5f7c 3d3f
00000080: 6da8 923f a5d2 6c3f b25e 3a3f 7ccb 673f
00000090: 9d1b 333f b69a 383f b274 783f 6c16 393f
000000a0: 32db 3d3f 6f12 443f db78 2a3f 9e54 413f
000000b0: 0c93 3a3f 4299 343f 8b2a 243f 6e3a 503f
000000c0: 1d19 5d3f ed95 263f b110 1c3f 2450 4d3f
000000d0: e6d4 3f3f 7891 423f 4eac 3f3f 3ae8 943f
000000e0: 3c2f 613f d45c 893f e928 833f 04c9 4b3f
000000f0: 09f2 3e3f 92f8 803f b6cd 193f 62d2 1d3f
00000100: 3ecf 173f b3d5 3e3f 06ef 4e3f d370 253f
00000110: 20ca 6c3f 8205 693f 152f 463f 2294 423f
00000120: 48e2 373f 3eef 423f 86d2 953f 4510 1c3f
00000130: b405 283f a28a 4b3f 1a6b a33f a818 313f
00000140: 1540 783f cd2d 463f a576 2f3f 6572 293f
00000150: 6864 193f fd7e 463f 4858 4a3f 3290 7a3f
00000160: c2ab 443f 8694 333f dbb2 323f d653 163f
00000170: 35cf 6c3f 94be 393f d6b4 923f df95 443f
00000180: 9f3e 913f 8f5a 593f d5bd 703f 71a4 6d3f
00000190: b1f2 713f 74e6 483f 1a59 613f d4f3 353f
000001a0: ad22 5d3f fa3d 373f a6ec 143f c5a3 2d3f
000001b0: 0bec 603f 8865 5b3f e16e 7d3f 3560 1f3f
000001c0: c6de 973f a846 293f 53bc 353f 4679 393f
000001d0: 1d95 2a3f f026 3f3f 291e 9a3f e6ca 653f
000001e0: 7e8f 333f 7912 473f a92e 723f 8d8f 343f
000001f0: 35cd 2a3f cb70 793f 31e4 3a3f d299 313f

encoder.1.bias f4 [128]
-0.18650943 -0.38831922 -0.42232564 -0.10471187 -0.36289614 -0.15928453 -0.19039446 -0.24569476
-0.0001231383 0.07143542 -0.26022607 -0.9137755 -0.08817815 -0.21959214 -0.7825172 -0.5629709
-0.21503869 -0.58115584 -0.11275872 -1.1765378 -0.26016846 -0.5906088 -0.6601429 -0.89600456
-0.08949627 -0.34074846 -0.7975704 -0.14200601 0.12275328 -0.59365094 -0.29434323 -0.071247734
-0.61170137 -0.24370009 -0.4416229 -0.16516183 -0.6083151 -0.76695466 -0.4673142 -0.1990495
-0.17839687 -0.17965136 -0.4773272 -0.21613571 -0.16213831 -0.07864998 -0.211968 -0.4246636
-0.7779444 -0.13250381 -0.1276675 -0.26037604 -1.056431 -0.09363311 -0.15118036 -0.5462679
-0.4279892 -0.35647154 -0.60739493 -0.48459408 -0.15438358 -0.49950606 0.07894512 -0.5240356
0.09338118 -0.15556744 -0.86312705 -0.07930794 -0.29277316 -0.24442528 -0.09157839 -0.20803232
-0.6772853 -0.16672193 -0.58059764 0.016975742 -0.0049210764 -0.6148069 -0.5804468 -0.16160509
-0.6302585 -0.119129136 -0.26260874 -0.36432278 -0.098004274 -0.15045357 -0.89891946 -1.1979631
-0.17247564 -0.09821331 -0.027613485 -0.13837388 -0.33968028 -0.13872005 -0.5998907 -0.27735665
-0.42119935 -0.22398339 -0.18697304 -0.6300501 -0.19422612 -0.20946646 -1.0978656 -0.12128303
-0.5167901 -0.15795729 -0.09102385 -0.095049545 -1.1761147 -0.17066713 -0.7521255 0.11036122
-0.629614 -0.009009466 -0.30186033 -0.13247591 -0.30876118 -0.12784508 -0.61648804 -0.16550702
-0.29077098 -0.20964822 -0.37008992 -0.15396482 -0.18314701 -0.18941677 -0.17519654 -0.04889906
00000000: 54fc 3ebe c7d1 c6be 113b d8be 2d73 d6bd
00000010: 86cd b9be 7c1b 23be c4f6 42be 6897 7bbe
00000020: b01e 01b9 bc4c 923d 5a3c 85be 31ed 69bf
00000030: bf96 b4bd c3dc 60be 0c53 48bf dc1e 10bf
00000040: 1a33 5cbe a1c6 14bf 0bee e6bd ca98 96bf
00000050: cd34 85be 2332 17bf 20ff 28bf 8e60 65bf
00000060: d249 b7bd 9576 aebe 932d 4cbf 066a 11be
00000070: 1266 fb3d 82f9 17bf 28b4 96be 55ea 91bd
00000080: 7698 1cbf 848c 79be 661c e2be 2f20 29be
00000090: 8aba 1bbf 2457 44bf cf43 efbe a2d3 4bbe
000000a0: abad 36be 87f6 37be 3b64 f4be ae52 5dbe
000000b0: 9607 26be 3e13 a1bd 240e 59be 826d d9be
000000c0: 5d27 47bf 14af 07be 45bb 02be 0250 85be
000000d0: 2239 87bf b7c2 bfbd 06cf 1abe 37d8 0bbf
000000e0: 6721 dbbe 7083 b6be 3c7e 1bbf b71c f8be
000000f0: bb16 1ebe 42bf ffbe fbad a13d 3227 06bf
00000100: a23e bf3d 124d 1fbe e5f5 5cbf 346c a2bd
00000110: 5de6 95be 9f4a 7abe 738d bbbd 6d06 55be
00000120: 9262 2dbf 27b9 2abe 0ca2 14bf b610 8b3c
00000130: fb40 a1bb fc63 1dbf 2998 14bf ce7b 25be
00000140: 9f58 21bf faf9 f3bd a774 86be 8488 babe
00000150: 77b6 c8bd 8010 1abe 961f 66bf db56 99bf
00000160: 749d 30be 0f24 c9bd ad35 e2bc e2b1 0dbe
00000170: 93ea adbe a10c 0ebe 7092 19bf b101 8ebe
00000180: 71a7 d7be e75b 65be dc75 3fbe f74a 21bf
00000190: 36e3 46be 607e 56be dc86 8cbf 3d63 f8bd
000001a0: 5b4c 04bf 8ebf 21be b66a babd 56a9 c2bd
000001b0: ed8a 96bf 5dc3 2ebe 4c8b 40bf 1005 e23d
000001c0: 622e 21bf 709c 13bc 708d 9abe c4a7 07be
000001d0: f215 9ebe d2e9 02be 29d2 1dbf ac7a 29be
000001e0: efdf 94be 06ae 56be 6d7c bdbe f4a8 1dbe
000001f0: e48a 3bbe 78f6 41be b966 33be 614a 48bd

encoder.1.running_mean f4 [128]
-1.2248359 1.4538034 0.08832167 2.767598 0.13486674 0.082202956 -0.45824292 1.4869895
-0.23911509 0.82899696 0.23683928 -0.19243509 0.23975186 -1.2144191 1.5536193 1.7690036
-0.87085223 -0.80976903 1.4438789 1.369815 -0.04394178 0.8161969 0.866435 -0.05731953
0.10528968 -1.3218302 -0.15351479 2.8894334 0.72748315 0.08303986 0.540686 3.1368704
-1.0457752 1.4654433 -0.21849424 -0.6675686 -1.7562686 -0.9557946 -2.0510232 -0.955213
-2.9335856 0.41136894 0.69857574 1.0630966 2.8271964 2.4754426 0.62259996 0.4124508
-0.29227832 0.55582887 0.40725043 0.015473291 -1.0477843 -0.5136789 2.2529376 -0.175826
-0.09922643 -1.0298826 1.8262041 0.120240405 -0.12804423 1.5873997 1.0891007 0.0457927
-0.2698155 2.7885382 0.16217206 0.22092374 0.34481263 -2.6273406 0.0763402 -0.10413478
0.76408935 -2.9391816 0.124963745 -0.5645391 -0.5304518 0.7806167 0.4989054 2.3774927
2.19777 -0.2828425 -2.4740825 -0.68354565 0.6863579 2.5173903 0.36759496 1.7127459
-1.9262705 0.36789456 -0.12852031 1.3467628 0.22301182 -0.6936436 -0.5616635 -0.100937836
-1.159636 0.30073196 1.8115783 0.58741164 1.484734 0.06337106 1.1101538 -1.0165217
0.3180299 2.7276201 0.6950174 0.10675776 1.3154442 -2.0089192 0.49548534 0.6210798
1.1195222 -0.019422207 -0.6473234 -0.92974895 -1.7511249 -0.78439 0.5029547 -0.8654075
0.7028505 -0.46956322 -0.40339828 -0.96833855 0.35583052 0.27488047 -1.5159285 -1.0520722
00000000: 6cc7 9cbf 3b16 ba3f fee1 b43d 5320 3140
00000010: 821a 0a3e 065a a83d d19e eabe ac55 be3f
00000020: 96da 74be 2539 543f ff85 723e b40d 45be
00000030: 8381 753e 1672 9bbf ffdc c63f b66e e23f
00000040: 2cf0 5ebf 064d 4fbf 06d1 b83f 1956 af3f
00000050: 4cfc 33bd 48f2 503f afce 5d3f e2c7 6abd
00000060: 1ea2 d73d bb31 a9bf fb32 1dbe 7aec 3840
00000070: 563c 3a3f cd10 aa3d 666a 0a3f 7cc2 4840
00000080: f6db 85bf a593 bb3f f4bc 5fbe c7e5 2abf
00000090: 69cd e0bf f4ae 74bf f743 03c0 d788 74bf
000000a0: debf 3bc0 f39e d23e dcd5 323f 8d13 883f
000000b0: c9f0 3440 a76d 1e40 b662 1f3f c02c d33e
000000c0: 81a5 95be cd4a 0e3f 2183 d03e b083 7d3c
000000d0: cc1d 86bf 7680 03bf 2130 1040 bb0b 34be
000000e0: 3a37 cbbd 31d3 83bf 0ec1 e93f 9a40 f63d
000000f0: 071e 03be ea2f cb3f a767 8b3f 2091 3b3d
00000100: 4225 8abe 6977 3240 6f10 263e d539 623e
00000110: 488b b03e 5926 28c0 4058 9c3d 9e44 d5bd
00000120: 5c9b 433f 8d1b 3cc0 feec ff3d a285 10bf
00000130: b0cb 07bf 7fd6 473f 8770 ff3e d728 1840
00000140: 44a8 0c40 bbd0 90be 5e57 1ec0 d9fc 2ebf
00000150: 27b5 2f3f ec1c 2140 6835 bc3e 423b db3f
00000160: 0890 f6bf ad5c bc3e d49a 03be b962 ac3f
00000170: 365d 643e a192 31bf 2ec9 0fbf 7fb8 cebd
00000180: f46e 94bf 8af9 993e cce1 e73f 9c60 163f
00000190: c40b be3f b0c8 813d 8519 8e3f 621d 82bf
000001a0: d1d4 a23e 5491 2e40 a9ec 313f d0a3 da3d
000001b0: 7a60 a83f 2292 00c0 41b0 fd3e 16ff 1e3f
000001c0: 814c 8f3f 521b 9fbc fdb6 25bf 0704 6ebf
000001d0: dc24 e0bf c8cd 48bf a4c1 003f 598b 5dbf
000001e0: 03ee 333f 976a f0be 388a cebe 09e5 77bf
000001f0: 6b2f b63e 22bd 8c3e f209 c2bf 4daa 86bf

encoder.1.running_var f4 [128]
0.6300229 0.23341194 0.28627107 0.121686816 0.25916818 0.25568286 0.28999215 0.23843147
0.3480252 0.24546432 0.31444794 0.38458318 0.2787463 0.4404627 0.18745078 0.24918935
0.09858599 0.47108027 0.24898763 0.9186162 0.16506085 0.24361944 0.38902405 0.32093287
0.17165285 0.23718765 0.23057085 0.1159458 0.39915857 0.89074236 0.23515518 0.1155657
0.6820552 0.07754422 0.23628199 0.068778776 0.2377494 0.26819295 0.6494227 0.41465437
0.12294496 0.17082871 0.14898187 0.1808125 0.12222284 0.10257745 0.1648725 0.20051041
0.22392769 0.18053113 0.29000422 0.39162102 0.2966971 0.2838612 0.08892276 0.94422936
0.4673397 0.49557433 0.31737402 0.18014097 0.34904313 0.2875015 0.2539057 0.17463106
0.32333443 0.1017892 0.33803192 0.31002855 0.48222187 0.14338173 0.11677958 0.29998398
0.38809964 0.11489641 0.69903356 0.27060154 0.29915178 0.20890008 0.92242014 0.103106976
0.30087402 0.35024533 0.2980125 0.21544339 0.3115185 0.082706824 0.28703055 1.1154966
0.20963441 0.1905626 0.320501 0.24752651 0.18171291 0.2841946 0.7564298 0.31551036
0.40121755 0.21735944 0.06688753 0.19934087 0.059813943 0.35869074 1.0035592 0.076670654
0.25584343 0.11637731 0.3155739 0.30957186 0.97200984 0.12439451 0.35245275 0.4233278
0.4304945 0.26582214 0.34544852 0.1164731 0.18054383 0.072052 0.8396173 0.0643123
0.23360029 0.23000734 0.59152454 0.14326023 0.23292704 0.14610839 0.14261433 0.4661069
00000000: 2e49 213f 8a03 6f3e 1f92 923e f036 f93d
00000010: b1b1 843e dde8 823e da79 943e 6127 743e
00000020: 5c30 b23e 005b 7b3e 52ff a03e 16e8 c43e
00000030: d6b7 8e3e 5484 e13e 19f3 3f3e 7e2b 7f3e
00000040: 74e7 c93d 6f31 f13e 9df6 7e3e 6e2a 6b3f
00000050: b605 293e 6077 793e 292e c73e 5051 a43e
00000060: c4c5 2f3e 52e1 723e c41a 6c3e fe74 ed3d
00000070: 835e cc3e b107 643f 85cc 703e b6ad ec3d
00000080: 2b9b 2e3f 81cf 9e3d e8f3 713e e3db 8c3d
00000090: 9474 733e 9650 893e 9140 263f 944d d43e
000000a0: 91ca fb3d b9ed 2e3e b48e 183e e926 393e
000000b0: f84f fa3d 2014 d23d 56d4 283e 9a52 4d3e
000000c0: 4d4d 653e 27dd 383e 6f7b 943e 8d82 c83e
000000d0: afe8 973e 4156 913e 231d b63d 04b9 713f
000000e0: 2647 ef3e ebbb fd3e d97e a23e e076 383e
000000f0: c8b5 b23e 6633 933e eeff 813e 7cd2 323e
00000100: 178c a53e db76 d03d 8512 ad3e 10bc 9e3e
00000110: c9e5 f63e a9d2 123e 222a ef3d 8097 993e
00000120: ffb4 c63e cf4e eb3d ddf3 323f 498c 8a3e
00000130: 6c2a 993e e7e9 553e ba23 6c3f c029 d33d
00000140: 290c 9a3e 5b53 b33e 1895 983e 319d 5c3e
00000150: 5a7f 9f3e 3262 a93d abf5 923e 98c8 8e3f
00000160: 67aa 563e d822 433e b518 a43e 9777 7d3e
00000170: f312 3a3e f481 913e 62a5 413f 938a a13e
00000180: 636c cd3e 7993 5e3e 54fc 883d 0320 4c3e
00000190: 77ff 743d 50a6 b73e a174 803f 8105 9d3d
000001a0: e9fd 823e 3a57 ee3d e792 a13e 3480 9e3e
000001b0: a3d5 783f 8dc2 fe3d b074 b43e 6cbe d83e
000001c0: c669 dc3e d719 883e a1de b03e 7389 ee3d
000001d0: 7be0 383e 0090 933d 29f1 563f 2bb6 833d
000001e0: ea34 6f3e 0b87 6b3e 276e 173f cfb2 123e
000001f0: 6d84 6e3e 709d 153e 7e09 123e 90a5 ee3e

encoder.4.weight f4 [64, 128]
-0.026499584 -0.08151344 -0.09609101 -0.0034153478 0.009614733 -0.0541392 0.09862251 -0.009281081
0.045223493 0.03990729 0.04791818 0.074402384 -0.031605635 0.0018542799 0.16976212 0.07471502
0.09401856 -0.058814604 0.0034943414 0.2071596 0.4197827 0.025513165 -0.08337203 -0.06470807
0.1352623 0.0131246885 0.08908765 -0.12322151 0.05176848 0.076348536 -0.15267767 -0.053737704
0.09685603 0.117750116 0.104609385 0.12974222 0.007913102 0.012072631 0.107873715 -0.10816311
0.023442851 0.007882559 0.08270256 -0.024912883 -0.004639648 -0.02193886 0.065201506 -0.06255007
-0.06932086 0.18011262 0.057641797 0.07463822 0.15040015 -0.16613546 0.11397683 0.023525987
-0.19001745 -0.05426226 0.05709652 0.1601959 0.20970991 -0.073371805 0.031707473 -0.18420358
0.110024154 0.021548258 0.07756099 0.0069386526 -0.14534387 0.039284933 0.19165342 -0.059417006
0.02741949 -0.00014771771 -0.6483197 -0.2988316 0.046320602 -0.10860666 0.09296181 -0.027093267
0.0030607004 0.18085887 -0.11354015 -0.065968335 0.06164158 0.087624885 -0.54148567 0.10928133
-0.02689921 0.0060637966 0.016431505 0.021727918 -3.3541825 0.2401462 0.0031778368 -0.013027564
-0.09127363 -0.07267684 0.13040183 -0.063603595 0.019209718 -0.039308935 0.09889977 0.056064535
-0.03315237 0.037629507 0.038070224 0.039844934 0.17954494 0.048913416 -0.05662248 0.09546031
-0.0044276486 0.12049621 -0.054816317 0.2167538 0.059699252 0.03990146 0.11703569 0.09427163
-0.005826618 0.0036874716 0.035148036 0.24896185 0.11953727 0.085485004 0.25683188 -0.12890877
0.0473892 0.08594263 0.7363373 -0.0041673146 0.01052143 0.02521275 -0.05419671 0.017754963
0.05173156 0.026283678 0.029412607 1.959436 -2.0987594 0.04039824 0.43294108 0.039359722
-0.006641253 -0.0054512112 -0.019873716 -0.011229746 0.026348908 0.025586223 0.14799552 -0.03053036
0.010910066 0.018369362 0.011314334 -0.034110043 -0.04120643 0.0002670928 -0.037470814 -0.023001479
-0.029463097 0.022965964 -0.111931115 -0.037623722 -0.03203342 0.041688114 -0.044959225 -0.03243737
0.03782335 -0.013337978 -0.00937238 0.009762942 0.026382463 -0.022293825 0.00066173344 0.029616568
-0.01526338 0.021901848 0.07935042 -0.014630679 0.059416372 -0.0045799944 -0.012837732 -0.03417507
-0.022149792 0.010148606 0.0024326586 0.011838176 0.0080958465 -0.036077034 0.011014974 -0.030074919
-0.019477697 -0.02042638 1.9365996 -2.3520703 0.015935855 0.019089717 0.014015562 0.31589618
-0.04038139 0.013518149 -0.024115074 0.007915054 0.003488024 0.014449507 0.030441117 -0.0077060824
-0.012756725 -0.018283607 -0.0023886773 -0.012589247 0.051125716 -0.0064589134 -0.019546233 -0.032719243
-0.013700677 0.011363626 0.06436097 0.0073184315 -0.0016848593 -0.011850709 0.025222031 -0.021878818
0.0017575263 0.0021409923 0.026956683 -0.011562317 0.04215137 0.0008063037 -0.045243848 -0.032821406
0.0051841266 0.0023524687 0.08609392 0.04078975 0.021915909 0.044846043 0.17547102 -0.031450726
0.10920183 -0.007409876 0.018355785 -0.0060882634 0.0051071094 -0.020577855 0.0034395545 -0.016061978
-0.94950634 -0.007167493 0.027067207 -0.017058816 0.02865583 0.120988615 -0.023650074 0.024465691
00000000: a815 d9bc 85f0 a6bd 5dcb c4bd 07d4 5fbb
00000010: 1d87 1d3c 11c1 5dbd 99fa c93d ad0f 18bc
00000020: 453c 393d d475 233d da45 443d 4760 983d
00000030: e974 01bd 4f0b f33a 1fd6 2d3e 3004 993d
00000040: ce8c c03d 95e7 70bd 5201 653b a521 543e
00000050: c2ed d63e fc00 d13c f4be aabd aa85 84bd
00000060: 3382 0a3e ef08 573c 9673 b63d 8f5b fcbd
00000070: 300b 543d 9f5c 9c3d 8957 1cbe 111c 5cbd
00000080: 745c c63d f926 f13d 723d d63d 25db 043e
00000090: f5a5 013c 49cc 453c e5ec dc3d 9f84 ddbd
000000a0: 390b c03c d925 013c f65f a93d 1a16 ccbc
000000b0: 3008 98bb 20b9 b3bc 5e88 853d 401a 80bd
000000c0: 18f8 8dbd 716f 383e ce19 6c3d ecdb 983d
000000d0: 7f02 1a3e 6a1f 2abe af6c e93d 92b9 c03c
000000e0: ef93 42be 1b42 5ebd 0ade 693d 650a 243e
000000f0: 32be 563e f543 96bd b2df 013d dd9f 3cbe
00000100: 5854 e13d f985 b03c 4cd8 9e3d a35d e33b
00000110: 06d5 14be 3de9 203d cb40 443e 3f5f 73bd
00000120: d79e e03c ace4 1ab9 48f8 25bf 7500 99be
00000130: acba 3d3d 2b6d debd c362 be3d b3f2 ddbc
00000140: 0896 483b 1133 393e bd87 e8bd 681a 87bd
00000150: e27b 7c3d ad74 b33d ce9e 0abf e4ce df3d
00000160: bb5b dcbc d0b2 c63b 5d9b 863c bffe b13c
00000170: edaa 56c0 e3e8 753e 4143 503b 9071 55bc
00000180: abed babd 98d7 94bd 0f88 053e 9a42 82bd
00000190: b35d 9d3c 6802 21bd f68b ca3d eda3 653d
000001a0: c8ca 07bd 6621 1a3d 86ef 1b3d 7134 233d
000001b0: a1da 373e 6f59 483d f9ec 67bd b280 c33d
000001c0: cf15 91bb b8c6 f63d 1387 60bd b5f4 5d3e
000001d0: 3487 743d b76f 233d 68b0 ef3d 7c11 c13d
000001e0: 37ed bebb 82a9 713b 63f7 0f3d dbef 7e3e
000001f0: f5cf f43d c312 af3d 787f 833e a900 04be
00000200: 2e1b 423d b102 b03d 9a80 3c3f f88d 88bb
00000210: 1362 2c3c f88a ce3c 5ffd 5dbd db72 913c
00000220: 79e4 533d de50 d73c b5f2 f03c cdce fa3f
00000230: 1352 06c0 a078 253d 74aa dd3e a937 213d
00000240: de9e d9bb 13a0 b2bb 34ce a2bc f8fc 37bc
00000250: aad9 d73c 339a d13c 238c 173e ce1a fabc
00000260: 22c0 323c 587b 963c c25f 393c f9b6 0bbd
00000270: 13c8 28bd 9708 8c39 ff7a 19bd 996d bcbc
00000280: 985c f1bc 1e23 bc3c 243c e5bd 551b 1abd
00000290: 7a35 03bd 28c1 2a3d 2a27 38bd 0cdd 04bd
000002a0: a8ec 1a3d 8987 5abc 9c8e 19bc bff4 1f3c
000002b0: 0920 d83c 8aa1 b6bc 2e78 2d3a 729e f23c
000002c0: 4113 7abc 816b b33c 7982 a23d 84b5 6fbc
000002d0: 955e 733d c713 96bb 5a55 52bc 28fb 0bbd
000002e0: 7b73 b5bc 5746 263c 3d6d 1f3b e9f4 413c
000002f0: 71a4 043c 83c5 13bd 2678 343c ad5f f6bc
00000300: b18f 9fbc 3955 a7bc 7fe2 f73f 5288 16c0
00000310: e98b 823c 0a62 9c3c 87a1 653c 25bd a13e
00000320: f566 25bd 3a7b 5d3c fa8c c5bc 25ae 013c
00000330: 5597 643b a0bd 6c3c a65f f93c 4e83 fcbb
00000340: 9501 51bc 81c7 95bc 5b8b 1cbb 2143 4ebc
00000350: 3369 513d 4ba5 d3bb 6c1f a0bc 9d04 06bd
00000360: ce78 60bc 812e 3a3c afcf 833d 74cf ef3b
00000370: 7fd6 dcba 7a29 42bc 6f9e ce3c 353b b3bc
00000380: cc5c e63a e44f 0c3b 43d4 dc3c df6f 3dbc
00000390: eaa6 2c3d 205e 533a 9d51 39bd bd6f 06bd
000003a0: 9bdf a93b e02b 1a3b 0252 b03d 2713 273d
000003b0: fe88 b33c 7cb0 373d adae 333e 7ad2 00bd
000003c0: 36a5 df3d 8cce f2bb df5e 963c 0e80 c7bb
000003d0: 8a59 a73b e492 a8bc 266a 613b 6994 83bc
000003e0: d912 73bf 4add eabb 0cbc dd3c eebe 8bbc
000003f0: a2bf ea3c e1c8 f73d cdbd c1bc 466c c83c

encoder.4.bias f4 [64]
0.00015495607 -6.1105384e-05 0.00012743109 0.00021008315 -1.466852e-05 7.825954e-05 5.790354e-05 -0.00010332775
0.00012503564 -0.00015124847 2.6940688e-05 4.476821e-05 -0.0001203212 6.5219734e-05 0.00018246431 -7.0193084e-05
0.00015842057 -1.01131045e-05 -7.1022674e-05 -2.4053219e-05 8.466608e-05 -2.6277878e-05 -0.00012629598 0.00019273699
8.397332e-06 0.0001537751 -3.836711e-05 4.736698e-05 -0.00013502494 3.7455262e-05 0.00015044246 2.6581845e-05
6.709337e-05 -8.3596045e-05 3.473901e-05 0.0001155194 0.00010527606 4.3749926e-05 -0.00020182022 -0.00011671976
1.0088275e-05 1.3384079e-05 -2.895945e-05 4.7075355e-05 3.0280355e-05 7.332675e-05 -0.00017265236 9.149155e-05
9.9929304e-05 -0.00026881308 1.5768515e-05 3.951874e-05 -0.000106189036 -4.690235e-05 -9.8390316e-05 -0.0001856231
-0.000114164475 -0.0001229093 0.000109436165 0.000105242216 0.000119787 -2.5196641e-05 0.00024581532 -8.496598e-05
00000000: b47b 2239 b425 80b8 069f 0539 c449 5c39
00000010: d018 76b7 451f a438 74dd 7238 aab1 d8b8
00000020: 001c 0339 7498 1eb9 b0fe e137 80c5 3b38
00000030: f454 fcb8 94c6 8838 e453 3f39 a034 93b8
00000040: b31d 2639 74ab 29b7 02f2 94b8 e5c5 c9b7
00000050: c18e b138 506f dcb7 526e 04b9 7119 4a39
00000060: 44e2 0c37 b03e 2139 5fec 20b8 e8ab 4638
00000070: 7b95 0db9 4819 1d38 17c0 1d39 14fc de37
00000080: 7bb4 8c38 4950 afb8 bab4 1138 0143 f238
00000090: a8c7 dc38 2080 3738 b49f 53b9 72c7 f4b8
000000a0: d040 2937 2e8c 6037 f2ed f2b7 c772 4538
000000b0: 9102 fe37 00c7 9938 040a 35b9 27df bf38
000000c0: 2391 d138 7bef 8cb9 a146 8437 edc0 2538
000000d0: ceb1 deb8 04b9 44b8 e656 ceb8 d2a3 42b9
000000e0: 966b efb8 37e1 00b9 1881 e538 7cb5 dc38
000000f0: 2836 fb38 605d d3b7 c6e0 8039 c32f b2b8

encoder.5.weight f4 [64]
0.23768573 0.4189144 0.60191077 0.5574735 0.6080971 0.3937878 0.12884945 0.54921186
0.6367955 0.70601356 0.6382303 0.72362924 0.6653841 0.1244345 0.45957732 0.36045164
0.6293201 0.4640357 0.38905007 0.07060292 0.36690736 0.55983335 0.39605653 0.28514737
0.5335917 0.22180967 0.18673815 0.3603111 0.6306228 0.12328015 0.49646816 0.4189069
0.33485755 0.3203533 0.065871194 0.099618345 0.4947631 0.35112596 0.30221817 0.21837841
0.19567299 0.08591097 0.23350504 0.25673696 0.13127981 0.6800443 1.2446827 0.3854001
0.31318676 0.61342984 0.17888819 0.40886703 0.57231236 0.39012584 0.3381252 0.49080208
0.34867066 0.2650391 0.3240369 0.29623294 0.07745611 0.4979339 0.20292118 0.58218807
00000000: e363 733e f37b d63e d316 1a3f 95b6 0e3f
00000010: 40ac 1b3f 8e9e c93e 1cf1 033e 2699 0c3f
00000020: 0805 233f 4ebd 343f 1063 233f c43f 393f
00000030: 9d56 2a3f 84d7 fe3d b84d eb3e 1e8d b83e
00000040: 1f1b 213f 1696 ed3e 9231 c73e 4498 903d
00000050: 48db bb3e 3d51 0f3f ecc7 ca3e d6fe 913e
00000060: 7799 083f 1322 633e 4938 3f3e b27a b83e
00000070: 7f70 213f 4e7a fc3d 1331 fe3e f77a d63e
00000080: 7372 ab3e 5905 a43e 7ae7 863d b404 cc3d
00000090: 9751 fd3e c8c6 b33e 57bc 9a3e 979e 5f3e
000000a0: 805e 483e 17f2 af3d f21b 6f3e 0773 833e
000000b0: 376e 063e 6217 2e3f c351 9f3f 2953 c53e
000000c0: 045a a03e bd09 1d3f 772e 373e 0557 d13e
000000d0: 1083 123f 93be c73e bf1e ad3e 694a fb3e
000000e0: f684 b23e 34b3 873e 2ae8 a53e d8ab 973e
000000f0: 4fa1 9e3d 31f1 fe3e 92ca 4f3e 470a 153f

encoder.5.bias f4 [64]
0.027211104 -0.028135642 -0.04518563 -0.12355928 -0.16678825 -0.08463646 0.14228892 -0.14750117
-0.18851921 -0.22097911 -0.04844067 4.5027293e-05 -0.20115122 0.077054255 0.0076019834 -0.053161044
-0.17891774 -0.09116145 -0.06732236 0.6044904 -0.009154171 -0.12584211 -0.053827103 0.120309316
-0.03389867 0.07202213 0.20707181 -0.027999626 -0.14017583 0.05803268 -0.03781588 -0.09655458
0.024701528 -0.03168719 0.0322337 0.12192779 -0.058364887 -0.0738035 -0.017766336 0.17892042
0.2792874 0.5498773 0.1549156 0.13126794 0.10363665 -0.19045396 -0.2967906 -0.05874024
0.046828657 -0.266345 0.81491274 -0.09478029 0.0010202341 -0.029783405 -0.01293614 -0.09913765
-0.026553001 0.11214593 0.08453846 0.09545397 0.30933845 -0.10738539 0.07842732 0.04093747
00000000: d2e9 de3c b87c e6bc 9114 39bd a60c fdbd
00000010: 8aca 2abe e155 adbd 30b4 113e 8c0a 17be
00000020: 2e0b 41be 5948 62be b969 46bd b0db 3c38
00000030: 96fa 4dbe 9fce 9d3d 0f1a f93b 65bf 59bd
00000040: 3636 37be dbb2 babd 4ee0 89bd e2bf 1a3f
00000050: 60fb 15bc c1dc 00be cf79 5cbd bb64 f63d
00000060: 55d9 0abd 5780 933d a20a 543e 795f e5bc
00000070: 418a 0fbe adb3 6d3d d3e4 1abd 68be c5bd
00000080: dc5a ca3c 6dca 01bd 7c07 043d 47b5 f93d
00000090: 0510 6fbd 4a26 97bd b58a 91bc ea36 373e
000000a0: c2fe 8e3e c2c4 0c3f 32a2 1e3e 1a6b 063e
000000b0: 743f d43d 5d06 43be f0f4 97be 9b99 70bd
000000c0: 68cf 3f3d 5f5e 88be 1f9e 503f 2b1c c2bd
000000d0: 60b9 853a 54fc f3bc 1bf2 53bc ae08 cbbd
000000e0: ae85 d9bc c4ac e53d 8022 ad3d 5f7d c33d
000000f0: 9c61 9e3e dfec dbbd 819e a03d 0cae 273d

encoder.5.running_mean f4 [64]
-0.07949882 -0.89695066 -0.9362941 -1.7457563 -1.1966736 -0.9434053 -0.555192 -1.0868129
-1.1371493 -1.2127631 -1.3680931 -1.1228154 -1.3004818 -0.2257818 -0.9598104 -0.5809901
-1.123821 -1.0632778 -0.882828 0.05799734 -0.9655869 -1.0634035 -0.93392074 -1.2409178
-0.8479872 -0.039578732 -0.4221811 -0.6459372 -1.0057347 0.20387326 -0.72614056 -0.7040073
-1.1248951 -0.8175515 -0.020337645 0.79544103 -0.82559705 -1.0995897 -1.0194445 -0.9638716
-0.7390941 -0.20417906 -1.3828603 -0.7650424 0.46609896 -0.98394334 -1.7223374 -0.72780454
-0.39487687 -1.9353251 0.64177155 -0.75685936 -1.2320026 -1.1429154 -0.51319414 -0.9460012
-0.6199659 0.05952189 -0.09876603 -0.5174166 0.80782163 -1.0446614 0.3141725 -1.2069284
00000000: 47d0 a2bd 8f9e 65bf f8b0 6fbf f174 dfbf
00000010: 9a2c 99bf 0283 71bf 1021 0ebf af1c 8bbf
00000020: 1c8e 91bf d23b 9bbf ad1d afbf 6ab8 8fbf
00000030: 3076 a6bf 5833 67be 22b6 75bf c4bb 14bf
00000040: 5ed9 8fbf 7d19 88bf 0401 62bf 9e8e 6d3d
00000050: b430 77bf 9b1d 88bf 6e15 6fbf 65d6 9ebf
00000060: b015 59bf 4f1d 22bd 1f28 d8be 245c 25bf
00000070: eabb 80bf 27c4 503e 59e4 39bf d339 34bf
00000080: 90fc 8fbf 0e4b 51bf 229b a6bc 06a2 4b3f
00000090: 545a 53bf 5bbf 8cbf 287d 82bf 4ac0 76bf
000000a0: 4535 3dbf 5114 51be 9101 b1bf d2d9 43bf
000000b0: 86a4 ee3e b6e3 7bbf 8d75 dcbf 6651 3abf
000000c0: 4d2d cabe bcb8 f7bf 244b 243f 89c1 41bf
000000d0: 43b2 9dbf 0d4b 92bf b160 03bf 222d 72bf
000000e0: 16b6 1ebf 3acd 733d d845 cabd 6a75 04bf
000000f0: 66cd 4e3f 77b7 85bf 38db a03e a17c 9abf

encoder.5.running_var f4 [64]
4.76322 6.2421727 9.16223 11.013232 7.8638144 5.8544335 2.3960512 7.27143
7.5350657 8.476889 15.71284 14.53113 8.4121065 1.4950539 7.5988483 4.7383
7.794732 8.398637 6.36048 1.2227124 5.866427 8.641884 6.8135047 7.3346176
7.2010665 3.3218205 4.892472 5.2870374 8.04519 1.6074971 7.8659472 5.066516
6.318115 5.9054475 0.94066733 2.0573428 7.485314 4.5953255 4.961584 5.69278
5.7127767 1.4233539 5.113966 4.7970862 2.2012672 8.810798 25.833727 5.08717
3.2745867 10.141684 3.6030161 4.9144616 13.156382 6.1819973 6.802211 6.2893744
5.3221383 4.1819572 5.2607555 5.101954 0.9885068 8.833011 2.7312815 10.764822
00000000: 4c6c 9840 e1bf c740 7e98 1241 3336 3041
00000010: 5ea4 fb40 8557 bb40 e758 1940 8eaf e840
00000020: 421f f140 56a1 0741 cb67 7b41 827f 6841
00000030: fd97 0641 ed5d bf3f c429 f340 27a0 9740
00000040: 726e f940 d160 0641 0d89 cb40 d781 9c3f
00000050: c5b9 bb40 2845 0a41 3b08 da40 30b5 ea40
00000060: 236f e640 b598 5440 218f 9c40 692f a940
00000070: 19b9 0041 77c2 cd3f d7b5 fb40 e620 a240
00000080: 002e ca40 6df9 bc40 93cf 703f 81ab 0340
00000090: b187 ef40 e80c 9340 4cc5 9e40 412b b640
000000a0: 11cf b640 7630 b63f 9ca5 a340 bb81 9940
000000b0: 90e1 0c40 07f9 0c41 79ab ce41 19ca a240
000000c0: d492 5140 5644 2241 d197 6640 4543 9d40
000000d0: 8a80 5241 ecd2 c540 b6ab d940 8e42 c940
000000e0: f54e aa40 98d2 8540 1c58 a840 3543 a340
000000f0: c80e 7d3f 0354 0d41 51cd 2e40 b63c 2c41

encoder.7.weight f4 [32, 64]
0.25985903 -0.34725145 -0.35855642 -0.045918226 -0.3015611 0.04529235 -0.20566478 0.47485784
0.30309787 -0.11134351 0.065795384 0.0843695 0.09623749 -0.18982533 -0.14152834 0.05509967
0.2599032 -0.3838994 -0.3992705 -0.38504618 -0.106994815 0.25504926 0.28513515 0.06635534
0.16373867 -0.011937494 0.004062269 -0.4061136 -0.087223634 0.16984662 0.1466788 0.48031878
0.20807256 -0.10102359 -0.028375322 -0.031147623 0.22828545 -0.4090362 0.32151046 -0.17190765
-0.1453845 -0.17163505 0.14146258 -0.022356557 0.009365171 -0.07119989 -0.35051924 -0.45304704
0.18272702 -0.06912216 0.73342925 -0.5159514 -0.23985219 -0.33494693 -0.13442256 0.1978705
-0.46491805 -0.14434561 0.44308776 -0.33891806 -0.13484874 0.056132153 0.017970895 -0.41282016
0.098710574 0.3664865 0.21057917 0.27853093 -0.023287587 0.29456243 -0.08533814 -0.027429026
-0.3397047 -0.14122142 0.13571507 0.07601474 -0.17459027 -0.24824941 0.008729281 0.6766594
0.37596098 -0.10978378 0.06766239 0.023428679 -0.021980843 -0.24702689 -0.116635546 0.3153311
-0.038100004 -0.17355923 -0.13448234 -0.076977104 -0.017391743 0.051058963 0.1759853 -0.2056184
0.10238704 -0.058183476 -0.06268897 0.095631525 0.062263805 0.077240676 -0.4112252 0.046823118
-0.1633441 0.32509437 0.06847837 -0.040419023 0.07225585 -0.20803933 -0.26566127 0.013187737
0.21200114 -0.15010647 -0.4328621 -0.4373357 0.13897723 -0.20828232 -0.09712977 -0.56857145
-0.034858346 0.20405771 0.07083019 -0.16945289 0.22032598 -0.014098701 0.26145375 -0.08604946
-0.5166379 0.32252517 -0.111608595 -0.3633808 0.43937272 -0.36765754 0.2598698 0.44752857
-0.0419283 -0.42418563 0.5287048 -0.17525463 -0.04470205 -0.16729254 0.07374027 -0.16519536
0.1413889 -0.30678636 -0.098034695 -0.5705895 0.0527815 0.12630983 -0.24598339 0.22897029
0.20461081 -0.13857868 -0.042370535 0.3123076 -0.04194153 -0.35315403 0.5642164 -0.16086884
-0.54268855 0.0060846163 -0.11369216 -0.17825276 -0.16797385 -0.06521575 0.12832332 0.10438925
0.04359112 -0.64561605 0.43254748 -0.028968887 -0.2951682 -0.26500335 -0.30011746 0.06843621
0.082617655 0.52764624 -0.35973552 0.54110616 0.022527263 -0.48095235 0.12423367 0.37789923
0.2274726 -0.0070515713 -0.0019589902 -0.6939662 0.044493593 -0.030742453 -0.28803763 0.43232697
-0.11307934 0.08117828 -0.31497687 -0.32429197 0.4303396 -0.15465122 0.25766945 -0.40108305
0.060859356 0.017629553 -0.154719 -0.06480586 -0.4198891 0.07245419 -0.17661159 -0.45522988
0.2776627 -0.30578226 -0.057366654 0.17212646 -0.14467767 0.384478 0.44711092 -0.32684857
0.1539508 0.044347726 0.05233912 -0.118813105 0.25636446 -0.07396035 -0.03913893 -0.39806348
-0.43473333 -0.1542669 0.24648944 0.04343133 0.10819989 0.16800699 0.09720276 -0.027624838
-0.19918483 -0.356293 0.14338768 0.16033842 0.69269854 0.29825923 -0.4913878 -0.025710322
-0.11881799 -0.7501883 -0.15552336 0.55127025 -0.07816575 0.022705069 0.18872759 0.44879383
-0.32129616 -0.4056389 0.18246795 0.068512455 0.07523539 0.40230587 0.79928935 -0.08013293
00000000: 3e0c 853e f1ca b1be b594 b7be c014 3cbd
00000010: 3766 9abe 7984 393d ca99 52be 9120 f33e
00000020: a52f 9b3e 1108 e4bd bbbf 863d ebc9 ac3d
00000030: 2918 c53d 9261 42be ceec 10be 31b0 613d
00000040: 0812 853e 768e c4be 2f6d ccbe c624 c5be
00000050: 1920 dbbd d195 823e 3cfd 913e 4fe5 873d
00000060: 1cab 273e 7b95 43bc c81c 853b 1fee cfbe
00000070: 4ea2 b2bd 46ec 2d3e f832 163e 58ec f53e
00000080: f910 553e 75e5 cebd 5d73 e8bc 4d29 ffbc
00000090: a9c3 693e 316d d1be 059d a43e 8f08 30be
000000a0: addf 14be 19c1 2fbe 91db 103e 1925 b7bc
000000b0: 6070 193c 3fd1 91bd 4277 b3be c8f5 e7be
000000c0: cb1c 3b3e eb8f 8dbd 05c2 3b3f 6415 04bf
000000d0: d09b 75be 2a7e abbe 11a6 09be 909e 4a3e
000000e0: bd09 eebe 56cf 13be 66dc e23e ab86 adbe
000000f0: ca15 0abe d4ea 653d b337 933c 2a5d d3be
00000100: c528 ca3d 1ea4 bb3e 11a2 573e 9b9b 8e3e
00000110: 9cc5 bebc e3d0 963e c3c5 aebd d6b2 e0bc
00000120: c6ed adbe 599c 10be e4f8 0a3e 9ead 9b3d
00000130: cbc7 32be 1835 7ebe 4205 0f3c 8d39 2d3f
00000140: f57d c03e 52d6 e0bd 9492 8a3d 80ed bf3c
00000150: 2b11 b4bc 9ef4 7cbe 9ede eebd 1473 a13e
00000160: c00e 1cbd 83b9 31be bdb5 09be 2ca6 9dbd
00000170: 2179 8ebc 3423 513d 7e35 343e a18d 52be
00000180: 4cb0 d13d cc51 6ebd 1363 80bd 76da c33d
00000190: 5508 7f3d 5c30 9e3d 1c8c d2be 99c9 3f3d
000001a0: ad43 27be c572 a63e 633e 8c3d 6b8e 25bd
000001b0: e0fa 933d 4308 55be c104 88be 6111 583c
000001c0: d416 593e 83b5 19be 1aa0 ddbe 77ea dfbe
000001d0: 0c50 0e3e f647 55be f9eb c6bd e68d 11bf
000001e0: a0c7 0ebd 81f4 503e 6b0f 913d 0f85 2dbe
000001f0: 229d 613e 3dfe 66bc 44dd 853e b33a b0bd
00000200: 6242 04bf 0522 a53e 0c93 e4bd 0c0d babe
00000210: 76f5 e03e 9c3d bcbe a80d 853e 7722 e53e
00000220: 02bd 2bbd dc2e d9be 3359 073f f375 33be
00000230: 7f19 37bd bc4e 2bbe 2405 973d f928 29be
00000240: 40c8 103e 1a13 9dbe 6ac6 c8bd 2712 12bf
00000250: 6a31 583d 5d57 013e 12e3 7bbe 3077 6a3e
00000260: 7f85 513e 92e7 0dbe ba8c 2dbd c8e6 9f3e
00000270: e2ca 2bbd 9bd0 b4be 7c70 103f cdba 24be
00000280: a3ed 0abf 7661 c73b 6fd7 e8bd e487 36be
00000290: 5601 2cbe d68f 85bd 3067 033e 08ca d53d
000002a0: 9a8c 323d 1847 25bf dd76 dd3e 2950 edbc
000002b0: 4920 97be 85ae 87be ffa8 99be 4928 8c3d
000002c0: 7233 a93d d313 073f 412f b8be ef85 0a3f
000002d0: 188b b83c 633f f6be 396e fe3d 027c c13e
000002e0: 94ee 683e de10 e7bb 6762 00bb c5a7 31bf
000002f0: ea3e 363d 99d7 fbbc ab79 93be f659 dd3e
00000300: 2496 e7bd cc40 a63d a644 a1be 9909 a6be
00000310: 7955 dc3e e45c 1ebe 40ed 833e c25a cdbe
00000320: a947 793d da6b 903c a86e 1ebe efb8 84bd
00000330: b4fb d6be dd62 943d abd9 34be e413 e9be
00000340: ce29 8e3e 7e8f 9cbe 4cf9 6abd eb41 303e
00000350: 6226 14be 4dda c43e b9eb e43e b258 a7be
00000360: 47a5 1d3e f6a5 353d 8c61 563d 4954 f3bd
00000370: 3442 833e 8678 97bd 2550 20bd face cbbe
00000380: 5e95 debe 24f8 1dbe ba67 7c3e 0de5 313d
00000390: e797 dd3d 060a 2c3e 3e12 c73d 7c4d e2bc
000003a0: 1cf7 4bbe 096c b6be 38d4 123e c12f 243e
000003b0: b154 313f 6fb5 983e 2f97 fbbe 749e d2bc
000003c0: d956 f3bd 570c 40bf 8441 1fbe 0c20 0d3f
000003d0: 5d15 a0bd fbff b93c ce41 413e 4ec8 e53e
000003e0: ee80 a4be e7af cfbe e1d8 3a3e 4250 8c3d
000003f0: 0315 9a3d 09fb cd3e 3a9e 4c3f bc1c a4bd

encoder.7.bias f4 [32]
-1.2750169 -0.8722944 -0.7604177 -0.35616443 -1.4815342 -1.8268569 -0.17333989 -0.04258116
0.34717545 0.5670258 0.605476 -1.297075 1.1309782 0.6083399 0.24020083 0.103864
0.46287307 -0.507646 -0.119252436 0.7451356 -1.5270015 0.7474248 -0.16082184 -0.80590856
0.03826444 -0.24113296 1.4690578 -0.047330916 0.07899784 0.2626417 0.76574206 1.5539972
00000000: c133 a3bf b04e 5fbf bcaa 42bf 2f5b b6be
00000010: eaa2 bdbf 72d6 e9bf 0380 31be 9569 2ebd
00000020: fbc0 b13e 9a28 113f 7a00 1b3f 8e06 a6bf
00000030: e5c3 903f 2abc 1b3f 35f7 753e a6b6 d43d
00000040: b3fd ec3e 17f5 01bf 9f3a f4bd 35c1 3e3f
00000050: c974 c3bf 3b57 3f3f 7bae 24be 0650 4ebf
00000060: 2cbb 1c3d 8feb 76be 160a bc3f 10de 41bd
00000070: 9fc9 a13d f978 863e ac07 443f 61e9 c63f

mu.weight f4 [32, 32]
-0.008151245 -0.019350372 0.020916782 0.023434017 0.022032445 -0.011669825 -0.005236472 -0.0016695285
-0.025521118 0.014116666 -0.014333306 -0.0076204943 -0.011217574 0.0027009468 -0.031588864 -0.026226234
-0.02584267 0.006579355 -0.0032222166 0.012102481 -0.013076144 0.057235632 0.03885124 -0.0007721803
0.009665342 -0.05214746 0.0027865998 -0.00744267 0.028084738 0.016269598 -0.0035790857 0.004232874
0.15823913 -0.64553165 0.62513435 0.3859958 -0.19890061 0.31093624 0.32857972 0.09597355
0.15170713 0.4595263 -0.8789164 -0.15820907 -0.07235592 0.12177814 0.8216589 0.19233163
-0.63389677 0.07274351 -0.37228236 0.31012413 -0.42392054 -0.19542708 0.012863064 0.20865898
-0.23145938 -0.009498995 0.061377592 0.24334945 0.15624943 -0.51136994 0.11840359 -0.23866159
-0.10114211 0.08367705 -0.29833338 0.035104044 -0.16416502 -0.12666716 -0.0651019 -0.03351526
-0.6587029 0.2568291 -0.32185307 0.09446062 -0.24237436 0.5104767 -0.4111191 0.10313788
-0.21110705 0.7733458 0.06309217 -0.3875925 0.41911024 0.07770822 -0.18552808 0.3011317
-0.7143149 -0.6225993 -0.07393029 0.56533086 -0.22923726 0.06187192 0.4822745 -0.12249504
0.37424487 0.096102506 0.61691755 0.0844904 -0.43963015 0.007013965 -0.09389556 -0.26049396
-0.34840077 0.41767797 -0.0775247 0.12395969 0.29128918 -0.3194464 -0.36974883 -0.57357407
-0.065171845 -0.08616107 0.052855026 0.11407573 -0.16337228 -0.004299824 0.23612596 0.046584524
0.031574648 0.46628448 0.40938544 0.113699876 -0.7330737 0.25691983 0.33955163 0.26526266
0.40758958 0.51522255 -0.34341562 -0.10715929 -0.31806538 0.470944 0.039307386 -0.5626013
0.2845412 0.020263344 0.113813154 -0.0052179014 -0.23640248 0.3958019 0.5519545 -0.08803055
-0.1741289 -0.39882755 -0.13994274 -0.06993654 -0.017601293 0.5115947 0.3389857 -0.053387254
0.59306866 -0.65908456 -0.37310484 0.54508066 -0.3179648 0.23915109 0.15055555 0.3282045
-0.2493705 -0.11268134 -0.33420083 0.62295794 -0.2577345 0.4772995 0.36050907 -0.23795226
-0.3054607 -0.20808886 0.1497125 -0.22677976 -0.26517412 0.39789256 -0.24695478 -0.35548824
0.16186316 0.0261416 0.020179361 0.35506028 0.32668218 -0.17198613 0.31895697 0.017921409
0.07952927 0.041894913 0.2746121 -0.1749048 -0.076135576 -0.5435043 -0.31148663 0.1658749
-0.4247015 -0.11974651 -0.048664995 0.5410606 -0.11435571 0.38146773 -0.4564743 0.44071275
-0.28347862 0.14490235 0.41717064 0.26641914 0.19209008 0.13896611 0.055135418 0.39736205
0.24540998 0.23997466 0.00103639 -0.18736646 -0.40027887 -0.097233966 0.34292895 0.05871215
0.5164469 0.11418428 -0.14266904 -0.005370209 0.20084661 0.14322686 0.6349829 0.12904726
0.074316576 0.1012149 -0.31472838 -0.24666001 -0.05321201 -0.02601898 0.1405076 0.5350414
-0.5551017 -0.12287481 -0.7189107 -0.012180219 0.0005718574 -0.61492795 -0.22824997 -0.29889157
-0.18804939 -0.014839635 -0.32430634 0.66543055 0.17903371 0.015098111 0.028619869 0.21577732
0.4468271 -0.12136086 -0.2280312 0.21567908 0.53467077 0.31019723 0.053811144 0.42787236
00000000: cd8c 05bc ac84 9ebc ac59 ab3c b2f8 bf3c
00000010: 637d b43c cb32 3fbc b696 abbb 15d4 daba
00000020: aa11 d1bc 9749 673c 3ed6 6abc 57b5 f9bb
00000030: eac9 37bc 5e02 313b 5363 01bd 66d8 d6bc
00000040: 02b4 d3bc a197 d73b d32b 53bb 7c49 463c
00000050: 533d 56bc e96f 6a3d 7a22 1f3d 256c 4aba
00000060: 625b 1e3c 9398 55bd 639f 363b a4e1 f3bb
00000070: f711 e63c d247 853c 188f 6abb ecb3 8a3b
00000080: 7009 223e 9041 25bf ce08 203f 3ea1 c53e
00000090: 9aac 4bbe 0933 9f3e 9a3b a83e c88d c43d
000000a0: 1d59 1b3e 0847 eb3e aa00 61bf 8f01 22be
000000b0: 572f 94bd d166 f93d 3d58 523f 95f2 443e
000000c0: 0f47 22bf 8dfa 943d cb9b bebe 97c8 9e3e
000000d0: 1d0c d9be 091e 48be 9abf 523c b3aa 553e
000000e0: b003 6dbe aca1 1bbc 1267 7b3d 9930 793e
000000f0: daff 1f3e 24e9 02bf 957d f23d b463 74be
00000100: 9823 cfbd e05e ab3d 27bf 98be 42c9 0f3d
00000110: e01a 28be 09b5 01be 2554 85bd 4c47 09bd
00000120: c1a0 28bf 1b7f 833e edc9 a4be 9274 c13d
00000130: fc30 78be 9aae 023f 347e d2be f439 d33d
00000140: 722c 58be fef9 453f 7836 813d 8672 c6be
00000150: 9e95 d63e 7d25 9f3d 13fb 3dbe ef2d 9a3e
00000160: 57dd 36bf ab62 1fbf c468 97bd 86b9 103f
00000170: 2cbd 6abe 696d 7d3d afec f63e aede fabd
00000180: 069d bf3e 64d1 c43d 4fee 1d3f 4e09 ad3d
00000190: 3417 e1be 67d5 e53b 514c c0bd 775f 85be
000001a0: 9661 b2be e3d9 d53e 45c5 9ebd 94de fd3d
000001b0: db23 953e 7b8e a3be b84f bdbe c0d5 12bf
000001c0: d178 85bd 3775 b0bd 837e 583d 89a0 e93d
000001d0: 104b 27be 8ae5 8cbb 01cb 713e 6acf 3e3d
000001e0: 6b54 013d d7bc ee3e f89a d13e 7bdb e83d
000001f0: b8aa 3bbf ff8a 833e b6d9 ad3e 82d0 873e
00000200: 95af d03e a0e5 033f 2cd4 afbe 5476 dbbd
00000210: 77d9 a2be 921f f13e c800 213d a406 10bf
00000220: 62af 913e 50ff a53c df16 e93d eefa aabb
00000230: 7e13 72be 8ca6 ca3e e44c 0d3f 5c49 b4bd
00000240: d94e 32be 2033 ccbe 264d 0fbe e43a 8fbd
00000250: 9630 90bc dff7 023f 898f ad3e 98ac 5abd
00000260: 59d3 173f c4b9 28bf 9907 bfbe 688a 0b3f
00000270: 48cc a2be 06e4 743e 3c2b 1a3e 6c0a a83e
00000280: fb5a 7fbe 79c5 e6bd 5f1c abbe 2c7a 1f3f
00000290: c7f5 83be 9a60 f43e a594 b83e c2a9 73be
000002a0: 5865 9cbe 3f15 55be 3c4e 193e f438 68be
000002b0: e7c4 87be 93b8 cb3e b7e1 7cbe 8e02 b6be
000002c0: 75bf 253e e926 d63c 304f a53c 76ca b53e
000002d0: e342 a73e 221d 30be 544e a33e ebcf 923c
000002e0: 3ee0 a23d 009a 2b3d f599 8c3e 3e1a 33be
000002f0: f8ec 9bbd 1923 0bbf 2d7b 9fbe 1cdb 293e
00000300: 7a72 d9be a93d f5bd f254 47bd f382 0a3f
00000310: 5433 eabd bd4f c33e 00b7 e9be 1aa5 e13e
00000320: 1c24 91be 4861 143e 6497 d53e 1768 883e
00000330: 43b3 443e 224d 0e3e add5 613d 0a73 cb3e
00000340: c14c 7b3e ebbb 753e 7ad7 873a fedc 3fbe
00000350: 5af1 ccbe 9a22 c7bd 6294 af3e 277c 703d
00000360: dd35 043f 73d9 e93d d517 12be 94f8 afbb
00000370: bcaa 4d3e 10aa 123e 3d8e 223f f724 043e
00000380: 4a33 983d c249 cf3d 1424 a1be 7194 7cbe
00000390: d6f4 59bd c225 d5bc 39e1 0f3e 79f8 083f
000003a0: 251b 0ebf caa5 fbbd 880a 38bf 8b8f 47bc
000003b0: b3e8 153a eb6b 1dbf 5cba 69be 5108 99be
000003c0: 0590 40be f121 73bc 7b0b a6be a859 2a3f
000003d0: 9d54 373e 115e 773c 3774 ea3c bbf4 5c3e
000003e0: 86c6 e43e 0b8c f8bd 0381 69be fada 5c3e
000003f0: 2fe0 083f 2cd2 9e3e 1369 5c3d 1612 db3e

mu.bias f4 [32]
-0.03066037 -0.14905077 -0.2591169 0.14744718 0.04449024 -0.030694338 0.12725535 -0.33224827
0.10911977 -0.0035322867 0.21267882 -0.006040942 0.061967533 0.12873574 -0.0441813 -0.25484392
-0.12791066 -0.0062356186 -0.13149916 -0.13351105 0.005682826 0.04999268 0.025952008 -0.014939122
0.14441738 -0.12779415 -0.020015277 0.13577716 0.41573894 -0.040272728 -0.009592319 -0.036901318
00000000: 752b fbbc c4a0 18be f8aa 84be 65fc 163e
00000010: 663b 363d b172 fbbc 3a4f 023e 721c aabe
00000020: 307a df3d f07d 67bb 7ac8 593e 18f3 c5bb
00000030: abd1 7d3d 4dd3 033e 73f7 34bd e77a 82be
00000040: 03fb 02be 2954 ccbb b7a7 06be 1fb7 08be
00000050: 0037 ba3b 20c5 4c3d 4e99 d43c 38c3 74bc
00000060: 26e2 133e 78dc 02be 14f7 a3bc 2b09 0b3e
00000070: bcdb d43e 04f5 24bd 1a29 1dbc d625 17bd
