model/angles/vae_angle_hd128x64_ld20.pth (torch, 146815 bytes, 32 tensors)

encoder.0.weight f4 [128, 47]
00000000: aa64 183f ce59 8a3d 315d 32be a211 5dbd
00000010: b3bf 2cbe dafa a5bc 7c06 313e a47a d1bd
00000020: b53b 5cbe 911b 95bd f323 e03e cab1 6d3e
00000030: 5ab2 02bd bb84 a63e c6da df3d 6caa 54bc
00000040: d0c8 00be 33ad 44be dce5 6f3d 5c62 b93d
00000050: 6046 303d fd2f 1fbe c6de c3bd 90db 7d3d
00000060: be23 b3be b430 853e 2e25 103d 53e5 493f
00000070: 9150 d6be e5f0 0cbf 8f07 763e 8bbc 0abe
00000080: 192e 8fbe 202f 83be bbba 6cbe b50c 95bd
00000090: 46ad 423e 1961 80be fff5 dfbd 8821 a23f
000000a0: 105a 2c3f bc33 c6bd 9e97 b0bf b2ee 2abf
000000b0: 079f f33d 6edf acb9 5c4d ee3c 5201 123d
000000c0: efab d53d 30cd 033f 0187 c9bd d6b8 53bd
000000d0: d99b 653e 7c84 b5bd 5238 233e 2880 0bbe
000000e0: 75b0 7bbd e3c4 0bbe 071a b13d 498b 773c
000000f0: 5e34 73bd 7cbc 37bd e8a6 05bd fa54 bebd
00000100: 999d 0abe 00c8 483d a4a1 e53d 1181 28be
00000110: 91dd 723e 8fb4 bbbc abea dbbd 0312 91bf
00000120: 8b9b 8cbe 0d5e 95bf 985d 8fbe d83e c63e
00000130: d39d f0bc bfa1 1b3d ab02 d7be 472e 393f
00000140: de63 343d 465c 2ebe 994d 1b3e fc2c 8cbb
00000150: 4697 3ebe 435e 2d3e 52a3 353e 6490 8f3d
00000160: ee0f d6bd 6bee 3abe f2fd 62bd d1ed 963d
00000170: df73 d8b8 fa46 16be 1b14 b6bb e2a8 1c3e
00000180: 5b3c 9cbe 265f c73e d4b9 433e 0499 adbe
00000190: f9bd 2abe 6373 b4be 49a3 953e aca6 a93e
000001a0: f303 6b3e c808 3d3f 220c 153e 1b77 663d
000001b0: e10b 10bd 7d8d c2bc 5d3e 0abe dcaa c4be
000001c0: 6434 893e bd7e bc3f efc5 8bbe f943 a23d
000001d0: 1ba9 133c 1515 1dbd 7052 3ebe 0135 1fbe
000001e0: 16ae 28be e6ec e83c 516c 02be 8002 2938
000001f0: 909e 0c3e a562 25be eef5 143d 2c17 d4bc
00000200: 0cbe 5dbe 3a92 29bd fd30 07bc 1b67 69be
00000210: a823 53bd 1c0a b7bd 5a90 563e bb0b 8f3d
00000220: 94d5 e83d 10f4 51be 5eeb a6bd 990d 98b9
00000230: 6392 bebb f507 86be bdf4 c43e 60d8 d8bd
00000240: bc8d 52be 40ae 2c3e 984b 823e 5a8a 543e
00000250: 0b8f f5bc 249a 2f3e 15bb 06be 55c9 7bbe
00000260: 0f51 9c3d 7acd 3fbf a842 76bf d14d 813f
00000270: 2b6c 3a3e 770f 1b3e f081 4a3e 3191 153e
00000280: cfca 4a3d b093 0b3d 133f 06bc 25d3 d83d
00000290: 712e eabd 3208 15be da7e 293d deea 66bd
000002a0: 8a76 c2bd 168f abbb 96f3 cdba cc94 33be
000002b0: 5668 b3bd 2e32 07bf 1ac8 dabe 99c3 173f
000002c0: ea50 d8be 1032 e43e 80a9 1b3f 1597 cdbe
000002d0: 7bf5 a83b 24c6 b8be 1dd8 e03e d76e eebb
000002e0: eca0 c53e 0c28 dcbe 00bc 7f37 30ec b9be
000002f0: 2645 5f3e f5b8 963d e85d fd3d 572b eb3c
00000300: ec84 90bc b829 2d3d 33cc a93d e1e8 98bd
00000310: 74f1 303c e32e 2abb f319 6ebd b9c1 25bd
00000320: d3ba 51bb 994b f7bd 7423 873b 2819 013e
00000330: 900e 5fbe 4f32 d43d 439e 123d 13ec 213d
00000340: f6e8 cabc df72 af3f ef64 633f b66f 8c3f
00000350: aa00 88bd de19 61bc cd55 febd bdef 00be
00000360: f36a a93d f8e5 adbd 0f2c 8f3d abea f3bd
00000370: 5cb1 043e 004e be3c 91d2 7abd d00d 113d
00000380: bd73 04bd 66a3 a0bd 11f5 003d 4b4c 763d
00000390: 1bc1 48bc 9316 37bd 30e2 e1bc 255b 803c
000003a0: 5a28 843d cef4 cfb8 911e 18be e6ba 58be
000003b0: 1c05 8e3d 5416 9cbe 93f3 05be 56eb 4ebe
000003c0: b96f 153d c446 7f3e 1fef 07be 5802 173e
000003d0: b775 15bf f8c9 193e 7e34 5bbf 2073 95be
000003e0: 4d0f 823d b054 343b 85dd 2b3c 01e7 8ebd
000003f0: 5689 dbbd 35a4 c2be 41f9 71be e680 403c
0.595286 0.0675541 -0.17418362 -0.053971894 -0.16870002 -0.020261217 0.1728763 -0.1022847
-0.21507151 -0.072806485 0.43777427 0.23212352 -0.03190837 0.3252314 0.109303996 -0.012980085
-0.12576604 -0.19206695 0.05856882 0.09051964 0.043035865 -0.1554565 -0.09563975 0.06197697
-0.34988207 0.2601372 0.035191707 0.78865546 -0.41858342 -0.55055076 0.24026321 -0.13548486
-0.27964857 -0.2562189 -0.23118107 -0.07277814 0.19011411 -0.2507408 -0.10935592 1.2666483
0.67324924 -0.09677836 -1.379627 -0.6677047 0.118955664 -0.00032972865 0.029089622 0.03564579
0.10433184 0.51484966 -0.09840203 -0.051689945 0.22422732 -0.0886316 0.15939453 -0.13623106
-0.06144758 -0.13649325 0.086475424 0.015108892 -0.059376113 -0.044857487 -0.032629877 -0.09293552
-0.13536681 0.04901886 0.11212471 -0.16455485 0.23717333 -0.022913245 -0.10738119 -1.1333622
-0.2746242 -1.1669327 -0.28001094 0.3871982 -0.029372131 0.03799605 -0.41994223 0.7233624
0.044040553 -0.17027387 0.1516632 -0.0042778235 -0.18612394 0.16930489 0.17738083 0.07009962
-0.10452257 -0.18255012 -0.055417962 0.07369579 -0.00010321265 -0.14675513 -0.005556596 0.15298799
-0.30514798 0.3893978 0.19113857 -0.33905804 -0.16674031 -0.35244283 0.2922614 0.33134973
0.22950725 0.73841524 0.1455541 0.05626593 -0.03516758 -0.023749107 -0.13500352 -0.38411605
0.26797783 1.4726177 -0.2729945 0.07923121 0.009012486 -0.038350184 -0.18586135 -0.15547563
-0.16472659 0.028433274 -0.12736632 4.0295068e-05 0.13732362 -0.16150911 0.03636735 -0.025889955
-0.21654528 -0.04139922 -0.008251426 -0.22793238 -0.051547676 -0.08937475 0.20953503 0.06984659
0.11368862 -0.20503259 -0.081503615 -0.0002900183 -0.0058157905 -0.26177946 0.3846797 -0.10588145
-0.2056188 0.16863346 0.25448298 0.20755902 -0.029975435 0.17148644 -0.13157304 -0.24588521
0.07632648 -0.7492291 -0.9619546 1.0101873 0.18205325 0.15142618 0.1977613 0.14606167
0.04950982 0.034076393 -0.008193749 0.105871476 -0.11434639 -0.14553908 0.04138074 -0.05637633
-0.09495266 -0.005235563 -0.0015712853 -0.1753723 -0.08760135 -0.52810943 -0.4273079 0.59282833
-0.42249233 0.44569445 0.6080551 -0.4015433 0.0051562167 -0.3608867 0.4391488 -0.0072763967
0.38599336 -0.42999303 1.5242957e-05 -0.3631301 0.21803722 0.073594965 0.12371427 0.02870719
-0.017641507 0.042276114 0.08290901 -0.07466293 0.010799754 -0.0025967888 -0.058130216 -0.04046795
-0.0032002225 -0.12074966 0.0041240994 0.12607253 -0.21782899 0.10361158 0.03579546 0.03953178
-0.024769288 1.3706931 0.8882589 1.0971591 -0.06640752 -0.013739077 -0.12418709 -0.12591453
0.08272352 -0.08491129 0.069908254 -0.11909994 0.12958282 0.023230553 -0.061235968 0.035413563
-0.03233694 -0.07843666 0.031483714 0.060131352 -0.012253071 -0.044699263 -0.027573675 0.015668461
0.06453009 -9.9161276e-05 -0.1485541 -0.21165046 0.06934568 -0.30485785 -0.13081197 -0.20206961
0.0364835 0.24929339 -0.13274811 0.14746988 -0.58382744 0.15018451 -0.8562697 -0.29189396
0.06350575 0.0027516298 0.010489826 -0.06977654 -0.10719554 -0.38015905 -0.23630239 0.011749482

encoder.0.bias f4 [128]
00000000: abb6 7db9 2686 c1b8 c502 cf38 bc5c b1b9
00000010: a02d 44b8 b205 1bb9 0274 f939 bb68 8e38
00000020: 1f94 7eb8 567c f0b8 1b7f cfb8 f8e4 83b5
00000030: 1b66 8139 eb59 4ab8 2cf8 17b7 d965 1639
00000040: 2042 d2b7 982a 7e38 808c 0cb7 f2f6 ddb8
00000050: b2ef 64b8 ea02 8538 136b c4b8 abe8 9438
00000060: f810 3e37 d496 74b9 500d 17ba 83b8 6b38
00000070: aea2 1d39 b8b3 0939 39ed 2f39 d1db 9ab9
00000080: f0b6 28b8 00dc f035 d6e8 56b8 43d4 06b9
00000090: a3af 1c39 e003 3d39 625a 6e39 6c86 3bb9
000000a0: 7ed2 de39 fddf 51b9 4748 0139 9484 efb8
000000b0: 75d9 44b9 2a21 4439 72b5 9439 0819 5c39
000000c0: 424c 4539 64b5 4bb9 ae2d 6439 a1e8 c9b8
000000d0: fc86 07b8 0aae ba37 6cf7 4f39 160b 7038
000000e0: a698 af38 50d5 7f39 0758 26b9 9369 04b9
000000f0: 0573 bab8 a296 15b9 503b 9d37 b029 9ab8
00000100: 1cd4 9139 5426 1938 1aa8 dfb9 e208 18b8
00000110: 438a 0fb9 2410 00b9 0eb2 5538 d299 1eb8
00000120: 8c57 6a38 8ae9 ce39 57a2 06b9 1762 1839
00000130: c010 a038 f8d3 a8b7 fec5 78b9 0835 e339
00000140: f458 1439 4458 f738 3411 0238 a69b b237
00000150: 9b5a 5f38 2611 08b9 7832 8838 38c6 cb38
00000160: a894 8fb8 cb8e 0639 7468 ad38 80e9 a037
00000170: 3347 27b9 7c72 2dba b1a9 a0b8 2e49 80b9
00000180: 9175 40b8 736d 1539 bf77 07b9 873c cf39
00000190: 17d9 c638 8a6a 36ba 1a73 1239 ff4a e8b8
000001a0: 58cc ddb7 790e 7339 78be b4b8 a303 51b9
000001b0: 889d d5b7 b170 8d39 e8d8 41b9 57b3 06ba
000001c0: 4a32 84b9 92db dcb9 3d77 c4b9 6223 91b8
000001d0: f5fb ba3a d400 94b9 784c 8d37 e572 0fba
000001e0: f0d1 7939 85ab 98b9 ebfc 0e39 27a0 e539
000001f0: e69c a838 25af 4fb9 8074 e338 2e5b 0f39
-0.0002419601 -9.227944e-05 9.871045e-05 -0.00033829163 -4.6772533e-05 -0.00014784074 0.00047579414 6.790595e-05
-6.0696268e-05 -0.00011467251 -9.8942044e-05 -9.826899e-07 0.00024680872 -4.8244296e-05 -9.058083e-06 0.00014343056
-2.5064743e-05 6.0597988e-05 -8.377363e-06 -0.00010584098 -5.458267e-05 6.342477e-05 -9.3659524e-05 7.100528e-05
1.1328833e-05 -0.00023325841 -0.00057621766 5.6200206e-05 0.0001503329 0.00013132289 0.00016777673 -0.00029536945
-4.0224695e-05 1.7945422e-06 -5.123842e-05 -0.0001285831 0.00014942749 0.00018025888 0.00022731119 -0.00017883786
0.0004249997 -0.00020015235 0.00012329324 -0.00011421103 -0.00018773026 0.00018704371 0.00028363947 0.0002099016
0.00018815792 -0.00019427162 0.00021760791 -9.6277574e-05 -3.2312222e-05 2.2253971e-05 0.0001983323 5.7230784e-05
8.373083e-05 0.0002439816 -0.00015863786 -0.0001262783 -8.890595e-05 -0.00014265862 1.8743478e-05 -7.351057e-05
0.0002781459 3.651374e-05 -0.0004265912 -3.6247897e-05 -0.00013689049 -0.00012213044 5.0948984e-05 -3.7813392e-05
5.5871482e-05 0.00039465382 -0.00012839712 0.00014532391 7.6325145e-05 -2.0125866e-05 -0.00023724881 0.00043336325
0.00014147518 0.000117943186 3.1010437e-05 2.1291733e-05 5.3251726e-05 -0.00012976359 6.494386e-05 9.7167154e-05
-6.846461e-05 0.0001283243 8.268739e-05 1.9182218e-05 -0.00015952885 -0.0006616486 -7.661002e-05 -0.00024468586
-4.588586e-05 0.0001425052 -0.00012919212 0.00039527213 9.481812e-05 -0.00069586246 0.00013966524 -0.00011076591
-2.6440408e-05 0.00023179677 -8.6185464e-05 -0.00019933148 -2.5464935e-05 0.00026977577 -0.00018486718 -0.0005138418
-0.0002521447 -0.00042125263 -0.00037472873 -6.920729e-05 0.0014265763 -0.00028229377 1.6844118e-05 -0.0005472138
0.00023824698 -0.0002911949 0.00013636395 0.00043797606 8.040089e-05 -0.00019806305 0.00010845903 0.0001367151

encoder.1.weight f4 [128]
00000000: ba95 793f fa35 0e3f ac32 2f3f c432 3d3f
00000010: 8da4 303f 0339 7f3f 7293 593f 4915 533f
00000020: d1e0 643f 57ac 6e3f cee2 813f b8ef 403f
00000030: a8eb 213f b8bf 783f 3362 873f 92ff 363f
00000040: ee73 2c3f 698b 753f d14e 643f e112 613f
00000050: 8065 9d3f a07f 813f c0c3 313f 3e6a 433f
00000060: f21c 3d3f 48ee 383f 4e1b 413f e68f 843f
00000070: 4586 3f3f 4115 6a3f 4cc0 193f cb3e a23f
00000080: 4cca 863f 22f4 343f db0d 203f f9b7 5b3f
00000090: 343e 653f 4b67 9d3f 6d53 533f cc7b 593f
000000a0: 3396 4f3f b32b 123f 9f7f 1d3f 7958 423f
000000b0: 058e 3a3f 1d33 173f 1aae 223f 8347 073f
000000c0: 040e 2a3f e86e 583f 4df1 5d3f f193 303f
000000d0: 9f8c 9f3f 4eeb 473f 8f38 6f3f 71c6 443f
000000e0: d966 393f 152a 2d3f 9a09 233f 4b25 293f
000000f0: ccd4 1b3f efdd 163f 1782 6d3f 34cd 4e3f
00000100: 4af2 323f 4251 203f 6020 443f adcd 333f
00000110: ecc4 493f e9cd 613f e759 213f ed9d a93f
00000120: 791b 353f 3f47 573f 03a7 283f 9a41 363f
00000130: e4c5 323f 7f0e 283f a7ca 2b3f 69f5 513f
00000140: 9a8e 6d3f b0b4 373f 15a7 3a3f 43a1 153f
00000150: 9e0d 303f e813 303f 7a41 193f ad9d 813f
00000160: f81e 333f e2a2 4b3f e43a 213f fcd1 333f
00000170: 460e 533f 57fa 5c3f b06a 273f 025b 263f
00000180: a81c a53f 10a0 3e3f ee4d 933f a9be fe3e
00000190: ebfe 2f3f 4a9e 663f ca1f 263f 7859 273f
000001a0: b26d 133f 092c 053f 748c 7c3f 622f 273f
000001b0: 322a 3c3f 2e11 323f 457d 3d3f 1d6d 8b3f
000001c0: 8db3 423f a054 373f dc24 373f d3eb 1c3f
000001d0: 9728 713f 6d05 653f 1655 a53f bdda 893f
000001e0: fa86 1d3f f009 643f 31ff 2b3f 28d8 113f
000001f0: cea7 3f3f 256c 513f f048 333f de99 133f
0.9749409 0.5555111 0.68436694 0.7390559 0.69001085 0.9969637 0.8499061 0.82454354
0.8940554 0.9323172 1.014734 0.7536578 0.6325021 0.9716754 1.0576843 0.7148372
0.67364395 0.9591585 0.89182764 0.8791943 1.22966 1.0117073 0.69439316 0.7633399
0.7387229 0.7223859 0.7543229 1.0356414 0.74814254 0.9143868 0.60059047 1.2675413
1.0530486 0.7068502 0.6252114 0.85827595 0.8954804 1.2297148 0.8254917 0.84954524
0.8108856 0.5709793 0.6152286 0.7591625 0.72872955 0.5906237 0.6354691 0.52843493
0.66427636 0.8454423 0.8669632 0.6897574 1.2464789 0.7809342 0.93445677 0.768653
0.7242256 0.6764234 0.63686526 0.6607253 0.6087158 0.58932394 0.92776626 0.80781865
0.69900954 0.6262399 0.766119 0.7023571 0.78816104 0.8820482 0.63027805 1.325132
0.70745045 0.8409309 0.6587984 0.7119385 0.6983321 0.6564712 0.671061 0.8201509
0.9279572 0.7176008 0.72911197 0.5844919 0.6877078 0.68780375 0.59865534 1.0126244
0.6996913 0.79545414 0.62980485 0.70242286 0.82443655 0.8631949 0.6539717 0.64982617
1.289937 0.74462986 1.1508157 0.49754837 0.6874835 0.9008528 0.64892256 0.65370893
0.57589257 0.5202032 0.98651814 0.65306675 0.73501885 0.69557464 0.7401927 1.0892674
0.7605522 0.716135 0.7154062 0.6129734 0.9420256 0.89461404 1.2916591 1.0769879
0.6153408 0.89077663 0.67186266 0.56970453 0.74865425 0.8180564 0.7003317 0.5765666

encoder.1.bias f4 [128]
00000000: 81c4 b5be 087e aebe 5526 91be 2201 5cbe
00000010: 62cc b9be 1ed6 52be 75d6 4abe 4fb2 ad3c
00000020: 8827 1fbe 8f52 56be fbf2 02bf 0064 f1bd
00000030: 729c d93c 2019 6cbe 6fb7 c3be b2ec 7fbd
00000040: 8b8c d3bd 332d a0bf 0e12 c8be fae6 8ebe
00000050: b953 a4bf c0db 68be e484 93be e5f4 4abf
00000060: 1a13 d5be 538f 28bf 5af0 6ebd 00bd 5cbf
00000070: 4322 58bf 0902 dcbe aa79 adbe 9f8f 093e
00000080: f78a eabe 7975 34bf 9848 51be 43fa 9cbe
00000090: c8f1 04bf 79e3 a1bf 8364 79bf b8c4 5e3b
000000a0: 6120 3cbf 1e8d 06bf 64eb 46be a10d 0dbe
000000b0: 5057 b0be 0501 eabe 0158 de3c fa66 e63d
000000c0: 090e f1bd 2991 1abc b627 45bf ff74 53bd
000000d0: ea55 9abf df43 1cbf 9b11 a2bf dcb2 19be
000000e0: 1733 debe fb6a ecbd 95cf 643d 4f34 b9be
000000f0: 1b45 1ebe 89b8 9fbd 0dbc 87be 4955 bdbe
00000100: 09d4 3e3c beca 1fbe f111 a7be 3aaf 54be
00000110: 8c11 e8be 0f47 58bf d8c3 cebe dde9 13bf
00000120: fb3d c7bd 9f53 1cbe 4136 32bf dc21 71bd
00000130: c6cf d4bc f24d adbd 1d1b 0dbf dc4d a9be
00000140: ce48 40be 4145 b43c 43b0 2dbf b564 28be
00000150: e237 63bf d57f a4be a737 25be 95fa 98be
00000160: 9bfb 6abd bf69 2fbf 93d1 82be c332 29bf
00000170: b5d1 2ebf fc81 87bf 2735 96be 90d8 41be
00000180: d136 02bf 3779 3fbe 4b0e c4be 880f 84bd
00000190: a4af 05be a11a 82be c7c8 c0be 9657 4abe
000001a0: 23c1 b4bd 25e2 3bbe 9a01 0abe fb7c 1abe
000001b0: 76b6 a9be ca18 8fbe 5e05 aabe 2b8e dcbc
000001c0: b459 0ebe aadc 74bf 53f0 35be ed2c c7bd
000001d0: 6090 d8be a397 65be d9da 15bf 34e7 e2be
000001e0: 85f8 5cbe 0863 07bf ac00 65be 6161 a53d
000001f0: 1598 3ebe 8bf0 2bbe 0400 a6bd a27d a2bd
-0.35501483 -0.3408053 -0.28349558 -0.21484807 -0.36288744 -0.20589492 -0.19808371 0.021203188
-0.15542424 -0.20929931 -0.5115201 -0.117866516 0.026563857 -0.2305646 -0.38225886 -0.06248159
-0.10329541 -1.2513794 -0.39076275 -0.27910596 -1.283805 -0.22740078 -0.28812325 -0.7927993
-0.41616136 -0.65843695 -0.058334686 -0.8622589 -0.8442728 -0.42970303 -0.33881885 0.13433693
-0.45809147 -0.7049175 -0.20437849 -0.30659685 -0.5193143 -1.2647544 -0.97418994 0.0033991765
-0.73486906 -0.5255908 -0.19425732 -0.1377473 -0.34441614 -0.45703903 0.027141573 0.1125011
-0.11770255 -0.009434023 -0.7701372 -0.051625248 -1.2057469 -0.61041063 -1.2661623 -0.15009636
-0.43398353 -0.115438424 0.05586203 -0.3617272 -0.15456049 -0.07798869 -0.2651066 -0.3697913
0.011647233 -0.15604684 -0.32630876 -0.20769969 -0.45325887 -0.84483427 -0.40383792 -0.5777872
-0.09728619 -0.15266274 -0.69614035 -0.05887018 -0.02597798 -0.084621325 -0.55119497 -0.33067214
-0.18777773 0.02200568 -0.6784708 -0.16444667 -0.88757145 -0.32128778 -0.16134511 -0.2987868
-0.057368856 -0.6852073 -0.25550517 -0.6609308 -0.6828874 -1.0586543 -0.29337427 -0.18930268
-0.50864893 -0.18698584 -0.38292155 -0.06448275 -0.13055283 -0.2541094 -0.3765318 -0.19759974
-0.088259004 -0.18347986 -0.13477173 -0.15086739 -0.3314702 -0.279486 -0.3320722 -0.02692326
-0.13901407 -0.95649207 -0.17767458 -0.09725366 -0.4229765 -0.22421126 -0.5853706 -0.4431702
-0.21579178 -0.52885485 -0.22363538 0.08075214 -0.18612702 -0.16790979 -0.08105472 -0.07934119

encoder.1.running_mean f4 [128]
00000000: 6986 3640 73b6 f23e e22b ca3e 2f14 dfbf
00000010: 3695 133f 382d 5a3f 69ca 02be d759 dc3b
00000020: dea4 ecbe d9db a0bf 2cde f83f eeed dcbe
00000030: e6a9 cebd f75c 7e3f 4e7d d93f 05d1 a33e
00000040: 5216 173e 7ac4 ac3f d4cd 09be 371b 09c0
00000050: 2f7d 0040 ddce 25bf e35e 823f 4b3d 6f3f
00000060: f07c 883f fdbc 953e 6e1f 103f 2844 0340
00000070: 74f0 3c3f 0e26 b0be 5105 9d3e 710e f0bf
00000080: e7d4 babf 4216 4f3f dcc6 ee3f 35d0 afbf
00000090: 05e4 0240 4850 ff3f 0499 8b3f ef3e 8bbe
000000a0: 4be7 6fbf 8c60 89c0 9cab 9f3e aac6 8840
000000b0: a075 0f3e 65fe 98bf 417f a1bd 9cf2 27be
000000c0: f25c f53f f2b9 0cbf 1d77 ca3f 9461 0d3f
000000d0: fc0b 1240 939c 5e3f 128b b53f 2389 98be
000000e0: 2079 4bbf 6c81 3f3f 01b6 123e a5a7 4c3f
000000f0: d8d6 b7bd b8e4 97be e8a2 d23e 9e14 bf3f
00000100: 1565 583e ea60 a8be 17ba e83f 5b97 ad3f
00000110: 4fe8 773f 79a1 debd 7975 453f 1776 57bf
00000120: f45a b9bf 3dcf f43e 2f6d 853f 1d23 d23d
00000130: 7376 ef3e 995c 21bd 4917 4a3f 85a7 c73e
00000140: 5308 8dbf 566f 723f 4529 7f3f 27ef 033f
00000150: 614a 7f3f b309 c63d 1f5c e63d ec15 1040
00000160: 4867 893f 8448 743f ef53 0f3e b724 ddbf
00000170: 85df 0e3f ec66 0340 48ba 393f 1c18 a0bd
00000180: 2e9d 8cbf cc10 cf3b 0e0e 42bf d2eb c0be
00000190: b6f7 b43c af66 6dc0 70e9 423f f084 593e
000001a0: fffc 2f3f e093 8ebd acec fbbf 1fd9 e53c
000001b0: b20a 8e3e 62e9 343f f9b6 2c3f 52f6 8f3f
000001c0: 348d 9e40 cc77 e0bf 82d3 c83f 66cf 5e3f
000001d0: 14a0 9d40 2746 6d3e d240 04bf 32c1 83bf
000001e0: 26dc febd 1475 e1be 5f9b 8cbd 04d5 b8bc
000001f0: dda2 5f3f 2166 87bf 7e99 8c3e 24b8 143f
2.8519537 0.47404823 0.39486605 -1.7428035 0.5764955 0.8522525 -0.12772526 0.006724577
-0.46219534 -1.2567092 1.9442801 -0.43150276 -0.10090999 0.99360603 1.6991365 0.31995407
0.14754608 1.349746 -0.13457423 -2.142286 2.0076406 -0.64768773 1.0185207 0.934529
1.0663128 0.2924575 0.5629796 2.051035 0.738044 -0.34404033 0.3066812 -1.8754407
-1.4596223 0.8089334 1.8654437 -1.3735415 2.0451672 1.9946375 1.0906072 -0.27196452
-0.937123 -4.2930355 0.31185615 4.274251 0.14009714 -1.1952635 -0.078856 -0.16401142
1.916899 -0.5497123 1.58176 0.5522702 2.2819815 0.86957663 1.4183066 -0.29792127
-0.794817 0.7480686 0.14327241 0.79943305 -0.08976525 -0.29666686 0.41139913 1.4928167
0.2113231 -0.3288644 1.818179 1.3561815 0.9683885 -0.10870642 0.77132374 -0.84164566
-1.4480882 0.4781436 1.0423945 0.102606036 0.46770057 -0.03939495 0.7894178 0.38994995
-1.1018165 0.94701135 0.9967235 0.5153679 0.9972287 0.09669819 0.112480395 2.251338
1.0734644 0.9542315 0.13996862 -1.727683 0.55809814 2.0531569 0.7254987 -0.078170985
-1.0985467 0.006319141 -0.75802696 -0.37679917 0.022090774 -3.7093923 0.7613745 0.21242118
0.68745416 -0.06961799 -1.9681602 0.028057633 0.27742535 0.70668614 0.67466694 1.1247046
4.9547367 -1.7536559 1.5689547 0.87035215 4.925791 0.23171292 -0.5166141 -1.0293334
-0.12444334 -0.44034636 -0.06865572 -0.022562511 0.87357885 -1.0578042 0.27460855 0.58093476

encoder.1.running_var f4 [128]
00000000: 416d a13e 2157 583e 7ba7 733e c3fb bb3e
00000010: 3222 4d3e b18b 883e 4762 343e 79d5 453e
00000020: a62b fa3d 3f12 b73d e626 923e 7202 2f3e
00000030: c5aa a13e 9223 ab3e 6b2b 0e3f 8d0a a33e
00000040: f3ab 8f3e f7da 8b3f b88b bb3e cc11 ae3e
00000050: fb6b 153f 710e cb3e 6e09 923e c1bc 853e
00000060: 03e5 e93e b326 9a3e 9928 9e3e 1bae 493e
00000070: 58b7 ac3e c79a 963e 5c52 383e 28a6 1d3f
00000080: 9290 1d3f ef9e 2e3f da8e 143e 94e4 263e
00000090: 1523 9f3e c2d4 2f3f 8307 ad3e b5f4 7f3e
000000a0: 90e1 8e3e a255 f23d 5fa0 683e fed8 0f3e
000000b0: 8558 693e d83f 803d 9991 9b3e 39a8 693e
000000c0: 58b3 1a3e e7c1 f63e f230 0f3e 5113 dc3e
000000d0: ccf9 3b3f 4eb7 6a3e 1138 7c3f df56 473e
000000e0: 1d06 a03e 734d 523e 92bb 0a3f 73c9 333e
000000f0: 6bf3 a73e 4de9 323e 1c1f 293e bfb6 8c3e
00000100: 8563 f73e 0747 3a3e fe99 9f3e 003d 943d
00000110: e537 893e ca35 a23e 4da8 283e a947 1c3f
00000120: 9c52 ea3e e284 063f 9871 1d3e 23ad 903e
00000130: 6955 523e 0e91 ac3e 5d27 2c3e 87f8 903e
00000140: 3224 ee3e b891 983e 61c8 833e 343c 993e
00000150: c8d8 e43e 2cb9 793e d22e 213e 491b 403e
00000160: 0b2c 913e e687 a13e 4f41 353e 6caf 8d3e
00000170: e4d9 5f3e 27b2 713f ca15 973e d9b4 853e
00000180: 772a 0e3f a92c 723e a033 c03e 4f8e 723e
00000190: e107 3a3e cc0c 023e feb4 3b3e 45ae 5c3e
000001a0: 45cf ac3e 67ca 9f3e 396d 043e 6147 983e
000001b0: 7966 6f3e 9a42 193e dbdc 563e bec1 ff3e
000001c0: 4a9b 1a3e b71f 863e 1ed4 803d c49f 723e
000001d0: b513 2f3e 67ae 953e 9e5e a33e 564f bc3e
000001e0: 9932 453e 91c3 803e 2934 683e 5350 693e
000001f0: 5493 5e3e 6a2b 133e 4dbc 8a3e 726a 7e3e
0.31528667 0.21126987 0.23794357 0.36715516 0.20032576 0.26669076 0.17615615 0.19319715
0.122153565 0.08939027 0.28545302 0.17090777 0.315756 0.33425575 0.55535 0.31843987
0.28060874 1.0926198 0.36630034 0.33997953 0.5836789 0.39659455 0.2852282 0.2612057
0.45682535 0.3010765 0.3089035 0.19695322 0.3373363 0.2941496 0.18000168 0.6158166
0.6154872 0.68211263 0.14507619 0.16298133 0.31081453 0.6868402 0.33794793 0.24995692
0.27906466 0.118327394 0.22717427 0.1404762 0.22787674 0.06262177 0.3038452 0.22818078
0.15107477 0.4819481 0.13983515 0.42983487 0.73428035 0.22921488 0.9852305 0.19466732
0.31254664 0.20537357 0.5419246 0.17557316 0.328029 0.1747181 0.16515774 0.27483174
0.48318115 0.18191157 0.31172174 0.07238197 0.26800457 0.31681663 0.16470452 0.61046845
0.4576615 0.52546513 0.15375364 0.28257093 0.20540394 0.33704418 0.16811891 0.2831461
0.4651199 0.29798675 0.25738814 0.29928744 0.4469664 0.24387044 0.15740517 0.18760408
0.28353915 0.31548995 0.17700695 0.276729 0.21860462 0.94412464 0.2950881 0.26114538
0.55533546 0.23649849 0.37539387 0.23687099 0.18167068 0.12700194 0.18330762 0.21550854
0.33751884 0.31209108 0.1293229 0.29741958 0.23378934 0.14966813 0.20982687 0.499525
0.150983 0.26196072 0.06290458 0.23693758 0.17097361 0.2923462 0.31908125 0.3677928
0.19257583 0.25149205 0.22676148 0.22784548 0.21735889 0.1437203 0.27096787 0.24845293

encoder.4.weight f4 [64, 128]
00000000: 62f3 f33c a8f1 093e 44b8 ee3b c405 1c3e
00000010: 9c56 4e3d c389 f2bd 2e65 c9bd b08c 29be
00000020: 9852 8f3c 7c43 81bd 86eb 3fbe ab62 cfbd
00000030: 32bb 69bf 919c a03b fe7b 14be 4711 dcbd
00000040: fd88 cfbd bb74 153e cc6c 0bbe ad6f 493d
00000050: 76c3 c5bd 20ff 62bd 0227 b3bd 4090 34bf
00000060: 31f6 74bc 3053 a33d 14d4 43bd 8935 01c0
00000070: e17a 42bc 90f5 283c 87cb 9a3e 88a6 c0bb
00000080: 3641 92bd 10eb afbc c85b ec3d 1bc0 ac3c
00000090: bd13 c5bb e626 14bd 40d1 4dbd 1911 3d3d
000000a0: 1063 a33d c97f fc3b 9e93 4abd cc60 a73c
000000b0: c52f babd 5af4 043e 6ec6 74bf 53fe 46bc
000000c0: c285 ce3d ad9a 46bd 71e6 a63b fbed f03c
000000d0: cc8d 5abd e2b0 3a3d d1d2 8e3d 1e9e 9fbd
000000e0: 643c 02bd dfac 863d 999c 183d 26b9 313d
000000f0: de7d 9e3d bfa8 a4bc 2eef 90bd 78bf ab3c
00000100: 9586 053d e1fa 813c 6241 5f3d fb45 263d
00000110: d68a dd3d 6f97 a93d a88d a23d fc86 c4bd
00000120: d341 7f3d 88b4 c7bd 6c95 14be dbea bbbd
00000130: d19d 8b3d c78d 76bd 5355 c3bc 19df 843e
00000140: 56f9 833d a18b 80bc fc48 1ebf 4cf6 863d
00000150: dd3a 1b3d 036d df3c d9a9 82bd 3d96 5fbb
00000160: d847 d53c a6e1 813d 4367 e83d cd54 f23d
00000170: 4464 143d d19a 0c3e e607 a73d 7886 903d
00000180: c431 d13d bf5e 403d 7e06 66bc 5072 fe3c
00000190: 4b4f 2fbe 6895 e23b 3928 d1bd 5152 cb3d
000001a0: 8267 453d aae5 543c 582d a83c a90d 01be
000001b0: 761f 8a3d 868b f5be a2a8 7d3d 6908 7c3c
000001c0: 7998 0fbd 6318 613d a07a 083d 620d cbbf
000001d0: fedb fe3a 6b4c 683e 4cab 833d 0c32 a53c
000001e0: 9b50 9c3e 7188 463d 1dac 3c3d 09e4 c9bd
000001f0: 0bb6 8c3d 886d 71bd a354 4dbd 73e4 babf
00000200: 3702 ee3d 5f66 b83d b31a 683e 78d0 6b3c
00000210: cf3f fd3c 33b4 2bbc 5375 933c f7d4 cebb
00000220: 0143 cfbd 158d ec3c e834 853d 55ef df3d
00000230: 9677 d1bb 32f8 c93c 4a29 abbd c9ee cabc
00000240: e43e 923c 511c f2bc 3573 72be c6b1 c7be
00000250: 77bf c43c 08c6 ce3c ca3c 963d 7cfe 89bd
00000260: a4ae 523d 5eea a6bd 126c ce3d 0ab1 0f3d
00000270: 18c0 7e3d cc4e bcbd 0f75 633d 5419 c4bc
00000280: b161 29bd 1cf6 a83e 15f0 993d 60c0 be3d
00000290: 1531 343c 7502 08bd 0def 783d a389 e13c
000002a0: 6ad0 363d 62a9 18bf d649 0ebd 71ba e93d
000002b0: d46b aebc ce1a 9b3d 8d16 343c 24bf 74bd
000002c0: 441b c63c 6684 86bd 4be5 6bbd 3337 8c3c
000002d0: 474b bebc b094 56bc 6d3e 263e 8702 c33d
000002e0: 59a3 e53b bf90 c03c 0f42 1d3d 05b8 a23b
000002f0: d808 473d db76 e8bc c095 45bd 7aaf ad3d
00000300: 7cd9 abbb 4d96 883c d84c 2cbd 6407 25be
00000310: 7a81 49bd f5ad 0d3e cd94 613d 4ed5 323d
00000320: f092 90bc 9d15 1b3d 78db 2b3e 7ae9 edbc
00000330: aa95 863c 3fc2 cf3c 9618 3a3d bb06 ddbc
00000340: efbb f5bc bafc 003d afcc 04bc 2b32 823d
00000350: 3920 46bd 50f9 60bd 4130 8dba 43e7 2e3e
00000360: a5f4 973a b7e3 223d a9bb edbc c58e a3bc
00000370: 5609 623d 0c80 d5bc a9d4 dfbd ee8b 803c
00000380: c887 c6bc 12dc d3bc 4365 733c 1794 623e
00000390: 8a0c 933d 1a44 6bc0 704a 833d f0a3 f53c
000003a0: da5a 04bd 56de e63d 6c07 b1bd 439d ce3b
000003b0: dbb9 04bd b461 5cbe 68bb f53b ff39 683c
000003c0: 8d89 173e 3d83 f5bb c871 8cbd bb66 9b3b
000003d0: 8dd7 d93e 1c69 75bc 5862 043d e415 0f3e
000003e0: 9cd1 b1bc d84d b7bc cbeb 88bd f534 8dbc
000003f0: d80e 393b 66dc 193d 401e a0bd 5173 6a3b
0.02977914 0.13471091 0.00728515 0.15236574 0.050375566 -0.11842682 -0.098337516 -0.16557574
0.017495438 -0.063117 -0.18742189 -0.10126241 -0.9130126 0.0049014767 -0.14500424 -0.10745483
-0.1013355 0.1459531 -0.13615721 0.049178768 -0.09656422 -0.055419087 -0.087476745 -0.7053261
-0.014951275 0.07974851 -0.047809675 -2.0188925 -0.011870117 0.010312453 0.30233404 -0.005879227
-0.07141344 -0.021474391 0.115409434 0.021087697 -0.006014316 -0.03616991 -0.050248384 0.046158884
0.07977879 0.007705663 -0.049457185 0.020431899 -0.090911426 0.12983838 -0.9561528 -0.012145597
0.10084106 -0.048487354 0.0050933887 0.029410353 -0.053357884 0.045578845 0.06973804 -0.0779383
-0.031795874 0.06575941 0.03725872 0.043389462 0.07738851 -0.020099996 -0.0707687 0.020965323
0.03259905 0.015866699 0.054505713 0.040594082 0.108174965 0.08280837 0.07937175 -0.09596059
0.062318634 -0.097512305 -0.14510125 -0.091756545 0.068172105 -0.060193803 -0.023844397 0.2595146
0.064440414 -0.01569158 -0.61830115 0.06589946 0.037897933 0.02727366 -0.06380052 -0.0034116649
0.026035234 0.06341867 0.113478206 0.11832581 0.036228433 0.13730933 0.081558034 0.07056898
0.1021457 0.046965357 -0.014039634 0.031060368 -0.17120092 0.0069147833 -0.1021275 0.0992781
0.048194416 0.012994209 0.020529434 -0.12602867 0.06744282 -0.4795801 0.0619284 0.0153828645
-0.03505752 0.054954898 0.03332007 -1.5863459 0.0019444225 0.22685401 0.06429157 0.020165466
0.30530247 0.048469964 0.046062578 -0.098579474 0.068706594 -0.058942348 -0.050129544 -1.4600967
0.11621516 0.09003901 0.22666435 0.014392965 0.030914215 -0.010479975 0.01800028 -0.0063120085
-0.10120202 0.028875867 0.06504232 0.10934321 -0.0063924296 0.024654482 -0.08357485 -0.024772065
0.017852254 -0.029554518 -0.2367676 -0.39002818 0.024017079 0.025240913 0.07335813 -0.06737992
0.05143608 -0.08150171 0.100792065 0.035080947 0.062194914 -0.09194717 0.055531558 -0.023937859
-0.04135293 0.33000267 0.07516495 0.09314036 0.01099803 -0.03320547 0.06077485 0.02753145
0.044632353 -0.5963346 -0.034738384 0.11412514 -0.02129165 0.07573472 0.010991705 -0.0597526
0.024182923 -0.06568222 -0.057591718 0.017116165 -0.023229254 -0.013096973 0.16234751 0.095219664
0.007007998 0.02350652 0.038393077 0.0049657845 0.04859242 -0.028376987 -0.048238516 0.08480735
-0.005244432 0.016673231 -0.04206547 -0.161161 -0.049195744 0.1383589 0.055073548 0.043660454
-0.01764819 0.03786241 0.1678294 -0.029041994 0.016428787 0.025361178 0.045433603 -0.026980748
-0.02999684 0.03149102 -0.008105441 0.06357225 -0.048370574 -0.054925263 -0.0010771827 0.17080407
0.0011593295 0.039767947 -0.029020147 -0.019965539 0.055184685 -0.026062034 -0.109292336 0.015691724
-0.024234667 -0.025861774 0.014855686 0.22126804 0.07180126 -3.6760316 0.06410682 0.029985398
-0.032313205 0.11272876 -0.08643994 0.006305368 -0.032403808 -0.21521646 0.007499147 0.014173984
0.14798565 -0.0074924515 -0.068576396 0.004742471 0.42547265 -0.014978673 0.03232035 0.13973194
-0.021706395 -0.022375986 -0.06685599 -0.017237166 0.0028237607 0.037563704 -0.0781827 0.00357743

encoder.4.bias f4 [64]
00000000: 7b71 4fb8 1159 1cb8 b421 ae37 e0e2 8a36
00000010: 3502 d138 e856 9c39 ac49 a9b8 c025 a6b8
00000020: a200 3e38 fb9f 9138 3f14 d037 884b fdb8
00000030: 9d3c 10b9 0834 ea37 f8c0 c437 e4c2 1037
00000040: 4d70 3d38 b5d0 deb8 7cbd 42b9 006f 00b9
00000050: cbfa bd38 a27f bbb9 033b 25b7 baf3 ceb8
00000060: 9d7f c038 947f c4b7 67bf 22b9 5a3d 92b9
00000070: 0f9f b9b8 6584 44b8 94d9 28b9 3c39 afb8
00000080: 78c9 01b7 2f58 5539 4a9f 5139 d4cc 39b9
00000090: a4d6 c837 e6d5 c736 499a a938 0227 da36
000000a0: 14ce c5b8 de1b dfb8 11f4 19b9 7c0b 2938
000000b0: 3ced ffb6 4a54 45b9 11e5 fa38 7e5e 0e39
000000c0: d7f2 39b9 b0d6 2a36 16a0 cc38 fc0a ce38
000000d0: ccc1 5639 0de4 4638 1436 aab9 da89 6738
000000e0: 45af efb8 a329 75b8 3c5c 23b8 d30e fcb8
000000f0: 4ec1 c937 5908 2737 9786 61b9 f6ec 88b8
-4.9458333e-05 -3.7276248e-05 2.075811e-05 4.139132e-06 9.966308e-05 0.0002981939 -8.0722704e-05 -7.922528e-05
4.530012e-05 6.9439375e-05 2.480496e-05 -0.00012078049 -0.0001375549 2.7919203e-05 2.3454879e-05 8.628445e-06
4.51657e-05 -0.000106246596 -0.0001857187 -0.00012248382 9.058936e-05 -0.00035762513 -9.848506e-06 -9.868243e-05
9.179043e-05 -2.3424429e-05 -0.00015520827 -0.00027893 -8.8511144e-05 -4.6853344e-05 -0.00016102783 -8.355311e-05
-7.735907e-06 0.00020346114 0.00019991133 -0.0001771928 2.3941808e-05 5.955563e-06 8.087286e-05 6.5014474e-06
-9.432077e-05 -0.00010638659 -0.00014682139 4.0303436e-05 -7.62721e-06 -0.00018818784 0.00011963596 0.00013577376
-0.0001773344 2.5456939e-06 9.757296e-05 9.8248915e-05 0.00020480825 4.7419268e-05 -0.00032465218 5.5203076e-05
-0.000114290546 -5.845133e-05 -3.894813e-05 -0.000120190576 2.4051082e-05 9.955919e-06 -0.00021507811 -6.529123e-05

encoder.5.weight f4 [64]
00000000: 945c 7a3e 9c78 cf3e ecea ee3e 1dbf 953e
00000010: 630e 163f 6d01 243f fe2e 333f e69c 593f
00000020: a29b 8e3e 71e2 083f 16cc aa3e a635 a43e
00000030: af39 a93e 8f92 933e 8f00 dd3e 1be1 113e
00000040: 9208 803e 4b44 ff3e 7789 7d3e 1f58 f93e
00000050: a0c5 d33e 5af1 163f e67b a13e 2cda 493f
00000060: bcc5 693f d427 ab3e 6f7f 813e 3dbe 373f
00000070: 5156 b23e 9a96 3f3e a643 183f 2288 483e
00000080: a31f cb3e 3d89 1d3f 0b27 363f 779e 433f
00000090: 7de7 ae3e 34a0 c93e 9156 de3e c155 2b3e
000000a0: 6d08 703e 2800 dd3d 7485 a13e 1271 0a3f
000000b0: 7389 d53e 8461 333f fdec 283f a3d7 5e3e
000000c0: 2fd1 cb3e 2fba dd3e 6296 f13e 5d11 1d3f
000000d0: a212 4f3e 7322 b43e 9708 393f e25f ac3e
000000e0: 38d6 903e 8356 cd3e fa4e 873e 4674 e83e
000000f0: 2e43 e03e af40 a13f c83c 2b3f 437d 633e
0.24449378 0.40521705 0.46663606 0.2924737 0.586157 0.64064676 0.6999358 0.85005033
0.27853113 0.5347052 0.3335883 0.3207218 0.33051822 0.28822753 0.4316449 0.14246027
0.2500654 0.4985679 0.2475947 0.48700044 0.41361713 0.58962023 0.3153984 0.7884853
0.91317344 0.33428824 0.25292537 0.71774656 0.3483148 0.18709794 0.59478223 0.1958318
0.39672574 0.61537534 0.71153325 0.76413673 0.34160987 0.39380038 0.4342542 0.16731931
0.23440714 0.107910454 0.3154713 0.5407878 0.41706428 0.7007067 0.65986615 0.21761946
0.39808032 0.4330611 0.47185045 0.6135462 0.20221952 0.35182533 0.7227873 0.33666903
0.28288436 0.40105066 0.26427442 0.4540121 0.43801254 1.2597865 0.6688962 0.22215752

encoder.5.bias f4 [64]
00000000: 5c2d 943e de4d e7bc e037 5abe 40b7 d63e
00000010: 1c1b 0b3e 0703 e9bd 3cf2 67be 48f1 55be
00000020: e99c 7b3e 365a aabd a80a f73c dca2 7a3d
00000030: 7fdb 633e acf5 763f 6a1f 95bd 99c2 aa3d
00000040: 3bdd 8a3e 54eb b6bd b306 1e3e e339 213e
00000050: 54bf 0d3d 0cf6 93bd a291 783e 5891 60be
00000060: 6e54 61be 2b08 83bc 9797 fe3d 5d22 8abe
00000070: 4e03 14be ec41 613e 466f e9bc 4f8d 8c3d
00000080: 5ccb 62bd 1abd d83d eb10 453c b103 16be
00000090: 7962 f43c 9d47 67bd ba1c 73bd face 023e
000000a0: 74cf 0b3e 5e7f bd3f 8dae 7c3c 0fa2 4c3d
000000b0: 3768 9fbc efbc e4bd 5279 333c 7d72 023e
000000c0: 5f4a 973d 721f 93bd 7887 d53d 93a3 43be
000000d0: fc2a 0ebb 809b 35bd 240d 00be f576 303d
000000e0: e1e5 8b3e 0459 593d ff5a 443e 0443 113d
000000f0: 55e6 e4bd 991e a03d bb18 1abe fd87 563e
0.28940856 -0.028235372 -0.21310377 0.41936684 0.1358456 -0.113775305 -0.22650999 -0.20892823
0.24571575 -0.083179876 0.030156448 0.06119047 0.222517 0.96468616 -0.072813824 0.08337898
0.2712191 -0.08931604 0.15432243 0.15744738 0.034606293 -0.07224664 0.24274305 -0.21930444
-0.22004864 -0.015995106 0.12431257 -0.26979342 -0.14454386 0.21997803 -0.028495442 0.0686289
-0.05536972 0.10582943 0.012027959 -0.14649846 0.029832112 -0.05646478 -0.059353568 0.12774268
0.13653356 1.4804494 0.0154224755 0.04995924 -0.019458873 -0.11168849 0.010954218 0.12738986
0.07387232 -0.07183732 0.10426229 -0.19105367 -0.00216931 -0.04433775 -0.12505013 0.043082196
0.2732382 0.053063408 0.19175337 0.0354643 -0.11176745 0.07818336 -0.15048496 0.20950313

encoder.5.running_mean f4 [64]
00000000: 370b 80bf 3c64 10bf d0a4 72bf 15bc af3d
00000010: a2a8 7cbf 4a3b 8ebf e05f c8bf 807d bcbf
00000020: 98d4 7ebf 5773 8fbf 7e62 a5bf 9f22 a8be
00000030: 3301 1d3f 0488 87bf e93b 88bf c6d8 9abe
00000040: f79e dc3e ec24 43bf 901c 233e 2238 9d3e
00000050: 77bb dcbf 3d74 46bf 6c25 5ebf c317 9fbf
00000060: 3a40 acbf 32c8 16bf 7dc8 113d 95ae 95bf
00000070: dc8e 95bf ea7b 2c3f 3b41 90bf 25e8 25bf
00000080: d8af 28bf 5532 8cbf e438 b5bf 4cf9 efbf
00000090: 9e12 19bf be3c d2be f621 6fbf c12d 73bd
000000a0: cb12 1ebf 6003 8ebf e7ae e1be e6e9 bebf
000000b0: 7fb9 03bf 08d4 4abf 7017 a5bf 8b80 4abf
000000c0: a903 f7be ddff acbf d791 0bbf c038 97bf
000000d0: 3ba6 1dbf 65a2 81bf b6ed 56bf 9951 1cbf
000000e0: c74d 40bf f8d2 efbe 8aa1 a3bd 6948 f9be
000000f0: a578 aebf e1f8 85bf b66e 8cbf 6a0b 80be
-1.0003422 -0.56402946 -0.94782734 0.08580796 -0.98694813 -1.1111844 -1.5654259 -1.47258
-0.9954314 -1.1207074 -1.2920682 -0.32838914 0.61329955 -1.0588384 -1.0643283 -0.3024351
0.4309003 -0.76228213 0.15928864 0.30706888 -1.724471 -0.77521116 -0.8677585 -1.2429127
-1.34571 -0.58899224 0.03559159 -1.1693903 -1.1684222 0.6737658 -1.1269907 -0.6480735
-0.65893316 -1.095286 -1.4157987 -1.8747954 -0.5979403 -0.41061968 -0.93411195 -0.059369806
-0.61747426 -1.109478 -0.44078752 -1.491513 -0.5145492 -0.79229784 -1.2897778 -0.7910239
-0.4824498 -1.3515583 -0.5451941 -1.1814194 -0.6158177 -1.0127684 -0.8395647 -0.6106201
-0.7511868 -0.46840644 -0.079897955 -0.48688057 -1.3630568 -1.0466577 -1.0971286 -0.25008708

encoder.5.running_var f4 [64]
00000000: bc08 a940 d057 ab40 44d5 c540 d9f5 c540
00000010: 5e97 e040 9fbc 0b41 4fdd 1241 6d9f 3c41
00000020: 61b1 a240 17c8 f940 3bb9 c640 05ea a840
00000030: 8c90 8940 6849 c340 008d e440 e279 3440
00000040: 947a 8940 1be2 c140 49b0 7940 38ba 4241
00000050: 0542 1e41 0814 1b41 7485 d940 22cd 0e41
00000060: 391d 2441 8e1b af40 fc17 3140 1b4e de40
00000070: 096a 7a40 cfe9 5240 d679 0341 8a7c 4b40
00000080: 383e ac40 a5e2 3141 3af5 2a41 4bcf 3c41
00000090: e2d0 8f40 8c3c 2640 ab5f 1c41 0146 5040
000000a0: 9aed 8540 cd55 e03f 4447 8e40 527d 6341
000000b0: 5c85 ca40 792a e640 7ce4 1e41 3f94 6a40
000000c0: a071 9a40 d7ad 8e40 643c c140 5891 0041
000000d0: 5186 3f40 baac a140 868f cd40 8e3d 8f40
000000e0: 983b 9840 2856 c340 8938 5140 b726 c340
000000f0: 1e89 ed40 0aa0 c941 43bf 0d41 7d41 5740
5.282316 5.3544693 6.1822834 6.1862607 7.0184774 8.73355 9.17903 11.788922
5.0841527 7.805675 6.210111 5.278567 4.298895 6.1027107 7.142212 2.8199391
4.296213 6.058851 3.9013846 12.170464 9.891118 9.69239 6.7975407 8.925081
10.257134 5.4721136 2.767089 6.9470344 3.9127219 3.2955205 8.217245 3.1794763
5.382595 11.117833 10.68487 11.800609 4.4942484 2.5974455 9.773356 3.2542727
4.185254 1.7526184 4.4461994 14.218096 6.328779 7.1926847 9.930782 3.6652982
4.8263702 4.4587207 6.038622 8.035484 2.992573 5.052335 6.42377 4.476264
4.7572746 6.104267 3.2690756 6.098476 7.422988 25.203144 8.859195 3.363372

encoder.7.weight f4 [20, 64]
00000000: df5e 15bf 9716 b73e 4972 eabd b500 a9bd
00000010: 9c4a 00bd 8130 64be 679d 74bd 61e5 cd3c
00000020: 6662 363b 282a 1cbd 65f1 92bd e9a6 bd3e
00000030: 6058 8ebc fe55 973e 72ae 97bd 19a8 73be
00000040: 1fe0 0a3f c11c 213f 4b31 203f 334c 07be
00000050: 72be 54be 0045 6d3e 9608 653d 8cc1 09be
00000060: af52 123e d335 b7bd 0fc1 edbe 22ca 22bd
00000070: ce06 11be 6dd0 9f3d b449 eebd aabf dcbd
00000080: 09de e33d f7a9 52bd 82c4 23bf 989f 27bf
00000090: 0349 10be 63fe 863d dbe4 823d b9b4 553e
000000a0: bb14 9cbe bb51 e3bd d816 d5be 93e2 613d
000000b0: 5606 36be de26 b83e 2bfb 86be 2687 333e
000000c0: b147 0bbf 9aa5 6f3d fbe7 1ebe 028a 90be
000000d0: 360f f63c e63b abbe 7ce9 b93e 46d5 b2be
000000e0: 4769 eabe 0f46 d7bc 7038 9e3e 1304 04bd
000000f0: c5b3 f5bc 0375 983e 73cc 663c 8cdd 113f
00000100: 2756 053b 34df 5dbe be86 a9be c908 be3e
00000110: d846 2dbe 3380 46be 9b78 28bf 7320 8a3d
00000120: c660 03be a0ab 4a3e 3dee d9be 07fd 3bbe
00000130: 1702 133f e05d 003f 1921 eb3d 5039 7d3e
00000140: c0df c7bc 499b edbe 24e9 debe 6330 b1be
00000150: 573c acbc 6295 0cbf ab69 80bd 298a ea3d
00000160: e16c ca3e 44a6 a2be 04b5 103d cc16 c6be
00000170: b94d 20bd 246f da3e 7d94 bb3e e422 9bbe
00000180: 549d c0be 0aa8 98be ac47 aabe 1405 f4bd
00000190: 0479 13be e35d 62be 67d5 833e 0d58 1a3e
000001a0: 5645 1fbe a2fe 4dbe e2a7 833e 224d 94bd
000001b0: 71d4 f8bd d2f9 35be 80d1 c93d a900 8dbe
000001c0: 5bc1 9c3e 2383 853e 1d0b 433e ff3e f0bd
000001d0: a618 c33e 9320 3dbd fcb6 0ebe 2374 b53d
000001e0: 9490 c8be 6be0 52be 02cd 783d c184 24be
000001f0: 21b5 18bd 64ca 343f 6bd5 943e 75f1 9c3e
00000200: bdc7 5a3e 2ce9 4f3e a3d5 72be c1a5 2fbf
00000210: 8ee9 27be 71b0 e7bd d1bb 96be 53e0 0ebf
00000220: f180 f73d 36b9 a63d 69f2 96be 3f6c 17bc
00000230: 3eac 8a3e 4910 b9bd d433 0d3e 3488 153d
00000240: 5a3f babe be2d 023d 8340 af3d 4021 d3bd
00000250: 3a2d c3be 6039 df3d 8847 1b3e b476 27bf
00000260: 3638 b2be a758 3dbe e1ae 253e ae9f 81bd
00000270: aaeb 1bbe a969 983e 093b 01bf a94d b5bd
00000280: 9f1b c7bc c952 413e 2e50 7e3e ed89 0b3e
00000290: d391 233c 056f 24be c174 1abe 80c1 943e
000002a0: 8092 a8be 37f2 7dbf ff3f 413e a4cb f3bd
000002b0: bed0 a83d 22db 9dbe 7e31 883d 9950 89bd
000002c0: 2f57 7dbe 808f a2bd 2a7f 33be 17e0 afbe
000002d0: 31dd 833e 8dca 253d ee8d c3be 69f9 fdbe
000002e0: 929b 5e3e 32f6 ee3e d7b0 ad3d 01df f63d
000002f0: bb70 c3be 0929 6abd cb68 b83e 4eaf 9dbe
00000300: abd0 643d e77a 793e 6bc9 033f 8029 fcbd
00000310: d011 523c 7474 fb3e 2bf1 2bbe 0baa 0e3e
00000320: 506c 393f 319a aebd 117d ecbc 3c07 173e
00000330: eec7 183e f6bd 193e 74be fc3d edec b33e
00000340: fbef 553d 5246 6c3e 73b0 633e 5b36 aebe
00000350: ad85 38be 070c 33be 6278 f23e 3808 9a3e
00000360: 102a ae3e 9baf c6be 5a9b 953e f169 d8be
00000370: 9487 8b3e 35a2 0a3e 95e9 8bbe 43a5 133f
00000380: 83de 413e e66c 483f 53fe ff3d 2bff 9d3d
00000390: 08c5 f5be 46f3 a5be 253e 003f 5401 f9bd
000003a0: f3db a33d 7da0 943e 7a9b 8ebe fdcd 27be
000003b0: ce93 18bd dd9d 4fbe 05d2 0fbf d1cd f0be
000003c0: 455c 6cbe e142 f13e 82c0 003e 17bc 3e3d
000003d0: 92b9 763e 94c6 8a3d 23ff 7a3c a2ce 1abe
000003e0: adb3 b53d 2ea5 f3bd 981f 993d 67f2 383e
000003f0: a539 a8be a1f5 ffbb f7f1 6b3e 5f58 cabd
-0.58347887 0.35759422 -0.114475794 -0.08252088 -0.031321153 -0.22284128 -0.059720423 0.02513379
0.0027829646 -0.03812614 -0.071749486 0.37041405 -0.017376125 0.29557794 -0.0740632 -0.23794593
0.5424823 0.629345 0.62575215 -0.13212661 -0.20775774 0.23170853 0.05591639 -0.13452739
0.14289354 -0.08945813 -0.46436355 -0.03974355 -0.14162752 0.07803426 -0.116351515 -0.107787445
0.11126334 -0.051431622 -0.6397172 -0.65477896 -0.14090352 0.06591489 0.06391307 0.20869721
-0.30484566 -0.11099573 -0.4161899 0.05514772 -0.17775854 0.35967153 -0.263635 0.17532024
-0.5440627 0.05850754 -0.15518181 -0.28230292 0.03003655 -0.33444136 0.36310947 -0.3492834
-0.45783445 -0.026278524 0.30902433 -0.032230448 -0.029992947 0.29776773 0.01408683 0.5697868
0.002034554 -0.21667176 -0.33110613 0.37116078 -0.16921556 -0.19384842 -0.6580903 0.067444704
-0.12829885 0.19792032 -0.42564574 -0.18358241 0.57425064 0.5014324 0.11480922 0.24728894
-0.024398685 -0.46407536 -0.43537247 -0.3460723 -0.021024866 -0.5491544 -0.062701546 0.11452133
0.39536193 -0.31767476 0.03532888 -0.38689268 -0.039136622 0.4266292 0.36636725 -0.30300057
-0.37620032 -0.29815704 -0.33257806 -0.11915031 -0.14401633 -0.22106127 0.2574875 0.15072651
-0.15553793 -0.20116666 0.25714022 -0.072412744 -0.12149895 -0.1777108 0.09854412 -0.27539566
0.3061627 0.26076612 0.19047208 -0.117307656 0.38104743 -0.046173643 -0.1393699 0.08860042
-0.39172804 -0.20593421 0.060742386 -0.16066267 -0.037282113 0.70621324 0.29069075 0.30652967
0.21365257 0.20303792 -0.23714308 -0.68612295 -0.16397688 -0.113129504 -0.29440168 -0.5581104
0.120851405 0.08140795 -0.2948182 -0.0092421165 0.27084535 -0.09036309 0.13789302 0.036506847
-0.36376458 0.031781904 0.085572265 -0.10309076 -0.38120443 0.10899615 0.15164006 -0.654155
-0.3480851 -0.1849085 0.16179992 -0.063292846 -0.15226617 0.29768112 -0.50480705 -0.08852703
-0.024305163 0.18879236 0.24835274 0.13626833 0.009983498 -0.16057976 -0.150836 0.2905388
-0.3292427 -0.99197716 0.18872069 -0.11904076 0.082429394 -0.30831248 0.06650065 -0.06704826
-0.24740289 -0.07937527 -0.17528978 -0.34350654 0.25754693 0.04047637 -0.3819422 -0.49604347
0.21739033 0.46672207 0.08480995 0.12054253 -0.38171944 -0.05716804 0.3601745 -0.3079781
0.055863064 0.2436329 0.51479214 -0.12312603 0.01282163 0.49112284 -0.16791217 0.13932054
0.72430897 -0.085255034 -0.02886823 0.14748853 0.14920017 0.1501387 0.123410136 0.35141698
0.052230816 0.230737 0.22235279 -0.34025845 -0.18019743 -0.17485057 0.4735747 0.30084395
0.34016466 -0.3880585 0.29220086 -0.42268327 0.27251875 0.1353844 -0.27326646 0.57674044
0.18932538 0.78291166 0.1249968 0.07714685 -0.48001885 -0.32412165 0.50094825 -0.121584564
0.08000936 0.29028693 -0.27852994 -0.16387172 -0.037250333 -0.20275064 -0.5617984 -0.47032025
-0.23082073 0.47121337 0.12573436 0.046566095 0.24094227 0.06776157 0.015319618 -0.15117887
0.08872161 -0.1189674 0.07476729 0.18061219 -0.3285648 -0.0078112637 0.23041521 -0.09880137

encoder.7.bias f4 [20]
00000000: 1d32 ccbe a915 33bf 5412 68bf 0c47 0a3e
00000010: cecf 1ebf b20f d83e e540 a0be 1319 b0bf
00000020: 8b4e e23c 5a54 24bd 1755 873f db38 89be
00000030: 2b88 39bf 9571 bc3f 325d c8bd 8c29 07bf
00000040: b842 c5bf bef8 d83f 19f5 0240 a144 0b3f
-0.39881983 -0.69954926 -0.90652966 0.13503665 -0.62035835 0.42199475 -0.3129951 -1.3757652
0.027625343 -0.040119506 1.0572842 -0.2680119 -0.724734 1.4722162 -0.097834006 -0.5279777
-1.5410986 1.695091 2.0462096 0.54401594

mu.weight f4 [20, 20]
00000000: 4ccc 463c a9df a2be 6c2b 033f 8e35 573e
00000010: 8bf9 d6be 5c8a 9bbd c1d3 2fbf 55b4 da3d
00000020: e5c7 373d 22dc fa3e 5024 5b3e eea1 993e
00000030: 7135 9cbe 7a4f ac3e 9b01 af3e 6e55 35be
00000040: 5739 dabe 21f6 843e 6104 b9be ad71 5d3e
00000050: 5a9b 23bf 5d88 f33d cd4d d73b bbb4 913d
00000060: 4fc3 813e 0f06 d13e 5736 b4bc 88d8 1e3e
00000070: 4b8d d0bd 1dbb e5be 0f41 f43e 5850 ce3e
00000080: 58fc 1cbf 2ab1 a4be 383f 58be bbd7 3ebe
00000090: a061 2bbd 6529 5bbd a60f 96bd 46ca 2c3e
000000a0: 696f bd3c 5282 e8ba 8929 ab3c e2ff 053c
000000b0: 3cbf c13b 62f1 d6bb 8325 f83a 1cb1 44bb
000000c0: 5815 8fbc effc 943c d881 853c 2656 0a3d
000000d0: 068e 403c 6c01 fe3b e19c 8bbc 512d 0f3c
000000e0: 30f5 243a 289c aa3b a4f7 f239 1b28 d43b
000000f0: 4bb1 c4be 06c1 38bf da57 d53d 400f 783e
00000100: da25 133e ac9b 54bd 5b08 d13e 8765 41be
00000110: b91b f7be 8ff5 f03d 433e 9f3e e441 33be
00000120: 4143 fd3e fc75 2dbd 52b1 473e 9d29 16be
00000130: ba71 263e 009c 89bd da5d fbbe 446e 20bc
00000140: dc75 0cbf c975 2e3d 0cde 02bf 543c dabe
00000150: 0915 17be 9ed2 b9be 8f38 b2bd 2fd3 383e
00000160: 6006 4a3e 4d2b 743e 51c1 e5bd 36b1 283f
00000170: 5cc6 c03e 197e a1bd 35a8 813e 0b16 25be
00000180: bddf 103e 6557 853e d27d 20bd f08c 99be
00000190: 34fc 913e 9552 9bbe a4a3 30be 430f e93e
000001a0: 4fd8 41be e198 89be aff7 16bb e61c b2bd
000001b0: 59f5 523e b8ed 45bf cc9f 08bf 79e2 b53e
000001c0: fb2c 02bd f69a 5b3a 8602 39be 853b 00bf
000001d0: dfee 14be f576 9bbd d8b0 d6be 8bcd e4bd
000001e0: 1940 d73d bf65 95be 735f 9dbd ab66 893e
000001f0: 209d 4f3e c749 c63d 19c7 b13e a78a ac3e
00000200: 0485 e93e 4b19 81be 54e9 4a3d 0cae b73d
00000210: bed4 2bbe a70a 3d3e 93c1 da3e 9e79 383f
00000220: 4335 3d3e 1d3a 183f c093 eabc 1927 3a3e
00000230: 67ce 163f 9261 05be 43f6 d1bd 238f 7d3e
00000240: 54a3 8bbe a4b9 04be 0788 df3c 5a4f 5a3e
00000250: 3c84 b2be 5d5e 503e 4ccf 933e bd5e 1d3e
00000260: 3332 4c3d 3924 66bf b29a ccbe 649d 23be
00000270: 8808 4abd 44da 393f 34c4 983e f642 42bd
00000280: 5ea6 4abe cb42 ae3e e80f 35bc 488b f43e
00000290: cc2b f0be 98d2 d43e 5748 233e 3270 e13e
000002a0: 0af1 493e 6b96 72bc a1de 6cbe 50f5 72be
000002b0: 734c cf3e 7ae6 eabe 91de 073f 3044 16be
000002c0: 2a23 c7be 2ef3 8fbe 9024 aabb 4f9a 703e
000002d0: 59f3 7bbe e4b5 cabe 9d97 9c3e b6c8 aebe
000002e0: 3dfd bdbe 8e8b f6be 490f 803e 47d8 9c3e
000002f0: ef38 8abe 5440 85be e5eb 60be b9ac 18bd
00000300: fd0e 74be 0b27 35be cbc7 2d3d ca75 ac3e
00000310: 550c c6be 0dad 57be 00b0 8a3e 62a5 653d
00000320: 8f5f b63d a8ba 953e 64b4 aa3e 9520 a33e
00000330: 264c 173e e3d4 c63d 4a61 34be f17b a43e
00000340: 5d4a 4cbf 614d d3be 77f7 603d c947 b63e
00000350: 2d14 ef3e 7a6e df3e f20c 303e 7a20 ba3d
00000360: 4d6b 533c 5fb4 ef3d 5eee a83e 29fe a0be
00000370: 24c5 6b3d 4db4 00bd b7f4 053f 86f9 8a3e
00000380: 3b7d 58bc e87f 90be 6327 a33e 7a26 563d
00000390: 46b0 0f3f dd7b 023e 6c77 c23e 1808 a13e
000003a0: d2da c5bd 99b1 7cbd 0e1c 913d 3b1f cbbe
000003b0: ccf2 883e 3998 82be 5cef d33e 68a3 f0be
000003c0: c8fb 8dbc 0c08 783e 23c2 743d a3d8 0a3e
000003d0: 6d0c 1f3f 6d36 c5be 3540 6a3e 6f70 c2be
000003e0: 849d 9abe d771 583e 6606 ffbe d717 ba3b
000003f0: 9fff dbbe 8993 58be fea2 1a3f 00dc 8abe
0.012133669 -0.31811264 0.5123813 0.21016523 -0.4198726 -0.07594749 -0.68682486 0.10678927
0.04486837 0.48996073 0.21400571 0.30006355 -0.30509523 0.33654386 0.34180912 -0.1770837
-0.42621872 0.2596903 -0.36136153 0.21625395 -0.6390892 0.118912436 0.006570554 0.0711455
0.2534432 0.40824935 -0.021998568 0.15512288 -0.101831995 -0.4486932 0.47705886 0.40295672
-0.61322546 -0.32166415 -0.21117866 -0.18636982 -0.04184115 -0.053506274 -0.073272035 0.16874036
0.023124414 -0.0017739034 0.020893829 0.008178683 0.0059126895 -0.006559537 0.0018932078 -0.0030012792
-0.017466232 0.018187014 0.016297266 0.033773564 0.011752611 0.0077516343 -0.01704258 0.008738832
0.00062926393 0.0052066036 0.00046342344 0.0064745075 -0.38416514 -0.7216953 0.10417147 0.24224567
0.14369908 -0.051906273 0.40826687 -0.18886386 -0.48263338 0.117655866 0.3110219 -0.17505604
0.49465373 -0.042348847 0.19501236 -0.14664312 0.1625432 -0.06719208 -0.4909504 -0.009791914
-0.5486734 0.042592797 -0.51120067 -0.42624152 -0.14754118 -0.362935 -0.08702194 0.1804931
0.19728994 0.23844643 -0.11218513 0.658954 0.37651336 -0.07885379 0.25323644 -0.1612169
0.1414785 0.2604324 -0.03918249 -0.2999034 0.28512728 -0.30336443 -0.17249924 0.45519456
-0.18930171 -0.2687445 -0.0023035815 -0.08696918 0.20601405 -0.77315855 -0.5336883 0.35524347
-0.031781178 0.0008377278 -0.18067369 -0.5009082 -0.14544247 -0.07591049 -0.41931796 -0.11172017
0.105102725 -0.2917919 -0.07684221 0.26836142 0.20274782 0.09682041 0.34722212 0.33699533
0.45609295 -0.2521461 0.049538925 0.08968744 -0.16780373 0.18461095 0.4272581 0.72060573
0.18477349 0.59463674 -0.028634906 0.18178977 0.58908695 -0.13025501 -0.10252049 0.24761634
-0.27273047 -0.12961441 0.027286543 0.21319333 -0.34866512 0.20348497 0.28869092 0.15368171
0.04985256 -0.8989902 -0.39961773 -0.15978009 -0.049324542 0.7259867 0.2983719 -0.04742714
-0.19790027 0.34035334 -0.011051156 0.47762513 -0.46908414 0.4156692 0.15945564 0.4403091
0.19720855 -0.01480637 -0.23131801 -0.23726392 0.40488014 -0.45878965 0.53073984 -0.14674449
-0.38894016 -0.2811522 -0.005192347 0.23496364 -0.24604549 -0.39591897 0.30584422 -0.34137505
-0.37107268 -0.48153347 0.25011662 0.30633757 -0.26996562 -0.2602564 -0.21964987 -0.037274096
-0.23833843 -0.17690675 0.042426866 0.33683616 -0.38681284 -0.21062107 0.27087402 0.056065924
0.08904945 0.2924397 0.33340752 0.31860796 0.14775142 0.09708574 -0.17615238 0.3212581
-0.7980097 -0.41269973 0.0549235 0.35601643 0.4669508 0.43638974 0.17192438 0.09088226
0.0129040005 0.11704325 0.3299436 -0.3144391 0.057561055 -0.03142195 0.5232653 0.27143496
-0.013213451 -0.28222585 0.31865987 0.052282788 0.56128347 0.12742563 0.37981737 0.31451488
-0.09660877 -0.061692808 0.07085429 -0.39672264 0.2674774 -0.25506762 0.41393554 -0.4699967
-0.017331973 0.2422182 0.059755456 0.13559203 0.62128335 -0.38518086 0.22876056 -0.37976405
-0.301983 0.21137176 -0.4980957 0.0056791115 -0.4296846 -0.2115003 0.60404956 -0.27120972

mu.bias f4 [20]
00000000: 0809 2d3f 0692 4c3e 18a6 713d 27df 36be
00000010: 9de2 4fbe b479 54bc f398 9c3e adb0 523c
00000020: 260d aebe 5d71 0d3d fcf5 a73b acfa fabe
00000030: e224 e53e 9d08 853e 1e94 9fbe aa3f 6dbc
00000040: e2d4 793e 1973 eebe 3221 56bf 19ce 94be
0.67591906 0.19977579 0.05899629 -0.17858563 -0.2030129 -0.012968469 0.3058544 0.012859506
-0.33994406 0.03453194 0.005125759 -0.49019372 0.44754702 0.25983134 -0.31167692 -0.014480511
0.24397615 -0.46572188 -0.836444 -0.2906349
