model/pos/vae_hd64_ld16_gamma0001.pth (torch, 42951 bytes, 10 tensors)

encoder.fc1.weight f4 [64, 51]
-0.44426745 -0.37021774 -0.0245711 -0.10603723 -0.16008903 0.06047238 0.027138159 -0.04738827
0.015899658 0.0015029564 0.0123256445 -0.102415316 -0.08455353 -0.26741332 0.011037192 0.030783072
-0.018482625 0.012493933 0.30784252 -0.010121655 0.09679517 0.2164823 0.1112009 0.37457982
0.3597179 0.24662721 0.015624373 -0.12560813 0.14018893 0.18688148 0.24778435 -0.29616392
0.2312055 0.028620016 -0.04338079 -0.2113002 -0.015504709 -0.028348891 0.2512346 0.03548803
-0.10229897 0.12387962 0.090919055 1.1851722 -0.51493883 -0.22427611 -0.2561986 -0.010433658
-0.06600292 0.07741418 0.02933431 -0.13445665 -0.021343624 -0.0060158474 -0.12578532 0.20155138
0.45707765 -0.1370498 -0.11023876 -0.01385393 -0.075278394 0.033294614 0.26706368 -0.07223397
-0.07288473 -0.49412644 -0.3421408 -0.34931087 -0.019359533 0.06097218 0.17295906 -0.030830719
0.22516215 0.09970957 -0.072034135 0.46433437 0.27894986 -0.2707297 0.009228276 -0.28655618
-0.027314065 0.10302758 -0.079993166 -0.1834159 0.10634421 -0.36761436 -0.24128167 -0.09354825
0.098172456 -0.072965875 0.10214926 -0.061787117 0.06161743 0.43911234 0.43354324 0.23147774
0.091386795 0.122895055 0.17273563 0.040531367 -0.22834902 -0.18406425 0.008729349 -0.1972715
0.009313233 -0.35072485 -0.24070372 -0.40690032 -0.11958265 -0.07954716 0.10033366 -0.21216726
-0.11297243 0.58347857 0.4846134 -0.1342421 0.21724693 0.05468023 1.4590034 -0.2001981
0.11656626 0.09585573 -0.0023990914 0.14171931 -0.023911413 -0.17029555 -0.24720821 -0.21561122
-0.32456058 -0.35602295 -0.03147607 -0.4742041 0.1425333 -0.2281165 -0.030131808 0.12675908
0.086591385 -0.004673405 0.058236435 0.012282931 -0.077332385 0.16877155 -0.23014934 -0.120279185
-0.03893995 -0.3404104 -0.066784516 -0.19743583 -0.014805465 0.08380986 -0.05280478 -0.06932912
0.05839194 -0.12693655 -0.31490302 0.1680583 -0.0015565616 -0.0068129827 -0.14289244 0.07703593
-0.19798182 0.15139627 -0.022059463 1.6260549 0.24671032 0.0044263043 -0.13433976 0.09815561
-0.077813886 -0.121433064 -0.23230349 0.043091554 -0.1356524 0.1943504 -0.028697146 -0.16324912
-0.1349683 -0.12238167 -0.04138351 -0.15178996 -0.030015206 -0.14535446 -0.022355858 -0.07512854
-0.13778238 -0.07997283 0.094103135 -0.37662318 -0.07473973 0.033605054 -0.19706813 0.028270967
0.0051721893 -0.1364073 0.06610859 0.056733377 -0.32814232 0.14789914 -0.025216654 -0.14416929
0.11585424 0.013218329 -0.16477521 -0.0055812215 0.15853122 0.071163885 -0.13725366 -0.21521163
-0.174733 -0.14223868 0.096410595 -0.061796576 -0.07365453 -0.0034940469 0.117438115 -0.14754333
0.15667312 0.08933809 0.09332706 -0.20720398 0.20126756 -0.110510916 -0.01897617 -0.08226568
0.07257097 0.21737951 0.07839816 -0.066688344 0.44426546 0.20473866 0.104803555 -0.073942125
-0.012025792 -0.12609296 -0.20376784 -0.12663335 0.29433712 -0.10474813 -0.24533324 -0.17610815
-0.70550865 -0.0633251 0.021055719 0.72184324 -0.05023443 0.028403949 -0.018622488 0.013556242
0.056716926 0.14752051 -0.078669235 -0.12616675 -0.19707328 0.11795891 0.011105432 -0.101133406
00000000: 0677 e3be 2e8d bdbe 5549 c9bc 0c2a d9bd
00000010: 61ee 23be e3b1 773d d850 de3c 341a 42bd
00000020: 0040 823c d9fe c43a 80f1 493c 1fbf d1bd
00000030: 672a adbd 66ea 88be 57d5 343c c82c fc3c
00000040: e068 97bc 5ab3 4c3c 899d 9d3e 4cd5 25bc
00000050: 8c3c c63d 89ad 5d3e 4cbd e33d edc8 bf3e
00000060: f22c b83e d88b 7c3e 5ffd 7f3c 6b9f 00be
00000070: b08d 0f3e dc5d 3f3e 2ebb 7d3e cca2 97be
00000080: 22c1 6c3e 8674 ea3c 0eb0 31bd 145f 58be
00000090: 7707 7ebc ef3b e8bc d2a1 803e e65b 113d
000000a0: 1f82 d1bd 99b4 fd3d c533 ba3d b9b3 973f
000000b0: 08d3 03bf a3a8 65be 772c 83be eff1 2abc
000000c0: 8a2c 87bd 538b 9e3d 824e f03c 01af 09be
000000d0: d3d8 aebc 9620 c5bb decd 00be 7c63 4e3e
000000e0: 1506 ea3e c856 0cbe dcc4 e1bd 98fb 62bc
000000f0: 8f2b 9abd ef5f 083d 92bc 883e 67ef 93bd
00000100: 9744 95bd 24fe fcbe 142d afbe e0d8 b2be
00000110: e297 9ebc f7bd 793d 2e1c 313e b490 fcbc
00000120: e890 663e 8834 cc3d a286 93bd 3cbd ed3e
00000130: 84d2 8e3e 159d 8abe 3232 173c 7eb7 92be
00000140: bfc1 dfbc 2000 d33d 75d3 a3bd 61d1 3bbe
00000150: feca d93d f337 bcbe 8b12 77be 3a96 bfbd
00000160: a40e c93d 226f 95bd a233 d13d 7d14 7dbd
00000170: 8f62 7c3d 55d3 e03e 61f9 dd3e 8008 6d3e
00000180: 0029 bb3d 67b0 fb3d 9ce1 303e 3804 263d
00000190: 53d4 69be 577b 3cbe 8b05 0f3c 8a01 4abe
000001a0: 8896 183c 3592 b3be 097b 76be 3d55 d0be
000001b0: c0e7 f4bd 9fe9 a2bd bc7b cd3d 6042 59be
000001c0: 175e e7bd da5e 153f 3f1f f83e c376 09be
000001d0: fb75 5e3e 60f8 5f3d a0c0 ba3f bb00 4dbe
000001e0: 4bba ee3d 0250 c43d 133a 1dbb de1e 113e
000001f0: dee1 c3bc f561 2ebe 2624 7dbe 30c9 5cbe
00000200: ce2c a6be a448 b6be 0ded 00bd e1ca f2be
00000210: 40f4 113e 5f97 69be fbd6 f6bc 22cd 013e
00000220: d356 b13d 5d23 99bb 5489 6e3d 593e 493c
00000230: 7160 9ebd 73d2 2c3e 45ac 6bbe ef54 f6bd
00000240: 7f7f 1fbd 464a aebe 52c6 88bd 9e2c 4abe
00000250: 9f92 72bc 81a4 ab3d d349 58bd 6dfc 8dbd
00000260: 632c 6f3d a8fb 01be f83a a1be 7a17 2c3e
00000270: 8a05 ccba 713f dfbb 6552 12be 03c5 9d3d
00000280: bfbb 4abe a007 1b3e 0cb6 b4bc 9122 d03f
00000290: a1a1 7c3e 880a 913b 5d90 09be cf05 c93d
000002a0: e35c 9fbd e6b1 f8bd f7e0 6dbe c580 303d
000002b0: 76e8 0abe cb03 473e 4716 ebbc c72a 27be
000002c0: 2135 0abe 3ea3 fabd c181 29bd d46e 1bbe
000002d0: 73e2 f5bc cdd7 14be a223 b7bc fedc 99bd
000002e0: d316 0dbe ccc8 a3bd 25b9 c03d c1d4 c0be
000002f0: 2511 99bd 74a5 093d 3acc 49be 8498 e73c
00000300: 787b a93b 5bae 0bbe f163 873d 4261 683d
00000310: 4502 a8be df72 173e 2893 cebc 1da1 13be
00000320: fd44 ed3d b191 583c d5ba 28be aee2 b6bb
00000330: 0256 223e 5fbe 913d 398c 0cbe 7060 5cbe
00000340: 35ed 32be 04a7 11be eb72 c53d 681e 7dbd
00000350: 30d8 96bd 61fc 64bb 6583 f03d 9915 17be
00000360: eb6e 203e e3f6 b63d 4222 bf3d 482d 54be
00000370: 1519 4e3e 8c53 e2bd ea73 9bbc e97a a8bd
00000380: 17a0 943d bc98 5e3e 378f a03d e693 88bd
00000390: c376 e33e 03a7 513e 3fa3 d63d f86e 97bd
000003a0: d407 45bc 831e 01be 84a8 50be 2cac 01be
000003b0: 5bb3 963e 3086 d6bd a338 7bbe b255 34be
000003c0: 379c 34bf 97b0 81bd 0b7d ac3c b8ca 383f
000003d0: 9ec2 4dbd 66af e83c 308e 98bc 001b 5e3c
000003e0: 0250 683d 9e0f 173e 561d a1bd db31 01be
000003f0: 94cd 49be 7194 f13d 8ff3 353c 081f cfbd

encoder.fc1.bias f4 [64]
-0.5285125 0.5986525 -0.43185145 -0.72512764 0.38984844 0.6063004 -0.35784695 0.52045685
0.34018144 -0.10363039 -0.33696327 -0.61098665 0.40381274 0.02808584 0.58607286 -0.5983113
0.34944445 0.12885584 0.8795465 0.34236807 -1.211641 0.16558135 0.29775703 -0.48393905
-0.012028402 -0.5772619 -0.784692 0.16495775 -0.014960469 -0.15232041 -1.6646459 0.48186162
-0.60162205 -0.22407937 0.07700724 0.025624918 0.3744979 0.31552675 -2.008699 -0.39656582
0.23719276 0.60772824 0.5138354 -1.5390357 -0.5948685 0.15759192 0.1952537 -2.127743
-0.45255184 0.008974376 0.12174852 0.19220313 0.13941945 0.49941552 0.19796199 0.3964603
-0.43474764 0.085787065 0.29882094 -0.36832052 0.23232162 0.47006223 -0.58455807 0.8591827
00000000: 984c 07bf 4a41 193f a21b ddbe f7a1 39bf
00000010: 379a c73e 8136 1b3f b737 b7be a93c 053f
00000020: 432c ae3e 2b3c d4bd 7386 acbe 9f69 1cbf
00000030: 8bc0 ce3e 4714 e63c df08 163f ee2a 19bf
00000040: 62ea b23e c9f2 033e f629 613f de4a af3e
00000050: 0d17 9bbf 288e 293e 9c73 983e dcc6 f7be
00000060: c612 45bc 70c7 13bf 93e1 48bf afea 283e
00000070: c11c 75bc e2f9 1bbe 1e13 d5bf 91b6 f63e
00000080: e703 1abf 1075 65be f9b5 9d3d 59eb d13c
00000090: 30be bf3e b98c a13e 868e 00c0 ad0a cbbe
000000a0: a9e2 723e 1494 1b3f b78a 033f 1fff c4bf
000000b0: 4d49 18bf c75f 213e 96f0 473e f12c 08c0
000000c0: e0b4 e7be 4309 133c 4a57 f93d e6d0 443e
000000d0: f9c3 0e3e 64b3 ff3e 8cb6 4a3e d8fc ca3e
000000e0: 3e97 debe 21b1 af3d 0fff 983e 8294 bcbe
000000f0: b8e5 6d3e ffab f03e 99a5 15bf 66f3 5b3f

encoder.fc2.weight f4 [16, 64]
0.23622382 -0.027831104 -0.109327815 0.108964555 -0.011190401 -0.03203037 0.11786488 0.022827225
-0.06767888 -0.1054193 -0.086254016 -0.08860458 -0.08293324 -0.04208043 0.05871501 -0.04004501
0.046338268 0.08227864 -0.05531102 -0.1508459 0.011192395 -0.05443921 0.06841901 0.067584224
-0.006216047 -0.042387504 0.0056762667 0.2369181 0.08548841 0.20240939 0.047016315 -0.15666999
0.16345824 -0.036846325 0.1634686 -0.070677795 -0.21902461 -0.0748532 -0.028314784 -0.06131885
-0.17991027 -0.12358321 0.25283757 -0.014954906 0.1027312 0.11749657 0.40599558 -0.0023268491
-0.0002883013 0.021788815 0.042065065 0.14690463 0.12344244 0.021424584 0.040138364 -0.24471651
-0.09151472 -0.010453026 -0.008963386 -0.14147687 0.09248601 -0.056315873 0.044384725 -0.043720998
0.014664259 0.0073717437 0.033182647 -0.0047253706 -0.014245997 -0.000102679565 4.8413785e-05 0.0030759685
0.0103924535 0.018754 0.004092936 0.017488059 -0.0030150937 -0.0060994336 -0.0011580348 -0.017675018
-0.0077196388 -0.010194039 0.0023160374 -0.015981466 -0.016427513 -0.021393098 -0.003028799 0.00963351
0.012058088 -0.0065980647 -0.010401824 0.0013057394 -0.010420593 -0.012855472 -0.007441486 0.0024519837
-0.012690271 0.01433255 0.00028071148 -0.008256014 -0.0023894927 -0.0062965853 0.01589562 -0.027685408
0.003518986 0.0023585523 -0.000660263 0.007838409 -0.012643347 -0.0018272417 -0.0045697466 0.008429386
0.013157922 0.009751014 0.025939064 -0.0058148406 0.00632707 -0.0068598334 0.008091606 -0.018367277
-0.00063008856 -0.010221534 0.0083903195 0.009497082 0.014300518 0.0024686272 -0.0022842435 -0.005483956
-0.073702745 -0.18346778 -0.059875093 0.052616127 0.092325866 0.48512137 -0.06677675 0.1479723
0.09185535 0.09715031 -0.3248394 -0.00619951 0.081368424 -0.049804147 -0.06435798 0.16252056
-0.1959604 0.13647474 0.13226318 -0.08126841 -0.45099512 0.063019134 0.05359655 -0.08665964
-0.0653137 -0.2042316 -0.52628815 0.07726994 -0.08308126 -0.050257016 -0.29918534 -0.08140317
-0.2012483 0.027951173 0.14559412 -0.02299701 -0.06486157 -0.3157501 -0.15263884 0.08640378
0.038618635 -0.044108056 -0.07161062 -0.22236146 0.07011929 -0.032319363 0.15269417 0.06952159
0.021933526 -0.19089073 0.17867799 -0.007832601 0.043671295 -0.018742643 -0.15489931 0.042557884
0.021031607 -0.04698595 0.7042362 -0.12603347 -0.06727465 -0.016849203 -0.19807132 -0.32908285
0.020954402 0.009654429 0.2687479 0.55611247 0.07341372 0.054690138 0.104599096 -0.09349551
-0.12856749 0.29446164 -0.02986801 -0.19005524 -0.012973839 0.033865966 -0.0030744853 -0.12616618
-0.1256951 0.031892102 0.055832118 -0.59494364 -0.014275302 0.041529726 0.07811895 0.09220522
-0.018033305 0.10018638 -0.0051636756 -0.00956862 0.12375752 -0.020956883 0.020522002 0.6857294
-0.047070082 -0.014723569 -0.23518176 0.036998406 -0.21876022 0.010896922 0.048250362 0.014085371
-0.004897942 -0.04350386 0.03093006 -0.058518972 -0.62596506 -0.028267497 0.11853482 0.046667505
0.006212219 0.008512924 -0.07048463 -0.011809943 0.12712763 -0.09317573 0.06918893 -0.057756316
0.099611394 0.087013744 -0.0006192977 -0.007265978 -0.17352188 -0.0027793273 -0.041606296 -0.015423627
00000000: a8e4 713e 0efe e3bc 43e7 dfbd cf28 df3d
00000010: f257 37bc 4732 03bd 2463 f13d 2900 bb3c
00000020: 3a9b 8abd 13e6 d7bd f2a5 b0bd 5176 b5bd
00000030: e7d8 a9bd 875c 2cbd 267f 703d 3d06 24bd
00000040: 32cd 3d3d b481 a83d cf8d 62bd 5977 1abe
00000050: 4f60 373c a6fb 5ebd 441f 8c3d 9969 8a3d
00000060: fbaf cbbb 859e 2dbd faff b93b a99a 723e
00000070: 8c14 af3d 6844 4f3e 2e94 403d 196e 20be
00000080: 9961 273e 2cec 16bd 5064 273e 85bf 90bd
00000090: fd47 60be a24c 99bd 68f4 e7bc 7929 7bbd
000000a0: 663a 38be 3219 fdbd ed73 813e 6c05 75bc
000000b0: bc64 d23d 0ba2 f03d a7de cf3e 0d7e 18bb
000000c0: 2527 97b9 757e b23c 6b4c 2c3d 2b6e 163e
000000d0: 64cf fc3d 9c82 af3c 2068 243d f796 7abe
000000e0: 126c bbbd 2b43 2bbc 2adb 12bc 50df 10be
000000f0: 4e69 bd3d 79ab 66bd c2cc 353d ca14 33bd
00000100: 5c42 703c ab8e f13b 87ea 073d 48d7 9abb
00000110: 0b68 69bc ac55 d7b8 e80f 4b38 3096 493b
00000120: 1c45 2a3c fda1 993c 091e 863b 1e43 8f3c
00000130: e198 45bb c2dd c7bb 33c9 97ba 33cb 90bc
00000140: 06f5 fcbb e604 27bc a9c8 173b 90eb 82bc
00000150: fe92 86bc 9440 afbc d17e 46bb dfd5 1d3c
00000160: 498f 453c 9434 d8bb 696c 2abc 5825 ab3a
00000170: 23bb 2abc c29f 52bc b6d7 f3bb 76b1 203b
00000180: dbea 4fbc 12d3 6a3c 752c 9339 3c44 07bc
00000190: 0999 1cbb 9653 cebb 8837 823c 82cc e2bc
000001a0: ca9e 663b f191 1a3b 8015 2dba ac6c 003c
000001b0: 0a26 4fbc 0f80 efba d0bd 95bb 681b 0a3c
000001c0: 5394 573c b8c2 1f3c 297e d43c 6b8a bebb
000001d0: 4f53 cf3b 74c8 e0bb a892 043c f976 96bc
000001e0: 872c 25ba 3978 27bc 8d77 093c a699 1b3c
000001f0: b84c 6a3c b1c8 213b 3fb3 15bb c2b2 b3bb
00000200: 77f1 96bd fade 3bbe 963f 75bd 0284 573d
00000210: 5815 bd3d d461 f83e 40c2 88bd 0d86 173e
00000220: a81e bc3d bef6 c63d 5a51 a6be 4225 cbbb
00000230: 7da4 a63d 6fff 4bbd 1ece 83bd ca6b 263e
00000240: d8a9 48be 09c0 0b3e 0070 073e 0d70 a6bd
00000250: d5e8 e6be 2d10 813d 0e88 5b3d 9c7a b1bd
00000260: 30c3 85bd 1722 51be d2ba 06bf b43f 9e3d
00000270: 8226 aabd 4dda 4dbd d22e 99be b5b6 a6bd
00000280: 0914 4ebe dcf9 e43c a016 153e 3a64 bcbc
00000290: 25d6 84bd ffa9 a1be 5b4d 1cbe 77f4 b03d
000002a0: 932e 1e3d a6aa 34bd 97a8 92bd b9b2 63be
000002b0: b49a 8f3d 4f61 04bd dc5b 1c3e 5661 8e3d
000002c0: f0ad b33c dc78 43be 5df7 363e 4f54 00bc
000002d0: ace0 323d 2c8a 99bc ed9d 1ebe 2d51 2e3d
000002e0: 7a4a ac3c 5774 40bd d348 343f eb0e 01be
000002f0: 4bc7 89bd 5707 8abc 35d3 4abe 8c7d a8be
00000300: 91a8 ab3c 9c2d 1e3c 5399 893e 635d 0e3f
00000310: ef59 963d c402 603d 0d38 d63d 937a bfbd
00000320: 32a7 03be adc3 963e c2ad f4bc d79d 42be
00000330: 3a90 54bc 0ab7 0a3d 4e7d 49bb b531 01be
00000340: 37b6 00be 4ba1 023d 38b0 643d 3a4e 18bf
00000350: f5e2 69bc 131b 2a3d d4fc 9f3d 17d6 bc3d
00000360: 95ba 93bc 842e cd3d 0d34 a9bb b3c5 1cbc
00000370: 9574 fd3d c5ad abbc c21d a83c f68b 2f3f
00000380: 8fcc 40bd 203b 71bc 7dd3 70be a48b 173d
00000390: ae02 60be 0189 323c 2ca2 453d 54c6 663c
000003a0: ea7e a0bb 1a31 32bd 0a61 fd3c 97b1 6fbd
000003b0: 3f3f 20bf 3d91 e7bc 62c2 f23d 6d26 3f3d
000003c0: df8f cb3b cb79 0b3c 3f5a 90bd 7e7e 41bc
000003d0: bf2d 023e ebd2 bebd edb2 8d3d e391 6cbd
000003e0: 0f01 cc3d 4334 b23d 5d58 22ba 7117 eebb
000003f0: b8af 31be 6025 36bb 5d6b 2abd 61b3 7cbc

encoder.fc2.bias f4 [16]
-0.15623307 0.0084330095 0.010075539 -0.0464421 -0.56148857 -0.25885764 0.38341787 -0.12808387
0.023471469 -0.13191134 0.02221087 0.00946175 -0.2550512 -0.0030832645 -0.005101395 0.00074840104
00000000: 90fb 1fbe 9b2a 0a3c e013 253c 123a 3ebd
00000010: b7bd 0fbf fd88 84be 594f c43e 6b28 03be
00000020: 3d47 c03c c413 07be 92f3 b53c 7505 1b3c
00000030: 1296 82be 9810 4abb 9a29 a7bb 5830 443a

encoder.fc3.weight f4 [16, 64]
0.018929185 -0.10732399 0.026527416 -0.047318418 -0.0055958396 -0.1479692 0.27464908 0.04809329
-0.019816417 -0.004019153 -0.1398157 0.081529155 -0.14934796 0.06493094 -0.06641265 0.028313873
-0.07799309 -0.10123657 0.03081708 -0.031203924 0.12562126 -0.039147854 -0.09399639 0.1234884
-0.035374 -0.018319083 -0.06865591 0.016181372 0.057624787 0.10021276 0.16265851 -0.07239673
-0.035334956 -0.11809724 -0.019319491 0.06279399 -0.091466755 -0.07556957 -0.044747036 -0.02832461
-0.02689797 -0.06367685 -0.108029716 0.07916976 0.017959725 0.12622342 -0.16382232 0.023735115
0.22410926 -0.11424071 0.0040401462 0.009648579 0.052304998 0.14696918 -0.0623308 -0.15138339
-0.03876981 0.16201608 0.011453015 -0.20192124 -0.023465175 -0.009040622 0.031604256 -0.13894846
-0.0018675023 -0.004848224 -0.007978406 -0.0061987923 -0.0018804474 0.003419636 0.0022749996 -0.0033387225
-0.0030341367 -0.0061528087 0.0018011974 0.0022573776 -0.0015352541 0.006117919 0.0023981547 0.007672246
-0.0022248197 -0.00019000015 0.0003440916 0.003332733 0.0043111336 0.0025182113 -0.0012072269 0.004372845
0.00039494538 -0.0001409482 0.003945885 -0.0064182607 -0.00021162858 -0.011084497 0.0022963656 0.0025697208
0.0009266362 0.00055698893 0.0028378393 0.0048917774 -0.0036441477 0.004730533 0.002647972 -0.0026871462
0.0019759713 0.00032755506 -0.0021897939 -0.0048162458 5.2578525e-06 -0.0056288373 -0.0013314219 -0.00016555274
-0.0013434525 0.0033568451 0.006549214 0.0037314903 -0.0016922175 0.003838716 -0.0025652358 0.0018566649
-0.006485157 -0.0018152996 -0.0040679276 0.0037731205 0.0016779547 -0.005770277 -0.00026369502 0.004542043
0.07642627 -0.238349 0.16428602 -0.07476204 -0.07212263 -0.23728599 0.23602009 -0.12450981
-0.0120837595 -0.18028727 0.44718146 0.16481622 -0.2546092 0.19982907 -0.03767719 -0.09794762
0.0026504872 -0.11014287 -0.03379729 0.05822813 0.05976138 -0.044247016 -0.18679887 -0.012037303
-0.00016719953 0.078913674 -0.27163342 -0.09845516 0.030160079 -0.0514814 0.29708317 0.060528077
-0.012114778 0.032991733 -0.11169055 -0.08456006 -0.18197559 0.0728279 -0.031787504 0.16945997
0.083967075 -0.083236165 -0.0046763527 0.16916479 -0.07932318 0.051619634 0.0071217823 0.36236325
-0.07609831 0.09275451 -0.14325678 -0.060697902 -0.021073215 -0.042203918 -0.12139398 -0.076262176
-0.013042661 -0.0037008831 0.11649707 0.054031603 -0.03001097 -0.048598707 -0.06987368 -0.052409537
0.012338453 -0.14934488 0.2613428 0.023882924 -0.025613729 -0.07690426 0.39760923 -0.093089536
-0.121191494 0.04469206 -0.4190758 0.23534535 -0.04703309 -0.06382654 -0.0038284427 -0.06612501
-0.08059315 0.010793841 0.057080884 -0.24624836 0.022465743 -0.032034516 0.016962236 0.06711892
-0.063471705 -0.029186659 -0.00062558474 -0.034160778 0.019179778 0.0074866167 0.15886928 -0.07510863
-0.020203859 0.1226817 0.39113718 0.16579685 -0.030689737 0.022896152 0.017602807 -0.009377378
0.013004053 -0.10280887 -0.21450487 0.073560014 -0.15544404 0.38105914 -0.20264532 0.09742354
0.5428643 -0.31799382 0.09181526 -0.011751488 -0.12958843 -0.013260244 0.06096333 0.08433706
-0.09894169 0.040718906 -0.06170969 -0.029148217 -0.08837694 -0.024349965 -0.043194015 0.061310325
00000000: 6111 9b3c aecc dbbd 0650 d93c f5d0 41bd
00000010: 4e5d b7bb 3d85 17be ce9e 8c3e 78fd 443d
00000020: 0a56 a2bc 19b3 83bb d92b 0fbe c2f8 a63d
00000030: acee 18be 83fa 843d 5b03 88bd 7ff2 e73c
00000040: d7ba 9fbd 1e55 cfbd 1a74 fc3c 5f9f ffbc
00000050: dca2 003e 8059 20bd 2e81 c0bd 7ce7 fc3d
00000060: 54e4 10bd e711 96bc 789b 8cbd cc8e 843c
00000070: f807 6c3d 593c cd3d f48f 263e bd44 94bd
00000080: 63bb 10bd f7dc f1bd e943 9ebc 239a 803d
00000090: ec52 bbbd 38c4 9abd ab48 37bd 0309 e8bc
000000a0: 2259 dcbc 0269 82bd af3e ddbd c123 a23d
000000b0: 4620 933c b640 013e 0ac1 27be 2570 c23c
000000c0: e67c 653e 09f7 e9bd 3463 843b 1315 1e3c
000000d0: c43d 563d 177f 163e 954e 7fbd 3f04 1bbe
000000e0: 18cd 1ebd 8be7 253e 6da5 3b3c 71c4 4ebe
000000f0: 0a3a c0bc 1e1f 14bc 7773 013d 8148 0ebe
00000100: fbc6 f4ba dadd 9ebb dcb7 02bc 3d1f cbbb
00000110: 5879 f6ba f91b 603b 2918 153b 78ce 5abb
00000120: 5ed8 46bb 809d c9bb 2816 ec3a 83f0 133b
00000130: 943a c9ba d378 c83b 5c2a 1d3b 7767 fb3b
00000140: 48ce 11bb c73a 47b9 3167 b439 fb69 5a3b
00000150: 6944 8d3b 9308 253b d03b 9eba 154a 8f3b
00000160: ac10 cf39 7fcb 13b9 7c4c 813b 4650 d2bb
00000170: 9de8 5db9 c09b 35bc 9f7e 163b c368 283b
00000180: 81e9 723a e502 123a 0bfb 393b 344b a03b
00000190: a7d2 6ebb 9602 9b3b 9989 2d3b d51a 30bb
000001a0: 4c7f 013b b2bb ab39 a582 0fbb 99d1 9dbb
000001b0: 9c6c b036 1c72 b8bb 1b83 aeba 3a98 2db9
000001c0: c916 b0ba 84fe 5b3b ca9a d63b 058c 743b
000001d0: 66cd ddba f892 7b3b 841d 28bb 565b f33a
000001e0: 7181 d4bb 59ef edba 404c 85bb 7546 773b
000001f0: d1ee db3a 9814 bdbb 8c40 8ab9 6bd5 943b
00000200: 6085 9c3d c311 74be 983a 283e d71c 99bd
00000210: 08b5 93bd 19fb 72be 40af 713e 00ff febd
00000220: f6fa 45bc 3a9d 38be f8f4 e43e 95c5 283e
00000230: 235c 82be fe9f 4c3e 6653 1abd c398 c8bd
00000240: ccb3 2d3b 9692 e1bd 076f 0abd 9f80 6e3d
00000250: 59c8 743d 5c3c 35bd 3448 3fbe 1c38 45bc
00000260: 4852 2fb9 7e9d a13d 8913 8bbe dca2 c9bd
00000270: 4512 f73c 29de 52bd 491b 983e 4aec 773d
00000280: 107d 46bc 5722 073d 04be e4bd d32d adbd
00000290: cf57 3abe cb26 953d 9d33 02bd ea86 2d3e
000002a0: eef6 ab3d b977 aabd 173c 99bb 8939 2d3e
000002b0: 3174 a2bd 1c6f 533d d75d e93b ad87 b93e
000002c0: 6ed9 9bbd 14f6 bd3d e8b1 12be 5d9e 78bd
000002d0: bca1 acbc 04de 2cbd 689d f8bd 582f 9cbd
000002e0: e3b0 55bc 848a 72bb 0496 ee3d 3e50 5d3d
000002f0: 91d9 f5bc 700f 47bd ef19 8fbd 62ab 56bd
00000300: 3927 4a3c dded 18be b9ce 853e 1fa6 c33c
00000310: e2d3 d1bc fb7f 9dbd 7093 cb3e baa5 bebd
00000320: 3f33 f8bd 060f 373d 1a91 d6be 5ffe 703e
00000330: c5a5 40bd 7db7 82bd 9ce6 7abb 8d6c 87bd
00000340: 050e a5bd a7d8 303c a5cd 693d 8828 7cbe
00000350: 140a b83c a036 03bd 63f4 8a3c a575 893d
00000360: 74fd 81bd dc18 efbc 48fe 23ba 2cec 0bbd
00000370: e91e 9d3c 4b52 f53b a1ae 223e 8ed2 99bd
00000380: 9082 a5bc 8b40 fb3d 2243 c83e a6c6 293e
00000390: 0b69 fbbc b690 bb3c c333 903c 93a3 19bc
000003a0: f40e 553c 758d d2bd 2aa7 5bbe a2a6 963d
000003b0: b92c 1fbe 2f1a c33e 4182 4fbe fe85 c73d
000003c0: 28f9 0a3f 16d0 a2be a409 bc3d 5089 40bc
000003d0: d4b2 04be 7f41 59bc afb4 793d e9b8 ac3d
000003e0: f1a1 cabd dec8 263d 4dc3 7cbd 3ec8 eebc
000003f0: f8fe b4bd 9479 c7bc 35ec 30bd 8920 7b3d

encoder.fc3.bias f4 [16]
-2.0129554 -0.0016700489 -0.9355772 -1.3944349 -2.188633 -2.87641 -2.0362444 -2.0417542
-0.7952828 -0.7007559 -0.00024544785 0.003461465 -1.0398468 -0.6650634 -0.0033020924 -0.0063748346
00000000: 43d4 00c0 8be5 daba fd81 6fbf d87c b2bf
00000010: 9012 0cc0 1a17 38c0 d451 02c0 1aac 02c0
00000020: a797 4bbf bd64 33bf 74af 80b9 bfd9 623b
00000030: b319 85bf 9841 2abf eb67 58bb fde3 d0bb

decoder.fc1.weight f4 [64, 16]
-0.39794168 -0.0028807996 -0.12270496 0.5407034 -0.49539647 -2.0610287 -1.3772926 0.4473673
0.025601573 -0.20532754 0.011738779 -0.001954827 -0.1930637 0.025517205 0.033264168 0.010410691
-0.9818567 0.00010898319 -0.0013019615 1.4335138 -0.40570074 1.072305 -0.29702964 -0.5003578
0.023849567 0.06479582 -0.0020551796 0.009114156 -0.38381264 0.04685902 -0.016781043 -0.0071219895
-0.4742723 0.004524724 0.085326575 0.4016067 -0.057151966 -2.5779803 0.41709238 -0.60951406
-0.419058 0.10846203 0.0053322106 -0.0059048906 -0.06690631 -0.026628321 -0.009369717 -0.00027539986
0.47009972 -0.009542387 0.0024129616 0.3099733 -0.25224647 -0.15358575 0.21105726 0.80911285
-0.127727 0.34099525 -0.0007450988 0.021203378 0.13361895 0.21542598 0.0037623837 0.0034514377
-0.124177404 -0.014709348 -0.1361882 -0.23602785 0.37398002 -1.3956155 1.3747832 0.14358614
0.12283704 0.08418416 0.028904084 0.011987171 -0.0723951 -0.16118616 -0.0069628935 -0.036694407
-1.090821 0.0025867582 -0.03641816 -0.016742136 -0.12314173 -0.46382645 -0.6943351 -0.77033186
0.16917217 0.015496889 0.016317919 0.005118058 0.023355264 0.10348444 0.007163768 0.014513021
-1.3888278 0.005929432 -0.0012801248 0.12226526 0.77854574 -1.0844547 -0.40504006 0.6693178
0.25832364 -0.04687661 -0.00061361876 0.0071307556 -0.14340813 0.004479999 -0.018260835 0.027475707
-0.5054572 -0.034309264 0.1887127 -0.02582222 -1.2544605 1.7216272 -0.7500469 0.024943639
-0.09999854 -0.10609272 0.00012461796 0.002084515 -0.09937003 0.1384001 0.014016128 -0.0022606961
-0.009325281 0.04051775 0.08521953 -0.019987315 1.5478823 -0.60521823 -0.12839831 0.17973673
0.017784378 -0.015630724 0.0025923576 0.024390593 -0.6361128 -0.12135093 -0.002210468 -0.010548826
-0.65456504 0.0046696826 0.042696126 0.058040805 -0.107480004 0.013571813 0.08866697 1.0114262
-0.95042706 -0.025098842 0.019310353 -0.0024732237 0.06147725 0.17343228 -0.010456433 -0.0099503845
0.16377541 -0.0005826175 -0.16948582 -0.0050112577 1.9823284 0.3331965 -0.28088835 0.01292299
-0.045059238 -0.034693796 -0.0031476042 -0.008991667 0.056668352 -0.046221368 -0.0033608733 0.011216661
0.060563553 -0.028423343 0.72679996 -0.101512015 0.64627224 0.5889777 -0.1485559 0.13544069
-0.15350805 0.26703006 0.018949311 -0.005631702 -0.3397861 0.33575904 0.015683992 -0.011648227
-0.063380204 0.025261275 -0.10663783 0.06418657 2.3552847 -0.044841047 0.085177466 0.004330692
0.040374327 0.198387 -0.00042894413 0.009307522 0.11312368 -0.03228351 -0.008803511 0.010747856
0.12505911 -0.04500644 -0.0022364939 0.04282117 1.0096933 -1.157699 0.60959536 0.7690734
-0.66099024 -0.048687544 -0.01967406 0.007039192 -0.00016120981 -0.17705534 -0.0064059948 -0.007800324
0.23892766 -0.0050525437 -0.903402 -0.01598994 1.4821693 0.27352574 -0.21654019 0.23323745
-0.18079934 0.008701533 0.0042650914 0.011760353 0.2738237 -0.032782137 0.0065060575 0.006409813
-0.4452606 -0.0033175733 0.4905023 0.18226758 -1.3400531 -1.4118528 0.5831579 -0.31119332
0.06475108 -0.2036751 -0.02532332 -0.029363062 0.34080818 -0.11383944 -0.0080888765 -0.011021
00000000: 03bf cbbe cccb 3cbb bd4c fbbd 8a6b 0a3f
00000010: 9ba4 fdbe e5e7 03c0 204b b0bf 540d e53e
00000020: 64ba d13c 6241 52be 0254 403c 8e1c 00bb
00000030: 7eb2 45be 7509 d13c 0240 083d 9a91 2a3c
00000040: f65a 7bbf e88d e438 94a6 aaba 617d b73f
00000050: 02b8 cfbe 4a41 893f 4514 98be 7317 00bf
00000060: 2b60 c33c acb3 843d 31b0 06bb 8a53 153c
00000070: 1783 c4be 3eef 3f3d 6678 89bc 945f e9bb
00000080: d2d3 f2be 2344 943b b3bf ae3d 659f cd3e
00000090: 2e18 6abd a1fd 24c0 228d d53e 1d09 1cbf
000000a0: c58e d6be 5721 de3d d3b9 ae3b d07d c1bb
000000b0: 2d06 89bd a323 dabc 7183 19bc 8b63 90b9
000000c0: e9b0 f03e ac57 1cbc c722 1e3b d2b4 9e3e
000000d0: 7326 81be 9545 1dbe 651f 583e 0522 4f3f
000000e0: deca 02be ee96 ae3e bc52 43ba b5b2 ad3c
000000f0: 68d3 083e a198 5c3e 5392 763b 8431 623b
00000100: b950 febd 7aff 70bc eb74 0bbe 49b1 71be
00000110: 4f7a bf3e 87a3 b2bf e5f8 af3f 3f08 133e
00000120: fc91 fb3d bf68 ac3d 42c8 ec3c d765 443c
00000130: e243 94bd fc0d 25be fc28 e4bb e04c 16bd
00000140: 06a0 8bbf 9a86 293b 352b 15bd ce26 89bc
00000150: bb31 fcbd a97a edbe f2bf 31bf 7834 45bf
00000160: 783b 2d3e aae6 7d3c 28ad 853c 62b5 a73b
00000170: 8a53 bf3c a6ef d33d 0bbe ea3b 06c8 6d3c
00000180: 1cc5 b1bf ae4b c23b dcc9 a7ba 3566 fa3d
00000190: c64e 473f 69cf 8abf 6961 cfbe 6958 2b3f
000001a0: ff42 843e b001 40bd 42db 20ba 1da9 e93b
000001b0: 95d9 12be f5cc 923b bf97 95bc bc14 e13c
000001c0: a565 01bf df87 0cbd e73d 413e 1f89 d3bc
000001d0: 2992 a0bf 485e dc3f 1303 40bf 9a56 cc3c
000001e0: 09cc ccbd 2447 d9bd e1ab 0239 5c9c 083b
000001f0: 8482 cbbd c1b8 0d3e e7a3 653c 3028 14bb
00000200: 10c9 18bc f1f5 253d 9487 ae3d 70bc a3bc
00000210: 0221 c63f 95ef 1abf d97a 03be e80c 383e
00000220: 8bb0 913c 010c 80bc 8be4 293b c8ce c73c
00000230: 4ad8 22bf d686 f8bd 80dd 10bb fcd4 2cbc
00000240: 9391 27bf 2304 993b 22e2 2e3d 32bc 6d3d
00000250: 7a1e dcbd 4f5c 5e3c 0797 b53d 6a76 813f
00000260: 304f 73bf 169c cdbc bf30 9e3c cf15 22bb
00000270: 92cf 7b3d 3b98 313e 7551 2bbc f006 23bc
00000280: beb4 273e ccba 18ba b18d 2dbe 7a35 a4bb
00000290: f0bc fd3f bb98 aa3e 99d0 8fbe f3ba 533c
000002a0: 0990 38bd 151b 0ebd 0948 4ebb c951 13bc
000002b0: 131d 683d 9e52 3dbd 1942 5cbb 16c6 373c
000002c0: 7d11 783d 12d8 e8bc 900f 3a3f 88e5 cfbd
000002d0: 1972 253f 3ec7 163f 0a1f 18be f7b0 0a3e
000002e0: 3731 1dbe 2ab8 883e 963b 9b3c 248a b8bb
000002f0: 72f8 adbe 9ce8 ab3e b77b 803c 35d8 3ebc
00000300: 7bcd 81bd bcf0 ce3c ef64 dabd 4074 833d
00000310: fcbc 1640 3fab 37bd 8671 ae3d 7ae8 8d3b
00000320: 8d5f 253d f625 4b3e e8e3 e0b9 947e 183c
00000330: 63ad e73d b73b 04bd 9a3c 10bc c717 303c
00000340: 7f0f 003e ac58 38bd 2492 12bb 4065 2f3d
00000350: a13d 813f 7b2f 94bf 710e 1c3f ffe1 443f
00000360: a836 29bf 976c 47bd 7f2b a1bc 06a9 e63b
00000370: 6e0a 29b9 ff4d 35be 61e9 d1bb dc99 ffbb
00000380: 74a9 743e cf8f a5bb 5a45 67bf 56fd 82bc
00000390: b9b7 bd3f 910b 8c3e b6bc 5dbe ccd5 6e3e
000003a0: 7623 39be e090 0e3c 2ec2 8b3b 7fae 403c
000003b0: 9f32 8c3e 9046 06bd c430 d53b 6909 d23b
000003c0: 33f9 e3be a56b 59bb 1e23 fb3e 5aa4 3a3e
000003d0: dc86 abbf 98b7 b4bf d649 153f bb54 9fbe
000003e0: 379c 843d 3590 50be da72 cfbc ce8a f0bc
000003f0: 697e ae3e a724 e9bd 3587 04bc 6d91 34bc

decoder.fc1.bias f4 [64]
0.24981064 1.3871671 -0.65550584 2.9457095 -0.39266953 2.1067297 -0.8175914 -1.0779263
2.1252923 0.19469152 2.8392072 1.3196313 0.5988919 1.1963414 2.1600125 -1.8062391
2.2594209 0.7740818 1.5853379 -0.21043323 0.14214464 1.5431396 2.1721756 0.10452748
0.7136984 1.4651806 1.8374028 0.16434622 0.9229925 -1.2144927 -0.90630794 1.7886132
-0.34757665 1.9846351 -2.368535 1.8330292 1.9353106 -1.0845076 2.038927 -2.3732991
-0.6312107 -1.5074192 0.031401925 -0.3483213 0.6672499 0.6867122 0.6325454 -1.7065432
-0.8718036 0.065957524 -1.0500712 -1.3058915 -2.2502158 2.3066852 -3.100262 -0.60855055
2.1316733 -1.1422398 0.33514893 0.8167104 -0.4106323 0.21517317 0.19624375 1.5029271
00000000: 5cce 7f3e b18e b13f 3bcf 27bf 8186 3c40
00000010: fb0b c9be a9d4 0640 ac4d 51bf 7df9 89bf
00000020: ca04 0840 375d 473e 92b5 3540 aee9 a83f
00000030: fb50 193f b721 993f a53d 0a40 d832 e7bf
00000040: 5a9a 1040 3a2a 463f 5aec ca3f cf7b 57be
00000050: 5d8e 113e 9985 c53f ed04 0b40 8112 d63d
00000060: f0b4 363f 0a8b bb3f 0430 eb3f 604a 283e
00000070: 3d49 6c3f 7f74 9bbf cc03 68bf 47f1 e43f
00000080: 91f5 b1be 8608 fe3f 1496 17c0 b3a0 ea3f
00000090: 42b8 f73f 25d1 8abf c87d 0240 22e4 17c0
000000a0: 0697 21bf 1df3 c0bf 4e9f 003d 2b57 b2be
000000b0: e4d0 2a3f 5fcc 2f3f 7fee 213f 0270 dabf
000000c0: 852e 5fbf bd14 873d bc68 86bf 7427 a7bf
000000d0: 8903 10c0 bba0 1340 b16a 46c0 f8c9 1bbf
000000e0: 566d 0840 ea34 92bf a498 ab3e ef13 513f
000000f0: 663e d2be 5b56 5c3e 1ff4 483e ea5f c03f

decoder.fc2.weight f4 [51, 64]
-0.17011073 -0.17459857 -0.077270225 0.3931885 0.3782412 -0.058256365 0.29326597 1.1578494
-0.5421611 -0.025738534 -0.37839502 -0.13797615 0.70926785 0.31721193 -0.11028643 0.047597475
-0.08714051 -0.67085123 0.2587769 -0.06969287 -0.670539 -0.18054661 -0.17429529 -0.12605125
-0.60824156 0.26606148 -0.24542484 -0.26076317 -0.25659007 -0.022916151 0.22123186 0.060511667
-0.033658106 0.039097887 0.3541847 0.030974776 -0.08213182 0.2647708 0.47276652 -0.34201583
-0.06621894 0.06210468 -0.2990757 0.35988328 0.3062741 -0.13456975 -0.16168882 -0.85524887
-0.04599393 0.29665348 0.09766501 -0.026338108 -1.0535313 -0.6406027 0.080437206 0.12573263
0.7251465 -0.12304435 -1.2296984 -0.54537714 0.18206091 -0.36029202 0.031610426 0.5852585
-0.15871271 0.4636689 0.03929973 -0.96215814 -0.12894227 0.11554948 0.24825701 0.0096572405
-0.13795091 0.12061121 0.6683112 0.22991402 -0.5717678 0.03884062 -0.033825498 -0.14699414
0.14306195 -0.05105205 -0.16937727 0.025632055 0.21355362 -0.14066964 0.18208914 0.08901262
-0.10867361 -0.05990781 0.16484274 -0.2506975 -0.080440566 -0.42123026 -0.24766685 -0.52107245
0.19953133 -0.8350613 -0.9535977 0.057240326 -0.15924445 0.053365145 -0.09853599 -0.17286667
-0.019009417 -0.19465616 -0.12888196 -0.40786016 -0.112372845 -0.19597529 -0.2408935 0.122353435
-0.16371332 0.18368332 -0.09274838 -0.12875997 0.573916 0.19799101 -0.1166861 -0.052794587
0.7738807 -0.13339365 0.021251343 0.018901926 1.0468997 0.09576394 0.1568859 -0.42088524
0.07392972 -0.036861748 0.06829668 -0.6819393 -0.079715036 -0.08971614 0.88978773 0.020944234
0.25629085 0.10961137 -1.2171106 0.24971583 0.74675536 -0.29870945 0.71728414 -0.04354047
-0.38580215 -0.6509483 -0.5154874 -0.09749058 0.2236603 0.14923123 -1.5581385 -0.36882728
-0.7449843 -0.05658136 -0.5928674 0.013415769 -0.5154913 -0.30909148 -0.27830422 0.12947507
0.990642 -0.48767304 0.29798996 0.04729237 0.49444544 -0.36250538 -0.22946398 0.41743487
-0.44386086 0.14274675 0.15812923 0.34996775 0.37524453 0.304916 -0.2582289 0.9630506
-0.045293562 0.032748997 0.86215615 0.066000715 -0.25778702 -0.18164518 -0.25372192 -0.20325974
0.10871855 0.6515329 0.12953871 -0.21924119 -0.55628985 1.0635425 0.0629671 -0.69123363
0.14720497 0.1272687 -0.28050628 0.15874797 0.5212209 0.42279088 0.1539934 0.1279981
-2.2168336 -0.10611352 -1.8222358 0.7569715 2.2219682 -0.1678011 -1.6293701 -0.067446284
-1.0527941 -0.45495299 0.034421854 0.21686707 -0.015722219 -0.013617546 -0.058446795 0.26941857
0.0528286 -0.035512436 -0.2352325 0.19336474 0.3244049 0.08312497 -0.18673247 -0.28142533
0.07158321 -0.14373003 0.03386144 -0.111741826 0.36594823 0.4479748 0.041697003 -0.5217075
0.20606922 -0.51727253 0.27223858 -1.0265634 0.32965076 0.07194203 -0.39144734 -1.3198127
0.23302162 0.22983173 -0.20727088 0.1127488 -0.40040198 -1.2710565 0.47158095 -0.26153535
0.53105325 -0.20970038 -0.20356879 -0.534879 0.17395024 0.4468283 0.118866794 0.09858493
00000000: 8231 2ebe f8c9 32be da3f 9ebd 0150 c93e
00000010: d5a8 c13e 3a9e 6ebd f526 963e 6934 943f
00000020: 12cb 0abf 9ed9 d2bc febc c1be 9f49 0dbe
00000030: 9492 353f 9a69 a23e dadd e1bd 92f5 423d
00000040: b976 b2bd e8bc 2bbf 687e 843e 23bb 8ebd
00000050: 72a8 2bbf 36e1 38be 777a 32be 9413 01be
00000060: b8b5 1bbf 3639 883e a650 7bbe c082 85be
00000070: c65f 83be a7ba bbbc 9b8a 623e 15db 773d
00000080: 15dd 09bd 1b25 203d b257 b53e d0be fd3c
00000090: ba34 a8bd 0a90 873e 740e f23e b31c afbe
000000a0: cc9d 87bd 7a61 7e3d 7320 99be 9f42 b83e
000000b0: f5cf 9c3e a7cc 09be c191 25be 97f1 5abf
000000c0: 2264 3cbd f7e2 973e 9804 c83d 04c3 d7bc
000000d0: 1dda 86bf 8afe 23bf 43bc a43d 0ec0 003e
000000e0: 33a3 393f adfe fbbd c266 9dbf d69d 0bbf
000000f0: 2d6e 3a3e 3278 b8be ef79 013d 80d3 153f
00000100: 9685 22be 0366 ed3e c1f8 203d ff4f 76bf
00000110: 7109 04be 35a5 ec3d 1637 7e3e 6739 1e3c
00000120: 0143 0dbe 0303 f73d 7116 2b3f 956e 6b3e
00000130: 605f 12bf 5817 1f3d 9b8c 0abd a285 16be
00000140: d57e 123e f41b 51bd 3c71 2dbe 51fa d13c
00000150: cdad 5a3e b40b 10be 9375 3a3e 404c b63d
00000160: 4590 debd e461 75bd 89cc 283e 6c5b 80be
00000170: 06be a4bd 7eab d7be 619c 7dbe 0165 05bf
00000180: f151 4c3e 94c6 55bf fb1e 74bf d574 6a3d
00000190: fa10 23be 6995 5a3d 3dcd c9bd f603 31be
000001a0: a3b9 9bbc f253 47be a2f9 03be 0cd3 d0be
000001b0: bc23 e6bd bfad 48be c9ac 76be 7094 fa3d
000001c0: 77a4 27be 7b17 3c3e ddf2 bdbd a7d9 03be
000001d0: 29ec 123f 28be 4a3e 1ff9 eebd 233f 58bd
000001e0: 0c1d 463f 5898 08be 4c17 ae3c 36d8 9a3c
000001f0: cf00 863f e21f c43d b3a6 203e 457e d7be
00000200: 7768 973d 58fc 16bd 21df 8b3d 9393 2ebf
00000210: a341 a3bd 18bd b7bd 21c9 633f 3e93 ab3c
00000220: 8e38 833e ed7b e03d 48ca 9bbf 82b5 7f3e
00000230: 5c2b 3f3f 72f0 98be ef9f 373f 7e57 32bd
00000240: dc87 c5be 8ca4 26bf fbf6 03bf 24a9 c7bd
00000250: 3507 653e 12d0 183e 1571 c7bf eed6 bcbe
00000260: 4bb7 3ebf dbc1 67bd 28c6 17bf d0cd 5b3c
00000270: 3df7 03bf 3d41 9ebe e47d 8ebe 1d95 043e
00000280: b79a 7d3f 48b0 f9be 2492 983e a5b5 413d
00000290: f427 fd3e 4e9a b9be 9bf8 6abe 06ba d53e
000002a0: bb41 e3be 342c 123e a1ec 213e f92e b33e
000002b0: 0d20 c03e f31d 9c3e 9436 84be 7c8a 763f
000002c0: be85 39bd d023 063d 44b6 5c3f 622b 873d
000002d0: a9fc 83be 3201 3abe d7e7 81be 5223 50be
000002e0: d5a7 de3d dcca 263f cca5 043e c380 60be
000002f0: 0369 0ebf 2922 883f e5f4 803d b0f4 30bf
00000300: e6bc 163e ba52 023e 859e 8fbe d48e 223e
00000310: bc6e 053f 0c78 d83e 72b0 1d3e ef11 033e
00000320: 9ae0 0dc0 0c52 d9bd 063f e9bf e2c8 413f
00000330: ba34 0e40 0dd4 2bbe 338f d0bf 4721 8abd
00000340: f5c1 86bf 99ef e8be eefd 0c3d 6712 5e3e
00000350: e2cb 80bc 211c 5fbc e865 6fbd 3bf1 893e
00000360: cd62 583d 7d75 11bd cae0 70be 6801 463e
00000370: 6618 a63e 6d3d aa3d cc36 3fbe fb16 90be
00000380: 389a 923d f72d 13be 4bb2 0a3d e6d8 e4bd
00000390: 915d bb3e f45c e53e 7aca 2a3d 9f8e 05bf
000003a0: cf03 533e f96b 04bf db62 8b3e 6e66 83bf
000003b0: fcc7 a83e 5856 933d c96b c8be 9fef a8bf
000003c0: 389d 6e3e 0259 6b3e d13e 54be d8e8 e63d
000003d0: 7d01 cdbe fbb1 a2bf 0f73 f13e f6e7 85be
000003e0: 1bf3 073f b2bb 56be 5674 50be d5ed 08bf
000003f0: 0320 323e aec6 e43e 6f70 f33d e5e6 c93d

decoder.fc2.bias f4 [51]
-0.48111132 0.563709 -1.1796287 0.6994917 1.6428686 -1.3002583 0.9480121 0.22016297
-0.16845715 0.046808675 0.2917042 -0.1748613 1.6773297 0.7241377 -0.96487725 -1.2895268
-0.4723933 -0.1677402 0.016371336 0.56711686 -0.17588541 -0.1661693 1.2705163 0.8136971
-0.913861 0.49857673 1.9891974 -1.0202101 0.669752 1.8051754 -0.9698966 1.0843393
0.15468505 1.6504903 -0.1829078 2.0443962 1.4581566 0.08953123 0.743471 -0.10507614
0.897652 -0.1330627 0.2345454 1.1010562 1.4978238 -0.016348723 -0.035749763 1.7146147
-0.07326561 -0.81974584 0.44250095
00000000: 3954 f6be 3c4f 103f 13fe 96bf e311 333f
00000010: 8549 d23f dd6e a6bf ecb0 723f 6772 613e
00000020: 0880 2cbe 74ba 3f3d 415a 953e d70e 33be
00000030: bdb2 d63f 1761 393f 3202 77bf 370f a5bf
00000040: 89dd f1be 16c4 2bbe 2e1d 863c 922e 113f
00000050: 4e1b 34be 4928 2abe 47a0 a23f 744e 503f
00000060: cbf2 69bf 7345 ff3e 059e fe3f 3f96 82bf
00000070: de74 2b3f fd0f e73f 254b 78bf a1cb 8a3f
00000080: c265 1e3e 4443 d33f 2f4c 3bbe 63d7 0240
00000090: e0a4 ba3f 265c b73d 1e54 3e3f 2932 d7bd
000000a0: 85cc 653f 9741 08be ab2c 703e 69ef 8c3f
000000b0: b1b8 bf3f c2ed 85bc 586e 12bd 7f78 db3f
000000c0: 480c 96bd ddda 51bf 7c8f e23e
