model/pos/vae_hd64_ld16_gamma01.pth (torch, 42851 bytes, 10 tensors)

encoder.fc1.weight f4 [64, 51]
-0.5028179 0.015477723 -0.046994977 -0.48806694 0.10299196 0.102705345 0.014523689 -0.14142594
0.04132688 0.044544462 0.24342243 -0.12821594 0.14024661 -0.046236992 0.040315956 -0.13294433
0.15271904 0.33929133 -0.078124546 0.11894125 -0.052001305 -0.3305847 -0.028753519 0.2154948
0.23237284 0.08436558 -0.02895071 -0.15050077 -0.10888378 -0.17798387 -0.2916145 0.21738912
-0.08756728 0.4581358 -0.39361823 0.12654209 0.2357314 0.09302951 0.05456843 0.0044976906
0.45587924 0.0056787776 0.32073927 0.013836498 -0.20379512 0.088579476 -0.21032992 0.19229618
-0.083682835 -0.09153581 0.16015388 -0.037982088 0.15642622 0.04926082 -0.22748457 0.21824956
-0.19152065 0.055874623 -0.25472865 0.05617257 0.014265302 0.11478586 -0.052606944 -0.06768675
0.15859601 0.15888096 -0.07481272 0.009513113 -0.13578498 0.07834969 -0.47827536 -0.22310758
-0.23948602 0.017082704 -0.29860443 -0.17861152 0.1964312 0.060793955 0.01657744 0.08627572
0.06865258 -0.12070199 0.04320677 0.14784338 0.137301 0.21888685 -0.084645905 -0.044033896
0.19904049 0.19137222 -0.05843636 -0.035260655 0.042602614 0.04392382 -0.16763376 0.019139893
-0.0072723376 -0.075930916 0.44648024 -0.056462336 0.1389214 -0.07505546 -0.75958824 0.25970042
0.20516442 -0.43424997 0.4245098 -0.12632678 -0.35726002 -0.08492257 -0.20793577 0.37854874
-0.023414023 0.40205532 -0.47957453 -0.37847188 0.303751 -0.105887584 -0.031493954 0.024131753
0.33825308 -0.17224401 0.14295514 0.44034925 -0.40522432 -0.6305375 0.43878102 -0.30129218
-0.17245238 -0.29656717 0.067424424 0.1012323 0.33148542 -0.1251632 -0.4845411 0.25166535
-0.33461285 -0.10950424 -0.2789861 0.15013234 0.35263833 -0.064214945 -0.22448277 -0.0024521789
0.050727375 0.6564408 -0.19908145 0.040991344 -0.096771516 0.40845084 -0.18681855 0.17190939
-0.322285 0.019138653 -0.20336415 0.010033723 0.01327806 -0.10528016 0.106758356 0.031091291
-0.09275387 -0.018785624 -0.103833035 -0.11201299 -0.045004804 -0.07120473 0.02600606 0.08496223
0.17172073 -0.09209462 0.13968259 -0.056513034 -0.15720743 0.010395726 0.10578629 -0.09541565
-0.18185034 0.014223648 -0.1635951 0.2000568 0.037539054 -0.16062634 -0.06376609 -0.11286474
-0.11554548 0.07500093 -0.053972904 -0.09526512 0.025062742 0.014013017 -0.05974284 0.031055996
0.012725136 -0.16006659 0.019330928 0.069309704 0.1353667 0.063875586 0.05499924 1.2396083
-0.004488209 -0.049724307 -0.08618282 0.021545693 0.28991404 0.11334649 0.6592692 0.091905944
0.4716833 0.28466368 0.26825064 -0.1508394 -0.19884907 -0.085250884 0.12943761 0.019947022
0.042658683 -0.22012123 0.7734679 0.06374272 0.22191867 -0.084984995 -0.08578802 0.032294005
-0.03196994 -0.19005343 -0.060047068 -0.19416662 -0.68008715 -0.09340804 -0.18961951 0.28529337
0.14436136 -0.29005167 0.14245996 0.10243326 -0.102734886 0.04193054 -0.022282286 0.123089194
-0.0789174 -0.18795419 -0.2812486 0.06021867 -0.37639254 -0.020351805 -0.24594381 0.26978242
-0.08155055 0.09098999 -0.035924606 0.095692135 0.10072293 -0.14887345 0.08019178 0.29291937
00000000: adb8 00bf 4796 7d3c ce7d 40bd e9e3 f9be
00000010: 73ed d23d 2e57 d23d c4f4 6d3c f6d1 10be
00000020: 6046 293d 4174 363d bb43 793e 0a4b 03be
00000030: cf9c 0f3e 0063 3dbd 5822 253d 8f22 08be
00000040: 6162 1c3e 98b7 ad3e c3ff 9fbd 7897 f33d
00000050: 52ff 54bd 6642 a9be 808c ebbc abaa 5c3e
00000060: 25f3 6d3e dcc7 ac3d 0a2a edbc e01c 1abe
00000070: 76fe debd 6741 36be 7f4e 95be 419b 5e3e
00000080: 7956 b3bd c790 ea3e 5488 c9be 4094 013e
00000090: 9263 713e 4186 be3d 2583 5f3d 5d61 933b
000000a0: 0169 e93e 0a15 ba3b f037 a43e 7bb2 623c
000000b0: abaf 50be 2869 b53d ba60 57be 4ae9 443e
000000c0: e861 abbd 2077 bbbd 61ff 233e 1b93 1bbd
000000d0: 322e 203e b7c5 493d b7f1 68be d07c 5f3e
000000e0: fd1d 44be cadc 643d cb6b 82be 3515 663d
000000f0: 03b9 693c d914 eb3d 617a 57bd 5a9f 8abd
00000100: fe66 223e b1b1 223e 6937 99bd e3dc 1b3c
00000110: 380b 0bbe cd75 a03d 82e0 f4be 5076 64be
00000120: d33b 75be 07f1 8b3c aee2 98be f0e5 36be
00000130: 4325 493e 1503 793d 69cd 873c 53b1 b03d
00000140: b999 8c3d 9b32 f7bd 95f9 303d 4164 173e
00000150: a298 0c3e e023 603e d55a adbd e35c 34bd
00000160: 45d1 4b3e 14f7 433e f75a 6fbd 7a6d 10bd
00000170: 1480 2e3d 77e9 333d 2fa8 2bbe 44cb 9c3c
00000180: ca4c eebb ab81 9bbd 0f99 e43e 0d45 67bd
00000190: 6941 0e3e adb6 99bd 6074 42bf 74f7 843e
000001a0: 9f16 523e 0356 debe 5959 d93e cf5b 01be
000001b0: c9ea b6be e2eb adbd 1ded 54be 24d1 c13e
000001c0: c4ce bfbc 32da cd3e cb8a f5be 11c7 c1be
000001d0: 4085 9b3e 97db d8bd ceff 00bd f4af c53c
000001e0: 822f ad3e bc60 30be d562 123e 7575 e13e
000001f0: 9079 cfbe e86a 21bf e8a7 e03e f842 9abe
00000200: 5b97 30be a7d7 97be d115 8a3d e152 cf3d
00000210: 75b8 a93e c82a 00be c515 f8be 48da 803e
00000220: 6052 abbe c243 e0bd 44d7 8ebe 4bbc 193e
00000230: 038d b43e 2083 83bd d0de 65be bcb4 20bb
00000240: 82c7 4f3d 810c 283f 02dc 4bbe 8ae6 273d
00000250: 2530 c6bd 7820 d13e 5d4d 3fbe 0409 303e
00000260: 8a02 a5be aac8 9c3c b13e 50be 7c64 243c
00000270: 388c 593c 209d d7bd 20a4 da3d 2ab3 fe3c
00000280: bef5 bdbd 4fe4 99bc 6aa6 d4bd 1167 e5bd
00000290: f556 38bd c9d3 91bd a90a d53c ad00 ae3d
000002a0: 8fd7 2f3e 1b9c bcbd f408 0f3e 367a 67bd
000002b0: fcfa 20be d652 2a3c 7ba6 d83d 4869 c3bd
000002c0: fa36 3abe 4e0a 693c 7985 27be b1db 4c3e
000002d0: 8dc2 193d 3b7b 24be cc97 82bd a125 e7bd
000002e0: 1ca3 ecbd 169a 993d b112 5dbd 5c1a c3bd
000002f0: 6150 cd3c da96 653c e8b4 74bd 2569 fe3c
00000300: 177d 503c 7fe8 23be e55b 9e3c 3ff2 8d3d
00000310: 919d 0a3e 34d1 823d e246 613d 7cab 9e3f
00000320: d311 93bb b7ab 4bbd 9e80 b0bd 9880 b03c
00000330: 9d6f 943e 3422 e83d dec5 283f 2f39 bc3d
00000340: 7980 f13e 70bf 913e 2658 893e a575 1abe
00000350: 179f 4bbe 0498 aebd 4b8b 043e f067 a33c
00000360: dfba 2e3d 7667 61be fe01 463f 8b8b 823d
00000370: a63e 633e 9d0c aebd a1b1 afbd b846 043d
00000380: e9f2 02bd 5e9d 42be eaf3 75bd 9dd3 46be
00000390: 311a 2ebf b74c bfbd 9e2b 42be f911 923e
000003a0: 77d3 133e a781 94be 06e1 113e 87c8 d13d
000003b0: ab66 d2bd 5cbf 2b3d 5789 b6bc 3016 fc3d
000003c0: 729f a1bd 1077 40be d1ff 8fbe daa7 763d
000003d0: 86b6 c0be d4b8 a6bc b2d8 7bbe ec20 8a3e
000003e0: fa03 a7bd f658 ba3d ae25 13bd 3dfa c33d
000003f0: d347 ce3d 4872 18be 973b a43d 87f9 953e

encoder.fc1.bias f4 [64]
-0.3605593 0.33082762 -0.17807911 -0.1991029 0.136509 -0.6311517 0.17491388 0.6149928
-1.7251457 0.4642614 -0.09524283 -0.1966128 -0.8427292 -0.15971777 0.20078231 0.15372026
-0.56914294 0.57174003 -0.36334613 0.4362771 0.21841376 -0.022165628 -2.0093315 0.2423176
0.27566168 -0.7100629 0.5434744 0.18442436 0.25312942 0.760009 0.11037108 -0.19751704
0.47345787 -0.20817415 0.236326 -1.9340727 0.3277759 -0.025252648 -0.56600434 0.21043585
-0.03047903 -1.6402617 0.41874015 -1.2014369 -0.30223966 0.56136185 0.6200009 -0.11906586
0.0022721975 0.448464 1.2463547 0.27732778 -0.43384647 -0.32751015 -0.19022511 -0.23344663
0.12365725 0.13163862 -0.38756102 -0.09623094 -0.033902455 0.4639559 0.6198893 0.63975257
00000000: 3b9b b8be 3d62 a93e 5f5a 36be a1e1 4bbe
00000010: 04c9 0b3e 2893 21bf a01c 333e 2b70 1d3f
00000020: 93d1 dcbf acb3 ed3e ac0e c3bd de54 49be
00000030: 1abd 57bf 0e8d 23be e199 4d3e d868 1d3e
00000040: 5ab3 11bf 8e5d 123f 8108 babe b65f df3e
00000050: dba7 5f3e b194 b5bc e398 00c0 1b22 783e
00000060: 8723 8d3e afc6 35bf 2321 0b3f bdd9 3c3e
00000070: 2e9a 813e f38f 423f 3c0a e23d e841 4abe
00000080: 1269 f23e 9b2b 55be 71ff 713e b28f f7bf
00000090: 3ed2 a73e a4de cebc a9e5 10bf 7f7c 573e
000000a0: 29af f9bc 18f4 d1bf 1c65 d63e afc8 99bf
000000b0: 28bf 9abe 69b5 0f3f 61b8 1e3f cdd8 f3bd
000000c0: 26e9 143b 139d e53e 8d88 9f3f e8fd 8d3e
000000d0: 2021 debe 69af a7be 5fca 42be a20c 6fbe
000000e0: 0340 fd3d 46cc 063e 666e c6be ba14 c5bd
000000f0: 4ddd 0abd a18b ed3e 11b1 1e3f d3c6 233f

encoder.fc2.weight f4 [16, 64]
-0.048064787 -0.057143103 0.0029301418 0.018632503 -0.11834249 0.08290276 0.05153134 -0.19699322
-0.22976832 0.10434212 0.06297079 -0.03378001 -0.07741274 -0.010027473 -0.035371426 0.008638437
-0.16687232 0.13347924 0.018734263 0.04379735 -0.07204666 -0.08075686 -0.24240874 0.13524655
-0.16544431 0.13375965 0.23720711 -0.055246916 0.28353265 0.49158588 -0.013600007 0.1315219
0.053318363 0.042954955 0.039056927 0.08824378 -0.2251498 -0.076696455 0.05717407 0.11859519
-0.6219038 -0.24090233 -0.026118908 0.40067223 -0.0735949 0.1823279 0.04094994 -0.13357191
-0.018597968 -0.008440705 -0.07397024 -0.029055692 -0.065371424 -0.45097372 0.12169554 -0.36620256
0.1388455 0.055057764 -0.04520883 -0.21291861 -0.106096186 -0.113399245 0.03578344 0.030637775
0.0020016525 0.0038623018 -0.008119795 -0.0022527396 0.009303676 0.014475153 -0.00042823696 0.0017204362
-0.005097057 -5.970563e-05 -0.007836787 0.009001059 -0.0035677366 0.007544344 0.0025861626 0.009027274
-0.030974109 0.0026829303 -0.01037234 -0.0005081391 -0.008192537 -0.012000286 -0.0012452265 0.0036894619
0.0002342084 0.004120728 -0.014148249 -0.0041539506 0.0012878496 0.010013873 0.00092705275 0.0077583985
0.013344099 0.0069494457 -0.008598455 0.010237975 0.0012157063 -0.0030184835 0.022753976 0.010366081
-0.0027326923 0.006968413 0.005836387 0.004007064 0.0069284425 -0.012715095 0.0005431839 0.0014458045
-0.00015178567 -0.00374089 -0.024569731 -0.017768554 0.004782481 -0.012283993 0.0035948725 -0.0036101632
0.010418729 0.008747956 -0.0049904943 0.0023329062 0.008186446 -0.017245742 -0.0009922374 0.002121361
0.0069859084 -0.0026282137 -0.0025983832 -0.003026461 0.0044595166 -0.008401792 -0.00077086536 0.0028152908
-0.0023321123 -0.013991431 -0.0074637085 0.005694174 0.010755041 -0.00060279056 -0.0014900501 -0.0030548638
0.012302125 -0.0029808804 0.005812854 -0.007311687 0.0033305695 0.004549311 0.0017824849 0.0050065615
0.0031282261 0.013984067 -0.0015355442 -0.010741639 0.00051397935 -0.008070277 0.008981934 -0.020593148
-0.0029518316 -0.010063467 0.0002904369 -0.005429372 0.0009838947 -0.008221352 -0.0035961347 -0.00039087626
-0.010682705 0.015195059 0.001920443 -0.003223019 -0.0044862777 0.009284834 -0.007047545 0.005937064
0.0050532934 0.0042163297 0.021064198 -0.02628867 -0.0006938107 0.010218796 -0.0031469585 -0.0068913307
0.011803122 -0.014146919 0.017573368 0.01070391 -0.0028498997 0.017244494 0.001967548 -0.00555416
0.014906122 0.121374376 0.1821275 -0.0044812267 -0.03377394 -0.049477994 -0.024001943 -0.09578235
-0.0061177397 -0.012085726 0.030843856 -0.41680592 -0.06309433 0.04169933 0.019451117 0.20799908
-0.12334657 -0.19786239 -0.04555025 0.17079608 -0.07511454 0.034977105 0.002062197 -0.15022998
0.103094324 -0.18334067 0.11956244 0.15500098 0.12509641 -0.026368337 -0.0015302917 0.055150043
0.25516477 0.017246135 -0.1079826 0.04940043 0.26283115 0.029587371 -0.047546957 -0.0767863
-0.059635777 -0.006089099 -0.08405451 -0.033623245 0.28660563 -0.1875001 0.005782679 0.09151211
-0.013497556 -0.0020473618 0.0038924923 0.19362578 -0.067288935 -0.10915858 0.03502034 -0.045548316
-0.101733625 -0.19538876 0.002707464 -0.01235389 0.043107685 0.12423021 -0.2282944 -0.00670216
00000000: 95df 44bd e30e 6abd 9f07 403b 31a3 983c
00000010: 8c5d f2bd ecc8 a93d 8712 533d 97b8 49be
00000020: 6348 6bbe 52b1 d53d d4f6 803d e85c 0abd
00000030: 928a 9ebd 454a 24bc a1e1 10bd 3b88 0d3c
00000040: 94e0 2abe c8ae 083e 9978 993c da64 333d
00000050: 338d 93bd da63 a5bd ff39 78be 127e 0a3e
00000060: 3c6a 29be 4af8 083e 6ce6 723e 974a 62bd
00000070: 312b 913e 25b1 fb3e 90d2 5ebc adad 063e
00000080: 5b64 5a3d 89f1 2f3d 28fa 1f3d 28b9 b43d
00000090: ab8d 66be 0813 9dbd 5c2f 6a3d 09e2 f23d
000000a0: 1635 1fbf 1aaf 76be 52f7 d5bc e924 cd3e
000000b0: ecb8 96bd 2ab4 3a3e 20bb 273d 13c7 08be
000000c0: c45a 98bc e24a 0abc b67d 97bd 3406 eebc
000000d0: 74e1 85bd 07e6 e6be 833b f93d e77e bbbe
000000e0: 842d 0e3e 4084 613d e52c 39bd 5607 5abe
000000f0: f548 d9bd dd3d e8bd a891 123d 12fc fa3c
00000100: 282e 033b ac1e 7d3b e308 05bc b3a2 13bb
00000110: 726e 183c 3129 6d3c fe84 e0b9 4280 e13a
00000120: 3705 a7bb 6f6c 7ab8 de65 00bc 2e79 133c
00000130: b0d0 69bb 8b36 f73b 9c7c 293b 22e7 133c
00000140: 6abd fdbc 1ad4 2f3b bff0 29bc a334 05ba
00000150: fe39 06bc d99c 44bc de36 a3ba e6ca 713b
00000160: d795 7539 2c07 873b 0fce 67bc dd1d 88bb
00000170: 10cd a83a 3a11 243c 7505 733a 2a3a fe3b
00000180: 35a1 5a3c 2db8 e33b 89e0 0cbc 2ebd 273c
00000190: 5658 9f3a c0d1 45bb 8c66 ba3c 7fd6 293c
000001a0: f816 33bb 4957 e43b 2a3f bf3b b04d 833b
000001b0: fd07 e33b f952 50bc 7464 0e3a 2681 bd3a
000001c0: a828 1fb9 b829 75bb 7646 c9bc 5c8f 91bc
000001d0: 5cb6 9c3b cd42 49bc f497 6b3b 7d98 6cbb
000001e0: 51b3 2a3c 9653 0f3c 4d87 a3bb ace3 183b
000001f0: 7120 063c f146 8dbc f60d 82ba 8806 0b3b
00000200: 0cea e43b 1c3e 2cbb a349 2abb 9757 46bb
00000210: 2321 923b aba7 09bc e613 4aba be80 383b
00000220: 5ad6 18bb 513c 65bc 2092 f4bb 3296 ba3b
00000230: e935 303c 9704 1eba c94d c3ba 1c34 48bb
00000240: da8e 493c e05a 43bb c179 be3b e096 efbb
00000250: af45 5a3b 6312 953b 45a2 e93a 150e a43b
00000260: ed02 4d3b 6e1d 653c 5044 c9ba b3fd 2fbc
00000270: 92bc 063a 3239 04bc f628 133c f6b2 a8bc
00000280: 8473 41bb 3de1 24bc c845 9839 e0e8 b1bb
00000290: 07f6 803a d9b2 06bc 21ad 6bbb 86ee ccb9
000002a0: 8306 2fbc b2f4 783c 60b7 fb3a 4939 53bb
000002b0: a001 93bb 6b1f 183c 18ef e6bb b48b c23b
000002c0: 1996 a53b 2329 8a3b d38e ac3c 565b d7bc
000002d0: d9e0 35ba bd6c 273c 343d 4ebb acd0 e1bb
000002e0: e261 413c 7bc8 67bc 06f6 8f3c 745f 2f3c
000002f0: 62c5 3abb 5344 8d3c faf1 003b acff b5bb
00000300: cf38 743c 2193 f83d a27f 3a3e 41d7 92bb
00000310: 8b56 0abd 70a9 4abd b99f c4bc 8929 c4bd
00000320: 5277 c8bb 3503 46bc 41ac fc3c 9667 d5be
00000330: 9a37 81bd ebcc 2a3d f357 9f3c b6fd 543e
00000340: 209d fcbd 709c 4abe e692 3abd 2be5 2e3e
00000350: a7d5 99bd 2744 0f3d ed25 073b e3d5 19be
00000360: 1e23 d33d a8bd 3bbe 27dd f43d 94b8 1e3e
00000370: 4619 003e 6902 d8bc 1294 c8ba 03e5 613d
00000380: f5a4 823e c447 8d3c fb25 ddbd 1b58 4a3d
00000390: ce91 863e 3761 f23c 99c0 42bd 2342 9dbd
000003a0: a544 74bd 1187 c7bb c524 acbd 87b8 09bd
000003b0: f9bd 923e 0700 40be a17c bd3b b36a bb3d
000003c0: da24 5dbc 082d 06bb 2f19 7f3b d645 463e
000003d0: c8ce 89bd 898e dfbd 7d71 0f3d df90 3abd
000003e0: b859 d0bd fe13 48be b56f 313b f867 4abc
000003f0: af91 303d 696c fe3d 02c6 69be cb9d dbbb

encoder.fc2.bias f4 [16]
0.5124461 0.02329051 -0.00823744 0.118768096 0.51652986 0.008035849 0.1804894 -0.010925473
-0.06934485 0.40005985 -0.51886016 -0.67801 0.010368611 -0.017879335 0.19999559 0.029388325
00000000: ab2f 033f bdcb be3c 54f6 06bc b03c f33d
00000010: 4d3b 043f cba8 033c 37d2 383e c100 33bc
00000020: ac04 8ebd a5d4 cc3e 05d4 04bf 1092 2dbf
00000030: 1be1 293c af77 92bc a5cb 4c3e c9bf f03c

encoder.fc3.weight f4 [16, 64]
-0.13475503 -0.023015086 -0.18346842 0.055742078 0.0387239 0.08900173 -0.026550503 -0.33659276
0.22083695 0.034842376 -0.0034856596 -0.24286231 -0.030598812 -0.076621026 -0.22170141 -0.024091305
-0.13464397 -0.120645106 -0.10972661 -0.066294834 -0.30683663 0.036438152 0.2764256 -0.02489278
0.07553577 -0.107797235 0.13947654 -0.016392823 0.4682196 0.01961082 -0.01787429 -0.09401064
-0.09192376 -0.038293004 -0.094598845 -0.03690872 0.104432575 -0.040076658 -0.023145739 -0.038343992
-0.012677168 0.19452323 -0.12524469 0.4506293 -0.027165288 -0.097302146 -0.047838274 -0.110987864
0.18662998 -0.03522076 -0.16477221 -0.023257745 0.002461663 0.05555128 0.019168885 0.108768165
0.009180035 -0.016190598 -0.15876444 -0.012010969 -0.05128678 -0.112531886 -0.053646885 -0.013052358
-0.0018680434 -0.0011199875 0.0028982265 -0.0016802193 -0.007605206 0.0036422578 -0.0069085266 0.0008044373
0.007606333 0.0034769003 -0.004132901 0.009190226 -0.005035992 0.0012242693 -0.0010588252 0.0004862161
0.006882787 0.00032982338 0.00303364 0.00513347 -0.0055710613 -0.00071354525 0.015319587 -0.001361023
-0.0022156073 0.004884714 0.002000377 0.00013282575 0.0006198874 0.0017997891 -0.0037385644 -0.0010527069
-0.0025646915 0.005430882 0.0024499411 0.006932229 -0.0010728828 -0.00050612545 0.0033555063 0.00051032635
0.008336683 0.0045940476 -0.0018456604 -0.0025239787 0.0019784905 -0.0015980856 0.0034710628 0.003333302
0.00068922865 0.0004354845 0.0054985946 -0.00031501008 0.001423418 0.00037068655 -0.00095331867 0.0033945844
-0.001106261 0.0010643154 0.002905036 0.0023096583 -0.0031312662 -0.0043034297 0.00046444367 -0.00017937711
-0.0040229154 -0.0008317489 0.0024748081 0.0039294353 0.0069368435 -0.0033037306 -0.0043871724 0.0025609867
0.0004771317 -0.0033760332 -0.00510804 0.0055717793 0.0033002158 0.0030992886 0.0001257528 -0.0053611663
0.0075254184 -0.0005838966 -4.2793312e-05 -0.0011695027 -0.001289973 0.004309104 -0.004708779 0.0018135707
0.00082149345 0.0044445745 0.0026391505 -0.0012451946 0.0031118875 -0.0045629675 0.0013591738 -0.002945146
0.0028281324 -0.004236916 -0.0019385327 0.00023330182 0.0009291398 0.0009250432 -0.00011537125 0.004043007
0.00043100596 0.0033138702 0.005847681 0.0021174261 0.00046183282 0.0007319429 0.00076506904 -0.0008046682
-0.0014330049 0.0009720959 0.001326852 0.0073332703 -0.0041581383 -0.0010262304 -0.0036576667 -0.002715089
0.00014218365 0.0018356631 -0.0013402186 -0.007110146 -0.0057574203 -0.00048393197 0.0012789076 -0.0022561443
0.010088601 -0.29827374 0.095599666 -0.018846942 -0.19834498 -0.048312694 -0.05471432 0.03155614
0.3413902 0.0002537379 -0.059527807 -0.0031965708 0.10697534 0.026432842 0.015827134 -0.0041103107
-0.047670312 0.03202897 -0.112396605 0.04283671 -0.36950076 -0.00023285976 -0.030820474 -0.057554033
-0.07717362 -0.16336446 0.25349453 -0.059970878 0.02923083 -0.06723863 -0.027706537 -0.02163827
0.103788555 0.0016208803 -0.20024751 -0.106257915 0.1360219 0.030564353 0.06773329 -0.46948782
-0.0065452624 -0.021369066 -0.26018438 -0.011599278 0.1645669 -0.06273534 0.04404618 -0.0072104908
0.042235296 -0.080661595 -0.11461222 0.056860823 -0.039671835 0.06827581 -0.07469431 -0.044332683
-0.16944323 -0.1757719 -0.045600697 -0.10783514 -0.12757966 -0.17153722 -0.0235624 -0.10798961
00000000: 39fd 09be 228a bcbc 25df 3bbe ce51 643d
00000010: f49c 1e3d 8a46 b63d 7180 d9bc e355 acbe
00000020: 1523 623e e1b6 0e3d aa6f 64bb e6b0 78be
00000030: 5caa fabc 7ceb 9cbd b205 63be 215b c5bc
00000040: 1ce0 09be c814 f7bd 58b8 e0bd 96c5 87bd
00000050: b119 9dbe 2c40 153d a887 8d3e f2eb cbbc
00000060: 7fb2 9a3d ccc4 dcbd f0d2 0e3e 3e4a 86bc
00000070: 7bba ef3e dfa6 a03c 1a6d 92bc a788 c0bd
00000080: 8642 bcbd 20d9 1cbd 0abd c1bd 992d 17bd
00000090: bfe0 d53d 6c27 24bd 229c bdbc 970e 1dbd
000000a0: e5b3 4fbc 1931 473e 2540 00be e2b8 e63e
000000b0: bd89 debc 5946 c7bd 11f2 43bd 9b4d e3bd
000000c0: ee1b 3f3e a543 10bd 0cba 28be 0787 bebc
000000d0: da53 213b bd89 633d 1108 9d3c d8c1 de3d
000000e0: dc67 163c 25a2 84bc 2593 22be a8c9 44bc
000000f0: 1612 52bd 1e77 e6bd d6bc 5bbd 8fd9 55bc
00000100: 23d9 f4ba 8bcc 92ba 2cf0 3d3b ce3a dcba
00000110: 1835 f9bb f2b2 6e3b ec60 e2bb e0e0 523a
00000120: 8c3e f93b b5dc 633b 496d 87bb 9a92 163c
00000130: f604 a5bb a977 a03a 47c8 8aba d2ea fe39
00000140: 0189 e13b 25ec ac39 09d0 463b ab36 a83b
00000150: 738d b6bb 360d 3bba 01ff 7a3c 5b64 b2ba
00000160: b933 11bb f30f a03b c218 033b 2447 0b39
00000170: f07f 223a e7e6 eb3a b402 75bb fbfa 89ba
00000180: 6214 28bb 8af5 b13b 318f 203b c027 e33b
00000190: f99f 8cba 81ad 04ba 0ee8 5b3b 6cc7 053a
000001a0: 9596 083c aa89 963b 16ea f1ba 5669 25bb
000001b0: 90a9 013b db76 d1ba c57a 633b 8773 5a3b
000001c0: 5aad 343a bd51 e439 8e2d b43b f027 a5b9
000001d0: fc91 ba3a b558 c239 22e8 79ba ad77 5e3b
000001e0: f6ff 90ba 8080 8b3a 6b62 3e3b a35d 173b
000001f0: ee35 4dbb c903 8dbb 9380 f339 2d17 3cb9
00000200: a9d2 83bb b909 5aba 6430 223b 7ec2 803b
00000210: 764e e33b 6783 58bb 45c2 8fbb 3ad6 273b
00000220: 8827 fa39 7040 5dbb 5861 a7bb 7993 b63b
00000230: 6f48 583b 6f1d 4b3b 83dc 0339 b9ac afbb
00000240: c997 f63b a310 19ba f87c 33b8 004a 99ba
00000250: 5014 a9ba 6233 8d3b 1a4c 9abb 56b5 ed3a
00000260: 7e59 573a cba3 913b 99f5 2c3b cc35 a3ba
00000270: cff0 4b3b f284 95bb 4e26 b23a 5a03 41bb
00000280: 3058 393b d4d5 8abb 5d16 feba 7ba2 7439
00000290: 8491 733a 997e 723a 78f3 f1b8 337b 843b
000002a0: a4f8 e139 842d 593b e79d bf3b 84c4 0a3b
000002b0: 2722 f239 dbdf 3f3a ea8e 483a 5ef0 52ba
000002c0: aad3 bbba 40d4 7e3a c4e9 ad3a ee4b f03b
000002d0: fe40 88bb 9482 86ba 77b5 6fbb a2ef 31bb
000002e0: 2217 1539 a29a f03a 46aa afba 3afc e8bb
000002f0: bea8 bcbb 40b8 fdb9 05a1 a73a d2db 13bb
00000300: a94a 253c 56b7 98be c2c9 c33d e764 9abc
00000310: f21a 4bbe 88e3 45bd 1f1c 60bd 0341 013d
00000320: b2ca ae3e 2008 8539 6ed3 73bd 8f7d 51bb
00000330: e315 db3d b089 d83c e8a7 813c c9af 86bb
00000340: f241 43bd cf30 033d 3130 e6bd 8c75 2f3d
00000350: 342f bdbe d12b 74b9 387b fcbc c7bd 6bbd
00000360: 340d 9ebd 0349 27be 09ca 813e 06a4 75bd
00000370: 7e75 ef3c 68b4 89bd d2f8 e2bc be42 b1bc
00000380: 188f d43d b873 d43a af0d 4dbe c09d d9bd
00000390: 5349 0b3e 1862 fa3c c0b7 8a3d b560 f0be
000003a0: a479 d6bb 2e0e afbc e336 85be e60a 3ebc
000003b0: 3a84 283e 637b 80bd c469 343d fb45 ecbb
000003c0: ebfe 2c3d e831 a5bd d0b9 eabd e5e6 683d
000003d0: ef7e 22bd 30d4 8b3d 55f9 98bd 3096 35bd
000003e0: 8782 2dbe 8dfd 33be ccc7 3abd abd8 dcbd
000003f0: 3ea4 02be 74a7 2fbe ef05 c1bc a829 ddbd

encoder.fc3.bias f4 [16]
-0.52132756 -0.0028870325 -0.0032685 -1.0889956 -1.172319 -0.0030680099 -0.9987113 -0.00032649486
-1.1967492 -0.77384377 -0.21071346 -0.6344044 0.0004520397 -1.6834837 -0.79994243 -0.67176044
00000000: b975 05bf 5e34 3dbb 5534 56bb 3564 8bbf
00000010: 8d0e 96bf aa10 49bb 8bab 7fbf 662d abb9
00000020: 142f 99bf a01a 46bf 45c5 57be 5468 22bf
00000030: beff ec39 657c d7bf 07c9 4cbf 7ef8 2bbf

decoder.fc1.weight f4 [64, 16]
-0.03638529 0.0071590827 4.7182344e-05 2.1490102 0.36400515 -0.009928832 -0.23082773 0.0061342656
0.51270205 -0.11303343 0.054319024 -0.021271173 0.0040606866 -0.08764493 0.053115986 0.09533811
-0.3923497 -0.0005359868 0.0023775678 0.5099175 -1.9325019 -0.0012940667 0.23829466 -0.010581692
-0.62487406 0.041312836 0.05978784 0.16366924 -0.002949371 -0.30370104 0.032268252 0.12727123
0.2236953 0.005946758 0.0039993664 0.2552229 1.8950793 0.00407208 -0.30008203 -0.00450995
0.28301302 -0.18852979 0.05438187 -0.1583543 0.009801744 -1.7953025 -0.06422743 0.11492888
0.071007855 0.02133899 -0.0102961175 0.8294803 1.2678707 0.013080881 0.1409771 -0.0013608624
-0.7163878 -0.10091651 -0.4680339 0.12116053 0.0027833555 0.35136673 -0.13532494 0.13018815
0.17760892 0.008101805 0.010722288 0.044841923 0.029292544 -0.005523669 0.071916625 0.011504391
0.8173963 -0.119947456 -0.19866812 0.3772112 0.035089947 1.0885253 -0.3341008 0.88251966
0.20658408 0.004200843 0.0055155545 1.2573333 0.3021006 0.008352433 -0.61534554 0.0012852884
-0.06912784 0.026889876 -0.21483988 0.17968008 0.014844802 -1.0020244 -0.17990391 0.17774415
0.051361993 0.012355756 0.020800412 -0.72217274 -0.64587855 -0.024444235 -1.045595 0.0022208155
0.21246514 -0.30006158 0.14710936 0.1560862 0.020697983 0.6259201 0.6262521 0.094470814
-0.15715395 0.005729025 0.010598986 1.5303717 -0.46345276 -0.021511404 0.97720194 0.007375474
0.10413716 0.047810394 -0.11013545 0.27115595 -0.005247946 0.13841449 0.4708534 0.042373218
0.088525616 0.013641544 0.011048222 -0.32176885 0.49122757 0.0073736147 -0.37826648 0.0063692713
-0.886841 -0.0531446 -0.19567731 -0.35025117 -0.0077978987 -0.4766737 -0.25716713 0.025470199
0.03887618 -0.0013199536 -0.011224244 -0.33562535 -0.22823791 -0.021422343 0.3558971 -0.01608851
0.45151815 -4.963958e-05 0.34295917 0.092898816 -0.0050985226 1.1592226 0.10861788 -0.04997127
0.012073366 -0.003267592 -0.038958855 1.2273333 0.55202574 0.0158556 1.0493501 -0.030422587
0.26427004 -0.017222261 -0.08608929 -0.06857085 -0.00027229416 0.10070674 0.24814433 -0.08142901
-0.22324824 -0.01149522 0.014948355 0.004597902 -1.4610577 -0.018203888 -0.48611978 -0.003918235
0.23258956 0.40417767 0.01617881 0.012082609 -0.021063292 0.23096272 0.116404995 0.03478892
0.17663068 0.0024357487 -0.0118098995 -0.26394743 0.19018374 -0.0017044757 -0.57903427 0.008668998
0.88802254 0.2105392 -0.3516944 0.22174779 0.0064025824 1.2112236 0.20300224 -0.17875603
0.50614774 0.015980178 -0.0011552385 -1.1838735 1.2805023 -0.0075778 0.5056758 0.0031029386
0.045204308 -0.17974502 0.032745663 0.09808346 -0.00015814592 -0.18744594 -0.019722383 0.100213714
-0.41640332 -0.013317596 0.0009510736 0.49522847 -0.2711389 -0.0002710303 1.4111202 -0.02577284
1.2704926 0.038218174 0.2569784 -0.33785427 -0.0063218838 0.83724576 0.18379436 0.03930696
0.011250956 -0.014863435 0.01902659 0.9779798 0.35241675 -0.0007054351 -0.35377952 0.020980384
-0.4387842 -0.27346843 0.25245035 0.15191075 -0.0055746413 2.265638 0.0836205 -0.27733353
00000000: be08 15bd bd96 ea3b a8e5 4538 6289 0940
00000010: e25e ba3e 8aac 22bc 1b5e 6cbe f301 c93b
00000020: 7140 033f 127e e7bd a07d 5e3d e240 aebc
00000030: 820f 853b 2f7f b3bd 2690 593d a140 c33d
00000040: 0fe2 c8be 7781 0cba f8d0 1b3b f489 023f
00000050: 395c f7bf ac9d a9ba 8403 743e d55e 2dbc
00000060: bff7 1fbf a637 293d 18e4 743d e998 273e
00000070: 3c4a 41bb b47e 9bbe b72b 043d 6453 023e
00000080: 6110 653e 06dd c23b 1e0d 833b 93ac 823e
00000090: f591 f23f 156f 853b 5aa4 99be 34c8 93bb
000000a0: 15e7 903e f40d 41be 86bf 5e3d a127 22be
000000b0: 7e97 203c 79cc e5bf ac89 83bd d55f eb3d
000000c0: 916c 913d 1bcf ae3c 0cb1 28bc d258 543f
000000d0: 9649 a23f 3151 563c 4d5c 103e f75e b2ba
000000e0: 3165 37bf 51ad cebd 24a2 efbe 0323 f83d
000000f0: f568 363b 57e6 b33e 9f92 0abe 0b50 053e
00000100: 1ddf 353e 6fbd 043c 89ac 2f3c 2aac 373d
00000110: ebf6 ef3c e5ff b4bb 0649 933d ea7c 3c3c
00000120: e240 513f 03a7 f5bd a86f 4bbe d421 c13e
00000130: 7aba 0f3d cc54 8b3f 430f abbe cfec 613f
00000140: c78a 533e 3aa7 893b d3bb b43b 4cf0 a03f
00000150: eeac 9a3e a5d8 083c 4987 1dbf 1f77 a83a
00000160: e692 8dbd 2848 dc3c fcfe 5bbe 0efe 373e
00000170: 9d37 733c 5642 80bf bb38 38be 9002 363e
00000180: f460 523d cc6f 4a3c a065 aa3c 50e0 38bf
00000190: 4c58 25bf 473f c8bc 0fd6 85bf 1a8b 113b
000001a0: 7690 593e aca1 99be d6a3 163e 10d5 1f3e
000001b0: d18e a93c 4d3c 203f 0f52 203f ea79 c13d
000001c0: f7ec 20be 8cba bb3b 5fa7 2d3c 38e3 c33f
000001d0: ae49 edbe af38 b0bc e829 7a3f f6ad f13b
000001e0: dd45 d53d d5d4 433d b28e e1bd f4d4 8a3e
000001f0: f6f6 abbb 87bc 0d3e b213 f13e 8a8f 2d3d
00000200: eb4c b53d c880 5f3c 9a03 353c e3be a4be
00000210: 2e82 fb3e 5d9e f13b 25ac c1be 52b5 d03b
00000220: 0308 63bf 27ae 59bd a25f 48be 1f54 b3be
00000230: 8485 ffbb 930e f4be 69ab 83be e1a6 d03c
00000240: a13c 1f3d 4b02 adba e4e5 37bc 16d7 abbe
00000250: 33b7 69be e97d afbc 2538 b63e 0dcc 83bc
00000260: 632d e73e 1834 50b8 5898 af3e bc41 be3d
00000270: 8211 a7bb 6861 943f 0d73 de3d adae 4cbd
00000280: 5ecf 453c 1925 56bb 5293 1fbd 4219 9d3f
00000290: 8f51 0d3f 9ae3 813c 1b51 863f ca38 f9bc
000002a0: 674e 873e b315 8dbc 954f b0bd e06e 8cbd
000002b0: b4c2 8eb9 563f ce3d 8c19 7e3e 41c4 a6bd
000002c0: 309b 64be 7256 3cbc f2e9 743c ffa9 963b
000002d0: f003 bbbf 5220 95bc b1e4 f8be 8a64 80bb
000002e0: f52b 6e3e 60f0 ce3e 6c89 843c 23f6 453c
000002f0: ed8c acbc 7e81 6c3e be65 ee3d d47e 0e3d
00000300: acde 343e 15a1 1f3b 4f7e 41bc 1e24 87be
00000310: 87bf 423e b768 dfba 973b 14bf 6a08 0e3c
00000320: 7255 633f 9797 573e 4a11 b4be da11 633e
00000330: c1cc d13b 6009 9b3f d2df 4f3e d20b 37be
00000340: e692 013f dde8 823c 5f6b 97ba 2b89 97bf
00000350: 80e7 a33f 324f f8bb f873 013f ac5a 4b3b
00000360: 2728 393d 140f 38be 5120 063d fbdf c83d
00000370: f9d3 25b9 d4f1 3fbe d690 a1bc d93c cd3d
00000380: d132 d5be 0c32 5abc 7851 793a 968e fd3e
00000390: b8d2 8abe 1219 8eb9 969f b43f 9021 d3bc
000003a0: 809f a23f a98a 1c3d ac92 833e 3cfb acbe
000003b0: ce27 cfbb bd55 563f 9734 3c3e 5600 213d
000003c0: ee55 383c c485 73bc a7dd 9b3c e25c 7a3f
000003d0: f86f b43e f3ec 38ba 9722 b5be 0edf ab3c
000003e0: 53a8 e0be 0e04 8cbe 2c41 813e 7e8e 1b3e
000003f0: 7bab b6bb 3700 1140 3a41 ab3d a9fe 8dbe

decoder.fc1.bias f4 [64]
2.9218438 2.4037833 -1.0579745 0.45931035 1.7280024 1.5669535 0.18400612 0.27972496
1.27213 1.2174952 -0.29180703 1.82604 -0.19999982 -0.80358875 -2.117007 0.09174079
-0.8569911 -0.17539552 -1.4521871 -2.9205058 1.3565577 1.4384707 -0.5525981 2.9034777
0.011925296 1.3098296 0.08561535 -1.2814767 1.2140721 1.2739526 -0.03481842 2.5193284
1.9593238 1.5465363 2.076294 -0.8648723 1.3392646 -1.3178331 0.95496756 1.673297
2.323689 -2.099968 0.42624167 1.8035519 -0.64020234 1.0289016 0.17659989 0.34175807
1.4846609 -0.36965925 -1.4205241 -1.9712176 0.697763 0.12271614 1.8842798 -0.02079287
1.6149652 -0.75603294 1.8782542 -0.21128537 0.23143463 -0.23703593 -0.73089314 1.8338246
00000000: 7dff 3a40 96d7 1940 b56b 87bf ba2a eb3e
00000010: 2f2f dd3f ef91 c83f 1a6c 3c3e 1c38 8f3e
00000020: 28d5 a23f e2d6 9b3f bb67 95be aebb e93f
00000030: c1cc 4cbe feb7 4dbf 0b7d 07c0 98e2 bb3d
00000040: c563 5bbf e29a 33be 44e1 b9bf 91e9 3ac0
00000050: afa3 ad3f cf1f b83f 1277 0dbf 94d2 3940
00000060: 5162 433c 7fa8 a73f 1a57 af3d 6e07 a4bf
00000070: b766 9b3f e110 a33f c29d 0ebd ad3c 2140
00000080: 1fcb fa3f e7f4 c53f 00e2 0440 4568 5dbf
00000090: 066d ab3f c1ae a8bf c178 743f 992e d63f
000000a0: 52b7 1440 e065 06c0 593c da3e cada e63f
000000b0: 4de4 23bf 0cb3 833f 9ad6 343e eafa ae3e
000000c0: 5e09 be3f fa43 bdbe bcd3 b5bf dc50 fcbf
000000d0: 99a0 323f 9952 fb3d 1530 f13f cf55 aabc
000000e0: 2eb7 ce3f 608b 41bf a26a f03f 315b 58be
000000f0: 33fd 6c3e 8cb9 72be d01b 3bbf c4ba ea3f

decoder.fc2.weight f4 [51, 64]
0.6770098 0.42312136 -0.62915564 0.034208458 -0.15195848 -0.42425266 -0.28493744 -0.038877238
0.034286246 0.24323578 -0.038269483 0.52312773 0.074324556 0.0639664 0.38517836 -0.3519194
0.29478702 -0.22133419 -0.32549894 -0.108638756 0.11235817 -0.786176 -0.4282714 -0.15061879
0.1244207 0.17227633 -0.069450505 0.22571439 -0.31462342 0.23920605 -0.1815342 -0.8885532
-0.19523354 -0.44658485 -0.87695795 -0.021145707 0.44701073 -0.28574187 -0.10892609 0.18639864
0.4963117 -0.25757036 0.36839965 0.14111434 -0.24196959 0.18189351 -1.653237 0.16232672
-0.43108192 -0.20987149 0.41126516 0.2997748 -0.31447396 -0.088289276 -0.28281128 0.004408233
0.21201599 -0.12108057 -0.032553058 -0.12441466 -0.13609779 -0.032684658 -0.50266606 0.12327919
-0.62275964 -0.07055693 0.14473099 -0.36699852 0.4188843 -0.106521115 -0.043122362 0.138878
-0.6104249 0.44033337 0.069052495 0.32444817 -0.24634871 -0.6927501 0.22811253 -0.12642412
-0.12734044 0.057318747 0.11121644 -0.5006734 -0.17523882 -0.33602408 0.022053469 0.6538782
0.15064229 0.02026238 0.31068614 0.41331872 -0.060987342 -0.17422105 -0.00068027107 -0.044389445
0.21577318 0.19944997 0.16655576 -0.049905207 -0.11524705 -0.056743525 -0.029824378 -0.44644764
0.060426142 -0.3809674 -0.19772853 -0.5745674 0.11638167 -0.2268585 -0.19583926 -0.13764301
-0.045207366 -0.028746862 0.049885653 -0.27657276 -0.39899233 -0.16607475 -0.060552806 -0.09261345
-0.044193074 0.01842354 0.44779384 0.08264665 0.34079808 -0.36280084 0.34473932 -0.03807563
-0.21978675 -0.6018744 0.15502927 0.13005798 -0.5009721 -0.45204428 -1.0887204 0.3502715
-1.7749261 -0.09925767 0.08060353 0.008435236 -0.30587706 -0.03023577 1.0443842 0.017427921
0.38338906 0.018148754 0.033360504 0.2782786 -0.6962898 -0.44990805 -1.1176853 -1.0047115
0.22240724 -0.19871819 -0.36378068 -0.20717214 0.39281228 0.4774737 0.39008382 0.58046514
-0.5312996 -0.19010258 -0.58566797 -1.1766928 -0.10794939 -0.029391574 0.33861768 -0.16479331
-0.117701024 0.4673364 0.83903736 -0.2662336 -0.17046916 0.42315826 0.36530474 -0.3245923
0.59996367 -0.41560534 0.006407943 0.1435683 -0.38097146 -0.10280792 0.07320002 -0.052940227
0.5324135 0.041407034 -0.3144873 0.3504609 0.13838682 -0.33434758 0.21598011 -0.20196158
-0.2532639 -0.2855555 -0.0033779717 -0.60570914 0.61970717 0.2568392 0.11291843 0.0043710656
-0.2624987 -0.42417997 0.2534317 0.16111432 0.1300546 0.06678969 0.34249124 0.6254815
-0.078746065 0.25549865 -0.3628465 0.5207766 -0.17632619 -1.9755497 0.06877655 0.55089754
-0.028701669 0.1499478 -0.33778402 -0.23914304 -0.4794662 -0.36785167 -0.031036714 -0.860745
0.23109785 -0.21049961 -1.071208 0.12065878 -2.850408 -0.13623492 -1.4813046 -0.06927853
-1.1101902 -0.12836441 0.14537205 -0.37947038 -0.7779201 0.32068333 0.36568597 0.3344726
-0.56721973 -0.08403471 0.07049194 0.72657055 0.47605214 -0.2140203 -0.21738608 0.1296453
-0.2085217 -0.10722025 -0.94980085 0.024105703 -0.5986865 0.6342396 0.3812165 -0.27655965
00000000: 8450 2d3f 5da3 d83e 5810 21bf 2b1e 0c3d
00000010: 019b 1bbe a537 d9be 52e3 91be bd3d 1fbd
00000020: bc6f 0c3d cd12 793e 76c0 1cbd b3eb 053f
00000030: 7937 983d d100 833d 1936 c53e c82e b4be
00000040: 53ee 963e 6ea5 62be cca7 a6be ff7d debd
00000050: 0a1c e63d d542 49bf 6446 dbbe d03b 1abe
00000060: 48d0 fe3d 3569 303e 113c 8ebd ac21 673e
00000070: 5216 a1be 6ef2 743e 1ae4 39be 3978 63bf
00000080: 4deb 47be c5a6 e4be 5180 60bf c339 adbc
00000090: 97de e43e c24c 92be a414 dfbd 49df 3e3e
000000a0: 911c fe3e 43e0 83be e19e bc3e 4780 103e
000000b0: e0c6 77be 4b42 3a3e 459d d3bf fa38 263e
000000c0: c5b6 dcbe 8de8 56be 5991 d23e 157c 993e
000000d0: bb02 a1be 02d1 b4bd a4cc 90be f072 903b
000000e0: b81a 593e 17f9 f7bd 5b56 05bd 1dcd febd
000000f0: 385d 0bbe 59e0 05bd b9ae 00bf cd79 fc3d
00000100: 2d6d 1fbf 2780 90bd 5c34 143e 3be7 bbbe
00000110: 0178 d63e be27 dabd 13a1 30bd 0936 0e3e
00000120: ce44 1cbf 6073 e13e 656b 8d3d 121e a63e
00000130: d642 7cbe 1258 31bf 5596 693e 5375 01be
00000140: 8865 02be 10c7 6a3d 72c5 e33d 222c 00bf
00000150: ce71 33be 590b acbe 7aa9 b43c 9064 273f
00000160: f941 1a3e 4afd a53c 4112 9f3e 839e d33e
00000170: ddcd 79bd 0167 32be 3854 32ba b5d1 35bd
00000180: a5f3 5c3e 9d3c 4c3e 988d 2a3e 6769 4cbd
00000190: a506 ecbd e66b 68bd 4152 f4bc c994 e4be
000001a0: 6781 773d 290e c3be 5979 4abe d916 13bf
000001b0: 8359 ee3d 984d 68be 168a 48be 4af2 0cbe
000001c0: 5c2b 39bd 8a7e ebbc e654 4c3d f29a 8dbe
000001d0: b948 ccbe 800f 2abe 3806 78bd 1fac bdbd
000001e0: cc03 35bd f7ec 963c 3c45 e53e a642 a93d
000001f0: 167d ae3e 08c1 b9be ac81 b03e 31f5 1bbd
00000200: c70f 61be 7114 1abf febf 1e3e eb2d 053e
00000210: b53f 00bf 5972 e7be 315b 8bbf c956 b33e
00000220: c730 e3bf 9b47 cbbd 7713 a53d f233 0a3c
00000230: eb9b 9cbe 01b1 f7bc 62ae 853f 00c5 8e3c
00000240: 924b c43e b2ac 943c 06a5 083d 887a 8e3e
00000250: 0c40 32bf 595a e6be 5010 8fbf 639a 80bf
00000260: b9be 633e c87c 4bbe 7641 babe ef24 54be
00000270: b11e c93e 6f77 f43e 11b9 c73e 5d99 143f
00000280: 4003 08bf 40aa 42be 56ee 15bf df9d 96bf
00000290: 9214 ddbd 99c6 f0bc 4c5f ad3e 94bf 28be
000002a0: 3c0d f1bd b746 ef3e 27cb 563f c54f 88be
000002b0: 788f 2ebe 33a8 d83e 3909 bb3e f630 a6be
000002c0: 3897 193f 39ca d4be b9f9 d13b 9203 133e
000002d0: b10e c3be f58c d2bd e4e9 953d dad7 58bd
000002e0: 404c 083f 6c9a 293d 7b04 a1be 9c6f b33e
000002f0: 46b5 0d3e 9b2f abbe e429 5d3e 04cf 4ebe
00000300: ceab 81be 5534 92be f660 5dbb c10f 1bbf
00000310: 21a5 1e3f 6d80 833e c741 e73d 283b 8f3b
00000320: 3b66 86be 1e2e d9be cdc1 813e 27fb 243e
00000330: 082d 053e 08c9 883d 035b af3e 8e1f 203f
00000340: 9e45 a1bd b8d0 823e 04c7 b9be 9e51 053f
00000350: da8e 34be d0de fcbf b8da 8c3d 9f07 0d3f
00000360: c31f ebbc eb8b 193e 07f2 acbe eae1 74be
00000370: 987c f5be 0e57 bcbe b540 febc c959 5cbf
00000380: eaa4 6c3e 368d 57be 581d 89bf f31b f73d
00000390: 166d 36c0 2b81 0bbe 649b bdbf e7e1 8dbd
000003a0: b61a 8ebf f671 03be 69dc 143e f149 c2be
000003b0: c625 47bf 9b30 a43e 313b bb3e fe3f ab3e
000003c0: 5035 11bf 641a acbd 145e 903d 8700 3a3f
000003d0: 1bbd f33e 2328 5bbe 759a 5ebe bdc1 043e
000003e0: b686 55be 4a96 dbbd 2626 73bf 5379 c53c
000003f0: 8543 19bf 875d 223f cf2e c33e 3a99 8dbe

decoder.fc2.bias f4 [51]
-0.7033164 0.8506806 -1.1008712 0.34705395 1.1262443 -1.3603069 0.41121507 -0.35084966
-0.17098972 -0.47806248 0.6724332 -0.179938 0.29589152 1.0844326 -0.6891015 -1.3458197
-0.2774866 -0.16996485 0.1450554 0.39789686 -0.18027896 -0.6161172 0.35988465 0.093143545
-0.32183164 0.121825315 2.3662453 -0.90375036 0.67279226 1.4886621 -0.18024789 0.793135
0.16127852 1.2287006 1.1218877 2.014122 2.097342 -0.26601747 -0.24258521 0.15310024
0.7731979 0.318119 0.60793245 0.54812926 2.0753708 0.5894587 -0.6118609 1.0222449
-0.7083195 -0.09615344 -0.62966657
00000000: 8b0c 34bf 34c6 593f 59e9 8cbf 0eb1 b13e
00000010: c628 903f 891e aebf c88a d23e 91a2 b3be
00000020: ee17 2fbe 9bc4 f4be 9524 2c3f ab41 38be
00000030: 187f 973e b0ce 8a3f f568 30bf d243 acbf
00000040: b912 8ebe 440b 2ebe 6789 143e 23b9 cb3e
00000050: 0c9b 38be dbb9 1dbf cd42 b83e 0bc2 be3d
00000060: 1ec7 a4be 8d7f f93d 9070 1740 2f5c 67bf
00000070: 1d3c 2c3f 7b8c be3f e792 38be e50a 4b3f
00000080: 3226 253e 1046 9d3f 049a 8f3f 60e7 0040
00000090: da3a 0640 7133 88be 4268 78be 4fc6 1c3e
000000a0: 4cf0 453f 7ee0 a23e 76a1 1b3f 3352 0c3f
000000b0: e0d2 0440 c4e6 163f eaa2 1cbf ecd8 823f
000000c0: 6d54 35bf 18ec c4bd d431 21bf
