model/pos/vae_hd64_ld16_gamma001.pth (torch, 42939 bytes, 10 tensors)

encoder.fc1.weight f4 [64, 51]
0	0xbe7248f9	-0.2366065
1	0xbdde084d	-0.10841427
2	0x3e4c9c64	0.19981533
3	0xbe1a64ee	-0.15077564
4	0xbce8190a	-0.028332252
5	0x3f12fb95	0.57415134
6	0xbe3ba0c0	-0.1832304
7	0xbd86f3aa	-0.06589444
8	0xbd923d62	-0.07140614
9	0xbdff7b96	-0.12474744
10	0xbd806528	-0.06269294
11	0x3da2eb66	0.07955055
12	0xbdc7eeb2	-0.097623244
13	0xbccb0250	-0.024781376
14	0xbdc01ec6	-0.093808696
15	0xbd1c8ceb	-0.038220327
16	0xbe0f2720	-0.13979769
17	0xbc8f383d	-0.017482871
18	0xbd105fd7	-0.03524765
19	0x3b0b1523	0.0021222315
20	0x3de8a7ab	0.11360105
21	0xbdad57cc	-0.084640115
22	0x3c0664c5	0.008202736
23	0xbe789e5a	-0.24279156
24	0x3ebbf68f	0.36711547
25	0xbdb8539a	-0.09000321
26	0x3e53a49e	0.20668265
27	0x3f3cdb3b	0.7377202
28	0xbcc9f66e	-0.02465364
29	0xbeddcbde	-0.433196
30	0x3f8b8b77	1.0901936
31	0xbdee2007	-0.116272025
32	0x3ed0392c	0.4066862
33	0xbe618139	-0.22021951
34	0x3c5fef87	0.013667948
35	0xbe9b62aa	-0.30348712
36	0xbe36cfe1	-0.17852737
37	0xbcc420ef	-0.023941485
38	0x3e308806	0.17239389
39	0xbc4d4114	-0.012527723
40	0xbcc30931	-0.023808094
41	0xbd9d4209	-0.07678611
42	0x3d096454	0.033542946
43	0xbd965c5a	-0.073418334
44	0xbee6056d	-0.44926015
45	0xbdc5d87c	-0.09660432
46	0xbd8f90f1	-0.07010067
47	0xbcc793cf	-0.024362473
48	0xbda33b46	-0.0797029
49	0xbd41d7a0	-0.047324777
50	0x3cb0c921	0.02158028
51	0xbe9ce1eb	-0.30641112
52	0xbe765849	-0.24057116
53	0xbd306fe0	-0.043075442
54	0xbcfa77da	-0.030574728
55	0xbe360a44	-0.17777354
56	0xbec4b866	-0.38421935
57	0xbead1be7	-0.3381035
58	0x3dd636f8	0.10459703
59	0x3d118b8c	0.035533473
60	0xbe1b6daa	-0.15178552
61	0x3dabf5b5	0.08396474
62	0x3e23a245	0.1597987
63	0xbe3c5fc9	-0.18395914
64	0xbd132207	-0.035921123
65	0x3e932465	0.28738704
66	0x3cbd2d90	0.023093015
67	0x3d2df2e3	0.042467963
68	0xbdaf427e	-0.08557604
69	0x3f192f43	0.5983774
70	0x3ec691c4	0.38783085
71	0x3e2ae199	0.16687621
72	0xbe71683f	-0.23574923
73	0xbf40fcc7	-0.7538571
74	0xbd8f0ac8	-0.06984478
75	0xbecf7fd1	-0.40527204
76	0x3e3df95f	0.18552159
77	0xbdfd6bcc	-0.12374076
78	0xbd9cd431	-0.0765766
79	0xbcda1857	-0.026622934
80	0xbc2e79a9	-0.010649123
81	0xbd0e8013	-0.03479011
82	0xbcf9a138	-0.030472383
83	0xbecb6792	-0.39727455
84	0xbb3ecc10	-0.002911333
85	0xbe1639ab	-0.14670436
86	0xbcc47e4a	-0.023986
87	0x3eac371c	0.33635795
88	0x3dec5768	0.11540109
89	0x3e545c22	0.20738271
90	0x3edb746b	0.42862257
91	0xbdcc35cd	-0.09971199
92	0xbe7d8cc7	-0.24760734
93	0x3b2b6b04	0.0026156316
94	0xbe59291d	-0.2120709
95	0xbd7a77b3	-0.06114931
96	0xbec89999	-0.39179686
97	0xbcffb322	-0.031213347
98	0x3d546bcf	0.051860627
99	0xbe6f673d	-0.23379226
100	0x3d104fd1	0.03523237
101	0x3d492abc	0.04911302
102	0x3ec4df8b	0.384518
103	0xbe4b85f1	-0.19875313
104	0x3e901e34	0.28148043
105	0x3ea0ab77	0.31380817
106	0x3d96f8ed	0.073716976
107	0x3ea92574	0.33036387
108	0x3e560592	0.20900562
109	0xbeca73d0	-0.39541483
110	0x3d2d7164	0.042344466
111	0xbb426654	-0.0029663043
112	0x3e2304a7	0.15919743
113	0x3da0ccd8	0.07851571
114	0x3d98f9c6	0.074695155
115	0xbe2e6681	-0.1703129
116	0x3eb48583	0.3525811
117	0x3e6f676e	0.23379299
118	0x3e3cd0e6	0.18439063
119	0xbec7dcff	-0.39035794
120	0xbe7df6da	-0.24801198
121	0xbd6b5400	-0.057453156
122	0x3d11757f	0.035512444
123	0xbe0f634f	-0.14002727
124	0x3ddc2971	0.10750092
125	0x3dd9c1ee	0.10632692
126	0xbc89e6c9	-0.01683368
127	0x3d5ac769	0.05341283
128	0xbd7aecbf	-0.061260935
129	0x3cb39467	0.02192135
130	0xbefebf98	-0.4975555
131	0x3db2a8f7	0.08723634
132	0xbe153809	-0.14572157
133	0x3e01f9fc	0.12693018
134	0xbd9343ab	-0.07190641
135	0x3e218a71	0.15775467
136	0x3e971199	0.29505613
137	0xbe142a59	-0.1446928
138	0x3d10cae4	0.03534974
139	0xbd36e97d	-0.044656266
140	0x3f1aedfe	0.605194
141	0xbdef9dc2	-0.11700012
142	0xbd0ecb74	-0.034861997
143	0x3e9c5f1f	0.30541322
144	0xbd4c88f4	-0.049935296
145	0x3e4fc1b0	0.2028873
146	0xbe89ecc1	-0.2693844
147	0x3cbf1a4c	0.023327969
148	0x3d4cd200	0.05000496
149	0x3e4f2a9c	0.20231098
150	0xbcb50dac	-0.022101246
151	0x3ca02fdd	0.019554073
152	0xbd1ba101	-0.037995342
153	0xbe6a38dc	-0.22873253
154	0xbc135e08	-0.008994587
155	0x3e7147e5	0.23562582
156	0xbe96c293	-0.29445323
157	0x3d300e1b	0.042982202
158	0x3e14d9ed	0.14536257
159	0xbe5366a7	-0.20644628
160	0xbd36ab4b	-0.04459695
161	0x3ea0189e	0.3126878
162	0xbe12833c	-0.14307874
163	0xbe1c015b	-0.15234892
164	0xbd407310	-0.046984732
165	0x3e0b9e07	0.13634501
166	0xbd490c41	-0.04908395
167	0x3ec770b8	0.38953185
168	0x3ee49e11	0.44651845
169	0xbdf61ad4	-0.12016836
170	0x3aa4ae56	0.0012564163
171	0xbd2ebdd2	-0.042661496
172	0xbc9e2094	-0.019302644
173	0x3e796465	0.24354704
174	0xbe820de4	-0.25401223
175	0xbe61132f	-0.21979974
176	0xbf1748dc	-0.5909555
177	0xbe1988f8	-0.14993656
178	0x3f535540	0.82551956
179	0xbe3daff1	-0.18524148
180	0x3b3329c6	0.0027338131
181	0xbed285b9	-0.41117647
182	0x3d071333	0.032977294
183	0xbe3ca686	-0.18422899
184	0x3d527bf2	0.051387735
185	0xbe425eb0	-0.18981433
186	0xbd60fbf9	-0.0549278
187	0x3f5aea0f	0.85513395
188	0xbe9d5bbd	-0.30734053
189	0x3e450a42	0.19242194
190	0xbd31a497	-0.043369856
191	0xbe8b93a3	-0.27261075
192	0x3e302b36	0.17203984
193	0xbcec5e6d	-0.02885362
194	0x3e3f335e	0.18671939
195	0x3d2b20ba	0.041779257
196	0x3e77d634	0.24202806
197	0x3d4049c0	0.046945333
198	0xbe083c73	-0.1330431
199	0xbe09e46d	-0.13466044
200	0xbcb9f0bf	-0.022697804
201	0xbe9ee1b5	-0.31031576
202	0xbdb3e1df	-0.08783316
203	0xbdea5cfc	-0.114435166
204	0xbf274ac9	-0.6534849
205	0x3dcfd65d	0.101483084
206	0xbd3b666b	-0.04575197
207	0xbe178735	-0.14797671
208	0x3ebdd6f3	0.37078056
209	0xbf0590b8	-0.5217395
210	0xbe0fb0de	-0.14032313
211	0x3e5c33f1	0.21504189
212	0x3e03a5e0	0.12856245
213	0x3e81e455	0.25369516
214	0xbe8762e4	-0.26442635
215	0x3db96ff1	0.09054554
216	0xbea0f5e4	-0.314376
217	0xbeb9e5c6	-0.36308116
218	0x3f02331a	0.50859225
219	0xbef7ad8e	-0.483746
220	0xbe1035da	-0.14083043
221	0x3e4d9e12	0.2007983
222	0x3f418650	0.7559557
223	0xbe506432	-0.20350721
224	0xbcec6667	-0.028857423
225	0xbe1eada7	-0.1549593
226	0xbee53ff3	-0.44775352
227	0x3dc2846e	0.09497915
228	0x3e9f4dda	0.31114084
229	0xbf2f3f56	-0.6845602
230	0xbc80a579	-0.015703904
231	0xbe20f977	-0.15720163
232	0xbc99084a	-0.01868071
233	0x3dc5aa06	0.0965157
234	0x3dc616d0	0.0967232
235	0x3e00953a	0.12556925
236	0xbf07bc86	-0.5302204
237	0x3e15d5bf	0.14632319
238	0x3de898bc	0.11357257
239	0xbc2b45ea	-0.0104536805
240	0x3d44224a	0.047884263
241	0xbd8241bc	-0.06360194
242	0x3e8ba276	0.27272385
243	0x3e0b3bc8	0.13597023
244	0xbe26bb28	-0.16282332
245	0xbe0c90a1	-0.13727047
246	0x3e71eb12	0.23624828
247	0x3e6f3eb0	0.23363757
248	0xbda7ec88	-0.08199412
249	0xbe195b0e	-0.14976141
250	0x3d735c70	0.059414327
251	0x3de91e4d	0.113827325
252	0xbe866b2d	-0.26253644
253	0x3d48ccec	0.049023554
254	0xbcf8f451	-0.030389937
255	0x3e720d37	0.23637854

encoder.fc1.bias f4 [64]
0	0x3f3228f9	0.6959377
1	0xbfaedceb	-1.3661169
2	0x3e50d194	0.20392448
3	0xbf452ce4	-0.7702162
4	0xbf629a43	-0.88516635
5	0xbeeafc6d	-0.4589571
6	0xbff0b34b	-1.8804716
7	0x3e83bd22	0.25730234
8	0x3e0289ca	0.12747875
9	0xbf79086f	-0.97278494
10	0xbe35ce1e	-0.17754409
11	0x3de125bc	0.109935254
12	0xbf514f3a	-0.81761515
13	0x3e825079	0.2545202
14	0xbe1b18d7	-0.15146194
15	0x3f41e059	0.7573295
16	0xbd6856c6	-0.05672338
17	0x3f40ec46	0.75360525
18	0x3ea1025b	0.3144711
19	0xbf0fa7ce	-0.56115425
20	0x3f06cf00	0.52659607
21	0xbef686fa	-0.48149854
22	0xbea3df48	-0.32006288
23	0x3f51cda3	0.819544
24	0xbf827147	-1.019082
25	0xbf012c11	-0.50457865
26	0xbe90bb66	-0.28267974
27	0xbe05428c	-0.13013667
28	0xbdd6a6b1	-0.104810126
29	0x3e930b9b	0.28719792
30	0xbec906d2	-0.39263016
31	0xbf1407e9	-0.5782457
32	0xbf7d6c78	-0.98993635
33	0x3eecc4df	0.4624395
34	0xbee56f47	-0.4481146
35	0xbe9c0e6a	-0.30479747
36	0xc014ee46	-2.327043
37	0x3e68e39b	0.22743075
38	0xbf79056a	-0.97273886
39	0x3d4e2ea2	0.05033744
40	0x3ea1a1db	0.31568798
41	0xbf0fd02d	-0.56177026
42	0x3f39c2e3	0.72563
43	0xbe56e1d5	-0.20984586
44	0xbf855a56	-1.0418193
45	0x3e4c3fbc	0.19946188
46	0x3e7c6c56	0.24650702
47	0xbece54dd	-0.4029912
48	0xbfb23fb6	-1.3925693
49	0xbef9929a	-0.4874466
50	0x3e8f9632	0.28044277
51	0x3c86a7da	0.01643746
52	0xbc7a09b7	-0.015261105
53	0xbe661d29	-0.22472061
54	0xbdcb1f86	-0.09918122
55	0xbecb706a	-0.39734203
56	0x3eadef30	0.33971548
57	0x3e04899a	0.12943116
58	0xbf22ab17	-0.6354231
59	0x3fa1e742	1.2648699
60	0x3fb2cf3d	1.3969494
61	0x3eb0098d	0.34382287
62	0x3f3bcb3c	0.73356986
63	0xbf2c2537	-0.67244285

encoder.fc2.weight f4 [16, 64]
0	0x3e0cdb06	0.13755426
1	0x3caadc8e	0.020857122
2	0xbd50093c	-0.050790057
3	0xbe324e53	-0.17412691
4	0xbd4eacd2	-0.050457783
5	0xbcaee0f2	-0.021347497
6	0x3df5455d	0.119761206
7	0x3c8da857	0.017292185
8	0x3e77b64d	0.24190636
9	0xbca98bd3	-0.020696556
10	0xbd13dcc9	-0.03609923
11	0x3f43b571	0.7644873
12	0xbdc6b3cf	-0.097022645
13	0xbe4d3d91	-0.20043017
14	0xbdda4f63	-0.10659673
15	0x3c8528de	0.016254839
16	0x3cd5b813	0.02608875
17	0xbccda028	-0.025100783
18	0x3e4f95dd	0.20272012
19	0x3d764864	0.06012763
20	0xbea2690f	-0.31720778
21	0x3e7252e0	0.23664427
22	0x3e750398	0.23927152
23	0x3d83c5e0	0.06434226
24	0x3bd2adee	0.0064294254
25	0x3dc72607	0.0972405
26	0x3cc3f804	0.023921974
27	0x3e8c78c1	0.27435878
28	0x3ccb37ea	0.024806935
29	0x3a8e76e1	0.0010869169
30	0xbef1cad2	-0.47225052
31	0x3e55db62	0.20884469
32	0xbd191491	-0.03737313
33	0x3e137c65	0.14402921
34	0x3c856fa5	0.016288588
35	0x3ea495ec	0.3214563
36	0x3da5dfd8	0.080993354
37	0x3d9b0e02	0.07571031
38	0xbbf54a3a	-0.007485655
39	0xbe9856a3	-0.297536
40	0xbd6a6ea4	-0.05723442
41	0xbe8f0902	-0.2793656
42	0xbe10b397	-0.14131008
43	0xbdc41007	-0.095733695
44	0xbc0f8136	-0.008758834
45	0x3d2664b7	0.040623393
46	0xbe8b54a1	-0.27213004
47	0xbe6af62d	-0.22945471
48	0xbd86cd7b	-0.06582161
49	0x3e6fb849	0.23410143
50	0x3e0946a9	0.13405861
51	0xbeac3606	-0.33634967
52	0xbe596ec9	-0.21233667
53	0xbe31940b	-0.1734163
54	0x3d990736	0.074720785
55	0x3e34c6fe	0.17654034
56	0xbd26a4ec	-0.040684626
57	0xbc9942f1	-0.018708678
58	0xbe306ca9	-0.1722895
59	0x3e8dfde8	0.27732778
60	0xbc8ee7da	-0.01744454
61	0xbdc0b112	-0.094087735
62	0xbc058a29	-0.008150616
63	0xbd18a3f4	-0.037265733
64	0xbc3bce07	-0.011462695
65	0x3c405c6a	0.011740783
66	0x3c1ceed8	0.009578429
67	0x3be1bb5e	0.006888791
68	0x3cb9ef78	0.022697195
69	0xbb183824	-0.0023226822
70	0x3c91ab40	0.017781854
71	0xbc0b23e4	-0.008492444
72	0x3c03a78b	0.008035551
73	0x3c543acb	0.01295347
74	0xbd2a62bd	-0.04159807
75	0xbc1731e3	-0.0092282025
76	0xbc6b4d38	-0.014361672
77	0x3b8ece00	0.004358053
78	0xbb315f34	-0.0027064802
79	0x3bd4dd45	0.006496104
80	0x3c8cfee4	0.017211385
81	0x3c1e5fc5	0.009666388
82	0x3b55a546	0.0032599731
83	0x3c021595	0.007939716
84	0x3ad86a83	0.0016511235
85	0x3c7abc24	0.015303645
86	0xb993741e	-0.0002812454
87	0xbc231aa1	-0.009955079
88	0x3c0ddefe	0.0086591225
89	0x3c3367a9	0.0109500075
90	0xbc248804	-0.010042194
91	0xbc96bb2e	-0.018399801
92	0xbc698a56	-0.014254173
93	0x3b3e2384	0.0029012868
94	0x3a06a324	0.0005136004
95	0x3b4b137f	0.0030986962
96	0xbc80aab3	-0.015706396
97	0x3c85b686	0.016322386
98	0x3bd1c972	0.006402188
99	0xbcaefc2a	-0.021360476
100	0x3b3f8650	0.0029224344
101	0x3c5ae4ee	0.013360245
102	0xba5dcb7d	-0.0008460803
103	0xbbdd9fc9	-0.0067634326
104	0x3c198967	0.009371138
105	0x3c96588e	0.018352773
106	0xbc5b7547	-0.01339466
107	0xbbdf6ae0	-0.0068181604
108	0xbaff2a96	-0.0019467648
109	0x3b865058	0.004098933
110	0x3bc400db	0.0059815473
111	0x3c839998	0.01606445
112	0xbbcd4d22	-0.0062652985
113	0xbbe4255c	-0.0069624614
114	0xbc412a6f	-0.011789902
115	0xbc9a31f6	-0.018822651
116	0xbab3a990	-0.001370715
117	0xbb063395	-0.0020477523
118	0xbbdad866	-0.0066786287
119	0xbb19b4e8	-0.0023453776
120	0x3b05a32b	0.0020391445
121	0xbbc2c67d	-0.005944072
122	0x3b82a92e	0.003987453
123	0x3c52247c	0.012826081
124	0xbc57c233	-0.013168859
125	0x3ac4fde9	0.0015029284
126	0x3c0274be	0.007962404
127	0x3b0980d0	0.002098132
128	0x3eab4cdc	0.33457077
129	0xbc2c9dc0	-0.010535657
130	0xbdf66e23	-0.12032726
131	0xbcd738e3	-0.026272243
132	0x3ce53fc1	0.027984502
133	0x3df41c04	0.11919406
134	0x3dd6b1aa	0.104831055
135	0xbe3e86dd	-0.18606134
136	0xbc9c7ffa	-0.019103993
137	0x3ad58607	0.0016290554
138	0xbd795273	-0.060869645
139	0x3db04bf1	0.08608235
140	0xbe65c5b3	-0.22438698
141	0xbe86e48a	-0.26346236
142	0x3ec83a9e	0.3910722
143	0x3b9637dc	0.0045842957
144	0x3dfbfe50	0.12304366
145	0x3e0979d2	0.13425377
146	0xbdb3d78f	-0.08781349
147	0xbd27794e	-0.04088717
148	0x3dca98db	0.09892436
149	0x3cb62280	0.022233248
150	0x3ec70049	0.38867405
151	0xbd86a0ca	-0.06573637
152	0xbdb06f89	-0.08615024
153	0x3e9a67b9	0.3015726
154	0xbe05ad9b	-0.13054506
155	0xbd9c3a2b	-0.07628282
156	0x3d4ed037	0.050491538
157	0xbd6d39e1	-0.057916526
158	0xbddd9a23	-0.10820415
159	0xbddd615c	-0.108095855
160	0x3e421a7e	0.18955418
161	0xbf2addbe	-0.667446
162	0xbac1d7b8	-0.0014789021
163	0xbd9f2ae9	-0.07771856
164	0x3c5964da	0.013268674
165	0xbe08ad91	-0.1334746
166	0x3da7d791	0.08195413
167	0xbed3767b	-0.4130133
168	0x3e6cc078	0.23120296
169	0xbb9a8b3b	-0.0047163046
170	0xbcd6df7a	-0.026229609
171	0xbe036897	-0.12832867
172	0xbd2111b8	-0.03932354
173	0xbe099f9a	-0.1343979
174	0x3e65026e	0.22364208
175	0x3c0cb2bd	0.008587536
176	0x3d941b3c	0.07231757
177	0x3e7f7371	0.24946381
178	0x39951897	0.00028437815
179	0xbd67b005	-0.05656435
180	0xbc5b5203	-0.013386252
181	0x3d869a8b	0.065724455
182	0xbc239af6	-0.009985676
183	0xbdc8a493	-0.09797015
184	0xbdb6c48a	-0.089242056
185	0xbe569ebe	-0.20958993
186	0x3dc189d7	0.09450119
187	0xbe60cd4b	-0.21953313
188	0xbb1f268c	-0.002428445
189	0x3c81839b	0.015809825
190	0x3e728f0d	0.23687382
191	0xbc63536c	-0.01387487
192	0xbd187a40	-0.03722596
193	0x3c28a88a	0.010294089
194	0x3bb7a923	0.0056048795
195	0xbd3933fe	-0.0452156
196	0xbdbf66f7	-0.09345811
197	0xbcb1d83f	-0.02170956
198	0x3d82e892	0.063920155
199	0x3d058368	0.032596022
200	0x3edf95ec	0.4366907
201	0xbb09e622	-0.002104171
202	0xbdcdced3	-0.10049214
203	0xbe7985d2	-0.24367455
204	0x3d446862	0.04795111
205	0x3d6a6dcb	0.057233613
206	0x3d8d5366	0.069006726
207	0xbd98a8cf	-0.07454073
208	0x3d8f4bbd	0.06996868
209	0xbdf66c78	-0.120324075
210	0x3eb84d0b	0.3599628
211	0x3dfa5bfb	0.12224575
212	0xbe91e4f3	-0.28494987
213	0x3eac0ff9	0.33605936
214	0xbe010515	-0.12599595
215	0xbddefc37	-0.1088795
216	0x3e06e77d	0.13174243
217	0xbbcb2b61	-0.0062002395
218	0x3e2c8b21	0.16849948
219	0xba0c8e33	-0.00053617655
220	0x3d3ac0fb	0.045594197
221	0xb9681292	-0.00022132162
222	0x3dceaa2b	0.10091051
223	0xbc9dffb7	-0.019286973
224	0xbbd765c4	-0.0065734107
225	0xbe05145e	-0.1299605
226	0x3d80f938	0.06297535
227	0x3e76f4cf	0.24116825
228	0x3d827853	0.06370606
229	0xbdff0179	-0.12451453
230	0x3e27df6a	0.1639382
231	0x3e1e7c0f	0.15477012
232	0x3d67ded3	0.056608986
233	0x3dbfdc48	0.09368187
234	0xbd9a0dab	-0.07522138
235	0xbe0e46f1	-0.1389425
236	0xbd500319	-0.050784204
237	0xbd22a5e6	-0.039708994
238	0xbe342cc5	-0.17595203
239	0xbe220674	-0.15822774
240	0xbc0fbd43	-0.008773151
241	0xbd959885	-0.073044814
242	0x3ec82466	0.3909027
243	0xbecf8158	-0.4052837
244	0xbe63be14	-0.22240478
245	0xbe73482d	-0.23758002
246	0xbddac34e	-0.10681783
247	0x3db3326d	0.08749852
248	0x3e0c868f	0.13723205
249	0x3cdbbacd	0.026822472
250	0xbea23330	-0.31679678
251	0x3e55eb5a	0.20890561
252	0xbd5d3681	-0.054007057
253	0xbd853325	-0.06503896
254	0xbc0a2d38	-0.008433633
255	0xbce2dd6b	-0.027693471

encoder.fc2.bias f4 [16]
0	0x3ca90952	0.020634327
1	0xbbec7fa8	-0.0072173662
2	0x3e71a2b1	0.23597218
3	0xbd7a6e29	-0.061140213
4	0xbe6f67e9	-0.23379482
5	0xbe5444b7	-0.20729338
6	0xbe66be94	-0.22533637
7	0x3e7245e4	0.23659474
8	0xbce3de4c	-0.02781596
9	0x3db97439	0.09055371
10	0xbf4800b3	-0.78126067
11	0xba9d4330	-0.0011998173
12	0xbeb20c1a	-0.34774858
13	0xbb635055	-0.0034685333
14	0xbc1eabd9	-0.009684526
15	0xbc9718fd	-0.018444533

encoder.fc3.weight f4 [16, 64]
0	0xbc87ffd6	-0.016601484
1	0x3a2f4fff	0.00066876406
2	0xbdc440ec	-0.09582695
3	0xbc4c8963	-0.012483927
4	0xbe071c9d	-0.13194509
5	0xbdc10eca	-0.09426649
6	0xbd836ec4	-0.06417611
7	0xbcc7f1f8	-0.024407372
8	0x3d9b9774	0.07597247
9	0xbd400a08	-0.046884567
10	0x3c1734df	0.009228914
11	0xbd49e340	-0.049288988
12	0xbce96f87	-0.028495563
13	0x3db3bd71	0.087763675
14	0x3d0d5aad	0.034510303
15	0x3c022c53	0.007945138
16	0x3c4e8cb8	0.012606792
17	0xbc22ab4a	-0.009928534
18	0xbcea498e	-0.028599527
19	0xbc8fa395	-0.017534057
20	0x3d73a364	0.059481993
21	0xbe0dce17	-0.13848148
22	0xbde08bf9	-0.10964198
23	0x3c8fd5ce	0.017558005
24	0xbc21f585	-0.009885197
25	0x3c4abf19	0.012374663
26	0x3aecb05f	0.0018057934
27	0x3d126158	0.035737365
28	0x3beee1ec	0.0072901156
29	0xbd85183a	-0.064987615
30	0x3e085bb2	0.13316229
31	0xbd1324f7	-0.035923924
32	0x3bc0e2c3	0.005886407
33	0xbdcb3d48	-0.09923798
34	0x3cbf45f3	0.023348784
35	0xbd92c0d8	-0.07165688
36	0xbc9859e7	-0.018597556
37	0x3c373162	0.011181207
38	0x3d8c733e	0.06857918
39	0x3dd3c377	0.10340016
40	0xbe6c2e70	-0.2306459
41	0xbd7275c8	-0.059194356
42	0xbe144c09	-0.1448213
43	0x3db7e0ff	0.089784615
44	0xbd0cf5b3	-0.034414005
45	0xbd9fb254	-0.07797685
46	0x3d2bf3a4	0.0419804
47	0xbd6686ab	-0.056280773
48	0x3c712728	0.014718808
49	0x3c372414	0.011178035
50	0x3c774048	0.015091009
51	0x3e0fd739	0.14046945
52	0x3d76e4c3	0.060276758
53	0x3d7595e0	0.059957385
54	0xbd7d4779	-0.06183574
55	0xbc9adf54	-0.01890532
56	0xbe113b1b	-0.14182703
57	0x3d786fed	0.060653616
58	0x3d48f537	0.04906198
59	0x3c8c3f14	0.017119922
60	0xbdafd169	-0.08584864
61	0x3c36fd65	0.011168812
62	0xbdaccb60	-0.08437228
63	0xbd832919	-0.06404323
64	0x3abe910d	0.0014539078
65	0x3a9f1992	0.0012138358
66	0xbb904ced	-0.0044037015
67	0xbb0031b2	-0.001956087
68	0x3c87f4a9	0.016596155
69	0xbab2bbe0	-0.0013636313
70	0xbb985a84	-0.004649462
71	0xbb6466e4	-0.0034851367
72	0xb991e7a8	-0.00027829153
73	0xbba56c68	-0.0050483234
74	0xba704ca9	-0.00091666967
75	0x3bb2598b	0.0054428033
76	0x39813cd9	0.00024650132
77	0x3a73d91c	0.0009302066
78	0x3bb151b1	0.0054113497
79	0xbb69e4e0	-0.0035689399
80	0xba6b29fa	-0.00089707936
81	0xba21ad66	-0.0006167501
82	0xbaf3c1fe	-0.0018597243
83	0xba9c89ed	-0.001194296
84	0x390a1037	0.00013166746
85	0xb90e0e24	-0.00013547443
86	0x3979c36a	0.00023819288
87	0x3ba969e3	0.0051700934
88	0x3bd15a79	0.006388959
89	0x3adafc2e	0.0016707235
90	0x3a95a0b3	0.001141569
91	0xbc94c8f4	-0.018162228
92	0xb9a62ff4	-0.00031697715
93	0xbbaf3859	-0.0053472933
94	0xbbb0f3e5	-0.0054001682
95	0x3c0915fb	0.008367057
96	0x3b86668d	0.0041015805
97	0x3bb39e1e	0.0054814955
98	0xbbb9c494	-0.005669186
99	0x3b4e3cf8	0.0031469446
100	0xbb1da936	-0.0024057156
101	0x396698d8	0.00021991448
102	0x3b31a672	0.0027107266
103	0x3a873620	0.0010315813
104	0x3adc9be2	0.0016831125
105	0xbc0bfac8	-0.008543678
106	0xbc0f950b	-0.008763562
107	0xb9bb609f	-0.00035739408
108	0xbbb5c5f5	-0.00554728
109	0x3a464a9c	0.0007564218
110	0x3af9cf84	0.0019059037
111	0xbc370a32	-0.011171864
112	0xbb257a76	-0.0025249994
113	0x3b4cae28	0.0031231735
114	0xba554f0a	-0.0008137083
115	0x3b57693d	0.0032869123
116	0x3ac7942d	0.0015226655
117	0x3b5a858d	0.0033343763
118	0x3bace6a3	0.0052765175
119	0xba662b1c	-0.00087802275
120	0xbb6f6a6f	-0.0036531945
121	0x3a52465e	0.000802135
122	0xbafdccac	-0.0019363365
123	0x3bcb7062	0.0062084654
124	0x3b31b256	0.0027114353
125	0xbb8b825d	-0.004257484
126	0x39c126b6	0.0003684067
127	0xbb85c2eb	-0.004082074
128	0x3d732d1b	0.059369188
129	0x3dcc4033	0.099731825
130	0xbd998d1e	-0.07497619
131	0x3dad5b33	0.084646605
132	0x3adaab3b	0.0016683111
133	0xbddb12f5	-0.10696975
134	0x3e166c79	0.14689817
135	0xbdaa9272	-0.083287135
136	0xbcc27a67	-0.023740007
137	0xbe4b814b	-0.1987354
138	0x3d36b48f	0.044605788
139	0xbd9314c8	-0.07181698
140	0xbd4aefe9	-0.049545202
141	0x3d1d0bc3	0.038341295
142	0x3dfa6441	0.12226153
143	0x3d77cddc	0.060499057
144	0x3d03fce7	0.03222361
145	0x3d4d8640	0.05017686
146	0xbbc789e9	-0.006089438
147	0xbd01c8c5	-0.03168561
148	0x3dcd3703	0.10020258
149	0x3d938aa8	0.07204181
150	0xbd8f52c5	-0.06998209
151	0xbcafeb25	-0.02147443
152	0xbd869f4b	-0.065733515
153	0x3db442d4	0.08801809
154	0xbc290812	-0.0103168655
155	0xbc9052fe	-0.017617699
156	0xbd416116	-0.04721173
157	0xbd6b155e	-0.057393424
158	0x3b30e55a	0.0026992173
159	0x3c81f909	0.01586582
160	0xbdadd157	-0.08487194
161	0xbdf27a0e	-0.11839686
162	0x3d222012	0.039581366
163	0xbe10f728	-0.14156783
164	0xbc080b8f	-0.008303537
165	0xbcf5212e	-0.029923048
166	0x3cf1e948	0.029530182
167	0x3ce40379	0.027833687
168	0xbe428a08	-0.18997967
169	0xbe418fc9	-0.18902506
170	0xbe03ff8b	-0.1289045
171	0x3b0c6736	0.0021423823
172	0xbbf28b10	-0.0074018314
173	0x3cdcf7b4	0.026973583
174	0x3b118f69	0.0022210723
175	0x3d6f0fc1	0.058364633
176	0x3d332a7b	0.043741684
177	0x3cf579b1	0.029965254
178	0x3c3e185d	0.011602488
179	0xbdc6d1f1	-0.09708012
180	0xbc9f45f5	-0.019442538
181	0xbd1abc82	-0.03777743
182	0xbd4e6ef0	-0.050398767
183	0x3bd1ca59	0.0064022955
184	0xbdc6cf6f	-0.097075336
185	0x3cb6ac64	0.022299
186	0x3c4322ce	0.011910154
187	0xbcb708c5	-0.022343049
188	0xbdaa44ed	-0.08313928
189	0x3ce7b28a	0.028283376
190	0x3cba7803	0.022762304
191	0xbd7f931e	-0.06239616
192	0xbd111ffe	-0.0354309
193	0x3cf9fcb3	0.030516004
194	0xbdc2c0e6	-0.09509449
195	0x3d075abc	0.033045515
196	0x3e2a3b76	0.16624245
197	0xbd872d72	-0.06600465
198	0xbd4c48dc	-0.04987417
199	0x3c86156c	0.016367637
200	0x3e1d1a86	0.15342149
201	0xbd973da3	-0.07384803
202	0xbdd04b7e	-0.10170649
203	0x3d895e3d	0.06707428
204	0xbd967954	-0.0734736
205	0xbd83bd30	-0.06432569
206	0x3d07d64e	0.03316336
207	0xbcd1658e	-0.02556112
208	0x3a9d0751	0.001198033
209	0xbd331af1	-0.043726865
210	0xbe0e311a	-0.13885918
211	0xbcb6f482	-0.022333387
212	0xbd6209cf	-0.055185135
213	0xbe5219ca	-0.2051765
214	0xbc907658	-0.017634556
215	0x3d3f844a	0.04675702
216	0x3d0c92a2	0.034319527
217	0xbd58da62	-0.05294264
218	0x3dd678c9	0.10472257
219	0xbe100c5f	-0.14067219
220	0x3d1ae7fe	0.0378189
221	0xbda019ec	-0.07817444
222	0x3da7f4ff	0.08201026
223	0xbc46b6a3	-0.012128505
224	0x3d6fe6cb	0.05856971
225	0x3c0014f7	0.007817498
226	0xbe2888a2	-0.16458371
227	0x3d2ae3c2	0.041721113
228	0xbcdef157	-0.02721469
229	0xbd229191	-0.039689604
230	0x3e5f653a	0.21815959
231	0xbc8b6a23	-0.017018383
232	0xbe3fb237	-0.18720327
233	0x3dce82b8	0.100835264
234	0xbd0f2003	-0.034942638
235	0xbb9b35c4	-0.004736634
236	0xbd2d6ae9	-0.042338286
237	0xbd705213	-0.058672022
238	0xbc97a018	-0.018508956
239	0x3e4c94c5	0.19978626
240	0x3d1b86f9	0.037970517
241	0x3df716be	0.120648846
242	0x3e075ca8	0.1321894
243	0x3e5dddd9	0.2166666
244	0xbbba05c2	-0.005676956
245	0xbc09f512	-0.008420246
246	0x3c2a0e48	0.0103793815
247	0x3ce7cd14	0.028296031
248	0x3c98880f	0.018619565
249	0x3d66cf59	0.056350086
250	0x3deb9806	0.115036055
251	0x3d7db5ea	0.061941065
252	0xbcba14fb	-0.022715082
253	0x3de481f5	0.111576
254	0xbd50b56f	-0.05095428
255	0x3c1678df	0.009184091

encoder.fc3.bias f4 [16]
0	0xbf7ed860	-0.9954891
1	0x3afc2206	0.0019236214
2	0xbf6d66ce	-0.9273499
3	0xc0093800	-2.144043
4	0xbff4d8c5	-1.9128653
5	0xc01a8756	-2.4145103
6	0xbfa03e60	-1.2519035
7	0xbfdcc7d4	-1.7248483
8	0xbb12f951	-0.0022426436
9	0xbf9f97dd	-1.246822
10	0xbf33ba0f	-0.7020578
11	0xbb9696f7	-0.004595633
12	0xc0327041	-2.7881014
13	0xbb776405	-0.0037748825
14	0xbaa1fe13	-0.0012359045
15	0xbbada7c2	-0.0052995393

decoder.fc1.weight f4 [64, 16]
0	0x3cdd04b6	0.026979785
1	0xbcc89159	-0.02448337
2	0xbdeb8632	-0.11500205
3	0x3e9bf438	0.30459762
4	0xbf87f3ce	-1.0621278
5	0xbd9835d1	-0.0743214
6	0xbe8160c7	-0.25269148
7	0x3f0daa79	0.55338246
8	0x3bfff775	0.0078114816
9	0xbf6bcff3	-0.9211418
10	0x3e08b8c4	0.13351732
11	0xbcda5a7e	-0.026654478
12	0xbe3005c3	-0.17189698
13	0x3abbeef2	0.0014338179
14	0xbb54a054	-0.0032444196
15	0x3a85edf3	0.0010218009
16	0xbe8b0b62	-0.27157122
17	0x3b96ba51	0.0045998474
18	0x3bde37ef	0.00678157
19	0xbf57463d	-0.8409155
20	0x3f19456c	0.59871554
21	0xbfb722f2	-1.430754
22	0x3e66a685	0.2252446
23	0x3e484978	0.19559276
24	0x3bf0b7d2	0.007346132
25	0x3ebaad68	0.36460423
26	0x3d21312d	0.03935354
27	0x3c0db35f	0.008648722
28	0x3fcd7513	1.6051353
29	0x3b32b852	0.0027270508
30	0xbbed8d24	-0.0072494913
31	0xbb500d79	-0.0031746312
32	0xbd62b4ac	-0.055348083
33	0xbc2326e6	-0.009958005
34	0x3d22c42c	0.039737865
35	0xbe0c6876	-0.13711724
36	0x3f097bdc	0.5370462
37	0xbff370fe	-1.9018857
38	0xbdd5e5d7	-0.10444229
39	0xbe0afb9f	-0.13572548
40	0x3b18fc63	0.0023343794
41	0xbfd0947e	-1.6295316
42	0x3bba67a0	0.0056886226
43	0x3bc6fe8a	0.006072824
44	0x3f0f08b6	0.55872667
45	0xba9fefc2	-0.0012202191
46	0x3907c85e	0.00012949246
47	0xbb9980d1	-0.0046845456
48	0x3de47035	0.11154214
49	0x3b61da70	0.0034462474
50	0xbd1c9934	-0.038232043
51	0x3f066ce4	0.52509904
52	0xbe27ec95	-0.16398843
53	0x3e6baee4	0.23015934
54	0x3d239847	0.039940145
55	0x3f1a1c84	0.6019976
56	0x3c95d023	0.018287724
57	0xbe5ffb14	-0.21873122
58	0x3ca0b0b2	0.019615505
59	0x3c62fb5a	0.013853872
60	0x401adb8d	2.4196503
61	0xba030b8a	-0.0004998973
62	0x3c574097	0.013137958
63	0xbb9bbbf9	-0.0047526327
64	0x3d685967	0.056725886
65	0xbc705a5c	-0.014669981
66	0x3e87c087	0.26514074
67	0x3c235f40	0.00997144
68	0x3f120d4d	0.57051545
69	0x3fb50664	1.4142575
70	0x3e090ee3	0.13384585
71	0xbfa7468e	-1.3068407
72	0xbca47b81	-0.020078423
73	0x3e5a06df	0.21291684
74	0xbf4203bc	-0.7578695
75	0x3c0cafb5	0.008586814
76	0x3ee69d13	0.45041713
77	0x3b81a41a	0.00395633
78	0x3a0d8c18	0.0005399599
79	0x3c706752	0.014673071
80	0xbe500607	-0.20314799
81	0xbd12ee5e	-0.035871856
82	0x3e311ac8	0.17295372
83	0xbf2d75e8	-0.67758036
84	0x3e879d01	0.26486972
85	0x3f0fdda1	0.56197554
86	0xbe65faee	-0.22459003
87	0xbe8e868c	-0.27837026
88	0x3c8c793a	0.01714765
89	0xbef40cec	-0.4766611
90	0xbdbfc5d4	-0.093639046
91	0x3b9df05c	0.004819913
92	0xbfc60d51	-1.5472814
93	0xbc522978	-0.01282727
94	0x3b3b0dda	0.0028542192
95	0xbca32b79	-0.01991819
96	0x3d803dee	0.06261812
97	0xbc5bf08e	-0.013424052
98	0xbe8b87ee	-0.27252144
99	0x3ca22a35	0.019795517
100	0x3c806fc6	0.015678298
101	0x3face83f	1.3508376
102	0x3f3f4193	0.74709433
103	0x3fc3101d	1.5239292
104	0xbc246709	-0.010034331
105	0x3c5296f9	0.0128533775
106	0x3db7fab3	0.08983364
107	0x3bcdcbe2	0.0062804082
108	0xbf895d27	-1.0731553
109	0x3a8783d4	0.001033897
110	0xbcc1c31e	-0.02365261
111	0xbc928995	-0.01788787
112	0xbe13cce9	-0.14433636
113	0xbc5bb0eb	-0.01340888
114	0xbdcb0113	-0.09912314
115	0x3dbc1c90	0.09185135
116	0xbe1934d6	-0.14961562
117	0x3ed394ee	0.41324562
118	0xbfc2cc09	-1.5218517
119	0xbd57fe66	-0.052732848
120	0x3ced116a	0.028938968
121	0x3dd7d84a	0.10539301
122	0x3da602c1	0.08105994
123	0xbc1fd6cf	-0.009755804
124	0xbf0635b9	-0.52425724
125	0xbcc56e49	-0.02410044
126	0x3becc01b	0.007225049
127	0x3a406fd6	0.00073408836
128	0xbcf65622	-0.030070368
129	0x3bc5bf9c	0.0060348045
130	0xbda912da	-0.08255549
131	0xbe6bc6a8	-0.23025
132	0x3f9cd19c	1.2251468
133	0xbdd30bd5	-0.10304991
134	0xbe29c32b	-0.16578357
135	0xbe64671e	-0.22304961
136	0x3a36d81c	0.0006974952
137	0x3b35af6a	0.0027722963
138	0xbd470d27	-0.048596527
139	0x3be711df	0.007051691
140	0x3fb83a29	1.4392749
141	0xba129cbc	-0.0005592813
142	0xbc0e3831	-0.008680389
143	0xbc527d4f	-0.012847259
144	0x3ed298cf	0.4113221
145	0xba40b938	-0.00073518185
146	0xbcebbe1d	-0.028777177
147	0xbdd908f8	-0.10597414
148	0xbf103ac6	-0.5633968
149	0xbfc7d02d	-1.5610405
150	0xbeffae38	-0.49937606
151	0xbf4f0425	-0.808657
152	0x3c347e8c	0.011016499
153	0x3e4e8b65	0.20170362
154	0x3d99e0be	0.07513569
155	0x3c9886d5	0.01861898
156	0x3f4784ca	0.77936995
157	0x3c03be15	0.008040925
158	0xbbe5f2a3	-0.00701745
159	0x3b23db09	0.0025002381
160	0x3e333e82	0.17504314
161	0x3b8cdcd6	0.0042987866
162	0xbd067d36	-0.032834254
163	0xbf6d8685	-0.92783386
164	0xbe59ad05	-0.21257408
165	0xbf1dcb12	-0.61637986
166	0x3ea20e8d	0.31651726
167	0x3ecd7d63	0.40134725
168	0xba11c40f	-0.0005560526
169	0x3d94ed3d	0.07271812
170	0xbdfeceb9	-0.12441773
171	0x3c356611	0.011071698
172	0x3f096e83	0.5368425
173	0x3acbfcc3	0.0015563
174	0x3c0a940f	0.0084581515
175	0xbb24ae1f	-0.0025128198
176	0xbe046ebc	-0.12932867
177	0x3b9faf1c	0.0048731696
178	0x3d1a1597	0.037618246
179	0x3e062307	0.130993
180	0x3e94f84b	0.29095683
181	0x3ea5aaee	0.32356972
182	0x3f215687	0.63022655
183	0x3f4dd579	0.8040386
184	0x3b65cc76	0.0035064495
185	0x3da66760	0.08125186
186	0xbd06f773	-0.03295083
187	0x3b835e1d	0.004009022
188	0xbed4b4d5	-0.41544214
189	0x3b114297	0.0022164935
190	0x3b9b5c88	0.004741255
191	0x3ba633ff	0.0050721164
192	0xbd417fc3	-0.047240984
193	0xbc859291	-0.01630524
194	0x3e02a144	0.1275683
195	0x3ec118d3	0.37714252
196	0xbf4b0f8e	-0.7932061
197	0xbe6b7127	-0.22992383
198	0x3c85dc8f	0.016340522
199	0xbe49cd01	-0.19707109
200	0x3ca73e85	0.020415554
201	0xbf17884b	-0.5919234
202	0xbce04ec9	-0.027381318
203	0x3b2fbd58	0.0026815739
204	0x3fa5f9cb	1.2966856
205	0xbcc6236b	-0.02418681
206	0x3b5cb912	0.0033679646
207	0x3bc3b10c	0.0059720334
208	0xbdf70803	-0.12062075
209	0xbcb001c8	-0.021485224
210	0xbe4961bf	-0.19666193
211	0xbdfd77e8	-0.12376386
212	0xbdeb94db	-0.11503001
213	0xbfb4c6f8	-1.412322
214	0xbf76c44e	-0.9639329
215	0x3fa4904d	1.2856537
216	0x3c190139	0.00933867
217	0xbd6b85ac	-0.057500526
218	0xbe446084	-0.19177443
219	0xbcbf68d1	-0.02336541
220	0xbfa5fa8a	-1.2967083
221	0xbcb5c9a0	-0.022190869
222	0xbc9556c7	-0.018229855
223	0xbc321563	-0.010869357
224	0xbe4ca5f9	-0.19985189
225	0xbaa55082	-0.0012612494
226	0x3e3fccc3	0.18730454
227	0xbdb36140	-0.08758783
228	0xbe1178ad	-0.1420619
229	0xc02d4360	-2.7072372
230	0xbccf3bc3	-0.025297051
231	0xbf109312	-0.5647441
232	0xbc16e82e	-0.009210629
233	0x3cb207d5	0.02173225
234	0xbe4859eb	-0.19565551
235	0x3bcf5ae9	0.006327976
236	0xbe7ee549	-0.24892153
237	0x3bbccc1b	0.005761636
238	0x3c330490	0.010926381
239	0x3cd16903	0.025562769
240	0xbd243ff9	-0.04010007
241	0x3c28a0c5	0.010292237
242	0x3d9049e1	0.07045341
243	0x3dfa4ed1	0.12222064
244	0xbe2fca1d	-0.17166944
245	0x3f8d01cd	1.1016175
246	0xbf399960	-0.72499657
247	0xbeb71aa0	-0.357625
248	0xbaebedca	-0.0017999944
249	0xbda2c138	-0.0794701
250	0xbee3d8ac	-0.44501245
251	0xbb24f2f5	-0.0025169228
252	0x3f2b3479	0.6687694
253	0xbb771660	-0.0037702546
254	0xbbe4e30a	-0.006985073
255	0x3b26e9d1	0.0025468955

decoder.fc1.bias f4 [64]
0	0x3f6ac3c4	0.91704965
1	0xbef6c25f	-0.48195168
2	0xbf36e1ac	-0.714381
3	0x3fb882c8	1.4414911
4	0x3fd3b4be	1.6539533
5	0x3e27a693	0.16372137
6	0xbf7f63cf	-0.9976167
7	0x3e959ad0	0.29219675
8	0x3fcf9ee1	1.6220361
9	0xbe8ad6c3	-0.27116975
10	0x3eed6842	0.46368605
11	0x3f8f52c3	1.1197132
12	0x3f611b55	0.8793233
13	0xbfbd5173	-1.4790481
14	0xbed22eea	-0.41051418
15	0x3fe0eab8	1.757163
16	0x3c89f428	0.016840056
17	0x400bc118	2.1836605
18	0x402ec8eb	2.731013
19	0x3f4b1f98	0.79345083
20	0xbe3eb23b	-0.18622677
21	0xc02e7bdb	-2.7263095
22	0xbedef836	-0.43548745
23	0x3fd027b4	1.6262116
24	0x400b4270	2.17593
25	0x3e4dbcbd	0.20091529
26	0x3fa94d06	1.3226631
27	0x3ff35a3c	1.9011912
28	0xbfd6c662	-1.6779292
29	0xbe2fbf5d	-0.17162843
30	0xbfd0c7e1	-1.6310998
31	0x3f828f96	1.0200069
32	0x404ef05a	3.23342
33	0xbf2eb604	-0.68246484
34	0x400547c2	2.0825047
35	0x4011927a	2.2745652
36	0xbf1f145d	-0.62140447
37	0xbd943821	-0.07237268
38	0x3f9399a2	1.153126
39	0x3fa9b48e	1.3258226
40	0x3e5a0a49	0.21292986
41	0xbfb4ac9b	-1.4115175
42	0x4022ad31	2.5418208
43	0x3e5586d3	0.20852213
44	0x3f2118e6	0.62928617
45	0xbf90c8d2	-1.1311285
46	0xc0251233	-2.5792358
47	0xbf924e87	-1.1430215
48	0x3eba87a2	0.36431605
49	0x4025cb40	2.5905304
50	0x40025764	2.036584
51	0xbdcc44ea	-0.09974082
52	0x3d71573c	0.058921084
53	0x3f61079a	0.87902224
54	0x3ffafe3e	1.9608839
55	0x3fa0070f	1.2502154
56	0xbf8ca5fd	-1.0988156
57	0x3ef2aaaa	0.4739583
58	0x3e82aba7	0.25521585
59	0x3fead99e	1.8347661
60	0x40120ea8	2.2821445
61	0xc0035a01	-2.0523684
62	0x3f098e40	0.5373268
63	0x3fc003f7	1.500121

decoder.fc2.weight f4 [51, 64]
0	0x3d388389	0.045047317
1	0x3d9328f9	0.07185549
2	0xbd0883c8	-0.0333288
3	0x3f82cb4e	1.0218294
4	0xbed5cd41	-0.4175816
5	0xc0194543	-2.3948524
6	0xbee76260	-0.45192242
7	0xbedc4e53	-0.43028507
8	0xbd691d82	-0.056912906
9	0xbeeb6a22	-0.4597941
10	0xbe0525a4	-0.1300264
11	0xbe0f0d96	-0.13970026
12	0xbf0305ea	-0.511809
13	0x3e796334	0.24354249
14	0xbe99c671	-0.3003421
15	0xbe99eea4	-0.3006488
16	0x3d8596e7	0.06522923
17	0x3d363844	0.044487253
18	0xbdf8ca31	-0.1214794
19	0x3ccee86b	0.02525731
20	0x3f0c66cd	0.5484436
21	0xbee0d5e3	-0.43913183
22	0x3e81c479	0.2534521
23	0x3e094661	0.13405754
24	0xbeff711f	-0.49890992
25	0x3dea6f74	0.11447039
26	0x3e56611e	0.20935485
27	0x3e964746	0.29351252
28	0xbdc40d75	-0.09572879
29	0xbc922806	-0.01784135
30	0x3f1fe0be	0.62452304
31	0xbe942199	-0.28931883
32	0xbe421db5	-0.18956645
33	0xbc41b2e7	-0.011822439
34	0xbd146d93	-0.03623731
35	0x3e8928eb	0.2678903
36	0xbead4801	-0.33843997
37	0xbef818a7	-0.48456308
38	0x3df4dece	0.11956559
39	0xbf10046b	-0.5625674
40	0xbe2ed034	-0.1707161
41	0x3f5baeed	0.8581379
42	0x3d0f29fb	0.034952145
43	0xbe1f6e07	-0.15569316
44	0x3e596d40	0.21233082
45	0x3eefee69	0.4686158
46	0xbf31e53f	-0.69490427
47	0xbebe0163	-0.37110433
48	0x3ee50705	0.44731918
49	0xbebeec00	-0.3728943
50	0x3e7eef99	0.24896087
51	0xbea70cd9	-0.3262699
52	0x3e4f7a7f	0.20261572
53	0x3f3a1c25	0.72699195
54	0x3e302742	0.17202476
55	0x3e2e0fca	0.1699821
56	0x3c5a0dfc	0.013308998
57	0x3d0664a1	0.03281081
58	0xbcf228a1	-0.029560389
59	0x3e74c550	0.23903394
60	0xbf2c15ce	-0.6722077
61	0x3e7362f3	0.23768215
62	0xbe23fe81	-0.16015054
63	0xbd3a5a53	-0.045496296
64	0xbe15d9e0	-0.14633894
65	0xbd989596	-0.07450406
66	0x3e111b50	0.14170575
67	0x3f0f1d2f	0.55903906
68	0x3d86a43e	0.065742955
69	0x3e0489ee	0.12943241
70	0xbe388d24	-0.18022591
71	0xbd84ed91	-0.06490625
72	0x3e9b5aa6	0.30342597
73	0xbc9c14f3	-0.019052958
74	0x3e693752	0.2277501
75	0xbe533a3e	-0.20627686
76	0xbe866b47	-0.2625372
77	0x3c06a03c	0.008216914
78	0xbed1a7c2	-0.40948302
79	0xbdae668b	-0.08515652
80	0x3dc4951d	0.095987536
81	0x3e5680bf	0.2094755
82	0xbe841242	-0.2579518
83	0x3ee211d4	0.44154227
84	0xbeaf9bdc	-0.342986
85	0x3ef9611b	0.48706898
86	0x3b6639bb	0.0035129625
87	0xbd9964dc	-0.074899405
88	0xbed5bf2e	-0.4174742
89	0x3e20abf5	0.15690596
90	0x3df201ce	0.118167505
91	0xbefaefcc	-0.49011075
92	0x3f085b9f	0.532648
93	0xbe50e930	-0.20401454
94	0xbd14cd1f	-0.03632843
95	0x3deea7ff	0.116531365
96	0xbef9f262	-0.48817736
97	0x3ecad82f	0.3961806
98	0xbe149714	-0.14510757
99	0x3ea0ab12	0.31380516
100	0x3e86137e	0.26186746
101	0x3e04a560	0.1295371
102	0xbde045b4	-0.10950795
103	0xbe7661d9	-0.24060763
104	0x3e7609af	0.24027131
105	0xbe452a58	-0.19254434
106	0xbec5f0ea	-0.38660365
107	0x3e1ef39f	0.15522622
108	0x3dfc9980	0.12333965
109	0xbe5ae8e0	-0.21377897
110	0x3f872cd6	1.0560558
111	0xbe21fcbb	-0.15819065
112	0x3e3bd164	0.18341595
113	0x3f7a8382	0.97856915
114	0xbe9d10cd	-0.3067688
115	0x3eac7aa7	0.33687326
116	0x3dc8dfb0	0.0980829
117	0xbf725b0d	-0.9467018
118	0xbf76ff45	-0.9648326
119	0xbbbc6444	-0.0057492573
120	0xbd857592	-0.065165654
121	0xbe8b99f2	-0.27265888
122	0x3d7fefa8	0.062484413
123	0x3dcf186a	0.101120785
124	0x3f30e6a2	0.6910192
125	0xbf002977	-0.5006327
126	0xbf03af16	-0.51439035
127	0xbeb26f34	-0.34850466
128	0xbf4a3fd4	-0.79003644
129	0x3e23b0e4	0.15985447
130	0x3eb6eb62	0.35726458
131	0x3f082d5b	0.53194207
132	0x3ef1d017	0.47229072
133	0xbe0a63aa	-0.13514581
134	0x3c87bbf0	0.016569108
135	0x3ec45871	0.38348725
136	0x3e863479	0.26211908
137	0xbfc9f0f3	-1.5776657
138	0xbec00164	-0.3750106
139	0x3c2387d1	0.009981112
140	0xbe76a5ab	-0.24086635
141	0x3d9cd384	0.07657531
142	0xbc464cbc	-0.012103256
143	0x3e8cddd9	0.27513006
144	0xbe8d2bb1	-0.27572396
145	0x3d0d6ca2	0.03452743
146	0xbf1f3428	-0.6218896
147	0xbe77f4da	-0.24214497
148	0x3cb3a415	0.021928826
149	0xbffc7854	-1.9724221
150	0xbf0330c4	-0.51246285
151	0xbe637f1d	-0.22216459
152	0xbe46ce09	-0.19414534
153	0x3f00f797	0.5037779
154	0x3f0eea97	0.55826706
155	0xbf024efe	-0.5090178
156	0x3f3c68ac	0.73597217
157	0xbce76c1b	-0.02824979
158	0x3e8b13df	0.27163598
159	0xbc7e3acf	-0.015516951
160	0xbf440fa3	-0.7658636
161	0x3f8bfefd	1.0937191
162	0x3d8fc62f	0.070202224
163	0xbdc4d3ab	-0.09610685
164	0x3ec6bd00	0.3881607
165	0x3f2a9c1c	0.66644454
166	0x3f2e321b	0.68045205
167	0xbe2a5f15	-0.16637833
168	0xbe8668e3	-0.26251897
169	0x3ef490b3	0.47766647
170	0x3ab95d31	0.0014142153
171	0x3e637ffd	0.22216792
172	0x3f26a0af	0.65088934
173	0x3db0f37d	0.08640192
174	0x3f0b7605	0.5447696
175	0xbd97b8e9	-0.07408316
176	0xbeaebac4	-0.34126866
177	0xbfa02ee4	-1.251431
178	0xbf7ff29a	-0.99979556
179	0x3e496309	0.19666685
180	0xbe8a903d	-0.2706317
181	0xbe80aede	-0.25133413
182	0xbec32191	-0.38111547
183	0x3e86ba2b	0.2631391
184	0x3e943a9b	0.28950962
185	0xbe3a35b3	-0.18184547
186	0xbd2e54d7	-0.04256138
187	0xbef4969f	-0.47771165
188	0x3ca16590	0.01970175
189	0xbf8a2fce	-1.0795839
190	0xbc407d78	-0.011748664
191	0xbbde28eb	-0.00677978
192	0xbeb46cae	-0.35239166
193	0x3e9b0e3a	0.30284292
194	0x3ef1bc1a	0.47213823
195	0x3e661340	0.22468281
196	0x3d13999e	0.036035173
197	0xbe493697	-0.1964973
198	0x3d8b8b30	0.06813657
199	0x3d21f085	0.039536018
200	0xbe80dd20	-0.25168705
201	0x3e8b8085	0.2724649
202	0x3e7bdc0d	0.24595661
203	0x3e90a898	0.28253627
204	0x3eb5df06	0.35521716
205	0x3e36ca57	0.17850624
206	0xbece33af	-0.40273806
207	0xbf723979	-0.94618946
208	0x3e1d09c8	0.15335763
209	0xbf561217	-0.8362135
210	0xbfe0ba72	-1.7556899
211	0x3ed1d38e	0.40981716
212	0x3f60fd75	0.87886745
213	0xbf99ec86	-1.2025306
214	0xbee492dc	-0.44643295
215	0x3e9f3c8b	0.31100878
216	0xbeb09975	-0.34492078
217	0xbeab1775	-0.33416334
218	0x3e66556a	0.2249352
219	0xbeba267e	-0.36357492
220	0xbe85a4b0	-0.2610221
221	0x3e902c8f	0.28158996
222	0xbc81b7b2	-0.015834663
223	0x3d9cfae1	0.07665039
224	0xbf0f8a5c	-0.56070495
225	0x3d08d098	0.033402056
226	0xbe1a01be	-0.15039727
227	0x3f46c629	0.7764612
228	0xbdf17b8d	-0.117911436
229	0xbec29c0f	-0.38009688
230	0xbe7a0cb7	-0.24418913
231	0xbf3c54e8	-0.73567057
232	0x3e8278b8	0.25482726
233	0xbf0f0841	-0.5587197
234	0x3e7705c2	0.2412329
235	0xbe8a6953	-0.2703348
236	0x3e54c230	0.20777202
237	0x3ece64b7	0.40311214
238	0x3e9f23a0	0.31081867
239	0xbf087520	-0.5330372
240	0x3f14781a	0.5799576
241	0xbfed8756	-1.8556926
242	0xbed9e94c	-0.42560804
243	0x3f679993	0.9046871
244	0x3e35d0b8	0.17755401
245	0x4031c748	2.7777882
246	0xbd5920e4	-0.053009883
247	0xbefe0fb0	-0.49621344
248	0xbe605d5d	-0.21910615
249	0x3de5beb8	0.11218017
250	0x3e3f93f1	0.18708779
251	0xbdd3833c	-0.10327765
252	0xbfafb53a	-1.3727181
253	0xbe815e1d	-0.25267115
254	0x3efe2595	0.49638048
255	0x3e50480c	0.20339984

decoder.fc2.bias f4 [51]
0	0xbe5e8724	-0.2173124
1	0x3f56f270	0.8396368
2	0xbfc8a93e	-1.5676649
3	0xbebf6a43	-0.3738576
4	0x3e9a0e7b	0.30089173
5	0xbff5bc0d	-1.9198014
6	0x3eecbf69	0.46239784
7	0xbea1167c	-0.31462467
8	0xbe137c3b	-0.14402859
9	0xbeb2f316	-0.34951085
10	0x3fc2b2af	1.521078
11	0xbe19f72b	-0.15035693
12	0x3fda1b14	1.7039514
13	0x3e5fac7f	0.21843146
14	0xbf9b9f19	-1.2157928
15	0xbecc2dbd	-0.39878646
16	0x3f1aeae9	0.60514694
17	0xbe143501	-0.14473344
18	0xbee9b39c	-0.45644844
19	0xbebf8925	-0.3740932
20	0xbe1aae6a	-0.15105596
21	0x3d4eb57a	0.05046604
22	0x3eaf2910	0.34211016
23	0xbee134b8	-0.43985534
24	0x3ee23864	0.44183648
25	0x3f42159d	0.7581423
26	0x4057f32f	3.3742177
27	0xbf132461	-0.57477385
28	0x3f70f50b	0.94123906
29	0x3fc237dd	1.5173298
30	0xbf74fef4	-0.9570153
31	0x3e38c1d3	0.18042688
32	0x3e096a42	0.1341944
33	0x40051a83	2.0797431
34	0x3f2fd3a9	0.6868234
35	0x4081e543	4.059236
36	0x3fe22bfc	1.7669673
37	0x3c10159a	0.008794213
38	0x4005797f	2.0855405
39	0xbe94b277	-0.29042408
40	0xbe930232	-0.28712612
41	0x3f8c0212	1.0938132
42	0xbf33e6f9	-0.7027431
43	0x3fa13af8	1.2596121
44	0x404cf51d	3.2024605
45	0xbea37b71	-0.31930116
46	0x3ece6648	0.4031241
47	0x3f8f4d6a	1.11955
48	0xbf8dd200	-1.1079712
49	0xbef4fe62	-0.4785033
50	0xbf26db44	-0.6517832
