model/cartesian/AE_cartesian_hd128x64_ld32_test_noweight.pth (torch, 197045 bytes, 32 tensors)

encoder.0.weight f4 [128, 63]
000000 54 59 e4 81 03 d8 2f 83 8e 7b 8b 01 f8 60 37 82
       -8.388215e-38 -5.1675847e-37 5.123783e-38 -1.3472545e-37
000010 5f da 5b 83 32 d8 04 03 e0 2f f2 82 ad 45 18 83
       -6.4608993e-37 3.9039494e-37 -3.5586183e-37 -4.474877e-37
000020 ce 9a 14 83 72 8b 79 82 fe f2 e3 81 58 3e d1 82
       -4.3671e-37 -1.833365e-37 -8.373531e-38 -3.0745573e-37
000030 9e 64 a9 02 37 73 4b 02 e0 e1 cb 02 ea f0 e0 82
       2.489007e-37 1.494715e-37 2.9957815e-37 -3.305212e-37
000040 60 f7 ed 02 c3 4f a7 02 a5 88 52 83 c1 f7 5b 02
       3.4966006e-37 2.4584226e-37 -6.1870314e-37 1.6160681e-37
000050 cc bc 24 02 ec c2 89 02 73 8c 0d 03 46 47 18 02
       1.2102999e-37 2.024222e-37 4.1597404e-37 1.1187651e-37
000060 60 21 bb 82 c4 71 cc 02 aa 4f c4 82 ef e9 62 82
       -2.7496337e-37 3.0040404e-37 -2.8845337e-37 -1.6670993e-37
000070 3e 6a 2d 03 95 83 e5 82 00 4e a5 02 24 e6 8e 02
       5.096209e-37 -3.372405e-37 2.428934e-37 2.099712e-37
000080 16 24 97 02 e1 e0 28 03 c8 58 ef 02 2d f1 81 02
       2.2208168e-37 4.962891e-37 3.5168852e-37 1.9093275e-37
000090 8f 96 b3 02 de 2b 06 83 c5 d6 8a 02 b0 4b 19 83
       2.6388102e-37 -3.942942e-37 2.040055e-37 -4.5049544e-37
0000a0 48 f5 a1 02 72 6e ba 01 20 94 31 02 8c 3f e2 02
       2.3797608e-37 6.848409e-38 1.3046416e-37 3.324419e-37
0000b0 40 d5 46 02 5e 01 c3 01 c9 61 00 83 4c 3c 03 82
       1.4607942e-37 7.163365e-38 -3.772807e-37 -9.641664e-38
0000c0 70 cb 6b 02 d3 2f 38 03 db fe 7b 02 17 a3 82 02
       1.7323457e-37 5.412764e-37 1.8513708e-37 1.9195392e-37
0000d0 c8 ca 52 02 0d 47 dd 02 65 ea 0e 03 ac 04 0f 02
       1.5486559e-37 3.2513813e-37 4.199912e-37 1.0507322e-37
0000e0 33 b0 2f 03 91 88 09 03 ba 93 50 03 72 d0 53 03
       5.1630145e-37 4.041745e-37 6.129529e-37 6.224661e-37
0000f0 f5 53 16 03 5c e6 4e 03 12 3a 94 02 fd c1 71 82
       4.4177416e-37 6.08024e-37 2.1779976e-37 -1.7761556e-37
000100 a6 fb eb 82 96 92 96 01 1c 77 0e 81 d3 ff 43 83
       -3.4674586e-37 5.531164e-38 -2.6166738e-38 -5.759902e-37
000110 14 28 f1 02 79 49 37 83 2b 74 04 83 3b 63 0c 83
       3.543477e-37 -5.386321e-37 -3.892467e-37 -4.1256213e-37
000120 30 e6 23 82 73 11 16 02 68 a1 cb 82 4a 86 81 02
       -1.2041409e-37 1.1025267e-37 -2.9920812e-37 1.9031925e-37
000130 98 0c a2 01 f6 69 84 02 e7 1e 0a 83 53 63 a8 02
       5.952747e-38 1.9456475e-37 -4.059003e-37 2.474239e-37
000140 9f ef 29 02 d0 7f a6 82 88 5a a5 02 0f 61 16 02
       1.2484927e-37 -2.4464869e-37 2.4296533e-37 1.1048114e-37
000150 32 56 2d 02 f2 5c 03 03 cf 97 46 02 32 f6 af 82
       1.273477e-37 3.8604136e-37 1.459031e-37 -2.5855248e-37
000160 0f 6b cf 02 29 d8 d8 82 83 df 4b 82 ca 83 3b 03
       3.0477365e-37 -3.1862417e-37 -1.4978229e-37 5.5105647e-37
000170 3f 58 8a 82 cb 08 de 02 22 89 8b 02 d0 72 a8 02
       -2.0327928e-37 3.2625015e-37 2.0502925e-37 2.475128e-37
000180 b4 34 0b 03 02 f2 d1 02 7e 09 c7 02 d1 6b c0 02
       4.090893e-37 3.0848696e-37 2.924587e-37 2.8273748e-37
000190 3f 7a 27 83 ac 90 89 02 cb 7b 1e 83 aa 82 82 02
       -4.921722e-37 2.0213378e-37 -4.6574134e-37 1.917678e-37
0001a0 14 47 00 81 32 9e 8d 02 b8 70 f4 02 5b 32 58 02
       -2.3560883e-38 2.0808888e-37 3.5917275e-37 1.5883625e-37
0001b0 08 00 ca 80 b3 70 00 83 e5 38 71 82 64 e1 99 02
       -1.8550781e-38 -3.774519e-37 -1.7722212e-37 2.2610697e-37
0001c0 a8 d6 32 03 af 3d 63 02 21 02 95 02 a8 90 18 02
       5.255591e-37 1.6695028e-37 2.1894804e-37 1.1208711e-37
0001d0 9a 25 cc 02 bb 92 cc 02 c2 a5 89 02 94 93 67 03
       2.9996688e-37 3.0059325e-37 2.022548e-37 6.805421e-37
0001e0 7a b5 2f 03 9e 6a 64 03 7a 58 43 03 b2 e7 34 03
       5.1636203e-37 6.712557e-37 5.7406916e-37 5.316322e-37
0001f0 06 9d 3f 03 2e ea d8 02 0c af fa 81 87 f5 1b 83
       5.631011e-37 3.187276e-37 -9.2086676e-38 -4.5832258e-37
000200 70 17 58 01 68 e9 a0 81 b7 da 51 83 4d 09 12 03
       3.968975e-38 -5.910964e-38 -6.167065e-37 4.291622e-37
000210 2d a6 14 83 30 a0 23 83 81 10 f2 82 03 00 4d 82
       -4.368405e-37 -4.808528e-37 -3.5568177e-37 -1.5061025e-37
000220 bc bf 64 01 9d b5 c9 82 24 27 9b 02 de 81 0c 02
       4.201455e-38 -2.9638536e-37 2.2797669e-37 1.0322846e-37
000230 96 b7 b0 02 70 30 ef 82 b8 00 c1 02 98 a7 95 02
       2.5966249e-37 -3.5145695e-37 2.8359214e-37 2.1989776e-37
000240 16 63 61 83 62 24 88 02 6a ff bd 01 08 d0 c7 81
       -6.6235302e-37 2.0004287e-37 6.9794136e-38 -7.3399565e-38
000250 8c 4a 02 03 d2 33 97 02 ac f2 e1 82 da 95 9d 02
       3.828914e-37 2.22172e-37 -3.3200065e-37 2.3155087e-37
000260 3c 4b ea 82 54 ab bb 82 16 78 35 03 68 0e bc 82
       -3.4426392e-37 -2.7575518e-37 5.332897e-37 -2.7632386e-37
000270 7b a5 b1 02 8a c8 d5 02 7e 0d bf 02 b8 32 8b 02
       2.6102794e-37 3.141264e-37 2.8072672e-37 2.0453325e-37
000280 cc 70 00 03 62 e3 b1 02 5b 21 9b 02 5d b3 07 83
       3.7745304e-37 2.6138324e-37 2.2794348e-37 -3.9878833e-37
000290 c0 24 74 02 b0 98 32 83 f8 8e b6 02 53 5e 0a 02
       1.7936836e-37 -5.2484775e-37 2.6824557e-37 1.0165708e-37
0002a0 66 29 96 02 b1 15 14 03 f0 72 a7 02 f8 ab 7d 80
       2.206428e-37 4.351819e-37 2.4604415e-37 -1.1541128e-38
0002b0 b4 44 e6 82 aa 2d 0a 82 48 3d 81 02 ab 4a 30 03
       -3.3834896e-37 -1.0151744e-37 1.899002e-37 5.1807466e-37
0002c0 d8 d1 b5 02 80 bd 11 02 b0 ba 22 80 52 ac 9b 02
       2.6716004e-37 1.0707301e-37 -3.189378e-39 2.287411e-37
0002d0 d6 d0 0d 03 56 f4 a5 02 dc 1f 21 03 70 08 ea 02
       4.167591e-37 2.4384813e-37 4.735022e-37 3.4388053e-37
0002e0 66 a7 1d 03 44 33 05 03 a0 cc c4 02 bf fd 4a 03
       4.6330317e-37 3.9144037e-37 2.891706e-37 5.965375e-37
0002f0 1b f9 2f 02 58 45 2d 80 7d 88 21 83 c8 d5 96 00
       1.2928459e-37 -4.157473e-39 -4.747033e-37 1.3852015e-38
000300 e8 11 18 80 62 09 6b 83 ab 34 09 03 d6 d9 1d 83
       -2.210475e-39 -6.9071064e-37 4.032114e-37 -4.6388217e-37
000310 72 43 1c 83 cb 19 27 83 ad 4f 9c 82 8c 53 e9 81
       -4.5921703e-37 -4.91065e-37 -2.2967871e-37 -8.5710566e-38
000320 fa 4e 02 83 1f f2 3d 02 2a d5 80 02 86 08 d2 02
       -3.8294227e-37 1.3955012e-37 1.893026e-37 3.086162e-37
000330 d6 d5 25 82 80 d4 bc 02 d9 2e 4c 02 79 84 b5 82
       -1.2183653e-37 2.7746086e-37 1.5000998e-37 -2.6671595e-37
000340 b4 c4 a1 02 dc 34 6c 02 4c f1 a0 81 97 f5 07 03
       2.3769726e-37 1.7353712e-37 -5.912096e-38 3.9954858e-37
000350 0a 4e f1 01 ee 28 f2 82 a6 0f 93 02 68 8b 00 83
       8.86414e-38 -3.5582197e-37 2.160869e-37 -3.777585e-37
000360 6a bd cb 82 14 d3 1a 03 32 39 c1 82 02 59 b4 02
       -2.9936887e-37 4.549884e-37 -2.839163e-37 2.649971e-37
000370 a9 da bd 02 23 7d 5e 02 8a 64 91 02 3c b9 c9 02
       2.7896559e-37 1.6345897e-37 2.1363542e-37 2.9640615e-37
000380 35 ba 97 02 ad c4 b4 02 92 64 00 83 c9 ed 03 03
       2.2294333e-37 2.656151e-37 -3.773127e-37 3.8770404e-37
000390 88 a1 2f 83 b7 97 89 02 bc fb 5b 01 3f 10 4c 02
       -5.1613307e-37 2.021742e-37 4.0404558e-38 1.4992215e-37
0003a0 72 bc da 02 09 72 7f 02 20 a6 9a 01 f6 bf 14 83
       3.2140383e-37 1.8767168e-37 5.6809043e-38 -4.371365e-37
0003b0 8f 57 1d 82 47 78 a8 02 38 44 3f 03 08 94 47 02
       -1.1559666e-37 2.4754417e-37 5.6208167e-37 1.4662694e-37
0003c0 f9 63 04 02 3d bb 69 02 0b 6d 64 02 51 f0 f6 02
       9.726519e-38 1.7171871e-37 1.6782088e-37 3.6284386e-37
0003d0 b1 ed 2f 02 1b bd 24 03 1e 6c 0d 03 ee ce 2e 03
       1.2925184e-37 4.841235e-37 4.156029e-37 5.137155e-37
0003e0 cd 05 43 03 ac 3c 8f 02 6c 1f 62 03 26 ba 52 02
       5.731201e-37 2.1046785e-37 6.64515e-37 1.5481785e-37
0003f0 6e fb 15 82 20 0f 13 83 00 75 c2 00 58 b1 ea 81
       -1.1018948e-37 -4.321678e-37 1.7858058e-38 -8.62125e-38

encoder.0.bias f4 [128]
000000 d2 8a 58 03 f9 2c 4e 03 30 02 55 03 46 6f 4a 03
       6.3636053e-37 6.0589585e-37 6.2597585e-37 5.94902e-37
000010 ac ab 40 03 c3 52 5f 03 de 88 2a 03 33 db 53 03
       5.66208e-37 6.5628816e-37 5.0115626e-37 6.2258955e-37
000020 b0 eb 3f 03 2f 1f 56 03 60 8f 40 03 08 62 3c 03
       5.640041e-37 6.2924745e-37 5.6588315e-37 5.536077e-37
000030 57 b0 3c 03 17 6c 5c 02 82 47 c5 82 ca 5f 5a 03
       5.5450663e-37 1.6194068e-37 -2.8987592e-37 6.4174403e-37
000040 2f 70 4a 03 20 5a 49 03 ca 82 4d 03 c4 65 64 03
       5.9491245e-37 5.917205e-37 6.0394224e-37 6.712e-37
000050 16 10 43 03 92 9b 4f 03 10 d8 17 03 fe d9 3b 03
       5.7323815e-37 6.101042e-37 4.462294e-37 5.5204604e-37
000060 a4 0a 5b 03 c6 fa 61 03 2b b5 10 03 bc 0c 46 03
       6.437053e-37 6.640943e-37 4.2525767e-37 5.820159e-37
000070 ce ec 0d 03 c8 48 49 03 0e 08 55 03 82 07 49 03
       4.1708014e-37 5.915214e-37 6.260432e-37 5.907721e-37
000080 bb 71 50 03 d4 e8 46 03 27 49 45 03 ca 74 2e 03
       6.1256262e-37 5.8454244e-37 5.797707e-37 5.126807e-37
000090 85 d6 42 03 c3 50 46 03 11 d0 ba 81 f7 46 56 03
       5.7257732e-37 5.827968e-37 -6.862417e-38 6.297041e-37
0000a0 13 e8 40 03 cc 60 68 03 a0 14 53 03 21 d9 61 03
       5.6690137e-37 6.828979e-37 6.2031003e-37 6.637081e-37
0000b0 46 eb 43 03 cc 0b 52 03 d0 2e 64 03 ae 15 3d 03
       5.757543e-37 6.1726996e-37 6.7056916e-37 5.5566995e-37
0000c0 cf 72 54 03 b3 1d 41 03 8c 55 55 03 51 32 3f 03
       6.2432994e-37 5.6751695e-37 6.2693277e-37 5.6187616e-37
0000d0 dd da 4e 03 36 4b 4e 03 30 52 5d 03 0c f3 53 03
       6.07892e-37 6.0624297e-37 6.504041e-37 6.228633e-37
0000e0 41 c8 5b 03 3a cd 55 03 65 0e bf 01 4a 72 5e 03
       6.4588196e-37 6.2830663e-37 7.0182974e-38 6.5371134e-37
0000f0 d8 12 dc 82 1b f0 42 03 80 9c 2c 03 b8 5e 47 03
       -3.233691e-37 5.7287104e-37 5.072591e-37 5.8589576e-37
000100 94 61 63 03 52 98 55 03 6c 9b 27 03 82 b2 4c 03
       6.682132e-37 6.276993e-37 4.9255305e-37 6.015513e-37
000110 ec 6a 55 03 73 8a 28 03 a8 4a 3e 03 7c 69 59 03
       6.2717814e-37 4.9529695e-37 5.5921683e-37 6.389166e-37
000120 b5 ad 5f 03 f8 b9 40 03 21 72 44 03 bb 5f 55 03
       6.5733216e-37 5.663721e-37 5.7730237e-37 6.2704967e-37
000130 b1 ca 3f 03 60 44 3f 03 bb 61 47 03 a8 b7 18 03
       5.6362534e-37 5.6208346e-37 5.8593033e-37 4.4879612e-37
000140 4e cb 63 03 c0 41 28 03 0f 08 51 03 3d 65 38 03
       6.6942687e-37 4.944624e-37 6.142883e-37 5.4188956e-37
000150 54 31 34 01 60 b4 69 03 7e 9f 3f 03 17 cf 64 03
       3.309617e-38 6.8679606e-37 5.6312943e-37 6.7240905e-37
000160 35 9f 39 03 7c 5c 54 03 0a 99 3e 03 24 24 61 82
       5.4549374e-37 6.2407367e-37 5.601166e-37 -1.6540761e-37
000170 76 5f 61 03 17 ef 53 03 48 cd 13 03 2a dd cc 02
       6.623114e-37 6.228179e-37 4.343507e-37 3.0102048e-37
000180 40 b7 64 03 8a 85 3f 03 28 c9 66 03 f4 1d 49 03
       6.721354e-37 5.628315e-37 6.782184e-37 5.9102976e-37
000190 df 91 5d 03 e3 ec 47 03 e1 bb 23 03 e2 b6 64 03
       6.5113515e-37 5.8752777e-37 4.811707e-37 6.7213117e-37
0001a0 46 14 51 03 8c 0d 3a 03 48 8a 3e 03 aa 93 2a 03
       6.1442853e-37 5.467604e-37 5.599472e-37 5.012802e-37
0001b0 3b 48 25 03 5c 26 b5 82 44 70 65 03 c7 49 66 03
       4.857206e-37 -2.6617577e-37 6.7425926e-37 6.7675617e-37
0001c0 9d 3d 3c 03 98 0b f2 81 b9 2e 61 03 07 93 24 03
       5.5318963e-37 -8.8913396e-38 6.617519e-37 4.8364047e-37
0001d0 81 af 3e 03 a2 85 5a 03 2e 8f 62 03 df ef 57 03
       5.603745e-37 6.4217845e-37 6.6579793e-37 6.345818e-37
0001e0 f4 0d 23 03 6f 87 3e 03 46 51 45 03 ba 80 43 03
       4.791741e-37 5.599145e-37 5.7986394e-37 5.745312e-37
0001f0 64 43 44 03 7a aa 4c 03 2c be 3f 03 d1 ef 3d 03
       5.7676584e-37 6.014591e-37 5.634816e-37 5.5817404e-37

encoder.1.weight f4 [128]
000000 9e 80 3f 02 fe aa a8 02 47 ee 8a 02 f1 2b 98 02
       1.4069375e-37 2.4783526e-37 2.0414042e-37 2.2359614e-37
000010 4f 35 92 02 c8 ca a1 02 e0 a7 9e 02 58 fc cc 01
       2.148337e-37 2.3773215e-37 2.331237e-37 7.529986e-38
000020 10 a4 82 81 1d a3 95 02 d1 75 9e 02 e5 8e 8c 02
       -4.7989876e-38 2.1987205e-37 2.3283637e-37 2.0653169e-37
000030 a3 b4 a0 02 87 0d 23 82 ae dc 1a 83 1a cb 9e 02
       2.3613567e-37 -1.1979231e-37 -4.550986e-37 2.3332588e-37
000040 d8 aa 99 02 20 73 0a 02 0c fd 8a 02 ac 07 02 03
       2.257939e-37 1.0171678e-37 2.042252e-37 3.8212373e-37
000050 28 fc 83 81 76 db a2 02 5f ed 94 02 a1 e4 c8 82
       -4.8483626e-38 2.3929725e-37 2.188289e-37 -2.9518585e-37
000060 3d 13 99 01 fa 82 95 02 ea da 8b 82 58 84 6d 02
       5.623093e-38 2.196876e-37 -2.0549865e-37 1.7449991e-37
000070 86 ed 31 02 9c ff da 02 41 8b b4 81 37 80 8f 02
       1.3072072e-37 3.2178934e-37 -6.6321377e-38 2.1085553e-37
000080 4c 22 ac 02 e6 20 63 82 a4 8c a9 02 e8 3d 85 82
       2.5292814e-37 -1.6686767e-37 2.4913042e-37 -1.9578126e-37
000090 ee a0 5d 02 de 56 95 02 b7 e0 b8 02 ff e8 a4 02
       1.62827e-37 2.1943442e-37 2.716535e-37 2.4231367e-37
0000a0 96 e3 37 01 91 b7 30 02 1e 04 96 02 6a cd ae 02
       3.3775076e-38 1.2983119e-37 2.2042882e-37 2.5684904e-37
0000b0 74 3f e1 02 60 75 a7 02 48 ce 8a 02 23 6e f7 02
       3.30972e-37 2.4605815e-37 2.0395677e-37 3.6356603e-37
0000c0 7f 19 35 01 ee 91 84 02 17 f7 9e 02 ed 00 a4 02
       3.3262742e-38 1.9479416e-37 2.3357836e-37 2.4098166e-37
0000d0 ad a0 8f 02 b1 44 ed 02 1a 9b 87 02 24 9e d0 02
       2.1104185e-37 3.4863447e-37 1.992549e-37 3.0653621e-37
0000e0 4e bb 9a 02 ba fd 9f 02 12 0b b7 02 3d d1 83 81
       2.2735774e-37 2.3508582e-37 2.6895787e-37 -4.842204e-38
0000f0 d0 05 db 82 2e 89 b2 02 98 89 f8 80 d5 96 34 03
       -3.2182494e-37 2.6233487e-37 -2.2824562e-38 5.3070392e-37
000100 e7 7a a6 02 f0 05 a7 02 26 3f 9c 02 83 89 b4 02
       2.446205e-37 2.4541853e-37 2.2958385e-37 2.652755e-37
000110 0b 0c a7 02 ea ff 98 02 41 97 ab 02 28 92 67 82
       2.4545357e-37 2.248128e-37 2.5213007e-37 -1.7013144e-37
000120 8c be 07 02 00 5b 9f 02 2d a4 96 02 d0 b3 10 03
       9.972918e-38 2.3415182e-37 2.2134751e-37 4.252421e-37
000130 e2 b1 8b 81 22 23 97 02 37 78 6e 02 02 e3 90 02
       -5.1315785e-38 2.220762e-37 1.7519978e-37 2.1289194e-37
000140 94 ec 96 82 54 b1 ad 02 35 70 ae 02 ea 18 99 02
       -2.2176308e-37 2.5521847e-37 2.5631406e-37 2.249563e-37
000150 6a 00 0d 82 0a fb a5 02 bc 1e 9a 02 a4 d9 97 02
       -1.0359163e-37 2.438866e-37 2.2645907e-37 2.2312375e-37
000160 41 bd bd 02 3b f6 9b 02 e8 04 82 02 9b 46 a7 02
       2.787968e-37 2.2916532e-37 1.91046e-37 2.457897e-37
000170 da c8 d9 81 b5 c5 a9 01 cb 54 84 02 80 dd 9f 02
       -8.000142e-38 6.236449e-38 1.9444326e-37 2.3490085e-37
000180 17 60 77 02 50 01 a2 82 af c0 9b 02 d8 aa 4c 02
       1.817427e-37 -2.3804514e-37 2.2885798e-37 1.5036583e-37
000190 8e ec a0 02 a8 8e a7 02 ae 4b 88 02 74 79 99 02
       2.3645663e-37 2.4620325e-37 2.0026842e-37 2.255104e-37
0001a0 f2 39 a4 02 59 3d 30 02 16 55 a5 02 44 d2 a6 02
       2.4130893e-37 1.2948044e-37 2.4293408e-37 2.4512194e-37
0001b0 c8 18 70 02 77 8f 71 01 dc 7c a0 02 02 90 90 02
       1.7639527e-37 4.436764e-38 2.3581553e-37 2.1241555e-37
0001c0 ed 44 77 02 32 1e 18 02 1c 3b 04 03 ee bd 98 02
       1.8166475e-37 1.1175862e-37 3.885917e-37 2.2443407e-37
0001d0 a0 5b 2c 82 84 ec 9d 02 f6 6a f9 81 20 7b a7 02
       -1.2662859e-37 2.320483e-37 -9.1621636e-38 2.4609115e-37
0001e0 d6 9c 6b 82 15 16 9b 02 97 14 86 02 fa 64 02 03
       -1.7310083e-37 2.2787878e-37 1.9701348e-37 3.831948e-37
0001f0 56 f8 10 82 a2 b1 0d 00 35 ac 9a 02 d0 cd a6 02
       -1.0650718e-37 1.257584e-39 2.2727108e-37 2.4509638e-37

encoder.1.bias f4 [128]
000000 c0 cb f9 82 ae f2 e4 82 f4 96 9a 01 70 bd 4e 00
       -3.6704208e-37 -3.364088e-37 5.678727e-38 7.231126e-39
000010 94 9a 2a 83 d6 c7 54 83 7e 59 1a 83 6a 95 dc 81
       -5.0135957e-37 -6.25306e-37 -4.5359264e-37 -8.1029635e-38
000020 b9 16 84 82 73 d7 f1 82 00 f2 23 80 39 f6 7d 02
       -1.94087e-37 -3.553543e-37 -3.301056e-39 1.8658167e-37
000030 35 60 8f 02 5c 9d 17 83 3f ec 7c 02 98 21 90 82
       2.1067182e-37 -4.455555e-37 1.8581835e-37 -2.117818e-37
000040 de 16 32 83 b4 76 34 82 8b 32 1c 83 49 46 d1 82
       -5.233575e-37 -1.3258378e-37 -4.59023e-37 -3.0750132e-37
000050 84 42 1c 03 db 87 d5 82 c0 ba 59 80 c5 fb 35 02
       4.5920636e-37 -3.1375514e-37 -8.240352e-39 1.3370034e-37
000060 7c 5c 85 82 c6 f5 e6 82 51 ba db 81 90 db 5c 82
       -1.9595677e-37 -3.393653e-37 -8.0715246e-38 -1.6226059e-37
000070 a7 29 5f 83 7d f1 07 82 be 83 89 82 56 9c 16 83
       -6.5581625e-37 -9.987537e-38 -2.0205957e-37 -4.4260503e-37
000080 a7 f1 45 83 23 d8 2f 83 fd 46 22 02 f4 c0 b6 82
       -5.81705e-37 -5.167599e-37 1.1922253e-37 -2.6853246e-37
000090 ae 44 03 83 5c 80 4e 81 c0 39 28 80 24 97 79 82
       -3.857628e-37 -3.7928318e-38 -3.694137e-39 -1.8337006e-37
0000a0 33 ba 96 82 52 0d ac 81 4a 6c 81 82 a1 16 17 03
       -2.2147392e-37 -6.3201935e-38 -1.9017001e-37 4.440089e-37
0000b0 52 83 99 81 b2 0c 16 83 ad 39 c2 02 66 16 e6 82
       -5.639176e-38 -4.409561e-37 2.8538842e-37 -3.3808319e-37
0000c0 5c 9d 2a 82 a8 d5 fb 01 cc 18 5f 01 e8 47 73 01
       -1.2534787e-37 9.250942e-38 4.0976422e-38 4.468364e-38
0000d0 d8 6b 38 83 4c 58 d7 82 58 23 39 80 85 e9 da 02
       -5.419654e-37 -3.164209e-37 -5.247302e-39 3.2166255e-37
0000e0 f2 52 8a 82 3c 8a b2 02 06 e3 dd 01 1c e1 af 82
       -2.0324886e-37 2.6234092e-37 8.150834e-38 -2.5843145e-37
0000f0 12 49 d2 01 98 78 ea 80 88 45 26 01 ae f5 da 82
       7.724667e-38 -2.1532767e-38 3.053927e-38 -3.2173234e-37
000100 c9 f6 35 82 2e ed ed 02 dc e6 8c 82 e6 36 b1 82
       -1.3368604e-37 3.4960155e-37 -2.0703658e-37 -2.6039323e-37
000110 af 4a 02 03 70 3c 28 01 08 40 67 81 8e 72 79 82
       3.82893e-37 3.0900088e-38 -4.247394e-38 -1.8326506e-37
000120 2a 88 4f 83 c5 22 2d 83 b4 a2 2c 83 e0 25 7c 81
       -6.098814e-37 -5.0880044e-37 -5.073303e-37 -4.6312264e-38
000130 8a 1f 1c 83 7e f3 87 02 f9 6f af 82 15 24 ea 82
       -4.5880485e-37 1.9976225e-37 -2.5778208e-37 -3.440392e-37
000140 c6 7e 29 83 48 d1 0a 00 80 12 e3 82 a4 ef 48 83
       -4.9810165e-37 9.93431e-40 -3.336527e-37 -5.904981e-37
000150 8f bf de 02 9f d8 1f 03 c6 76 09 03 58 cc e0 82
       3.2729917e-37 4.697457e-37 4.0397027e-37 -3.303113e-37
000160 d1 ba 03 02 da 6e c7 81 9e 0d 95 82 b6 d0 cd 01
       9.677974e-38 -7.326012e-38 -2.1901398e-37 7.560459e-38
000170 c0 ea 90 81 1c 38 45 82 54 d8 fd 82 68 6a ff 81
       -5.3234096e-38 -1.4489377e-37 -3.7299175e-37 -9.382489e-38
000180 a1 8e 42 83 9e 4a 36 83 50 db 20 83 bc db de 82
       -5.7175206e-37 -5.357065e-37 -4.7271532e-37 -3.274609e-37
000190 e8 a4 93 82 36 35 74 82 6c 36 b4 82 60 f1 29 01
       -2.169436e-37 -1.794156e-37 -2.647986e-37 3.1213576e-38
0001a0 30 ae 90 01 f9 ad ba 02 78 e1 5c 00 66 17 fc 82
       5.314719e-38 2.74301e-37 8.529749e-39 -3.7041502e-37
0001b0 89 9f 99 82 80 f8 4d 02 48 81 2d 83 38 90 84 82
       -2.2572898e-37 1.5132337e-37 -5.098854e-37 -1.9478434e-37
0001c0 68 d1 1d 80 2f a2 3a 03 86 f5 af 82 b5 88 35 83
       -2.73835e-39 5.4846665e-37 -2.5854862e-37 -5.334805e-37
0001d0 d6 53 88 02 6a db f8 82 66 b0 4a 02 88 b1 b0 01
       2.0031523e-37 -3.6566262e-37 1.489124e-37 6.4906934e-38
0001e0 47 95 6e 82 2c 49 d5 02 82 d2 81 82 62 fd a1 81
       -1.7528319e-37 3.1339536e-37 -1.9075672e-37 -5.9505646e-38
0001f0 97 13 04 83 cd 15 9a 82 a2 77 39 83 46 6a ef 82
       -3.88138e-37 -2.264078e-37 -5.4503945e-37 -3.5178892e-37

encoder.4.weight f4 [64, 128]
000000 5e 47 ed 02 34 29 87 81 dc 56 10 83 d6 82 02 82
       3.4864983e-37 -4.965029e-38 -4.2417506e-37 -9.58844e-38
000010 5e 85 54 02 06 ec 41 02 a0 0c 26 83 f5 0a b1 02
       1.5613575e-37 1.4247136e-37 -4.879751e-37 2.6014102e-37
000020 f0 0a c0 82 fb 34 21 83 59 b3 d4 82 33 68 fb 02
       -2.8218142e-37 -4.7374466e-37 -3.125354e-37 3.6940943e-37
000030 96 bb 5c 02 54 98 4a 03 ce 88 96 02 40 f6 33 02
       1.6216882e-37 5.953733e-37 2.211904e-37 1.3221513e-37
000040 da 3b e0 81 cf 4d 33 03 3b 63 20 82 c5 6f 33 83
       -8.237049e-38 5.269269e-37 -1.1783421e-37 -5.2731677e-37
000050 65 c5 6a 82 a0 36 a3 82 3f 16 3a 02 7c a4 5b 80
       -1.7248254e-37 -2.398205e-37 1.3671506e-37 -8.416036e-39
000060 bb dd 1d 02 36 d9 53 02 69 7d 15 83 33 31 06 02
       1.1598172e-37 1.5564168e-37 -4.393113e-37 9.858885e-38
000070 03 e3 a9 82 42 e2 a0 02 ed 81 15 02 69 8f b0 02
       -2.4962616e-37 2.3639753e-37 1.0984078e-37 2.594319e-37
000080 28 7b 9c 02 bb 3d b4 82 66 86 36 82 5a 4d 57 03
       2.2992828e-37 -2.6484054e-37 -1.3409819e-37 6.3271617e-37
000090 3c e8 23 01 bc d3 9f 81 2b 73 16 02 7d 97 17 02
       3.0104992e-38 -5.87112e-38 1.1053311e-37 1.1137203e-37
0000a0 4e 68 07 83 22 7e 80 02 3a 68 93 82 b4 b3 ec 82
       -3.979267e-37 1.8880306e-37 -2.1659532e-37 -3.4780228e-37
0000b0 b2 48 49 02 2c 31 d9 02 69 64 b8 82 65 55 98 82
       1.478801e-37 3.1913508e-37 -2.7094003e-37 -2.2383407e-37
0000c0 36 77 22 83 78 86 cf 81 06 3f 00 83 f4 61 f4 02
       -4.774437e-37 -7.6232744e-38 -3.7688167e-37 3.59088e-37
0000d0 71 de 82 82 3c e0 99 00 80 91 bb 82 10 d8 8a 02
       -1.9229458e-37 1.4131271e-38 -2.7560693e-37 2.0401291e-37
0000e0 ee 1c db 02 b0 39 0a 01 2e 5f a6 02 db 5c 0e 03
       3.2195763e-37 2.5387986e-38 2.4446138e-37 4.1836642e-37
0000f0 65 91 4e 83 7e 1a 50 03 6c 1d 5d 02 7b 51 5e 82
       -6.0704864e-37 6.115612e-37 1.6244959e-37 -1.6333368e-37
000100 17 00 2c 83 8b ea 4c 82 70 97 5d 02 27 09 16 83
       -5.054636e-37 -1.5054864e-37 1.6279976e-37 -4.4091545e-37
000110 24 c3 47 82 98 36 71 02 df 71 2d 83 6e e2 47 02
       -1.4676214e-37 1.7721551e-37 -5.097085e-37 1.4685193e-37
000120 88 bb e7 80 fe ca f5 82 97 75 27 82 0a 89 fd 82
       -2.1281273e-38 -3.6116026e-37 -1.2302969e-37 -3.7253665e-37
000130 9e d5 27 02 1c 66 c4 01 7a 16 dc 82 97 5b 4a 03
       1.2330527e-37 7.214555e-38 -3.2338996e-37 5.9467605e-37
000140 bc 7c 10 83 b4 f8 d5 82 82 a0 8a 01 a6 e9 c8 02
       -4.2460985e-37 -3.1440286e-37 5.092351e-38 2.9521466e-37
000150 ca db dc 01 e2 12 de 81 fb e8 93 02 60 98 16 83
       8.113062e-38 -8.1577016e-38 2.1733433e-37 -4.4255956e-37
000160 6c a7 56 81 38 9b b5 02 a4 3b 01 83 3e 03 3b 03
       -3.9425712e-38 2.668465e-37 -3.7978157e-37 5.4958083e-37
000170 00 f9 97 01 9a 49 4b 03 74 87 c7 82 b1 ed 01 83
       5.5825937e-38 5.974083e-37 -2.9318168e-37 -3.818255e-37
000180 3c ee 98 81 42 cd 49 03 c4 27 24 03 cf 3c 61 82
       -5.617783e-38 5.9304216e-37 4.8240917e-37 -1.654784e-37
000190 24 69 fa 82 0d c9 1d 03 a6 04 d5 02 a6 d8 50 03
       -3.6794546e-37 4.636895e-37 3.1300205e-37 6.1374406e-37
0001a0 e1 04 1d 02 ae 99 6f 01 e0 52 86 80 e6 ab 6f 82
       1.1535938e-37 4.4007627e-38 -1.2335686e-38 -1.7608279e-37
0001b0 76 3c a2 02 00 c8 59 83 c4 bb 25 00 0e ad 15 83
       2.3838463e-37 -6.4000157e-37 3.465271e-39 -4.398582e-37
0001c0 80 ce cc 82 a7 0f 45 02 88 9b 0f 83 40 06 3f 83
       -3.0093631e-37 1.4477766e-37 -4.2202464e-37 -5.613703e-37
0001d0 e6 14 1f 82 0d 41 1e 02 1a f2 f8 01 b8 9a 83 81
       -1.1687473e-37 1.1626675e-37 9.144821e-38 -4.834381e-38
0001e0 e8 74 46 83 7c e6 b1 01 b0 69 3c 03 47 4c 52 02
       -5.832117e-37 6.535026e-38 5.536956e-37 1.5450254e-37
0001f0 bf cf c2 82 b9 7f 60 03 82 0a 55 03 98 b4 42 81
       -2.8624978e-37 6.59743e-37 6.2607137e-37 -3.5761742e-38
000200 0e bc 26 03 de a1 3f 83 54 49 1b 81 08 80 a5 82
       4.899889e-37 -5.631567e-37 -2.8521614e-38 -2.4318057e-37
000210 b0 fb 58 83 a4 37 65 02 50 98 c0 82 e1 a3 50 83
       -6.376562e-37 1.6840231e-37 -2.8299288e-37 -6.131383e-37
000220 86 d5 f3 81 5b cb 6c 02 a0 ec 4d 01 f4 79 a1 02
       -8.9570493e-38 1.7396902e-37 3.7822324e-38 2.3726821e-37
000230 80 5e 0d 83 28 e0 2b 81 bc ce f5 02 96 77 3e 83
       -4.1544657e-37 -3.1568564e-38 3.6118174e-37 -5.597326e-37
000240 75 7f 04 83 46 93 c0 82 78 87 74 82 18 4b 8f 82
       -3.8937627e-37 -2.8296395e-37 -1.7965166e-37 -2.1055063e-37
000250 f6 ca 6b 83 84 39 1a 82 3c 48 f2 81 60 83 25 80
       -6.929328e-37 -1.1330639e-37 -8.900041e-38 -3.445042e-39
000260 e0 2e 0e 03 58 01 13 03 f5 bd 0b 83 f7 fc 4d 03
       4.178386e-37 4.320096e-37 -4.106649e-37 6.0534475e-37
000270 d4 72 f1 02 a4 7f 40 03 b1 32 0d 03 b8 ed 95 82
       3.5477675e-37 5.6570253e-37 4.1494367e-37 -2.2030026e-37
000280 05 65 b1 02 9e c0 db 82 60 d6 65 01 9f 53 1b 82
       2.6065795e-37 -3.2289715e-37 4.2214464e-38 -1.14116e-37
000290 a4 91 11 03 bf bb 1f 82 66 87 df 01 67 8e 05 83
       4.2778857e-37 -1.1735356e-37 8.211155e-38 -3.9248657e-37
0002a0 ca 5c 66 83 9e 37 c3 82 19 a5 fc 82 9c a8 36 83
       -6.769744e-37 -2.8684598e-37 -3.7122833e-37 -5.3678547e-37
0002b0 1e 45 c2 82 46 7c ee 01 4c 32 20 03 ee 04 a0 02
       -2.854541e-37 8.7605716e-38 4.707751e-37 2.3512717e-37
0002c0 66 34 2d 03 f9 8f 25 82 16 0e 8d 82 76 db 32 03
       5.090028e-37 -1.2163604e-37 -2.0726173e-37 5.2561427e-37
0002d0 10 7d cb 82 fa b3 b5 82 6e dd 9f 82 e4 80 79 02
       -2.9899952e-37 -2.6698861e-37 -2.3490045e-37 1.8330621e-37
0002e0 eb 1a e7 02 f4 e0 0a 03 26 ef a6 02 04 21 f3 01
       3.395785e-37 4.081279e-37 2.4528772e-37 8.931148e-38
0002f0 f6 5c 3b 83 4d 46 d3 02 0d 16 46 03 88 be 8c 80
       -5.5061075e-37 3.1044014e-37 5.8212283e-37 -1.2925319e-38
000300 8a 91 dc 82 2e 8f da 82 56 73 5c 03 e4 b0 4e 82
       -3.240963e-37 -3.2114402e-37 6.478459e-37 -1.5185255e-37
000310 4c 78 c3 01 e4 59 da 82 4b bb c5 82 54 8e 34 83
       7.1804305e-38 -3.2083816e-37 -2.905405e-37 -5.306063e-37
000320 32 91 5e 02 46 cc 1e 83 a0 64 a2 82 6c 32 73 82
       1.6351653e-37 -4.666652e-37 -2.3861517e-37 -1.7867291e-37
000330 ad bd 37 83 64 a2 52 03 c0 3a b9 82 0c ba 0f 03
       -5.3996604e-37 6.189987e-37 -2.7217028e-37 4.2237494e-37
000340 2a b5 19 82 f6 7b 47 03 9f 29 2c 02 1a 32 82 82
       -1.1292656e-37 5.8623144e-37 1.2648509e-37 -1.913054e-37
000350 c4 44 2e 01 fe 5e dc 02 5c 33 1d 83 de f6 c3 82
       3.200809e-38 3.2380617e-37 -4.619711e-37 -2.879437e-37
000360 6c f3 30 03 dd b4 05 03 9c c8 34 83 ca ae 08 03
       5.2001186e-37 3.929281e-37 -5.3127534e-37 4.0167456e-37
000370 62 a3 0f 03 a4 ab 3f 03 a8 43 13 03 e0 27 0c 80
       4.2211477e-37 5.632689e-37 4.3277083e-37 -1.11633e-39
000380 4d 5e 03 83 55 d2 c3 02 16 3e 98 02 4b d6 98 02
       -3.860569e-37 2.87734e-37 2.2370028e-37 2.245739e-37
000390 4c 7b 84 02 ca 99 e6 02 8f 0f 43 82 4c 6a 46 02
       1.9466426e-37 3.3883733e-37 -1.4330802e-37 1.4577248e-37
0003a0 14 a7 07 83 e5 b7 16 03 c8 3e e4 02 e7 b6 c6 02
       -3.986473e-37 4.429214e-37 3.3537624e-37 2.9198466e-37
0003b0 9f 1c 84 82 11 2a 49 83 1a 5c 57 03 8c 79 01 02
       -1.9412084e-37 -5.911688e-37 6.328855e-37 9.512305e-38
0003c0 00 14 d7 02 ca 17 81 82 86 b6 e5 02 90 3f d3 81
       3.160289e-37 -1.89685e-37 3.375329e-37 -7.7600366e-38
0003d0 ae 8b 42 83 86 20 05 03 2c e3 2d 82 01 6f a1 02
       -5.717182e-37 3.912252e-37 -1.2775228e-37 2.3720537e-37
0003e0 f0 c9 63 82 23 1c b7 02 7c 68 06 83 9a fd 83 02
       -1.6735279e-37 2.6905583e-37 -3.9499003e-37 1.939428e-37
0003f0 82 69 23 02 4a 39 05 82 7c 68 ee 02 5e fa b8 81
       1.2005628e-37 -9.787738e-38 3.5030928e-37 -6.7950184e-38

encoder.4.bias f4 [64]
000000 7c ef 05 82 f0 ff 9b 80 b0 e7 46 00 e2 3f a4 02
       -9.840025e-38 -1.4326315e-38 6.511599e-39 2.4134301e-37
000010 8b d8 16 82 fd 59 08 82 f8 a9 82 00 de ef b0 81
       -1.1082404e-37 -1.0017527e-37 1.1999588e-38 -6.499638e-38
000020 dc 7f cf 81 f0 77 23 80 ef b7 17 82 08 54 30 80
       -7.622326e-38 -3.257268e-39 -1.1146514e-37 -4.438249e-39
000030 d8 43 18 00 e6 0d 9a 81 98 b4 fd 81 14 a0 1d 81
       2.22839e-39 -5.659061e-38 -9.319666e-38 -2.8951196e-38
000040 78 aa 2e 01 aa a7 d4 81 cc f5 13 81 54 c2 8d 81
       3.2081058e-38 -7.8117087e-38 -2.7175986e-38 -5.2074067e-38
000050 d4 d2 06 82 58 3f 99 80 b8 1d 09 80 b8 42 34 80
       -9.90527e-38 -1.4073554e-38 -8.3718e-40 -4.79938e-39
000060 2b 66 06 82 de 9f f1 81 31 e9 b8 02 6c 75 93 81
       -9.874086e-38 -8.8758816e-38 2.7170215e-37 -5.4167764e-38
000070 70 e7 ea 80 f4 96 7b 82 47 ab 7a 82 8c e9 72 81
       -2.157253e-38 -1.8483889e-37 -1.8416253e-37 -4.4615942e-38
000080 d8 e3 78 81 66 bc be 02 b2 3d d0 81 b0 62 63 81
       -4.5713876e-38 2.8026126e-37 -7.649566e-38 -4.176412e-38
000090 d8 f0 cb 81 48 45 20 80 68 99 c3 81 75 45 02 82
       -7.4916017e-38 -2.96359e-39 -7.1851814e-38 -9.570825e-38
0000a0 78 dc 3b 81 b8 02 3b 80 50 18 f7 80 1c 8d 38 83
       -3.4504654e-38 -5.41927e-39 -2.2692089e-38 -5.4234726e-37
0000b0 ae 49 82 81 b8 0f df 80 7f 07 86 82 a4 18 63 81
       -4.7860183e-38 -2.0484954e-38 -1.9693833e-37 -4.1710994e-38
0000c0 a0 19 37 00 17 80 0d 82 a4 09 ec 81 04 0b cd 81
       5.060145e-39 -1.0395804e-37 -8.670654e-38 -7.5320913e-38
0000d0 54 0b 45 81 8c c1 dd 81 0c 87 73 81 10 55 d9 80
       -3.6191313e-38 -8.1460305e-38 -4.4728943e-38 -1.9958817e-38
0000e0 56 ac 97 81 30 9d 74 81 f0 e9 68 00 80 a6 84 80
       -5.571593e-38 -4.49285e-38 9.634813e-39 -1.2182014e-38
0000f0 64 0c 08 81 c4 da b1 81 96 06 01 83 6a 17 a3 81
       -2.4988145e-38 -6.5333445e-38 -3.7917253e-37 -5.991034e-38

encoder.5.weight f4 [64]
000000 14 c5 ae 02 a2 27 a6 02 42 f5 ae 02 fa 30 c6 02
       2.568012e-37 2.4414256e-37 2.5707773e-37 2.9121596e-37
000010 e5 b0 d1 02 7c 1d 93 02 a8 cd 9f 02 c5 0d 9a 02
       3.0811322e-37 2.1616632e-37 2.3480991e-37 2.263617e-37
000020 dd 5d a1 02 71 1b a9 02 c7 f2 b2 02 48 43 c3 02
       2.3710699e-37 2.4848069e-37 2.6294097e-37 2.8691292e-37
000030 6a 1f 94 02 41 4d 9f 02 58 c4 ad 02 b4 78 68 02
       2.1764676e-37 2.3407292e-37 2.5532761e-37 1.7079308e-37
000040 f4 ea 9c 02 2c e9 a8 02 8b a7 bb 02 26 fd a1 02
       2.3056996e-37 2.4819215e-37 2.7573345e-37 2.3802124e-37
000050 af 30 b8 02 2f df 92 02 08 58 ae 02 03 b4 c1 02
       2.7064313e-37 2.1580873e-37 2.561753e-37 2.8462123e-37
000060 8c 8c a8 02 cc e5 9f 02 b3 20 a8 02 1f dd a6 02
       2.4766051e-37 2.3494847e-37 2.470415e-37 2.4518425e-37
000070 7f 18 97 02 e7 4d 5b 83 4e ab 12 82 c9 7f ea 02
       2.2201516e-37 -6.4447743e-37 -1.0775548e-37 3.4456555e-37
000080 e4 7a 87 02 5a 16 ad 02 1e e2 90 02 60 35 b4 02
       1.9907003e-37 2.5432895e-37 2.1288683e-37 2.6479259e-37
000090 90 08 a7 02 79 33 9d 02 5d cf 32 03 4c 1d 9e 02
       2.454336e-37 2.309862e-37 5.254754e-37 2.323283e-37
0000a0 4b f5 3e 82 e9 3f a8 02 69 fb 4e 02 0c bc 84 01
       -1.4029391e-37 2.4722064e-37 1.5206641e-37 4.8758976e-38
0000b0 32 ba a9 02 e4 4f 75 80 bd e4 c9 82 14 4a ab 02
       2.493919e-37 -1.0773412e-38 -2.9665585e-37 2.516871e-37
0000c0 75 78 96 02 cf 86 7e 02 44 e7 9a 02 ca be bd 02
       2.2109658e-37 1.8699661e-37 2.2761006e-37 2.7880562e-37
0000d0 1f db a8 02 66 d8 97 02 cb c9 a3 02 18 9e 9c 02
       2.481115e-37 2.2311662e-37 2.406652e-37 2.3012881e-37
0000e0 fb d6 97 02 15 1d 95 02 f0 e9 9a 02 df 63 5e 02
       2.2310849e-37 2.1910275e-37 2.276254e-37 1.6338646e-37
0000f0 51 f5 9c 02 21 18 87 02 d1 a3 21 83 47 ea ce 02
       2.3062945e-37 1.9850316e-37 -4.75017e-37 3.0403448e-37

encoder.5.bias f4 [64]
000000 d2 f6 74 82 02 d9 a0 82 52 ed 83 01 34 05 ac 80
       -1.7997123e-37 -2.3634443e-37 4.846234e-38 -1.5797572e-38
000010 c2 48 cd 82 09 61 b8 82 1c 6d ca 82 50 3d 15 81
       -3.0163804e-37 -2.7092066e-37 -2.9743858e-37 -2.7410967e-38
000020 a0 41 eb 80 87 01 07 83 d8 55 91 81 10 9c aa 80
       -2.1604883e-38 -3.9674688e-37 -5.338777e-38 -1.5668019e-38
000030 bf 4f ac 82 84 45 99 82 12 9b b0 82 90 0c 1d 80
       -2.53189e-37 -2.252123e-37 -2.5949882e-37 -2.667736e-39
000040 1c 04 a2 81 fb 3a f4 82 a2 d5 0f 82 e4 74 35 82
       -5.95153e-38 -3.588643e-37 -1.056729e-37 -1.3331326e-37
000050 08 24 a1 82 3c fc 87 81 9a 46 b2 81 00 f0 a0 80
       -2.3677505e-37 -4.9953107e-38 -6.548818e-38 -1.4779775e-38
000060 1b 5c 28 83 54 cd 7a 82 d2 e2 02 03 39 44 21 83
       -4.9476495e-37 -1.8426026e-37 3.8463943e-37 -4.7391963e-37
000070 67 27 09 82 f6 8a 3b 83 73 57 c7 81 29 b7 b4 81
       -1.0076478e-37 -5.511388e-37 -7.322654e-38 -6.638438e-38
000080 e8 9e 31 00 c2 1d fc 82 1b 9d 41 82 c0 fb 68 80
       4.556944e-39 -3.7045152e-37 -1.4224488e-37 -9.641202e-39
000090 86 bb 19 83 64 8b 2b 83 5b c4 05 83 54 f4 d2 81
       -4.5177925e-37 -5.0412396e-37 -3.931059e-37 -7.749241e-38
0000a0 bf 82 03 82 e4 1a ab 82 26 2a 69 82 9c c0 ce 82
       -9.661882e-38 -2.5141626e-37 -1.7130232e-37 -3.0379532e-37
0000b0 cc 17 8c 82 ed 8e 1a 83 d0 4c d7 81 5a 92 ac 82
       -2.058481e-37 -4.5420603e-37 -7.908875e-38 -2.535713e-37
0000c0 0d f7 5f 82 e0 69 2e 82 6e 4c f4 81 37 9e 10 83
       -1.6454353e-37 -1.2813886e-37 -8.9741115e-38 -4.249942e-37
0000d0 78 8e c4 80 88 73 a6 00 3b 5d af 82 d0 3c 56 00
       -1.8050865e-38 1.5286137e-38 -2.576745e-37 7.919668e-39
0000e0 e0 3c d9 82 7e 8b ef 81 cc fe 9d 82 40 36 c5 80
       -3.1920225e-37 -8.7994896e-38 -2.3215323e-37 -1.8111054e-38
0000f0 be 56 7d 82 b0 91 fb 80 3e 14 d2 82 68 2b 85 82
       -1.8612398e-37 -2.3102972e-38 -3.0868345e-37 -1.9567508e-37

encoder.8.weight f4 [32, 64]
000000 a2 fa aa 02 34 85 cd 81 0e 69 d7 02 60 91 7d 02
       2.5123111e-37 -7.5496244e-38 3.165171e-37 1.8629225e-37
000010 52 44 2e 03 ac 32 b6 00 15 b4 44 03 56 58 65 82
       5.121243e-37 1.6732238e-38 5.7805947e-37 -1.6849614e-37
000020 fd ce 2d 83 f8 01 43 81 95 15 86 82 3c 26 03 03
       -5.107774e-37 -3.5817256e-38 -1.9701918e-37 3.854133e-37
000030 09 b7 3a 83 0b 37 ff 81 74 22 09 83 ad 43 e3 82
       -5.48706e-37 -9.375119e-38 -4.030023e-37 -3.3393496e-37
000040 bc 33 92 81 50 02 08 80 18 04 3f 83 10 50 f5 00
       -5.3706165e-38 -7.35514e-40 -5.6134555e-37 2.2528418e-38
000050 96 32 6c 82 df a3 ed 82 bc 79 b4 80 a0 e2 d0 80
       -1.7353059e-37 -3.4918078e-37 -1.657406e-38 -1.9183081e-38
000060 a1 db 29 03 f4 e8 e9 80 80 b8 2b 01 60 7b 96 02
       4.991676e-37 -2.1481238e-38 3.1540112e-38 2.2111333e-37
000070 0a 06 09 83 08 0d b0 02 ef c7 20 82 4d cd 11 03
       -4.0267614e-37 2.5868355e-37 -1.1812322e-37 4.2847344e-37
000080 2c da e0 82 61 89 a1 82 85 36 9f 01 d6 88 00 03
       -3.3039066e-37 -2.3735675e-37 5.848561e-38 3.77729e-37
000090 f6 87 bc 02 c6 bc f9 02 03 09 50 83 48 79 cd 82
       2.7702155e-37 3.6695612e-37 -6.113605e-37 -3.0191655e-37
0000a0 1c 0a 5e 82 86 60 da 81 04 b1 3f 01 ec 14 85 02
       -1.6312885e-37 -8.0219057e-38 3.5208162e-38 1.9554602e-37
0000b0 14 49 59 80 9d 88 22 02 54 82 98 01 2e fc 57 03
       -8.199575e-39 1.1941086e-37 5.6022993e-38 6.347231e-37
0000c0 c2 89 a9 82 8b 00 fc 82 4a 35 56 82 1c 7d ca 02
       -2.4911387e-37 -3.7028384e-37 -1.573753e-37 2.9753042e-37
0000d0 95 a6 0e 02 78 44 d5 82 5a 24 39 82 c6 59 b9 82
       1.0480319e-37 -3.1336836e-37 -1.3602086e-37 -2.7234834e-37
0000e0 f4 7f 5a 02 e7 a9 45 03 da 47 89 02 0e a8 19 03
       1.6052831e-37 5.8088135e-37 2.0171582e-37 4.5155576e-37
0000f0 7c da f2 02 7d f5 ba 82 b4 74 12 02 68 ae d4 81
       3.5684108e-37 -2.7471147e-37 1.0759878e-37 -7.812676e-38
000100 bd 9b 38 02 4b 42 95 02 3d a8 e7 02 30 32 29 00
       1.356288e-37 2.1931633e-37 3.4038963e-37 3.783259e-39
000110 88 af 16 01 1a 15 4b 03 04 7b aa 02 3d 3c c7 81
       2.7676586e-38 5.968056e-37 2.5049862e-37 -7.318749e-38
000120 6a 1e 01 83 e1 de f7 82 f9 9c 39 02 20 6e d4 02
       -3.7944606e-37 -3.6421314e-37 1.3636702e-37 3.121381e-37
000130 97 f5 51 83 d0 7e 1e 82 2a 07 fe 82 fb 05 bf 82
       -6.1701503e-37 -1.16444e-37 -3.7326058e-37 -2.806836e-37
000140 e0 40 bf 01 07 2f 8c 81 42 28 10 03 24 f4 10 03
       7.025541e-38 -5.149536e-38 4.236401e-37 4.2598056e-37
000150 43 3f 95 82 02 e7 15 82 3e 0d ad 82 1e 30 be 82
       -2.1929893e-37 -1.1013087e-37 -2.5427666e-37 -2.7945609e-37
000160 03 65 55 02 6f 1c ab 82 70 07 08 80 88 4a 1c 03
       1.5677757e-37 -2.5142512e-37 -7.37352e-40 4.5929837e-37
000170 96 3d d8 82 af d7 1b 02 df 8d 70 82 ce fe 17 03
       -3.1773696e-37 1.14495e-37 -1.767313e-37 4.4667413e-37
000180 04 c2 7d 81 e1 61 81 82 37 67 59 82 4a df e4 01
       -4.660796e-38 -1.9011026e-37 -1.5972263e-37 8.4074377e-38
000190 0c 8c 6e 02 12 20 ca 02 65 39 f8 82 c7 a9 9a 82
       1.752567e-37 2.969964e-37 -3.6473268e-37 -2.2725714e-37
0001a0 39 af 90 82 3c eb 5f 02 cc 10 d4 82 56 d1 16 83
       -2.1259471e-37 1.6450961e-37 -3.1160241e-37 -4.4321344e-37
0001b0 68 c6 d1 81 70 c6 34 03 22 36 69 82 3a f5 51 03
       -7.7059174e-38 5.312504e-37 -1.7133672e-37 6.1701086e-37
0001c0 48 d4 f8 80 c0 3d 45 82 0b 46 80 82 61 a7 bc 81
       -2.2851355e-38 -1.4490996e-37 -1.8848112e-37 -6.930047e-38
0001d0 b8 2a b5 01 74 f8 8d 82 19 be c9 81 96 f6 4c 82
       6.65502e-38 -2.0860693e-37 -7.4108516e-38 -1.505832e-37
0001e0 8f da 74 02 5e 8c 4c 82 a2 ce 8e 82 ae bc 92 02
       1.7989012e-37 -1.5027836e-37 -2.0983626e-37 2.1561069e-37
0001f0 7a 2e 1b 03 26 3e 4e 82 e6 e9 8f 02 dc 3c 07 83
       4.560376e-37 -1.5152325e-37 2.1146213e-37 -3.9742797e-37
000200 b0 be 0b 03 e7 ca ee 82 92 e4 bd 02 cd 28 5e 02
       4.1067327e-37 -3.5087417e-37 2.7902247e-37 1.6321693e-37
000210 c1 c7 5c 02 5a 74 77 01 ce 0c f9 02 b7 49 ee 82
       1.6220374e-37 4.5450213e-38 3.6594611e-37 -3.5013267e-37
000220 58 bc 3d 83 b6 52 ed 01 34 a7 13 82 90 21 51 00
       -5.5758316e-37 8.7178735e-38 -1.0847839e-37 7.450715e-39
000230 6d 7e 43 83 4c 8b e7 82 8a 90 d7 82 3e 68 4f 83
       -5.745048e-37 -3.4022352e-37 -3.1674372e-37 -6.0951497e-37
000240 0e 0f 0d 83 40 aa 88 81 38 ab c5 82 b8 37 7a 00
       -4.145346e-37 -5.0202807e-38 -2.9044823e-37 1.1223919e-38
000250 be ad c7 82 6e 0c 3e 82 20 b1 7e 01 e8 07 dd 80
       -2.9340145e-37 -1.3962563e-37 4.6779513e-38 -2.0298481e-38
000260 b0 c0 ff 00 62 a5 90 82 fa 35 54 02 a9 96 92 02
       2.3487175e-38 -2.1253823e-37 1.5590791e-37 2.1539247e-37
000270 87 c7 15 82 f7 df 9f 02 94 30 da 01 39 04 87 02
       -1.1004053e-37 2.34915e-37 8.015026e-38 1.983889e-37
000280 58 52 2a 81 16 6f c1 82 48 18 c9 81 4c b9 40 03
       -3.1283147e-38 -2.8422561e-37 -7.387058e-38 5.663644e-37
000290 29 a4 26 03 07 7a ab 02 38 e5 5c 83 fe 2c d1 82
       4.897146e-37 2.5196232e-37 -6.491532e-37 -3.0735614e-37
0002a0 44 12 3f 02 76 78 e0 02 9a 22 17 82 7c f7 b4 02
       1.4037706e-37 3.2982983e-37 -1.1103658e-37 2.6590672e-37
0002b0 e0 d6 25 03 fc 87 8b 82 00 f4 c6 81 8c 85 ba 02
       4.8735806e-37 -2.0502266e-37 -7.3083836e-38 2.7406896e-37
0002c0 cc 53 62 81 fe c8 ff 82 94 98 0d 83 9e 9e 4d 03
       -4.1569766e-38 -3.7584246e-37 -4.1611327e-37 6.042617e-37
0002d0 e1 24 e3 02 8b 03 20 83 6d 75 a9 02 f6 8b a8 82
       3.337582e-37 -4.702384e-37 2.4899717e-37 -2.4765715e-37
0002e0 5e 4f bc 81 3f 7c 4c 03 1a 42 00 02 95 38 4d 03
       -6.917418e-38 6.009284e-37 9.422925e-38 6.030904e-37
0002f0 60 5e 44 02 d8 30 67 83 15 62 2e 83 f8 e3 86 81
       1.442689e-37 -6.794087e-37 -5.1246597e-37 -4.9550945e-38
000300 69 01 48 02 77 91 88 02 0a e5 fc 02 ce ba 2e 82
       1.4694084e-37 2.0066897e-37 3.7159534e-37 -1.2837111e-37
000310 aa 13 8e 82 ab 11 1f 03 ce 67 b0 02 4c 01 1a 83
       -2.0876311e-37 4.6746182e-37 2.5920457e-37 -4.525802e-37
000320 8e 0e b9 02 1c e5 2a 81 a4 c7 da 02 6c c0 9f 02
       2.719166e-37 -3.1388447e-38 3.214681e-37 2.3473395e-37
000330 80 a7 35 00 1c 7c a9 82 3f 70 4b 03 0a 02 e5 82
       4.927369e-39 -2.4903553e-37 5.978519e-37 -3.3649696e-37
000340 15 bf e3 02 fe c3 36 83 70 ef 39 81 cd dd e2 01
       3.3464328e-37 -5.370998e-37 -3.4150922e-38 8.3337557e-38
000350 65 dc a7 81 53 57 52 83 95 4b 12 02 f3 a6 1b 02
       -6.166236e-38 -6.1813697e-37 1.0748077e-37 1.1435514e-37
000360 41 fa e8 82 8e 4c 2d 01 be 37 31 83 bc 45 e1 02
       -3.4232975e-37 3.1830007e-38 -5.2079614e-37 3.3100804e-37
000370 42 67 21 03 de 07 fa 81 d6 c0 71 82 9a 62 03 03
       4.743218e-37 -9.1846785e-38 -1.7761225e-37 3.861063e-37
000380 86 a2 2e 03 34 b3 03 82 84 71 e4 02 88 08 07 03
       5.132057e-37 -9.675789e-38 3.3566744e-37 3.9682728e-37
000390 a0 67 23 02 b8 85 6a 80 a5 ac a7 82 3a 57 27 02
       1.2005088e-37 -9.782532e-39 -2.4637538e-37 1.2294255e-37
0003a0 8e 95 b5 81 80 a0 41 00 74 39 0b 02 d7 97 16 02
       -6.67035e-38 6.026884e-39 1.0228595e-37 1.1063835e-37
0003b0 ac 40 2e 83 b3 48 3a 83 7e 98 0c 03 52 b4 3b 03
       -5.1208244e-37 -5.474394e-37 4.1317355e-37 5.516136e-37
0003c0 f8 af 16 03 ce 56 2e 83 30 c5 11 02 4c 52 49 81
       4.428304e-37 -5.123365e-37 1.0709508e-37 -3.6976915e-38
0003d0 a4 05 71 81 ed 3a b4 01 80 1d 05 82 24 ff b9 82
       -4.4268756e-38 6.620611e-38 -9.779763e-38 -2.732975e-37
0003e0 09 b5 37 02 22 da 1a 82 e0 9b c2 80 3e 1c f4 02
       1.3496671e-37 -1.1376734e-37 -1.7872004e-38 3.5868788e-37
0003f0 10 cd 48 03 d7 ac 96 81 aa 87 33 82 13 d4 37 82
       5.9010118e-37 -5.534931e-38 -1.3189777e-37 -1.3505579e-37

encoder.8.bias f4 [32]
000000 b0 8b 56 83 a4 a5 4f 83 fa a9 52 83 70 dc 38 83
       -6.30493e-37 -6.102198e-37 -6.1908577e-37 -5.432579e-37
000010 16 bc 46 83 f4 18 52 83 f3 18 33 83 ac 7d 52 83
       -5.8402882e-37 -6.17421e-37 -5.2632012e-37 -6.1857718e-37
000020 73 11 14 83 a6 fc 13 83 6a 66 3e 83 02 5d 33 83
       -4.351332e-37 -4.3489444e-37 -5.5953547e-37 -5.271014e-37
000030 98 66 14 83 d2 d3 30 83 04 16 4e 83 06 c9 51 83
       -4.3611063e-37 -5.196491e-37 -6.056323e-37 -6.1650343e-37
000040 93 51 aa 02 29 18 4f 83 70 c3 c7 02 34 18 32 83
       2.5026076e-37 -6.0859567e-37 2.9352598e-37 -5.2337282e-37
000050 02 1f 56 83 ab a5 4d 83 4f 45 3a 83 b8 5a 55 83
       -6.2924543e-37 -6.0434263e-37 -5.474005e-37 -6.2699214e-37
000060 d2 77 41 83 92 cc 48 83 a1 4c 46 83 f1 d5 4e 83
       -5.685515e-37 -5.9009553e-37 -5.8274936e-37 -6.078355e-37
000070 7b 66 42 83 d6 fe 1e 02 5c c3 fe 82 2a 67 4b 83
       -5.712912e-37 1.1681141e-37 -3.7434076e-37 -5.9774765e-37

attention.layers.0.0.in_proj_weight f4 [96, 32]
000000 6c 02 8a 82 65 a7 75 02 ca 44 a0 02 7f 83 b7 82
       -2.0278668e-37 1.8047797e-37 2.354937e-37 -2.6964908e-37
000010 1c 6e 93 02 9d 76 4d 02 9d 6f a3 82 55 bc 1a 03
       2.1662908e-37 1.5095062e-37 -2.401476e-37 4.5472727e-37
000020 94 d5 2c 02 d0 43 58 00 26 85 8d 02 c3 12 59 83
       1.2697858e-37 8.10585e-39 2.0794511e-37 -6.3792106e-37
000030 dc e8 a7 82 da 06 d6 81 4b 60 95 82 f2 c2 57 82
       -2.46721e-37 -7.8621016e-38 -2.1948852e-37 -1.5851652e-37
000040 16 cf 67 03 69 87 72 02 3e c3 b6 00 5d 58 4b 82
       6.812252e-37 1.7818213e-37 1.67841e-38 -1.4939444e-37
000050 e2 78 60 03 b6 b2 59 02 14 2e 75 82 9a 29 a2 82
       6.596645e-37 1.599393e-37 -1.8012981e-37 -2.3827639e-37
000060 a8 c7 01 83 47 32 8f 82 bc a1 aa 82 b3 dd 41 02
       -3.8138887e-37 -2.104082e-37 -2.5072086e-37 1.4243025e-37
000070 94 81 9b 02 7a cb 88 02 c8 ee 99 02 48 59 72 82
       2.2849577e-37 2.0100194e-37 2.2618383e-37 -1.7804975e-37
000080 2c 75 8e 82 50 27 21 81 fc 61 99 82 1a 4a 9b 82
       -2.0932278e-37 -2.9599235e-38 -2.253757e-37 -2.2817735e-37
000090 68 6b 8e 02 5e 22 95 02 b8 17 b6 82 c3 a4 8d 82
       2.0926673e-37 2.1913308e-37 -2.675611e-37 -2.0812657e-37
0000a0 75 c0 80 02 b0 fb ed 81 2e 5b 27 02 c7 3b 24 82
       1.8918375e-37 -8.7421204e-38 1.229539e-37 -1.2065972e-37
0000b0 6a d5 96 02 c6 7b 95 02 5b ce 4b 02 8c 2b 8f 82
       2.2163013e-37 2.1964625e-37 1.4973306e-37 -2.1036956e-37
0000c0 62 ec 02 81 40 63 3e 82 72 75 ca 81 9a fc 9f 02
       -2.4046825e-38 -1.3987479e-37 -7.4371607e-38 2.3507936e-37
0000d0 8f 21 84 82 81 f1 93 82 82 17 92 02 22 aa 9b 02
       -1.9414918e-37 -2.1738325e-37 2.1466265e-37 2.2872854e-37
0000e0 38 c5 97 82 7f 9f b8 82 45 9a 27 03 48 57 94 82
       -2.2300654e-37 -2.7127916e-37 4.925398e-37 -2.1796742e-37
0000f0 00 e9 5e 02 12 8e 2c 03 48 b6 a4 02 29 17 1e 83
       1.6376852e-37 5.0709346e-37 2.4202258e-37 -4.6458613e-37
000100 2e 8a 09 82 74 2d 97 02 4a f2 35 82 e0 76 63 83
       -1.0104826e-37 2.2213545e-37 -1.3367313e-37 -6.6845766e-37
000110 fc f5 94 82 84 e5 8d 02 f0 f4 98 02 6c d4 e0 80
       -2.1887834e-37 2.0849823e-37 2.247498e-37 -2.0647354e-38
000120 41 6b 92 82 ce 3c 93 02 0c 0e 70 02 5c 56 83 82
       -2.1514333e-37 2.1634609e-37 1.7636447e-37 -1.9298288e-37
000130 cb ba 87 02 57 14 9e 02 d0 7d 91 82 7e c5 68 03
       1.994368e-37 2.3227688e-37 -2.1378048e-37 6.8405382e-37
000140 fc ed 64 82 10 38 6e 83 a7 7a 55 83 9e 0d 9d 82
       -1.6819093e-37 -7.000627e-37 -6.273587e-37 -2.3076893e-37
000150 78 c0 8b 82 32 21 05 80 e6 84 73 02 4c 7b 41 82
       -2.0534686e-37 -4.71086e-40 1.789096e-37 -1.4214785e-37
000160 f5 5e 07 83 5e 9a a2 02 57 c3 a6 82 d7 e4 7e 82
       -3.978194e-37 2.3892363e-37 -2.4503627e-37 -1.8726647e-37
000170 3a bc 7f 82 ea b8 97 82 79 4f 82 81 30 71 30 82
       -1.878846e-37 -2.2293591e-37 -4.7868496e-38 -1.2962921e-37
000180 e6 0e 9b 82 38 82 96 02 37 40 93 02 18 3e 7a 02
       -2.2783754e-37 2.211526e-37 2.1636566e-37 1.8384919e-37
000190 f0 5f 90 02 5c 87 a1 02 5a ce f4 01 06 cb b0 82
       2.1213964e-37 2.3734516e-37 8.9927544e-38 -2.5977405e-37
0001a0 90 04 99 02 71 c9 81 82 54 ff 60 81 42 82 8f 02
       2.2483948e-37 -1.9070468e-37 -4.132549e-38 2.1086726e-37
0001b0 5c d3 5b 82 60 7f 7a 02 ad 26 7c 82 20 69 31 82
       -1.6150236e-37 1.8403654e-37 -1.8525135e-37 -1.3034076e-37
0001c0 6e ca 89 82 70 9b 9a 02 04 6b 73 82 31 c0 68 02
       -2.024653e-37 2.2717483e-37 -1.7883532e-37 1.7099824e-37
0001d0 15 cc 97 82 94 5c 8c 82 e3 69 96 02 91 f1 96 02
       -2.2304593e-37 -2.0624288e-37 2.2101295e-37 2.2179171e-37
0001e0 fc 67 a7 01 2a 91 61 02 fe 98 52 82 cc 21 a1 02
       6.149532e-38 1.6572049e-37 -1.547227e-37 2.3676222e-37
0001f0 b0 ff 48 81 cc 7d ac 81 be 52 8e 82 d8 15 48 02
       -3.6917645e-38 -6.336333e-38 -2.0912516e-37 1.4699948e-37
000200 f2 7c 8e 02 1f fc 79 82 96 07 7e 82 2b 30 d7 02
       2.093674e-37 -1.8365986e-37 -1.866315e-37 3.1619058e-37
000210 22 fa 90 02 e6 0a ae 82 ef fd ef 81 36 05 cb 82
       2.1302468e-37 -2.5573258e-37 -8.815911e-38 -2.983116e-37
000220 ba 44 98 02 95 7f e5 81 46 4f 34 82 6e 38 04 02
       2.237384e-37 -8.4304386e-38 -1.3247062e-37 9.714023e-38
000230 fe 39 8a 82 3f 2b c6 01 ba d7 6f 82 93 6f a2 02
       -2.0310563e-37 7.279577e-38 -1.7620857e-37 2.38678e-37
000240 e8 8f 5d 02 82 a2 8a 82 ca 54 96 82 b4 d3 95 82
       1.6277815e-37 -2.0370552e-37 -2.2089186e-37 -2.2015094e-37
000250 da d6 8c 02 26 fb 5c 02 53 dd 2a 03 e8 c2 22 83
       2.069447e-37 1.6235123e-37 5.0212578e-37 -4.7831263e-37
000260 29 ee 1f 02 3b dd 95 02 f4 c5 25 82 b8 9d 90 02
       1.1749824e-37 2.2020562e-37 -1.2179095e-37 2.1249424e-37
000270 61 db fb 81 f7 22 8e 82 0a 7f 56 02 28 66 92 02
       -9.251763e-38 -2.0885094e-37 1.5758695e-37 2.1511407e-37
000280 05 de 3e 82 1c d1 59 82 1b 01 3b 02 1c 5b 4b 02
       -1.4022712e-37 -1.6002654e-37 1.3738907e-37 1.4940232e-37
000290 b2 24 da 82 53 91 97 82 8e 4b 78 82 ed a0 8d 82
       -3.2053283e-37 -2.2270868e-37 -1.8241846e-37 -2.0810455e-37
0002a0 32 22 a1 02 1d a4 43 82 b0 6e 6d 02 f2 f2 5e 82
       2.367645e-37 -1.4373436e-37 1.7443776e-37 -1.6379706e-37
0002b0 84 c2 1a 80 82 91 b4 82 b7 13 98 02 18 24 a4 82
       -2.457502e-39 -2.653214e-37 2.2345708e-37 -2.411835e-37
0002c0 36 5f 39 83 6e 82 99 82 c8 6d f7 80 20 b7 8f 02
       -5.447591e-37 -2.2556192e-37 -2.272275e-38 2.111707e-37
0002d0 3c 43 63 02 3d aa 87 82 86 61 9e 02 1f ea 93 02
       1.6696621e-37 -1.993418e-37 2.327199e-37 2.1734088e-37
0002e0 65 96 9b 02 5b 4d 84 02 50 6b 94 02 7d 38 5e 82
       2.2861525e-37 1.9440057e-37 2.180824e-37 -1.6326195e-37
0002f0 a2 6a 97 02 86 3e 85 02 14 7e 51 02 b8 20 50 02
       2.224866e-37 1.957848e-37 1.5391078e-37 1.5290816e-37
000300 49 b3 7e 02 30 d7 8e 82 a8 0b 36 02 30 57 03 02
       1.8712425e-37 -2.0988536e-37 1.3374593e-37 9.649382e-38
000310 8f 09 90 02 e8 17 92 02 9e 68 76 82 d3 c7 ce 82
       2.1164385e-37 2.1466493e-37 -1.8103249e-37 -3.0383673e-37
000320 33 ec 10 03 f0 9e 90 02 99 43 96 82 9f 1a 81 82
       4.258894e-37 2.1250124e-37 -2.2079318e-37 -1.8970126e-37
000330 a6 fa 8a 02 c9 73 14 82 9d de 37 82 5f cb a7 02
       2.0421143e-37 -1.0906551e-37 -1.3508604e-37 2.4655174e-37
000340 12 e0 80 02 34 4a 62 82 51 46 7a 82 b8 54 9a 02
       1.893652e-37 -1.6625153e-37 -1.8387279e-37 2.2676892e-37
000350 91 93 4d 02 0f 58 db 02 48 02 89 82 58 03 8e 02
       1.5103371e-37 3.22297e-37 -2.013165e-37 2.0866944e-37
000360 b4 20 fa 80 5e 18 ea 01 4f cb 8d 02 d3 32 87 82
       -2.2970606e-38 8.599299e-38 2.0834781e-37 -1.9865639e-37
000370 1f 6d a2 82 fa 57 29 02 ab 68 37 02 a5 05 10 82
       -2.3866393e-37 1.2441407e-37 1.3474755e-37 -1.0581069e-37
000380 a7 77 83 02 c1 6d 92 02 3c fc 02 81 17 26 1c 03
       1.9317397e-37 2.1515768e-37 -2.4058198e-38 4.5888005e-37
000390 92 d8 25 02 28 52 8a 02 51 99 a3 02 14 7a 97 02
       1.2184438e-37 2.0324433e-37 2.4038697e-37 2.2257525e-37
0003a0 5e 8c 97 02 2a c6 e8 82 4d ba a5 01 dc d9 ba 82
       2.2268023e-37 -3.4203077e-37 6.0878756e-38 -2.7455289e-37
0003b0 a7 67 95 02 17 45 86 02 55 68 36 03 78 13 96 82
       2.1953076e-37 1.9729186e-37 5.360476e-37 -2.2051694e-37
0003c0 7c 4f 97 02 f5 bb 8b 02 4b 67 8a 82 e6 27 56 03
       2.2233078e-37 2.0532096e-37 -2.0336565e-37 6.293475e-37
0003d0 22 1e 07 03 d6 9d a1 80 ec cc d9 02 a6 5c b4 82
       3.9707525e-37 -1.4842136e-38 3.2002904e-37 -2.65018e-37
0003e0 61 0d ae 81 a6 1c 93 02 dd fa 8d 02 cc 8b 03 81
       -6.3936703e-38 2.1616152e-37 2.0862076e-37 -2.41612e-38
0003f0 69 87 94 82 5e 70 0f 02 c4 a0 87 02 76 4e 57 03
       -2.1824367e-37 1.0538229e-37 1.9928742e-37 6.327289e-37
