model/cartesian/AE_cartesian_hd128x64_ld32_test_weight.pth (torch, 197045 bytes, 32 tensors)

encoder.0.weight f4 [128, 63]
0	0x3aece5c9	0.0018073852
1	0xbd87f178	-0.066378534
2	0xbc476bd6	-0.012171706
3	0x381d59ca	3.751534e-05
4	0x3c0a3ff5	0.0084381
5	0xbaf39de9	-0.001858649
6	0x3b3cf974	0.002883521
7	0xbbbdc10a	-0.0057908343
8	0xbb15005a	-0.0022735805
9	0x3c104201	0.008804799
10	0xbd11b7a4	-0.035575524
11	0x3c94aeca	0.018149752
12	0x3c59806a	0.013275245
13	0xbd28fb15	-0.041255075
14	0x3ca52fae	0.020164337
15	0x3a8f7592	0.0010945073
16	0xbab28947	-0.0013621234
17	0x3a147561	0.0005663243
18	0x3982d399	0.00024953185
19	0xb76727f4	-1.3777975e-05
20	0xb83cc927	-4.501003e-05
21	0xba1a126c	-0.0005877379
22	0x3b00238f	0.0019552445
23	0xba31019c	-0.0006752254
24	0x3a40d70b	0.00073562626
25	0x38d81890	0.00010304258
26	0x3b18034d	0.0023195327
27	0xbd270f76	-0.04078623
28	0x3d0d60d4	0.03451617
29	0x3ba2acfb	0.0049644685
30	0x3b2ef4af	0.0026696136
31	0xbbdc8b3f	-0.0067304666
32	0xbb754bd6	-0.0037429235
33	0xbabd7299	-0.0014453708
34	0xbb2f534c	-0.002675253
35	0x3863d8ff	5.432311e-05
36	0xbd271af3	-0.040797185
37	0x3d372a3f	0.044718023
38	0x3ba8db5d	0.0051531033
39	0x3b238979	0.0024953766
40	0x3c28099a	0.010256195
41	0x3b7f3cfc	0.0038946262
42	0xbafa10be	-0.0019078476
43	0x3a0f5243	0.0005467275
44	0xbb1ff8a3	-0.0024409674
45	0xbb8024e3	-0.0039106472
46	0x3c2824a4	0.010262642
47	0xba17ac92	-0.0005785908
48	0x3b5a1dc8	0.0033281911
49	0x3b91ead3	0.004453042
50	0xbaf8fda0	-0.0018996485
51	0xbccd4846	-0.025058877
52	0x3bd61a08	0.006533865
53	0x3b645dc0	0.0034845918
54	0xbb01faea	-0.0019833394
55	0x3bd8346c	0.006598046
56	0x39e7f660	0.00044243317
57	0xba3e98c4	-0.00072706887
58	0x3b346bae	0.0027530002
59	0x3bf58922	0.007493154
60	0x3b4dee32	0.0031422493
61	0x3be4f45e	0.0069871387
62	0x3c470816	0.012147924
63	0xba43aefc	-0.00074647344
64	0xbc609df0	-0.01370953
65	0xbb85cb8b	-0.004083102
66	0x3878b52d	5.929654e-05
67	0x3b2c55e4	0.0026296312
68	0xbac132fd	-0.0014739927
69	0x3b369db7	0.0027865001
70	0xbb829a9e	-0.003985717
71	0xbb3c0eb8	-0.0028695296
72	0xbb0a2795	-0.0021080722
73	0xba39901d	-0.00070786645
74	0xbb59cb84	-0.0033232877
75	0x3b2c3243	0.0026275076
76	0xbb846ba7	-0.0040411535
77	0xbb13fb57	-0.002258023
78	0x3abd0257	0.0014420253
79	0xba0eab06	-0.00054423546
80	0x3a67daec	0.00088445726
81	0xb7c439df	-2.3391969e-05
82	0xb93efa97	-0.00018213164
83	0xb9684cfc	-0.00022153923
84	0xba14fc76	-0.00056833716
85	0x3abc3f99	0.0014362215
86	0x3a21b8a7	0.0006169178
87	0x39dc1190	0.00041974755
88	0xb9a0efcd	-0.00030696244
89	0x3abb2019	0.0014276534
90	0x3db57475	0.08860103
91	0x3d8708e7	0.06593495
92	0xbd625c14	-0.055263594
93	0x3b1eaa50	0.00242104
94	0xbbab3511	-0.005224832
95	0xbb1df46f	-0.0024101993
96	0xb9c0d21b	-0.00036777635
97	0xbac095fd	-0.0014693137
98	0x38cbd4d9	9.71944e-05
99	0x3db41a1e	0.08794044
100	0x3d99be12	0.07506956
101	0xbd655cbb	-0.055996638
102	0x3af1941b	0.001843098
103	0x3c023073	0.0079461215
104	0x3b8a92e3	0.004228936
105	0xba02bdf3	-0.0004987411
106	0xbafa3076	-0.0019087929
107	0xb9eee743	-0.000455672
108	0xbae945ac	-0.0017797253
109	0x3c0e360a	0.008679876
110	0x39885eee	0.0002601067
111	0x3a53b0eb	0.0008075374
112	0x3b1c6889	0.0023866019
113	0xb9de7ffd	-0.00042438498
114	0x3b86c496	0.0041127903
115	0x3c0725b9	0.00824874
116	0x3b614e0b	0.0034378793
117	0xba93bd60	-0.0011271648
118	0x3bcf5fd2	0.0063285613
119	0x39b5d5d6	0.0003468233
120	0xbb10167c	-0.0021986058
121	0x3b090b4d	0.0020911277
122	0x3ba91486	0.0051599173
123	0x3b685d87	0.0035456137
124	0x3bc361d6	0.0059625907
125	0x3c41b4a5	0.011822854
126	0xbb048a79	-0.0020224138
127	0x3d9dd434	0.0770649
128	0x3ccae714	0.02476839
129	0x38cbca8f	9.717524e-05
130	0xbb9ce9ae	-0.004788599
131	0xbb8b2179	-0.0042459336
132	0x3afe7731	0.0019414184
133	0xbba0d192	-0.004907795
134	0xbaeb987e	-0.0017974523
135	0xbbaa259d	-0.005192472
136	0x3ba7c2e9	0.0051196706
137	0xbbbf93ff	-0.0058465
138	0xbacc6b92	-0.0015596023
139	0x3b2ab544	0.0026047984
140	0xbb9f4503	-0.0048605218
141	0x3b025186	0.0019885018
142	0xbb3b9bc0	-0.002862677
143	0x395e7230	0.00021214108
144	0xbafefa4e	-0.0019453259
145	0xb93630ba	-0.00017375025
146	0x39697a53	0.00022266181
147	0x3aa8492e	0.0012839192
148	0x3aa74540	0.0012761727
149	0x3b23fb77	0.002502171
150	0xb9835ea8	-0.00025056791
151	0x3abb6b69	0.0014298978
152	0x3b67944b	0.0035336192
153	0x3c3030ea	0.0107538495
154	0x3cb654bd	0.022257203
155	0xbd44db87	-0.04806092
156	0x39da9d08	0.00041697198
157	0x3c35d0bd	0.01109713
158	0x3add87ed	0.0016901471
159	0x399f408e	0.0003037494
160	0x3ba5d708	0.005061034
161	0x3b23ab1a	0.002497381
162	0x3c106ad3	0.008814531
163	0x3d23c283	0.039980423
164	0xbd3e0669	-0.046392832
165	0x3b72619c	0.003698445
166	0xbc8a31c4	-0.016869433
167	0xbb0547d5	-0.0020337005
168	0xba1b29b0	-0.00059189927
169	0xbaf0669a	-0.0018341125
170	0xba432558	-0.00074442243
171	0xbb893a5a	-0.0041878643
172	0x3c3cfd46	0.0115349945
173	0x39ecf7ea	0.00045198138
174	0x3b317358	0.0027076807
175	0x3bd789a5	0.006577688
176	0x3aa2d7d5	0.0012423942
177	0x3c8721ed	0.01649567
178	0x3b90b19d	0.0044157044
179	0x3b0492a8	0.0020229015
180	0xba00476d	-0.0004893456
181	0x3c00696f	0.007837637
182	0x3a110687	0.00055322837
183	0x3abe053f	0.0014497413
184	0x3ba718d8	0.005099397
185	0x3c3bbccc	0.011458587
186	0x3beb0fef	0.0071735303
187	0x3b981674	0.0046413485
188	0x3c50b281	0.012737871
189	0x3db30212	0.08740629
190	0xbcf8717d	-0.030327553
191	0xbdd39fcd	-0.10333214
192	0x3b823606	0.0039737253
193	0x3ab14f1e	0.0013527607
194	0xbbae3977	-0.005316909
195	0x3b76f9b8	0.0037685465
196	0x3bacaecd	0.0052698613
197	0x3b91b3a3	0.004446463
198	0xbb4ee54a	-0.0031569772
199	0xbc0705d4	-0.008241136
200	0xbc577ac2	-0.013151826
201	0x3b51197c	0.003190606
202	0xbc32865c	-0.010896292
203	0xbb22d71b	-0.002484745
204	0xba8f6df1	-0.0010942799
205	0x3bdf6963	0.006817983
206	0xbb620fca	-0.0034494274
207	0x3ab5519c	0.0013833526
208	0xb9e71d6f	-0.00044081683
209	0xbb47a3ae	-0.003046255
210	0xbb30b3a8	-0.0026962552
211	0xba375ff4	-0.0006995194
212	0xbabfb809	-0.001462699
213	0xbb0e8f87	-0.002175303
214	0x3a276aaa	0.00063864386
215	0xba0e11f0	-0.0005419543
216	0x3c989d44	0.018629678
217	0x3cd70bec	0.026250802
218	0xbd5c8296	-0.053835474
219	0xbb0e2b99	-0.0021693467
220	0x3b9d28c0	0.0047961175
221	0x3a739981	0.0009292588
222	0xb86c1f8a	-5.6296158e-05
223	0xb9dc6df5	-0.00042043594
224	0xbacb9baf	-0.0015534068
225	0x3c9213fb	0.017831793
226	0x3c56c505	0.013108497
227	0xbd837e22	-0.06420542
228	0x3bb52935	0.005528594
229	0x3b72dac8	0.0037056673
230	0xbb449836	-0.0029997951
231	0x3a90395c	0.0011003423
232	0xbbaadfb9	-0.005214658
233	0x3b3e9c98	0.0029085036
234	0xbb70a07d	-0.0036716752
235	0x3b681ed2	0.003541876
236	0xbabad08a	-0.0014252823
237	0xbc8bd79e	-0.017070588
238	0xbbcd5fe5	-0.006267535
239	0xbb105bc5	-0.0022027355
240	0xbb3fda4e	-0.0029274407
241	0x3bdb4c81	0.0066924696
242	0x3af014d1	0.0018316751
243	0xbaeff1e1	-0.0018306338
244	0x3bea79c9	0.007155631
245	0x3a71a3cb	0.00092178275
246	0x3a8eecd6	0.0010904323
247	0x3ba4ae41	0.0050256555
248	0x3bcda270	0.0062754676
249	0x3b776c95	0.003775393
250	0x3b9c0b44	0.004762085
251	0x3c4ca694	0.012490887
252	0x3c3590f2	0.011081921
253	0xbd3d5c6a	-0.04623071
254	0xbc2debe9	-0.010615327
255	0xbbe7fd85	-0.0070797824

encoder.0.bias f4 [128]
0	0xbb373e7d	-0.002796083
1	0xbc1571e6	-0.009121394
2	0x3d192602	0.037389763
3	0x3c319519	0.01083877
4	0xbc3e91b8	-0.011631422
5	0x3b946fe7	0.0045299414
6	0x3cfd0a98	0.03088884
7	0x3b6f7b03	0.0036541827
8	0x3c8c91b0	0.017159313
9	0x3bb16d97	0.0054146755
10	0xbc7ad751	-0.0153101245
11	0xbcd02ec0	-0.025412917
12	0xbb2a91a2	-0.0026026745
13	0x3bbccd0c	0.005761748
14	0xbc27fec6	-0.010253614
15	0xbd0274a2	-0.03184951
16	0x3c3ff024	0.011714969
17	0xbbce2bd1	-0.0062918444
18	0xbc583a3f	-0.013197481
19	0x3c28859c	0.010285761
20	0xbb3e08fa	-0.002899705
21	0x3c1d17de	0.00958821
22	0x3c51c6f2	0.01280378
23	0x3acb77f2	0.0015523417
24	0xbb5a63a1	-0.0033323544
25	0xbafea12a	-0.0019426693
26	0x3a1afbac	0.0005912136
27	0xbc2d981c	-0.010595348
28	0xbbb32deb	-0.0054681203
29	0x3bd855b7	0.006602015
30	0x3c30bbb7	0.010786942
31	0x3c7cdbca	0.015433261
32	0x3a6d02fb	0.00090412766
33	0x3c0e196e	0.008673055
34	0x3c6b5770	0.014364108
35	0xbb8f58b8	-0.00437459
36	0x3af14fc1	0.0018410609
37	0xbc19f1f9	-0.00939607
38	0x3b529516	0.003213232
39	0xb9e12847	-0.00042945353
40	0x3c439c12	0.0119390655
41	0xbbba80c3	-0.005691619
42	0x3aae6b63	0.001330715
43	0xbb232c88	-0.002489837
44	0x3b522d17	0.0032070333
45	0x3cc9f193	0.024651324
46	0x3cef609b	0.02922087
47	0x3c845d26	0.016157698
48	0x3ca1fb7a	0.019773234
49	0xbc69c64f	-0.014268472
50	0x3a9ef0c5	0.0012126198
51	0xbba681fa	-0.0050814124
52	0x3ce876bd	0.028376931
53	0xbc859b2b	-0.016309341
54	0xbbe13f88	-0.0068740286
55	0x3c899a74	0.016797282
56	0x3a2719b4	0.00063743745
57	0xbcc9d665	-0.024638364
58	0x3bcd010c	0.0062562283
59	0xbc1e7339	-0.009671026
60	0xbc6cbf62	-0.014449926
61	0xb91e5858	-0.00015100965
62	0x3ba0f586	0.004912081
63	0x3bad783f	0.0052938755
64	0x3c99cd12	0.018774543
65	0xbc2b67b2	-0.010461735
66	0x3c2fdbb2	0.010733532
67	0x3c0b7a86	0.008513099
68	0x3bc48300	0.0059970617
69	0x3cc3dfcb	0.023910424
70	0x3b1bfd2d	0.0023802028
71	0x3bbad4ef	0.005701653
72	0x3ca6c619	0.020358132
73	0xbb187fcb	-0.002326953
74	0xbb055b76	-0.0020348704
75	0x3c15d85e	0.009145824
76	0xbc22da3f	-0.009939729
77	0xbd130e49	-0.035902295
78	0xbca69af7	-0.020337565
79	0xbb9252fe	-0.00446546
80	0x38d15cdf	9.983195e-05
81	0x3ccf447c	0.02530121
82	0x3c74dbf6	0.014945021
83	0x3b603ec2	0.0034217094
84	0x3ca58eed	0.020209754
85	0x3c8d5187	0.01725079
86	0x3c4204fd	0.01184201
87	0x3d021f51	0.031768147
88	0x3b083ff2	0.0020790068
89	0x3b8da5be	0.0043227365
90	0x3ce5d1a2	0.028054062
91	0xbc8c8b22	-0.017156187
92	0x3a15ea35	0.00057187985
93	0x3cca929c	0.024728112
94	0xbc1ef8eb	-0.009702901
95	0x3ca6463e	0.020297166
96	0x3b84acec	0.004048934
97	0x3c22feb3	0.00994842
98	0xbc05ed93	-0.008174318
99	0x3cd0c53a	0.02548467
100	0xbc2aeb29	-0.010432043
101	0x3bb75c7f	0.005595743
102	0x3bad0045	0.005279573
103	0xbc01a2eb	-0.007912378
104	0x3c8dffe5	0.017333934
105	0xbc948eeb	-0.018134555
106	0xbbc79b33	-0.0060914992
107	0x3c87adec	0.016562425
108	0x3bd790f0	0.006578557
109	0x3c69c011	0.014266984
110	0x3c82a983	0.01594997
111	0xbbec24ab	-0.0072065196
112	0xbc99b9b4	-0.018765308
113	0x3b8e2a8c	0.004338568
114	0x3beac484	0.00716454
115	0x3b7818f2	0.0037856665
116	0x3c20c78c	0.009813201
117	0x3c297e5c	0.010345068
118	0xbb56465e	-0.003269575
119	0x3cb90c8e	0.022588994
120	0xbcb9562d	-0.0226241
121	0x3cbe7b15	0.02325205
122	0xbb2b8bc9	-0.0026175848
123	0xbc81af28	-0.015830591
124	0x3cba7ae9	0.022763686
125	0x3c863afa	0.016385544
126	0xbc634964	-0.013872478
127	0x3b991d40	0.0046726763

encoder.1.weight f4 [128]
0	0xbce37344	-0.027764924
1	0x3ded096d	0.115740635
2	0xbd14ec49	-0.03635815
3	0xbc08d837	-0.008352331
4	0xbcf179ce	-0.029477026
5	0xbdf03b49	-0.11730058
6	0xbc9ed372	-0.019387934
7	0x39db449c	0.00041822053
8	0xbc7a8579	-0.015290611
9	0x3c08534f	0.008320644
10	0x3d3f9f0c	0.04678254
11	0xbcde2829	-0.02711876
12	0x3dc380ad	0.09546027
13	0x385e0b2c	5.293933e-05
14	0xbce6ff26	-0.028197836
15	0xbcfb3c14	-0.030668296
16	0x3d130991	0.035897795
17	0xbce5df75	-0.028060654
18	0xbcc8a3b9	-0.024492132
19	0xb8b1ae45	-8.472478e-05
20	0xb9bfb794	-0.00036567135
21	0xbdea78c0	-0.114488125
22	0xbcb43e9e	-0.022002514
23	0x37c41200	2.3373403e-05
24	0xbc27500e	-0.010211958
25	0xbce45730	-0.027873605
26	0x3db0e843	0.086380504
27	0x3db06933	0.08613815
28	0x3d8931d2	0.066989556
29	0x3bc20cbc	0.005921928
30	0xb897766f	-7.222301e-05
31	0xbc315a04	-0.010824684
32	0x3da9f69d	0.08298991
33	0x3ba2ec09	0.0049719852
34	0xb9492daa	-0.00019185865
35	0x3c47bc0a	0.012190828
36	0xbc617d6a	-0.013762811
37	0x3e236216	0.15955386
38	0x39cd8712	0.00039201282
39	0x38357d34	4.3270367e-05
40	0x3c299a68	0.010351755
41	0x3d942ac0	0.072347164
42	0x3dc51b44	0.09624341
43	0x3db31195	0.08743588
44	0xbd0147f8	-0.031562775
45	0x3a22ab99	0.00062053796
46	0xbd8ee4a7	-0.06977206
47	0xbdc0ab5a	-0.09407683
48	0x3c20d2ee	0.009815915
49	0xbcda00ac	-0.026611648
50	0xb7f508de	-2.9210405e-05
51	0x3d9272c0	0.07150793
52	0xbc5881ba	-0.013214523
53	0xbcd78740	-0.02630961
54	0x3d92ca70	0.07167518
55	0x395a7de0	0.00020836992
56	0x3d51c6ab	0.051214855
57	0xbcf89e1b	-0.030348828
58	0x381a99ca	3.685969e-05
59	0x3bc861ef	0.00611519
60	0x3c6f2acb	0.014597605
61	0x37077e29	8.076001e-06
62	0xbbd81621	-0.006594435
63	0xb9cd1841	-0.00039118718
64	0xbc190c60	-0.009341329
65	0x3c3c3984	0.011488322
66	0x3da44eda	0.08022852
67	0x3ce78fdd	0.028266842
68	0xbdedd7b7	-0.1161341
69	0xbd318366	-0.043338202
70	0xbba56891	-0.0050478657
71	0x3d0beb41	0.034159902
72	0x388016af	6.107741e-05
73	0xbc2340d5	-0.009964188
74	0x3c23c960	0.009996742
75	0x3d9fa415	0.07794968
76	0x3d60004f	0.054687794
77	0xbd13275e	-0.035926215
78	0x3d80528b	0.06265744
79	0xbcd0adbb	-0.025473466
80	0x3bd0b59c	0.006369306
81	0xb92fbb15	-0.00016758994
82	0x3a62c0be	0.00086499366
83	0x3a84f419	0.0010143548
84	0xb9873700	-0.00025790185
85	0x3b5533aa	0.0032532015
86	0xbd67a84a	-0.056556977
87	0xbcb51d8f	-0.022108821
88	0x385b697e	5.2311916e-05
89	0xbbe4c498	-0.0069814436
90	0xbc5bc238	-0.013413005
91	0xbcca216b	-0.024674138
92	0xb8c742b8	-9.501487e-05
93	0xbcf18f2f	-0.02948722
94	0x3d9fb77b	0.07798668
95	0xb8b8ad44	-8.806077e-05
96	0x37b46ff3	2.1509803e-05
97	0x3c33f081	0.010982634
98	0xbce5e23a	-0.028061975
99	0xb94976d9	-0.00019213128
100	0x3c30e12d	0.010795874
101	0xbdb50ffb	-0.08840939
102	0xbd9cd0cf	-0.076570146
103	0x3c16d9ef	0.009207233
104	0xb988b692	-0.00026075967
105	0x3d9ab6e3	0.07554414
106	0xbd0f5058	-0.03498873
107	0x3cc7dec7	0.02439822
108	0x3d10d503	0.035359394
109	0xbdc80348	-0.09766251
110	0x3ce1ee03	0.027579313
111	0xbcd5f704	-0.026118763
112	0x3c875f09	0.016524808
113	0x39edd4b0	0.00045362627
114	0x3b82b96e	0.00398939
115	0x382fc87d	4.190997e-05
116	0xb7d49fac	-2.5346722e-05
117	0x3841f187	4.6239726e-05
118	0x3e021a0d	0.1270525
119	0xbc896bf0	-0.016775101
120	0x3d0927b9	0.033485148
121	0x3880d773	6.143646e-05
122	0xb98d3d2d	-0.00026939195
123	0xbcd4454a	-0.025911946
124	0xbd784e4c	-0.060621545
125	0x360e76ed	2.1228873e-06
126	0xbcb28bfc	-0.021795265
127	0x3a1635df	0.00057300733

encoder.1.bias f4 [128]
0	0xbd0ab5e2	-0.033864863
1	0x3cb5059b	0.0220974
2	0x3c3c5e4b	0.011497091
3	0x3ac3bcd0	0.001493359
4	0xbcc67b05	-0.024228582
5	0x3b85d576	0.0040842844
6	0xbbd19d96	-0.0063969595
7	0xbaf03543	-0.001832642
8	0x3b4f9ca8	0.0031679068
9	0xba9762d0	-0.0011549834
10	0xbd9f4e82	-0.07778646
11	0xbcaba399	-0.020952033
12	0x3c387042	0.011257233
13	0xba469117	-0.00075747207
14	0xbc8686b2	-0.01642165
15	0xbcd4b274	-0.025964
16	0xbd0be43c	-0.034153208
17	0xbcbf1eba	-0.023330081
18	0xbcd4308c	-0.025902055
19	0xba80edff	-0.0009836553
20	0xba3aaf92	-0.0007121499
21	0x3b7d7419	0.0038673936
22	0xb9af973e	-0.00033491285
23	0xb98bf1a6	-0.00026692188
24	0x3c2e946b	0.010655503
25	0xbd17792d	-0.036980797
26	0x3ba10bbc	0.004914729
27	0xbc2842ad	-0.010269803
28	0x3c1fec91	0.009760992
29	0x3aaa8ce0	0.0013011955
30	0xb9cc5d6d	-0.0003897952
31	0xb99314ec	-0.00028053613
32	0x3adb44cd	0.0016728878
33	0x3baeab0f	0.0053304504
34	0xb9fa42e8	-0.00047733565
35	0xbc269cf6	-0.010169258
36	0x3bb4f262	0.0055220583
37	0x3b83ede2	0.0040261606
38	0xba3f2d0e	-0.00072927854
39	0xb89f9082	-7.6086275e-05
40	0x3a321c2d	0.00067943597
41	0x3c4b1132	0.012394236
42	0x3b33ff0f	0.002746526
43	0x3a83c632	0.0010053574
44	0xbd196621	-0.037450913
45	0xb986c29a	-0.0002570346
46	0x3c3e4bd2	0.011614757
47	0x3ca0fd51	0.01965204
48	0x3bfabe93	0.0076521127
49	0xbcd7924a	-0.026314873
50	0xb78f04b4	-1.7049118e-05
51	0x3c57df72	0.013175832
52	0xbc09512d	-0.00838117
53	0xbca69f8f	-0.020339755
54	0xbc600231	-0.0136723975
55	0xba41b0c2	-0.00073887047
56	0xbdccf18a	-0.100070074
57	0xbcd7d9e2	-0.026349012
58	0xb961f526	-0.00021548997
59	0x3c7ba867	0.0153599745
60	0xbc103ca0	-0.008803517
61	0xb99b09f9	-0.00029571334
62	0x3c34a88e	0.011026515
63	0xba6f716d	-0.0009134028
64	0xba9ef1a0	-0.0012126453
65	0xbc5d0388	-0.013489611
66	0xbc2bc7a4	-0.01048461
67	0xbcbc54f6	-0.022989731
68	0x3b5a9ef8	0.0033358913
69	0x3b68c3e4	0.003551715
70	0x3b4da98e	0.003138158
71	0xbcca9b52	-0.024732266
72	0xb948d362	-0.00019152233
73	0x3c263291	0.010143892
74	0xbb1429c9	-0.0022607914
75	0x3c8cb46c	0.017175876
76	0x3ad3a5b2	0.0016147404
77	0xbceba884	-0.028766878
78	0x3d08ff4b	0.03344659
79	0xbcfde9c2	-0.030995253
80	0xbbc150b2	-0.005899512
81	0xb99e8efd	-0.00030242643
82	0xba4ba25f	-0.00077680306
83	0xbb6e5b2e	-0.0036370265
84	0xba3912cb	-0.00070599903
85	0x3bf38116	0.0074311597
86	0x3c514425	0.012772595
87	0xbbb816ad	-0.0056179375
88	0xb98724f1	-0.0002577673
89	0x3af67ec5	0.0018806091
90	0xbb43b9a3	-0.0029865287
91	0xbc2911aa	-0.010319153
92	0xb9d52749	-0.00040655796
93	0x3bceea66	0.0063145636
94	0x39e8aad4	0.00044377765
95	0xb9dcaa0e	-0.0004208837
96	0xba458223	-0.00075343455
97	0x3b3961af	0.0028286984
98	0xbd0d1c44	-0.034450784
99	0xba21fc1f	-0.00061792316
100	0xbb981df2	-0.0046422416
101	0x3c2425dd	0.010018793
102	0x3c117cb9	0.008879834
103	0xbb98733b	-0.0046524084
104	0xbab962fa	-0.0014143877
105	0x3d3074e1	0.043080214
106	0xbc11f8dd	-0.008909431
107	0xbd265aed	-0.040614057
108	0xbd64ed9d	-0.05589067
109	0x3c9a8a22	0.018864695
110	0xbd09d78e	-0.033652835
111	0xbcf80678	-0.030276522
112	0xbb40ae05	-0.0029400599
113	0xba2d1c6f	-0.0006603663
114	0x3b6edd65	0.003644788
115	0xb8d6ed0b	-0.00010248468
116	0xb970a230	-0.00022948603
117	0xba994a17	-0.0011695054
118	0x3c3c514c	0.011493992
119	0xbb446199	-0.00299654
120	0x3cf7e710	0.030261546
121	0xb9a455ec	-0.00031344534
122	0xb9f94480	-0.00047544017
123	0xbcf7d5f1	-0.030253382
124	0x3c990d95	0.018683234
125	0xb7cc329e	-2.4342266e-05
126	0xbc32b086	-0.010906344
127	0xba450cef	-0.0007516881

encoder.4.weight f4 [64, 128]
0	0x3a1869d5	0.000581411
1	0x3b9c3674	0.0047672335
2	0x3b54f047	0.003249185
3	0xba2690bf	-0.00063539663
4	0xbab68aae	-0.0013926828
5	0x3bf8bc37	0.0075907963
6	0x3b5ad48d	0.003339085
7	0x37b7bab9	2.190225e-05
8	0xbae3fc94	-0.0017394
9	0xbaed8d81	-0.0018123836
10	0x3b2b5088	0.002614053
11	0xb963b5bf	-0.00021716113
12	0x3ba02698	0.0048874132
13	0x39304e7f	0.0001681391
14	0x3a343080	0.0006873682
15	0x3a87eacb	0.0010369656
16	0x3a684b9f	0.0008861366
17	0xba86976f	-0.0010268519
18	0x3a1bbef6	0.0005941236
19	0x390b7a79	0.00013301698
20	0x398e83c1	0.00027182515
21	0x3c16daa5	0.009207402
22	0x38930162	7.009764e-05
23	0xb7b4711b	-2.1510341e-05
24	0x3bea8312	0.007156738
25	0xbb09e376	-0.0021040118
26	0x3c455f80	0.012046695
27	0x3bd68849	0.006547008
28	0x3bb12d96	0.0054070456
29	0xbb0e5dd2	-0.0021723402
30	0x3988c87e	0.0002608932
31	0xbb017d9b	-0.0019758705
32	0x3c36a45a	0.011147583
33	0x3b48dc64	0.0030648941
34	0xb87daee8	-6.0482795e-05
35	0x3a4f2cd7	0.0007903105
36	0x3b799706	0.0038084402
37	0x3c7de5fc	0.015496727
38	0x3857386e	5.131255e-05
39	0x375b8945	1.3085378e-05
40	0x3b4b7931	0.0031047578
41	0x3bb4f7e7	0.0055227163
42	0x3c499ea0	0.012305886
43	0x3c0a65de	0.008447139
44	0xbb31c229	-0.0027123785
45	0xb9500158	-0.00019836926
46	0x3a8ae0be	0.0010595543
47	0x3c899ab9	0.01679741
48	0x3bad697a	0.005292115
49	0xba9bb686	-0.0011879958
50	0x37b9b75b	2.21391e-05
51	0x3bf237ff	0.007391929
52	0xbaa95d50	-0.0012921486
53	0xba064999	-0.0005122661
54	0x3c16ddd0	0.009208158
55	0x398ef96b	0.0002727018
56	0x3c13a085	0.009010439
57	0x3a904107	0.0011005708
58	0x38fefd82	0.00012158883
59	0x3b5515d4	0.0032514231
60	0xb9928b64	-0.00027951144
61	0xb8ab5f76	-8.1716964e-05
62	0x3b36f014	0.0027914094
63	0xb987d5ff	-0.00025908646
64	0xbb17c7df	-0.0023159904
65	0xbab6959b	-0.0013930084
66	0x3c09cb6a	0.008410314
67	0x39b0c459	0.00033715626
68	0x3bb884b8	0.0056310557
69	0x3b446208	0.0029965658
70	0xb93ddee4	-0.00018107478
71	0x3a21327a	0.0006149184
72	0x38e01470	0.00010684959
73	0x3bd39b63	0.0064577325
74	0xbaa55882	-0.0012614878
75	0x3bd31a98	0.006442379
76	0x3a138b80	0.0005628392
77	0x3b6e1571	0.0036328698
78	0x3a97a86e	0.0011570582
79	0x3b277d65	0.0025556919
80	0xba95443a	-0.0011388131
81	0xb8563d20	-5.1078503e-05
82	0xb95fbd38	-0.00021337427
83	0x3a8b7088	0.0010638395
84	0xb99a87bc	-0.000294743
85	0x3a26dec3	0.00063655915
86	0x3af5d025	0.0018754049
87	0x3b55506e	0.003254916
88	0xb8c73c58	-9.500299e-05
89	0xb8982135	-7.25411e-05
90	0xb903adcc	-0.00012557878
91	0x3b1a7cf3	0.002357301
92	0x39018ed4	0.00012355606
93	0x39d8d728	0.00041359034
94	0xb91e9022	-0.00015121748
95	0xb9143696	-0.00014134715
96	0xb836f61c	-4.362139e-05
97	0x3aba80a1	0.0014229008
98	0xbb73871b	-0.0037159387
99	0x37f9142a	2.9692503e-05
100	0xbb0383a8	-0.0020067487
101	0x3b76f80f	0.0037684476
102	0x3b3d7563	0.002890908
103	0xbb6e8298	-0.0036393758
104	0x394a774d	0.00019308664
105	0x3c889c19	0.016675996
106	0xba8c32c2	-0.0010696279
107	0x3b34d67a	0.0027593658
108	0x3ac2e2ca	0.0014868614
109	0x3c6f4854	0.014604647
110	0xba54b88e	-0.0008114659
111	0x3a0f36b1	0.0005463167
112	0xbb0ad8a9	-0.0021186268
113	0x3961e358	0.00021542364
114	0xbaa0c90c	-0.0012266948
115	0xb91c3dce	-0.00014900343
116	0x39444485	0.00018717542
117	0x39175f01	0.00014435874
118	0x3c0aed64	0.00847945
119	0xba626dd9	-0.00086375844
120	0xba03b68e	-0.0005024456
121	0xb79a2c8c	-1.8378974e-05
122	0xb85afeb9	-5.221248e-05
123	0xbb3fd7a6	-0.0029272824
124	0x3c1c2cf7	0.009532205
125	0xb7834179	-1.5646905e-05
126	0xba0be0e1	-0.0005335939
127	0x3876a876	5.8807862e-05
128	0x3a5b0da1	0.0008356218
129	0x3b4bf94f	0.0031123941
130	0x3b896268	0.004192639
131	0xbb01fc20	-0.0019834116
132	0xbaf6c602	-0.0018827321
133	0x3bdc68d5	0.006726364
134	0x3b865944	0.0040999968
135	0x39154f9b	0.00014239403
136	0xbb4b678f	-0.0031037068
137	0xbb236add	-0.0024935522
138	0x3b336cbe	0.0027378048
139	0xba3f9aae	-0.0007309121
140	0x3b82fe51	0.003997602
141	0x394185a1	0.00018455695
142	0x3a9366ac	0.0011245809
143	0x3a0cb046	0.0005366843
144	0x3a6c6852	0.00090182305
145	0xba93aa7d	-0.001126602
146	0x3a91c1eb	0.0011120414
147	0x39162631	0.00014319342
148	0x39a1dc16	0.0003087229
149	0x3bf69220	0.0075247437
150	0xba3a24b7	-0.0007100808
151	0xb75d3bc1	-1.3186539e-05
152	0x3b9115d1	0.0044276495
153	0xbaf23a39	-0.0018480486
154	0x3c24e1b4	0.010063577
155	0x3bba8757	0.0056924033
156	0x3b6f6038	0.0036525857
157	0xbb66582b	-0.0035147767
158	0x3988fa07	0.00026126226
159	0xbb2d3098	-0.002642667
160	0x3c1600f4	0.009155501
161	0x3acdb707	0.0015694805
162	0xb868161f	-5.5333712e-05
163	0x3ab36c0d	0.0013688818
164	0x3b09f4e6	0.0021050512
165	0x3c455a01	0.012045384
166	0x38631039	5.4136126e-05
167	0x374dbc63	1.2262814e-05
168	0x3ab28fec	0.0013623214
169	0x3b7d8080	0.0038681328
170	0x3c2a25fa	0.010385031
171	0x3bf74a30	0.0075466856
172	0xbb328f10	-0.0027245916
173	0xb9400906	-0.00018313908
174	0xba353674	-0.0006912716
175	0x3c706fba	0.014675075
176	0x3b2cc02e	0.0026359665
177	0xbab45dba	-0.0013760843
178	0x37b56f28	2.1628643e-05
179	0x3bb70b8d	0.0055860938
180	0xbaa5ea72	-0.0012658371
181	0xba5e5b42	-0.00084822264
182	0x3be756cd	0.007059908
183	0x395ec21a	0.00021243878
184	0x3c175195	0.009235759
185	0x39a88e1c	0.00032149337
186	0x3906a2f0	0.00012839935
187	0xba0f0f86	-0.000545733
188	0x39b8f5f4	0.00035278464
189	0xb8a785bf	-7.988093e-05
190	0x3937833e	0.00017501132
191	0xb9884322	-0.0002598996
192	0xbb5e7153	-0.0033942058
193	0xbaa0aae2	-0.0012257958
194	0x3bfd78a2	0.007735328
195	0xb9f94b81	-0.00047549236
196	0x3b9cf6d3	0.004790166
197	0x3b8c958f	0.0042902897
198	0xba8dd885	-0.0010821974
199	0xba133787	-0.0005615879
200	0x38e49001	0.0001089871
201	0x3b7a5473	0.0038197308
202	0xbad3be73	-0.0016154781
203	0x3bb1bdf6	0.0054242564
204	0xba3a3f79	-0.0007104795
205	0x3b3ade46	0.0028513833
206	0xb939c88c	-0.00017717684
207	0x3b23d012	0.0024995846
208	0xba842769	-0.0010082546
209	0xb83b2b85	-4.4624805e-05
210	0xb9531c3f	-0.0002013305
211	0x3a883837	0.001039273
212	0xb9959799	-0.00028532444
213	0xbaa28cf7	-0.001240163
214	0x3aa32d64	0.001244944
215	0x3b864981	0.004098118
216	0xb8a18fe7	-7.703882e-05
217	0xbaba1e3b	-0.0014199683
218	0x39810327	0.00024607146
219	0x3abd8a6d	0.001446081
220	0x38ebe023	0.00011247422
221	0xb99a2ced	-0.0002940664
222	0xbb18d859	-0.0023322313
223	0xb911d003	-0.00013905768
224	0xb811a2e0	-3.4722383e-05
225	0x3952b55f	0.00020094727
226	0xbb671828	-0.00352622
227	0x38181fb9	3.6269168e-05
228	0xbb0c3ac6	-0.0021397336
229	0x3b43badc	0.0029866016
230	0x3b0e7c50	0.0021741576
231	0xbb8172b0	-0.0039504394
232	0x396770d6	0.00022071911
233	0x3c8b34b4	0.016992904
234	0xba9863e2	-0.0011626447
235	0x3b51723c	0.0031958958
236	0x3b06519f	0.0020495427
237	0x3c46a531	0.012124346
238	0xb9c8e424	-0.0003831695
239	0x3a82747b	0.0009952927
240	0xbaf5c575	-0.0018750863
241	0x395dfff3	0.00021171551
242	0xbb2534db	-0.0025208506
243	0xb920ad23	-0.00015323288
244	0x3949c376	0.00019241669
245	0x390b6810	0.0001329484
246	0x3be7f581	0.007078827
247	0xba6f64b1	-0.00091321307
248	0xbad9434e	-0.0016575844
249	0xb7584f71	-1.28931e-05
250	0xb865bf0e	-5.4775788e-05
251	0xbb4da94e	-0.003138143
252	0x3c08f105	0.008358245
253	0xb77f1fec	-1.5206617e-05
254	0x393bc143	0.00017905705
255	0x386e89a0	5.6871795e-05

encoder.4.bias f4 [64]
0	0x3c07a7be	0.008279739
1	0x3c244178	0.010025375
2	0x3c143a10	0.009047046
3	0x3bff4e3d	0.007791309
4	0x3c130223	0.008972677
5	0x3c0e5176	0.008686414
6	0x3c1334fc	0.0089848
7	0x3b9e2047	0.004825625
8	0x3c2c23a9	0.010506549
9	0x3c835860	0.016033351
10	0x3bd7a79a	0.006581259
11	0x3c20d254	0.009815771
12	0x3c252ad7	0.010081015
13	0x3c0e5675	0.008687605
14	0x3c15f1df	0.009151905
15	0x3c0e89df	0.008699863
16	0x3c17c92c	0.009264272
17	0x3bd4f4b9	0.0064989
18	0x3c02fd9d	0.007995036
19	0x3c023155	0.007946332
20	0x3c04dcec	0.0081093125
21	0x3c1a3ba5	0.009413634
22	0x3c20e2a0	0.009819657
23	0x3c0d6a44	0.008631293
24	0x3c326c0e	0.01089002
25	0x3c038927	0.008028305
26	0x3c4d590f	0.01253344
27	0x3bf2e5fe	0.007412671
28	0x3c072a39	0.008249813
29	0x3c000fe1	0.007816286
30	0x3bc3d3d0	0.0059761778
31	0x3c0f89c1	0.00876087
32	0x3c196a68	0.009363748
33	0x3c04b97e	0.008100865
34	0x3bcfb888	0.0063391365
35	0x3c2d55d4	0.010579545
36	0x3c11deb5	0.008903195
37	0x3c4605a1	0.012086303
38	0x3c43b885	0.011945848
39	0x3bd3a3a9	0.006458719
40	0x3c01d1d0	0.007923558
41	0x3c13c342	0.009018721
42	0x3c765f95	0.015037437
43	0x3c53fd41	0.012938798
44	0x3c023716	0.007947704
45	0x3c20a317	0.009804509
46	0x3c0772c6	0.00826711
47	0x3b3d54d5	0.0028889675
48	0x3c25d355	0.010121186
49	0xbbee05b5	-0.007263864
50	0x3c031889	0.008001455
51	0x3bca325b	0.0061705536
52	0x3c431c6b	0.011908631
53	0x3c071e4c	0.008246969
54	0x3c1c69ec	0.009546738
55	0x3c84a713	0.016192948
56	0x3c0f834f	0.008759334
57	0x3c4c549c	0.012471344
58	0x3c37357c	0.011182185
59	0x3c06f88f	0.008237972
60	0x3c59b550	0.013287857
61	0x3c18740a	0.00930501
62	0x3ca84cad	0.020544374
63	0x3bafaa12	0.00536085

encoder.5.weight f4 [64]
0	0xb896b6b6	-7.18659e-05
1	0xb72a8a4a	-1.01649875e-05
2	0x3db31e7b	0.08746048
3	0x3daa62f4	0.08319655
4	0x3da172c4	0.07883218
5	0x3d4269fe	0.047464363
6	0x3725332f	9.8466835e-06
7	0x3d3fb69d	0.046805013
8	0x390d2503	0.00013460596
9	0xbcb33a17	-0.021878285
10	0x3d929ab9	0.07158417
11	0x3dce3bad	0.10069976
12	0xba151dcb	-0.00056883384
13	0xbd87e85c	-0.06636116
14	0x3dda0888	0.106461585
15	0x3db997af	0.090621345
16	0xbdaf2c03	-0.085533164
17	0x3d3ad872	0.045616575
18	0x3daf9269	0.085728474
19	0xbd819936	-0.06328051
20	0x3d0b996d	0.034081865
21	0xb3a87423	-7.844235e-08
22	0x3d8afd46	0.06786589
23	0x3dc7a327	0.09747916
24	0xb70a6de5	-8.251028e-06
25	0x3da261bc	0.079287976
26	0xb72db4fa	-1.035374e-05
27	0xbd1c937a	-0.038226582
28	0x3dc6eb36	0.09712832
29	0x3dfafb76	0.122549936
30	0x3d2e714a	0.04258851
31	0x3db2fc27	0.087395005
32	0x3da3932b	0.079870544
33	0x3e05453d	0.13014694
34	0xbd173784	-0.03691818
35	0xb73668e6	-1.0872469e-05
36	0x3d81bfb7	0.06335395
37	0xbcb0730b	-0.021539232
38	0xb7be49aa	-2.2684068e-05
39	0x3d9dfd1b	0.07714292
40	0x3de10c59	0.10988683
41	0x3daa6ee4	0.08321932
42	0xbd043ab7	-0.032282557
43	0x37dcd32e	2.6324382e-05
44	0x3d663d7c	0.05621098
45	0x3daf79d8	0.08568162
46	0x3d866153	0.06561532
47	0x3d9e3fdd	0.07727025
48	0x3db09b21	0.086233385
49	0x3d0f16a8	0.034933716
50	0x3dba0654	0.09083238
51	0x3d864cfc	0.06557652
52	0x37fe5f01	3.03234e-05
53	0x3d871073	0.06594934
54	0x392990b7	0.00016171006
55	0xbca79267	-0.020455552
56	0x3db52ac7	0.0884605
57	0x38d50d1c	0.00010159073
58	0x371e7a89	9.446064e-06
59	0x3dc2f6d8	0.09519738
60	0xb6b4b060	-5.384951e-06
61	0xbdad3422	-0.08457209
62	0xbcd1aa45	-0.025593886
63	0xbd086c7c	-0.033306584

encoder.5.bias f4 [64]
0	0xb9120847	-0.00013926729
1	0x34a81bf4	3.1312777e-07
2	0x3a3597ab	0.00069272023
3	0x3ca69856	0.020336311
4	0xba7b5dd5	-0.0009588872
5	0x3ae50c54	0.0017474988
6	0xb814bff6	-3.5464727e-05
7	0x3ca72386	0.020402681
8	0xb89ce300	-7.480942e-05
9	0x3cbaf01b	0.02281957
10	0x3cb224ca	0.021746058
11	0xbc7e4a9b	-0.015520717
12	0xb9ffdd60	-0.00048802327
13	0xbb07f392	-0.0020744544
14	0x3baa23f9	0.0051922766
15	0x3bd88763	0.006607936
16	0x3b02217b	0.0019856382
17	0x3bea1a87	0.0071442756
18	0x3c1b6a7f	0.00948584
19	0xbc1507dc	-0.009096112
20	0x3b00cc32	0.001965296
21	0xb4c0430a	-3.5811564e-07
22	0xbc792413	-0.015206355
23	0x3bea266a	0.0071456926
24	0x36363c5a	2.7155243e-06
25	0x3c847b38	0.016172037
26	0xb30b8e00	-3.2492608e-08
27	0xbb91e394	-0.0044521783
28	0x3c9896b9	0.018626558
29	0x3b843f78	0.0040358864
30	0x3c224307	0.009903676
31	0x3bdf7b11	0.0068200906
32	0xbb98e1f0	-0.0046656057
33	0x3bfc16db	0.0076931543
34	0xbaa1621c	-0.0012312564
35	0x3403af88	1.2264184e-07
36	0xbb036d1d	-0.002005405
37	0x3c6b2d0f	0.0143540045
38	0xb8212b76	-3.8425867e-05
39	0x3c887055	0.016655127
40	0x3ce56664	0.028002925
41	0x3a20431a	0.00061135145
42	0x3d215f1f	0.039397355
43	0xb8aa0227	-8.1066326e-05
44	0x3c02f6c3	0.007993403
45	0xbc82e8bf	-0.015980123
46	0x3bf101bc	0.007354943
47	0x3dbac346	0.09119277
48	0xbcbe0c98	-0.023199365
49	0x3d98f9f6	0.07469551
50	0x3ca67373	0.020318722
51	0x3c65803f	0.014007627
52	0xb7cfbb5c	-2.4763569e-05
53	0x3b8d26fc	0.004307626
54	0xb9bbec44	-0.0003584345
55	0x3ca77c67	0.020445062
56	0x3bb3d650	0.0054881945
57	0xb8b5b407	-8.664285e-05
58	0xb8953793	-7.115225e-05
59	0x38e4350c	0.00010881768
60	0xb7e584cf	-2.7360771e-05
61	0x3a5e7e38	0.0008487436
62	0x3d3b93e8	0.04579535
63	0xbba8e2e5	-0.005154001

encoder.8.weight f4 [32, 64]
0	0xb7e9c796	-2.7868704e-05
1	0x355aed1a	8.1556357e-07
2	0xba3b94ab	-0.0007155637
3	0xb9a7f4ee	-0.0003203521
4	0xbb2f7362	-0.0026771654
5	0x3ba9c49f	0.0051809098
6	0x3884058b	6.295283e-05
7	0x3b08020f	0.002075318
8	0x36d06c80	6.211514e-06
9	0x3a634402	0.0008669497
10	0x3bbbac74	0.005727345
11	0xbb59c262	-0.0033227433
12	0xb95ff834	-0.000213594
13	0xbc416b1d	-0.011805323
14	0x3b88aa9f	0.0041707302
15	0xbb1d8529	-0.0024035668
16	0xbad07fac	-0.001590719
17	0xba14f35b	-0.0005682015
18	0xbb46f230	-0.0030356757
19	0xbb89a7a6	-0.0042008935
20	0x385cb429	5.2619875e-05
21	0x343e5df9	1.7729316e-07
22	0xbb159271	-0.0022822882
23	0xbb8f6c92	-0.0043769563
24	0x3667b257	3.452549e-06
25	0xb8e1517d	-0.000107440144
26	0xb7d12e30	-2.493625e-05
27	0xbc16bac6	-0.009199804
28	0xbb8e6e9d	-0.004346682
29	0x3bfe1e8e	0.0077551072
30	0x3a4a7670	0.0007723337
31	0xba16f1ea	-0.0005758094
32	0x3bdf611a	0.0068169953
33	0x3c097020	0.008388549
34	0xbb0f9cb5	-0.0021913473
35	0x3643fa1b	2.9202845e-06
36	0xbae2d260	-0.0017305128
37	0xbb2fe10f	-0.0026837026
38	0x37b0adc1	2.1061745e-05
39	0xbb779383	-0.0037777133
40	0xbba3ce0d	-0.0049989284
41	0xbb29dc61	-0.002591871
42	0xbb559976	-0.003259269
43	0xb74ceff7	-1.2215219e-05
44	0x3b9915af	0.0046717743
45	0xb9c32501	-0.00037220868
46	0xbbd500d1	-0.0065003415
47	0x3b2d9b30	0.0026490204
48	0x39ef133a	0.00045599957
49	0x3b2be29a	0.0026227594
50	0xbaef245f	-0.0018245092
51	0xbb8949d5	-0.0041897097
52	0xb682970b	-3.8918856e-06
53	0x3ba49dfb	0.0050237156
54	0xb88935cb	-6.542689e-05
55	0x3b09df39	0.0021037592
56	0xb917f281	-0.00014490822
57	0x34be5780	3.5453922e-07
58	0x36abe4d3	5.122836e-06
59	0xbb3f5fe3	-0.002920144
60	0xb51bf2c8	-5.8095293e-07
61	0xbaa205e5	-0.0012361376
62	0x3b0609aa	0.0020452538
63	0xbac9be9d	-0.001539189
64	0xb7ea939d	-2.7963712e-05
65	0x355968b4	8.099116e-07
66	0xba3bae66	-0.0007159471
67	0xb9a92fe5	-0.00032269876
68	0xbb2f313d	-0.002673223
69	0x3babba27	0.005240697
70	0x3884138b	6.297891e-05
71	0x3b05d457	0.0020420754
72	0x36cf6ded	6.181878e-06
73	0x3a60cf86	0.0008575845
74	0x3bbaaa1b	0.0056965477
75	0xbb5913f2	-0.003312346
76	0xb962c0bc	-0.00021624839
77	0xbc41b58b	-0.011823068
78	0x3b884d56	0.00415961
79	0xbb1d95bf	-0.0024045554
80	0xbad20297	-0.00160225
81	0xba1ed02e	-0.0006058243
82	0xbb42cf56	-0.0029725633
83	0xbb888689	-0.0041664285
84	0xb6360be0	-2.7127026e-06
85	0x343feba9	1.7873994e-07
86	0xbb0fdfc7	-0.002195345
87	0xbb903ebd	-0.0044020102
88	0x36666fb3	3.4337688e-06
89	0xb8c1a3e9	-9.233488e-05
90	0xb7d306ee	-2.5156387e-05
91	0xbc160a8e	-0.00915779
92	0xbb8dba89	-0.0043252152
93	0x3bfcbb64	0.0077127684
94	0x3a4997df	0.0007690172
95	0xba148cc8	-0.000566673
96	0x3bdf9ef3	0.006824368
97	0x3c08ea4b	0.008356641
98	0xbb084d18	-0.0020797905
99	0x3640f16b	2.8750753e-06
100	0xbae12751	-0.0017177855
101	0xbb29ce84	-0.0025910446
102	0x37afed16	2.0972027e-05
103	0xbb77a028	-0.003778467
104	0xbba37026	-0.0049877344
105	0xbb2978d6	-0.0025859377
106	0xbb5189da	-0.0031973035
107	0xb752866d	-1.2548274e-05
108	0x3b99f099	0.004697871
109	0xb9c7453e	-0.00038007827
110	0xbbd2016f	-0.0064088623
111	0x3b2cc8b5	0.0026364748
112	0x39f6ef4c	0.00047099066
113	0x3b2972d6	0.00258558
114	0xbaef7c9a	-0.0018271387
115	0xbb89cbdc	-0.00420521
116	0xb683089e	-3.9051074e-06
117	0x3ba56752	0.005047717
118	0xb88be638	-6.670918e-05
119	0x3b0955ed	0.0020955757
120	0xb911bdeb	-0.00013899028
121	0x3495a455	2.787298e-07
122	0x369b415b	4.6269683e-06
123	0xbb3c4660	-0.002872847
124	0xb6316106	-2.643153e-06
125	0xbaa3aa58	-0.001248668
126	0x3b0214f4	0.0019848915
127	0xbabb32b3	-0.0014282077
128	0xb7e6bd67	-2.7506334e-05
129	0x35552724	7.940564e-07
130	0xba404866	-0.0007335007
131	0xb9a75d8b	-0.00031922417
132	0xbb31fd5b	-0.0027159068
133	0x3bb80b4f	0.0056165825
134	0x3885730e	6.363365e-05
135	0x3af62c0e	0.001878144
136	0x36cd5ad3	6.1200494e-06
137	0x3a523684	0.0008018988
138	0x3bb4d066	0.005518007
139	0xbb5b34d8	-0.0033448245
140	0xb9716e06	-0.00023024538
141	0xbc45e1ef	-0.012077793
142	0x3b8a71dd	0.0042249993
143	0xbb230d9e	-0.0024879943
144	0xbad8c363	-0.0016537722
145	0xba59d7e5	-0.0008310064
146	0xbb33b191	-0.002741907
147	0xbb82ba90	-0.003989525
148	0xb9d4b2a6	-0.00040568894
149	0x344c87ad	1.9048339e-07
150	0xbb010342	-0.001968578
151	0xbb976f36	-0.0046214117
152	0x365e5604	3.3130646e-06
153	0xb7cb247a	-2.4216472e-05
154	0xb7daf7ae	-2.610296e-05
155	0xbc13e865	-0.009027575
156	0xbb8a95bf	-0.004229277
157	0x3bfb6375	0.0076717683
158	0x3a4b7a74	0.00077620824
159	0xba0710bc	-0.0005152335
160	0x3be2b741	0.006918818
161	0x3c091be9	0.008368471
162	0xbad1dca2	-0.0016011188
163	0x36316f45	2.6439823e-06
164	0xbad8f0b5	-0.0016551228
165	0xbb068486	-0.0020525767
166	0x37b0abae	2.106078e-05
167	0xbb75e770	-0.003752198
168	0xbba18992	-0.0049297297
169	0xbb284538	-0.0025676023
170	0xbb408577	-0.0029376426
171	0xb76d4424	-1.4142166e-05
172	0x3b9fcd1e	0.004876747
173	0xb9d46bdc	-0.00040516153
174	0xbbca37b2	-0.00617119
175	0x3b28f7b8	0.0025782418
176	0x3a0c4ce1	0.0005352032
177	0x3b223709	0.0024752042
178	0xbaee7c4a	-0.0018195
179	0xbb8b18b0	-0.0042448863
180	0xb6844d7b	-3.9429265e-06
181	0x3bac4d6a	0.005258252
182	0xb897d282	-7.239451e-05
183	0x3b0674c3	0.0020516373
184	0xb8d96d6e	-0.00010367749
185	0xb31fd4fe	-3.7213788e-08
186	0x36284a6a	2.5077265e-06
187	0xbb33c999	-0.0027433394
188	0xb76b6f24	-1.40329685e-05
189	0xbaaab468	-0.0013023736
190	0x3ad17efb	0.0015983278
191	0xba7d124a	-0.00096539094
192	0xb7ebf902	-2.8130136e-05
193	0x355d4f95	8.244472e-07
194	0xba398843	-0.00070774945
195	0xb9aa0525	-0.0003242876
196	0xbb2db20b	-0.0026503827
197	0x3ba3b94f	0.0049964557
198	0x38831d7e	6.25206e-05
199	0x3b0f1422	0.0021832068
200	0x36d1a328	6.2476793e-06
201	0x3a6cdca4	0.00090355636
202	0x3bbf51e7	0.005838621
203	0xbb5a2bcd	-0.0033290267
204	0xb956c859	-0.00020483266
205	0xbc3f2bf9	-0.011668199
206	0x3b88a338	0.004169848
207	0xbb1b77e8	-0.0023722593
208	0xbacbd8eb	-0.0015552317
209	0xb9da443a	-0.00041631033
210	0xbb51b268	-0.0031997208
211	0xbb8d655f	-0.004315063
212	0x39a15c73	0.00030777193
213	0x34365add	1.6983127e-07
214	0xbb20562d	-0.0024465427
215	0xbb8bb179	-0.0042630997
216	0x366c80eb	3.524178e-06
217	0xb91efc3a	-0.00015162016
218	0xb7cc296c	-2.4337984e-05
219	0xbc180f96	-0.00928106
220	0xbb912898	-0.004429888
221	0x3bff9abe	0.007800429
222	0x3a4b51d6	0.000775603
223	0xba2061a8	-0.00061180675
224	0x3bde4c91	0.00678403
225	0x3c099e1b	0.008399512
226	0xbb233ef1	-0.0024909342
227	0x364d28c3	3.0571107e-06
228	0xbae64381	-0.0017567725
229	0xbb4582be	-0.0030137743
230	0x37b02bce	2.1001233e-05
231	0xbb794da4	-0.0038040662
232	0xbba5becb	-0.0050581447
233	0xbb2b164a	-0.0026105815
234	0xbb61058c	-0.0034335582
235	0xb73c82e4	-1.1236149e-05
236	0x3b969e42	0.0045965025
237	0xb9b98b92	-0.00035389938
238	0xbbdaf045	-0.0066814744
239	0x3b306690	0.00269166
240	0x39d79c67	0.00041124524
241	0x3b302146	0.0026875301
242	0xbaef7791	-0.0018269886
243	0xbb88a4b7	-0.004170026
244	0xb681db6a	-3.8700427e-06
245	0x3ba13e05	0.0049207234
246	0xb881b2f6	-6.1845334e-05
247	0x3b0bc077	0.0021324435
248	0xb93049b9	-0.00016812132
249	0x350fcf23	5.3573075e-07
250	0x36d791f2	6.4244896e-06
251	0xbb465df6	-0.0030268407
252	0x36dbfa07	6.5558156e-06
253	0xba9d4b55	-0.00120006
254	0x3b15cc1a	0.002285725
255	0xbaef6760	-0.0018265061

encoder.8.bias f4 [32]
0	0x3c3c7a93	0.011503833
1	0x3c2e8a40	0.010653079
2	0x3c0691d4	0.008213479
3	0x3c6215ef	0.013799175
4	0x3cf825b0	0.030291408
5	0xbc95c1f3	-0.018280959
6	0x3c427b29	0.011870184
7	0x3c80f3fd	0.015741343
8	0x3c7e7d90	0.015532866
9	0x3c8b65bd	0.017016286
10	0x3c31b565	0.0108464705
11	0x3c5b73c6	0.013394302
12	0x3bec98a0	0.0072203428
13	0x3c4ed8c4	0.012624923
14	0xbb8c4a5c	-0.0042813253
15	0x3c36ae5d	0.01114997
16	0x3c9f1b54	0.01942221
17	0x3d155205	0.036455173
18	0x3c7c2785	0.015390282
19	0x3cf4d903	0.029888636
20	0xbb8e721c	-0.004347099
21	0xbb11b01a	-0.002223021
22	0x3cc9c504	0.024630077
23	0x3c7715c7	0.015080876
24	0x3c7f8dc1	0.015597762
25	0x3bdaf30e	0.0066818064
26	0xbc5e6b3f	-0.013575374
27	0x3c3d6cf1	0.011561618
28	0x3ce11c09	0.027479189
29	0x3c2de579	0.010613793
30	0x3c5a497d	0.013323185
31	0xbb01bebe	-0.001979753

attention.layers.0.0.in_proj_weight f4 [96, 32]
0	0x8198f584	-5.618828e-38
1	0x032e1328	5.1155995e-37
2	0x02825240	1.9148992e-37
3	0x829cc56d	-2.3035457e-37
4	0x8299da6d	-2.26067e-37
5	0x83172f90	-4.442951e-37
6	0x830dc873	-4.166628e-37
7	0x82811480	-1.8966613e-37
8	0x8246ba1c	-1.4600153e-37
9	0x02a0913b	2.3593245e-37
10	0x80932530	-1.3513158e-38
11	0x8289d685	-2.025347e-37
12	0x0338394d	5.413852e-37
13	0x82c00cd0	-2.8219218e-37
14	0x02afd0fd	2.5833892e-37
15	0x82a12e94	-2.3683558e-37
16	0x81d74dd5	-7.909021e-38
17	0x8218d31f	-1.1227785e-37
18	0x8294d008	-2.186605e-37
19	0x029d25f8	2.309087e-37
20	0x826e5963	-1.7511131e-37
21	0x8287cac6	-1.9952853e-37
22	0x029168f9	2.1366086e-37
23	0x028bf1dc	2.0563035e-37
24	0x0239ae76	1.3641721e-37
25	0x811739ff	-2.777593e-38
26	0x8286cf6d	-1.9808587e-37
27	0x02a85a16	2.4737088e-37
28	0x0294d94c	2.1871368e-37
29	0x827d1a02	-1.8594968e-37
30	0x82970fa1	-2.2196426e-37
31	0x0311dabe	4.2862774e-37
32	0x027950e6	1.8316848e-37
33	0x0251523d	1.5378496e-37
34	0x0290883d	2.1237095e-37
35	0x8283b343	-1.9351611e-37
36	0x02561b6e	1.5730109e-37
37	0x83169f8e	-4.42642e-37
38	0x8289a4c8	-2.022492e-37
39	0x828ddc88	-2.0844667e-37
40	0x0235daee	1.336061e-37
41	0x028eb98c	2.0971523e-37
42	0x0205807e	9.808172e-38
43	0x825f2fb1	-1.6397139e-37
44	0x828d160a	-2.0730738e-37
45	0x022eddf4	1.2847198e-37
46	0x815f2c77	-4.0990533e-38
47	0x029376b6	2.1667845e-37
48	0x828eeb96	-2.1000244e-37
49	0x024166fe	1.4208958e-37
50	0x82336800	-1.318069e-37
51	0x82b9a2e1	-2.7276795e-37
52	0x029ca7d2	2.3018464e-37
53	0x028a0ea5	2.0285683e-37
54	0x0293727f	2.1665426e-37
55	0x822cd634	-1.2698038e-37
56	0x02a3dda7	2.407792e-37
57	0x8253b4a6	-1.5553675e-37
58	0x82a0acab	-2.3608994e-37
59	0x82a4265e	-2.4119656e-37
60	0x029329a8	2.1623618e-37
61	0x028459be	1.9447166e-37
62	0x804cf494	-7.067236e-39
63	0x8282449e	-1.9141168e-37
64	0x829fd28a	-2.3483794e-37
65	0x02456040	1.4500897e-37
66	0x0216f232	1.1089766e-37
67	0x82529766	-1.5471813e-37
68	0x82c7eb63	-2.9375527e-37
69	0x828b00df	-2.0424714e-37
70	0x829c4a24	-2.2964694e-37
71	0x026e5f08	1.7512751e-37
72	0x027e48b9	1.8681843e-37
73	0x0296ac9e	2.2139596e-37
74	0x027215eb	1.7785642e-37
75	0x82d876f6	-3.1806628e-37
76	0x01920a1b	5.364643e-38
77	0x02b3da84	2.6427108e-37
78	0x0322c999	4.7838944e-37
79	0x0262e982	1.6670871e-37
80	0x828a32a8	-2.0306353e-37
81	0x828fd6a7	-2.1135166e-37
82	0x02d02d1d	3.0588747e-37
83	0x02d77955	3.1661052e-37
84	0x004e3bd6	7.184634e-39
85	0x028c70cf	2.06359e-37
86	0x0285c5ec	1.9656195e-37
87	0x029242ae	2.1491044e-37
88	0x828a3595	-2.0308032e-37
89	0x0360ee82	6.6101477e-37
90	0x0296e380	2.2171098e-37
91	0x81bd33ab	-6.9501775e-38
92	0x8023da7c	-3.29262e-39
93	0x028c28d1	2.0594579e-37
94	0x829ef093	-2.3354096e-37
95	0x82901f1d	-2.1176756e-37
96	0x029ad81e	2.2752311e-37
97	0x029ea38b	2.3309882e-37
98	0x826c7265	-1.7371371e-37
99	0x02322ef9	1.3090855e-37
100	0x029805f9	2.233782e-37
101	0x829d25fd	-2.309088e-37
102	0x82910a19	-2.131163e-37
103	0x829356e6	-2.1649586e-37
104	0x82e712e5	-3.3953244e-37
105	0x81d88820	-7.95412e-38
106	0x82996d12	-2.2543933e-37
107	0x02a620cd	2.4410335e-37
108	0x0255bd5a	1.570311e-37
109	0x01a304e4	5.988376e-38
110	0x82810eae	-1.8963272e-37
111	0x829b8826	-2.2853348e-37
112	0x027b0cc6	1.8444233e-37
113	0x8282854a	-1.9178287e-37
114	0x02897277	2.019604e-37
115	0x0283c11c	1.935956e-37
116	0x831bea0e	-4.5819088e-37
117	0x02b3343f	2.6331674e-37
118	0x026372c7	1.6710266e-37
119	0x813b831d	-3.4440545e-38
120	0x020fc972	1.0563793e-37
121	0x82fa22d1	-3.6754182e-37
122	0x028c443e	2.061032e-37
123	0x026da56e	1.7459486e-37
124	0x82a86255	-2.4741821e-37
125	0x82324020	-1.3095778e-37
126	0x8293a808	-2.1696154e-37
127	0x01e94690	8.5691935e-38
128	0x82984025	-2.237121e-37
129	0x0280b4a5	1.8911594e-37
130	0x8287cb63	-1.9953205e-37
131	0x028d423e	2.075611e-37
132	0x8256c975	-1.5780052e-37
133	0x036615fb	6.7616158e-37
134	0x82d1ed32	-3.0845933e-37
135	0x813a37b8	-3.420278e-38
136	0x82a09ef3	-2.360112e-37
137	0x01de2589	8.160378e-38
138	0x828e9407	-2.0949988e-37
139	0x016fcc50	4.4043954e-38
140	0x82db1c72	-3.2195485e-37
141	0x029d93b8	2.3153863e-37
142	0x83586c46	-6.3600987e-37
143	0x024c3183	1.5001762e-37
144	0x02308156	1.2967555e-37
145	0x829c3092	-2.2950018e-37
146	0x02870558	1.9839534e-37
147	0x0055a0d4	7.863711e-39
148	0x829aaed6	-2.2728617e-37
149	0x02883759	2.0015172e-37
150	0x828ecb91	-2.0981866e-37
151	0x82973594	-2.2218208e-37
152	0x833f6a5c	-5.625195e-37
153	0x82aa407c	-2.5016267e-37
154	0x8287aaae	-1.9934433e-37
155	0x0281a5a1	1.9049913e-37
156	0x82ce1656	-3.02818e-37
157	0x82961830	-2.2054402e-37
158	0x0234ccc9	1.3283082e-37
159	0x828e2a8b	-2.0889443e-37
160	0x0274ac34	1.7975709e-37
161	0x02d5f49d	3.1437938e-37
162	0x018f2656	5.2584913e-38
163	0x82d3d2b2	-3.1124597e-37
164	0x825e53ac	-1.6333997e-37
165	0x027ce83f	1.8580687e-37
166	0x8285d27f	-1.9663412e-37
167	0x02d607de	3.144899e-37
168	0x82c2a5e4	-2.8600955e-37
169	0x01efdfec	8.8116046e-38
170	0x028b84f0	2.0500517e-37
171	0x028e4a3b	2.090763e-37
172	0x02ad331a	2.5449396e-37
173	0x825d2952	-1.6248374e-37
174	0x026aa5fc	1.723924e-37
175	0x0295ea95	2.2028226e-37
176	0x82a2b391	-2.3906827e-37
177	0x82783bba	-1.8237303e-37
178	0x829d2bd2	-2.3094228e-37
179	0x822a660c	-1.2518913e-37
180	0x829e13f4	-2.3227466e-37
181	0x0251af99	1.5405289e-37
182	0x829010e6	-2.1168598e-37
183	0x82918ba4	-2.1385985e-37
184	0x0249e67c	1.4833294e-37
185	0x0282363b	1.913291e-37
186	0x829ea6fd	-2.331186e-37
187	0x8136e848	-3.3594774e-38
188	0x82c9af13	-2.9634783e-37
189	0x828e0f06	-2.0873648e-37
190	0x829e56f6	-2.3265927e-37
191	0x8282f592	-1.9242734e-37
192	0x820e9b77	-1.0477129e-37
193	0x82867bb5	-1.9760535e-37
194	0x828f92fa	-2.1096322e-37
195	0x01d3af5a	7.7760776e-38
196	0x82140302	-1.0874186e-37
197	0x0285e4a8	1.9673836e-37
198	0x0243cb00	1.4384596e-37
199	0x825fa03b	-1.6429436e-37
200	0x82882fc7	-2.0010827e-37
201	0x0295e9fe	2.2027887e-37
202	0x82c00cb4	-2.8219156e-37
203	0x029ee808	2.3349193e-37
204	0x81b02b57	-6.471438e-38
205	0x8290a3de	-2.1252953e-37
206	0x818e5f1f	-5.2299054e-38
207	0x029d5667	2.311867e-37
208	0x81a677de	-6.115077e-38
209	0x0360d568	6.607266e-37
210	0x81fcf38c	-9.291965e-38
211	0x025963e0	1.5971305e-37
212	0x825bef1e	-1.6158202e-37
213	0x0350c296	6.134908e-37
214	0x828a2f30	-2.0304362e-37
215	0x82f3d93e	-3.5830332e-37
216	0x029bad36	2.2874621e-37
217	0x8298dbb1	-2.246049e-37
218	0x832f193b	-5.145684e-37
219	0x02be2af6	2.794265e-37
220	0x8289eb5d	-2.0265433e-37
221	0x0295a0cd	2.1985877e-37
222	0x8293ccf1	-2.171734e-37
223	0x82f7bd40	-3.6402012e-37
224	0x829096da	-2.1245483e-37
225	0x8301b294	-3.811469e-37
226	0x029c019e	2.2923068e-37
227	0x829e803c	-2.3289616e-37
228	0x8317fa3d	-4.466217e-37
229	0x029959af	2.2532805e-37
230	0x028fc92a	2.1127424e-37
231	0x029485fd	2.182355e-37
232	0x021151d8	1.0676406e-37
233	0x828b0bfc	-2.0431093e-37
234	0x02effaf9	3.5261945e-37
235	0x02834119	1.9286084e-37
236	0x831ec980	-4.6663338e-37
237	0x02289d0c	1.2387761e-37
238	0x03564974	6.297327e-37
239	0x8132c0bc	-3.2831717e-38
240	0x82397834	-1.362615e-37
241	0x027ca0b3	1.8560154e-37
242	0x8285592b	-1.9593773e-37
243	0x029c6ae7	2.2983499e-37
244	0x8289440b	-2.0169396e-37
245	0x02487f3a	1.4730192e-37
246	0x82d710ef	-3.160113e-37
247	0x818d4b6a	-5.1903434e-38
248	0x0217275f	1.1105027e-37
249	0x0323b241	4.810602e-37
250	0x81e5ca62	-8.441172e-38
251	0x029e1751	2.3229396e-37
252	0x0107c1c2	2.4934598e-38
253	0x0298e414	2.2465303e-37
254	0x02800d74	1.8815631e-37
255	0x8283c6e0	-1.9362869e-37

attention.layers.0.0.in_proj_bias f4 [96]
0	0x00000000	0.0
1	0x00000000	0.0
2	0x00000000	0.0
3	0x00000000	0.0
4	0x00000000	0.0
5	0x00000000	0.0
6	0x00000000	0.0
7	0x00000000	0.0
8	0x00000000	0.0
9	0x00000000	0.0
10	0x00000000	0.0
11	0x00000000	0.0
12	0x00000000	0.0
13	0x00000000	0.0
14	0x00000000	0.0
15	0x00000000	0.0
16	0x00000000	0.0
17	0x00000000	0.0
18	0x00000000	0.0
19	0x00000000	0.0
20	0x00000000	0.0
21	0x00000000	0.0
22	0x00000000	0.0
23	0x00000000	0.0
24	0x00000000	0.0
25	0x00000000	0.0
26	0x00000000	0.0
27	0x00000000	0.0
28	0x00000000	0.0
29	0x00000000	0.0
30	0x00000000	0.0
31	0x00000000	0.0
32	0x00000000	0.0
33	0x00000000	0.0
34	0x00000000	0.0
35	0x00000000	0.0
36	0x00000000	0.0
37	0x00000000	0.0
38	0x00000000	0.0
39	0x00000000	0.0
40	0x00000000	0.0
41	0x00000000	0.0
42	0x00000000	0.0
43	0x00000000	0.0
44	0x00000000	0.0
45	0x00000000	0.0
46	0x00000000	0.0
47	0x00000000	0.0
48	0x00000000	0.0
49	0x00000000	0.0
50	0x00000000	0.0
51	0x00000000	0.0
52	0x00000000	0.0
53	0x00000000	0.0
54	0x00000000	0.0
55	0x00000000	0.0
56	0x00000000	0.0
57	0x00000000	0.0
58	0x00000000	0.0
59	0x00000000	0.0
60	0x00000000	0.0
61	0x00000000	0.0
62	0x00000000	0.0
63	0x00000000	0.0
64	0x341fc2d8	1.4878913e-07
65	0x3579ab1a	9.3008714e-07
66	0x36c24ff8	5.79096e-06
67	0xb5dcfe73	-1.6465332e-06
68	0x339724e4	7.038196e-08
69	0xb6944f88	-4.4200024e-06
70	0xb7340c10	-1.0731645e-05
71	0xb4725103	-2.2567478e-07
72	0x37558b65	1.2728245e-05
73	0xb2d7ab53	-2.5107203e-08
74	0x361c68d9	2.330684e-06
75	0x308a3700	1.0056453e-09
76	0xb70ca2cf	-8.382557e-06
77	0xb7fb4042	-2.9951454e-05
78	0x35eeac78	1.7782577e-06
79	0xb385ffbc	-6.239813e-08
80	0xb5552450	-7.9401525e-07
81	0xb573ce3a	-9.0824653e-07
82	0xb21edbd0	-9.24679e-09
83	0x3431a2df	1.6543662e-07
84	0xb6508ad3	-3.1075222e-06
85	0xb3bd622c	-8.818856e-08
86	0xb5d25872	-1.567196e-06
87	0x35286524	6.2732056e-07
88	0x36f7380c	7.3676983e-06
89	0xb750ba2a	-1.2441111e-05
90	0xb409790e	-1.2803159e-07
91	0xb79c1bbb	-1.8609562e-05
92	0x3720bfd8	9.58141e-06
93	0x3561f4e2	8.4175383e-07
94	0xb682233d	-3.878404e-06
95	0xb66b29c8	-3.5042049e-06
