model/cartesian/AE_cartesian_hd128x64_ld32_att_med_ref.pth (torch, 197283 bytes, 32 tensors)

encoder.0.weight f4 [128, 63]
00000000: 66b1 12bb c42b f93d 3db4 423c 2823 e2bc
00000010: 0c0e 2fbe 3675 bebc 728b d7bb 7212 ea3c
00000020: c24e 0a3b 5225 04be c40e 543c fe88 443e
00000030: cbe5 78bd 92e1 bfbd 7a5e cf3d 9482 3b3c
00000040: f137 23bd e094 31bd 54d2 5aba 7e2f a93c
00000050: 3c6f 883b a8f3 1e3c 4c9c 4d3d 8ba0 9bbc
00000060: 192d 9cbb b584 103c 49fb cebb af99 c53d
00000070: f4d4 7c3e 92ce 73be b528 c83a 18c2 47bd
00000080: 30f4 f93b a1f8 9c3b 32c1 02bd 6eff e7bc
00000090: 2a41 f83c 02e4 b93e 1255 2ebe 17a8 3cbc
000000a0: 1050 ab3d e68d f03b f8b1 983b a4d6 7ebc
000000b0: c390 c9bc e867 613c fe35 cb3d 0f39 643c
000000c0: 146a a23d d6cb 3bbd 8361 2bbb 8639 fc3c
000000d0: 1a7a 95bc c1f0 363c 612d f63b b85c 0b3c
000000e0: f6c6 203c 6024 75bd ed53 9a3c 6f54 2b3c
000000f0: 897d 7d3d 5457 4e3d 35f9 463d 90ff 45bc
00000100: 529b 90bd a53d edbc 6ab9 f2bc 3a66 32be
00000110: b2dd 65bd 1488 efbb 33e1 a73d eb24 c23c
00000120: a80f 8bbd 8f25 a73d e9a9 013d 2743 28bc
00000130: 4998 1d3e d8ac 773d 68af fd3b 86bc a23d
00000140: b06d c93c 98b9 383a ca90 43ba 36c1 eabb
00000150: a263 89bb 64be c3ba 5c51 77bc d257 37bc
00000160: 105a 2a3c 8cb8 c2bb b655 abbd 138d 03be
00000170: a7d2 f7bd 94e2 b73a 498b fb3d 7d36 a33d
00000180: cd53 683c b44f 1dbe 3f0a 4cbd 3d69 fbbd
00000190: e2d3 c3bc 3555 dcbd ee83 2c3c 0b95 c6bd
000001a0: af2f fabc 75db 5b3c d081 fe3c 7fc2 a43c
000001b0: 0660 f33b d240 23bd c862 89bc f2af c33b
000001c0: 06e0 72bd 05b2 c9ba ef2c 9f3d 5482 a23d
000001d0: 9c47 533b 0d28 143c 43fd 5c3c aecc af3b
000001e0: 4df1 0bbe 3f00 7cbd 59ff 9bbd 7739 253b
000001f0: e15c eb3c 9c6d 64bc 8e7c 3b3d e11c b03d
00000200: b9c4 a83c 5a8d b6bd 40d5 7dbd e906 95bd
00000210: 6459 15bc 4709 f63d 58f9 603d 4d02 51bc
00000220: ca61 c5bd ea0a bc3d bf55 373e 3491 1d3d
00000230: e798 84bd b989 e83b 0b7c 3e3d 8c32 e43c
00000240: 5b90 dbbb abe0 0fbb 9a15 83bc 43cd 0abd
00000250: 1eb4 3dbb 5d50 073a fc9c 59bc 7af2 b63c
00000260: 71bd 0bbc c2e4 283e dbdb 9d3a c854 a0bd
00000270: b4f5 513d 86e8 463d 8e4b 223e 18c2 a7bd
00000280: 1711 24bd 7fe7 64bd f896 183d 0cde 7ebd
00000290: 6931 9abd 7160 63bd bfb4 04be 6c48 fcbd
000002a0: 9953 dc3c 2679 41bd a092 9dbc d8eb b93c
000002b0: 6b0a 4a3d 7fe3 a63b ba46 443d 3b15 b1bd
000002c0: 0d7a 5d3d 1fac adbc 24be 533d cd6e 583c
000002d0: 1f78 753c 36fa d93c 912d 883c db9d 063d
000002e0: 71ce c7bd 77a2 9fbd 12c9 dc3d d87d 8b3d
000002f0: 23c2 cf3c ce36 92bc 3020 aa3d 7a5e 373c
00000300: bf16 db3c a676 b7bd 3235 16ba bf58 9ebb
00000310: 937f f63c 26f8 0b3c ee73 a3bc 9613 df3d
00000320: 4c5f 473d d180 dc3c 2584 ef3d 6509 bc3d
00000330: 8d6f 12ba 56ab 96bc 00b4 103c 7626 2dbb
00000340: d575 093c 06ef f7ba 5c76 1fbb 0fe6 953b
00000350: 2d96 8abc 1766 4cbc 65bd 863c 88de bbbb
00000360: 0084 8cbe a5be 96bd aff4 063c d5d6 56bc
00000370: e886 cc3d 498b df3c becc 5339 3da8 8d3c
00000380: 9404 223c fe0a a1be f0bf c4bd c286 c3bc
00000390: 4952 1d3c 615a b1bd 03ca 58bc e79e 75b9
000003a0: 2e59 8fbd 1a29 c2bc 7425 003c ba53 263d
000003b0: 13ea 483b 5eaf 993c d36c ebbb 4efa 093c
000003c0: 4eef 0c3e b428 483b 0902 073c b811 673c
000003d0: 1812 9b3c 8f2a 2d3c 9a1d d83b 8c97 423d
000003e0: 6e1d f53c 4e0f 45bd f5f1 13bb b3ec a03c
000003f0: 012d 1d3b 0bb7 03be 34c2 e0bc 67c0 cbba
-0.002238357 0.12166551 0.0118837925 -0.027604654 -0.17095202 -0.02324925 -0.0065779025 0.028573249
0.0021104072 -0.12904862 0.0129429735 0.19192883 -0.060766023 -0.09369196 0.10125442 0.0114447065
-0.03984827 -0.04335487 -0.00083473814 0.020652529 0.004163651 0.009701647 0.050197884 -0.018997451
-0.0047661182 0.008820702 -0.0063165766 0.096484534 0.2469061 -0.23809269 0.0015270921 -0.048769087
0.0076279864 0.004790381 -0.031922527 -0.02832004 0.03030451 0.3630677 -0.17024639 -0.011514685
0.0836488 0.0073411344 0.0046598874 -0.015554104 -0.02460516 0.013757683 0.099224076 0.013929619
0.07930389 -0.04584869 -0.002615065 0.030789148 -0.0182467 0.011165799 0.007512734 0.008505993
0.009813061 -0.059849143 0.018838847 0.010457142 0.061887298 0.05037625 0.048577506 -0.012084857
-0.07060875 -0.028960058 -0.029629428 -0.17421809 -0.05611963 -0.007309923 0.0819725 0.023699244
-0.067900956 0.081614606 0.03165618 -0.010269917 0.15390123 0.06046757 0.0077418573 0.07946114
0.024588436 0.00070466986 -0.0007460235 -0.007164146 -0.0041927854 -0.001493406 -0.015095081 -0.011190372
0.010397449 -0.00594241 -0.083659574 -0.12846784 -0.121007256 0.0014029318 0.12282426 0.07969377
0.014180136 -0.15362436 -0.04981446 -0.12275932 -0.023904745 -0.107584395 0.010529501 -0.096963964
-0.030540315 0.013419022 0.031067759 0.020112274 0.0074272184 -0.03985674 -0.016770735 0.005971902
-0.059295677 -0.0015388137 0.07772242 0.07935014 0.0032238727 0.009042752 0.013488117 0.005364976
-0.13666268 -0.061523672 -0.07617063 0.0025211254 0.028730812 -0.013942149 0.04577308 0.08599258
0.020601617 -0.089136794 -0.06197095 -0.07276709 -0.009115551 0.12013488 0.054925293 -0.012756896
-0.096377924 0.09181769 0.17903803 0.038468555 -0.06474476 0.007096496 0.046505015 0.027856134
-0.006700558 -0.002195398 -0.016001511 -0.03388716 -0.002894647 0.00051618164 -0.013282057 0.022332419
-0.008529053 0.16493514 0.0012043671 -0.07828671 0.05125971 0.048561595 0.15849134 -0.08191317
-0.04005536 -0.055884834 0.03725335 -0.06222348 -0.075289555 -0.055511896 -0.12959574 -0.12318501
0.026895331 -0.047234677 -0.019234955 0.022695467 0.04932634 0.0050930376 0.047919013 -0.086466275
0.054071475 -0.021200238 0.051695004 0.013210011 0.014982252 0.026608568 0.01662329 0.032865386
-0.097561724 -0.077946596 0.107805386 0.06811112 0.025361126 -0.017848399 0.083069205 0.011191959
0.026744245 -0.08958177 -0.00057299726 -0.0048323567 0.030090129 0.00854305 -0.01995274 0.108924076
0.048674867 0.026916893 0.116951264 0.09181479 -0.00055860804 -0.018392246 0.008831978 -0.002642063
0.00838991 -0.0018915839 -0.0024332022 0.0045745443 -0.016917313 -0.012475512 0.016447732 -0.005733315
-0.27444458 -0.07360581 0.008237048 -0.013112743 0.09986669 0.027288096 0.000201988 0.017292136
0.009888787 -0.314537 -0.09606922 -0.023867968 0.009602138 -0.086598165 -0.013231757 -0.00023424216
-0.069994316 -0.02370124 0.0078214295 0.04060719 0.0030657097 0.01876038 -0.0071846037 0.008421494
0.13763162 0.003054184 0.008240231 0.014103346 0.018929526 0.010569229 0.0065953257 0.047507808
0.02992126 -0.0481103 -0.0022574638 0.019644117 0.0023983123 -0.12862794 -0.027436353 -0.0015545011

encoder.0.bias f4 [128]
00000000: 7a86 a23d 88a1 123d b38a 123e ab56 2ebe
00000010: 2d79 f4bb c4d3 fc3d fb94 143e 0120 eab9
00000020: ed8c 4d3d 2721 9d3d 5008 a53b 72c6 aebd
00000030: 8cf5 3bbd f7af 03be 69f2 ff3c 6e24 e73d
00000040: 830c a83d cc9d b1bc e4fb ab3d 3a51 153e
00000050: dd2e 9dbd 8f31 1fbd 8fbb 40be ab5c 2dbe
00000060: 063d b93d b5fe c23d a72f a9bd e88f 11bd
00000070: 28fe 063d 32e7 9abd 429b 6fbd 8d0a 59bb
00000080: 7648 073e c89a 1c3e 2f15 00bd 6731 233e
00000090: 13b9 94bc b0e3 f83d 86d5 273d 4da7 f03d
000000a0: 4612 1c3e 2499 82bd 2dd9 803d b0be e3bd
000000b0: 1a93 cc3b 4b96 623d 389b d63d b358 9b3d
000000c0: c1de 3bbe 4606 30bb 0e20 983c a3df 67bd
000000d0: 6c1e 1abb 2cc4 da3b 5744 5f3e ff52 3b3e
000000e0: a8fa ee3b e267 89bc 3f48 15be 41e9 053e
000000f0: 2f9d eebc 37f7 ba3c c0a3 243d 4471 053e
00000100: 56bd 93bd d3cc 44bd e8a0 8b3d 9570 9dbd
00000110: 8304 2c3e b031 9c3d ef18 b9bd 45ab 88bd
00000120: 6eba 5a3b 0694 583c 9042 163e 9408 38bd
00000130: 5bc1 f23d 5509 24bd 74f9 023e d42c b7bc
00000140: 4fba 073b c6db 383e ac74 75bd d471 c2bd
00000150: dc77 333e 37de 71bc 9447 c83d b73c fc3d
00000160: 5fb6 b6bd 08f9 1e3e 45a9 00be b9c2 feba
00000170: 2a60 d03d 5ff0 73bd 792b 6f3d aa8d 88bd
00000180: b40e af3d cf71 fd3d a40d 69bd b3d3 193d
00000190: ec8c 5a3c 8507 3fbd 95e0 e83d 7fa1 d0bd
000001a0: cd13 023d b1d0 32bd 5841 063d 439a edbd
000001b0: 2202 393d 9342 513d fca3 273e 9cf7 033e
000001c0: d1af dbbd 5d2a 543b 9bf9 45bd 3c82 73bb
000001d0: 54f0 d9bd 298e e6bd 15d3 073e f5f0 d33c
000001e0: 0206 c5bd 15a3 1b3c 09eb 0f3e 9442 ccbd
000001f0: 0ed1 ffbd 5dd5 e0bd d8ae a23d 8aa0 6cbc
0.079358056 0.03579858 0.14310722 -0.17025249 -0.0074607343 0.123450786 0.14509957 -0.00044655803
0.050183225 0.07672339 0.0050363913 -0.08533944 -0.04588847 -0.12860094 0.03124352 0.11286245
0.082055114 -0.021681689 0.08397654 0.14581767 -0.07674954 -0.038865622 -0.18821548 -0.16929881
0.090448424 0.09521238 -0.08261042 -0.03553763 0.032957226 -0.07563628 -0.058497675 -0.003311786
0.13211235 0.1529342 -0.031270202 0.15936814 -0.018154657 0.12152803 0.040975116 0.1175066
0.15241346 -0.063768655 0.06291423 -0.11120355 0.006243122 0.05531911 0.104788244 0.075852774
-0.18346693 -0.0026859208 0.018569972 -0.05660976 -0.0023516668 0.0066762175 0.21803413 0.18293379
0.007293064 -0.016773168 -0.14578341 0.1307726 -0.029127685 0.02282296 0.040195227 0.13031489
-0.07213847 -0.048046898 0.068178 -0.07687489 0.16798596 0.07626665 -0.09037959 -0.06673292
0.003337528 0.013218885 0.14673829 -0.044930056 0.11853286 -0.040047962 0.12790471 -0.022360243
0.0020710414 0.18052587 -0.05992572 -0.09494367 0.17526191 -0.014762453 0.097792774 0.12316268
-0.08921503 0.15524685 -0.12564571 -0.0019436694 0.10174592 -0.059555408 0.058391068 -0.06667645
0.08547726 0.12375223 -0.056897774 0.037555408 0.013339262 -0.04663803 0.113709606 -0.10187053
0.031757165 -0.043656055 0.03277716 -0.11601689 0.04516805 0.05108888 0.16371149 0.12887424
-0.10726894 0.0032373883 -0.048333745 -0.0037156483 -0.10641542 -0.11257584 0.13264115 0.025871733
-0.096202865 0.009499331 0.14054503 -0.09973636 -0.12491046 -0.10978196 0.07943505 -0.014442572

encoder.1.weight f4 [128]
00000000: 5df2 2c3f f4d6 263f d116 173f 3db8 443f
00000010: d6c1 fc3e fd18 2a3f 8e86 283f 6743 0b3f
00000020: c9a1 003f b671 0a3f 4c08 143f 30fb 313f
00000030: 1e5d 0a3f 9d31 213f 22fe 143f 566e 0c3f
00000040: 9a59 103f 615b 1c3f d746 213f 3a8b 233f
00000050: 1134 223f 8dfb 263f ac17 543f 063f 223f
00000060: 065b f93e af70 fb3e ff0e 1d3f 9946 ff3e
00000070: d25a fa3e 532f 153f e0f6 223f 1057 063f
00000080: 6835 083f 1f08 1c3f 753a 173f 1551 e23e
00000090: 07e5 123f c157 0d3f 2c67 033f 3689 163f
000000a0: 5dda 113f 5e72 213f 2842 0e3f 3c2f 2d3f
000000b0: 0282 173f 52dd 0d3f 81f9 1c3f c19d 103f
000000c0: baf0 0a3f 76cc 113f 69f1 183f 3418 f43e
000000d0: 81b7 233f 1624 063f b71a b03d 4ba9 103f
000000e0: 8d45 283f 479a 113f bd5e 533f 4cb6 2c3f
000000f0: 4c6b 0b3f 8810 1c3f 5fc4 003f d2e5 2a3f
00000100: f8f6 013f d050 0e3f ae33 1c3f 79ef 303f
00000110: 9014 313f 746d 293f 1654 2d3f 9376 103f
00000120: f5ee 1f3f 2987 0f3f df14 263f b344 1c3f
00000130: 791c 013f ae34 173f b65e 0a3f d7c6 073f
00000140: c6cf 0e3f fd78 273f b4ea 133f 3872 303f
00000150: b228 5e3f 3f0a 1f3f bc7d fe3e 10d2 323f
00000160: e145 243f a356 153f 9f9a 3b3f 3c7b 133f
00000170: 16f2 233f 6d0a 1d3f f9fb 063f 382b 183f
00000180: e34b 123f 278e 2e3f a43c 103f 9ce6 193f
00000190: e146 183f d31d 003f a3f0 083f e83a 2a3f
000001a0: 70df 0c3f 9997 253f 4750 023f ad95 df3e
000001b0: 0e47 093f 12c9 2e3f 1a58 153f 13b3 0f3f
000001c0: 2d1e 1b3f 7b2e 0a3f f6c2 0f3f cebf 1a3f
000001d0: 05e1 1f3f 0728 ee3e d25c 123f 1762 2b3f
000001e0: ab0f 1d3f a0e7 163f de92 f43e 3cd0 293f
000001f0: 67ed 233f d671 333f d8d5 123f 8dbf 003f
0.67557317 0.6517174 0.5901919 0.76843625 0.49366635 0.6644438 0.65830314 0.5439972
0.50246865 0.5407976 0.5782516 0.69523907 0.54048336 0.6296633 0.58200276 0.5485586
0.5638672 0.61076933 0.6299872 0.6388432 0.633607 0.65227586 0.8284862 0.63377416
0.48702258 0.49109408 0.6135101 0.4985855 0.48897415 0.58275336 0.6365795 0.52476597
0.5320649 0.6094989 0.59073573 0.44202486 0.5738072 0.55212027 0.513293 0.5880312
0.5697382 0.63065135 0.55569696 0.676502 0.5918275 0.55415833 0.6131821 0.56490713
0.5427357 0.5695261 0.5974336 0.47674716 0.6395188 0.5239881 0.085988455 0.5650832
0.65731126 0.56876034 0.82566434 0.6746566 0.544606 0.60962725 0.5029964 0.6675693
0.5076747 0.5559206 0.61016357 0.69115406 0.69172 0.6618264 0.6770643 0.5643093
0.62473994 0.56065613 0.64875597 0.61042327 0.5043407 0.5906476 0.5405077 0.5303778
0.5578579 0.6541899 0.57780004 0.68924284 0.86780846 0.6212501 0.49705303 0.6985178
0.64169127 0.5833532 0.7328281 0.57609916 0.6404127 0.61344033 0.5272823 0.59440947
0.57147044 0.6818566 0.5634253 0.60117507 0.5948315 0.5004551 0.5349218 0.66496134
0.5502844 0.64684445 0.50903744 0.4366888 0.53624046 0.6827556 0.5833756 0.5613262
0.6059292 0.53977174 0.5615686 0.6044892 0.6245273 0.46514913 0.5717288 0.6694655
0.6135203 0.5894718 0.477683 0.66333365 0.6403412 0.70095575 0.5735755 0.50292283

encoder.1.bias f4 [128]
00000000: 3fa4 6dbd 3889 c0bd 0bdf 6cbd f3f2 38be
00000010: 895f 19be 1c1c 2dbe d572 c33d d1e7 0bbe
00000020: c2f9 19bd 035b 16be 2428 34be 6548 10be
00000030: 984c b0bd d000 2cbe c476 0cbe 2297 7cbe
00000040: 58c5 54bd 88e6 b6bd 140e 22be dffb 68bd
00000050: c5fe 61be f832 aabd 2242 70be 4d54 90bd
00000060: 6323 18be fb66 cdbd f0de d4bc c513 15be
00000070: 93cb 403d 9d90 f5bd 82fd 16be e77d 9dbd
00000080: 93c4 b3bd fde0 c8bc a096 b23b 2521 3a3e
00000090: a6ad 21be 77b6 a6bd 261f 58be 04f6 bfbd
000000a0: 9dae 87bb aa53 0bbe 1175 98bd ce0f 5cbd
000000b0: f4ef 27be 7da9 143b 3061 f5bd 19e3 00be
000000c0: 69a9 a9bd bd56 f6bc 0c54 d5bd db24 47be
000000d0: 50f8 49bd 5473 383d ba23 29bf 8b13 f4bd
000000e0: a17c 05be e10f 9cbd 819e 98bd ddce ccbc
000000f0: 1b14 81be bb35 b7bd 0de6 8b3c 7d7a b7bd
00000100: dc5b 94be 79f4 a9bc 052d fdbd 7319 4ebd
00000110: aa32 103d 2f68 01be b699 acbd b176 02be
00000120: d3e7 c6bd debc 0bbe be9e 18be d97e 21be
00000130: e0c8 d93b 2236 e8bd f7af 87bd b293 c0bd
00000140: 10e0 41be 13f3 a0bd d034 09be 9f41 55bd
00000150: 7929 d6bd d868 6bbe 09e5 86bd 728f 4fbd
00000160: a30a 9ebd e415 4ebe bb88 28bd 44ed 213d
00000170: 41ab b3bd 0cbf e9bc 2cef 21be 74cd 4dbd
00000180: 5fde f7bc dffe 8ebd 6c16 9abd a4a4 55be
00000190: a1a2 1ebe c19e 51be f97f aabe 2f61 0dbe
000001a0: 4ebc 27be 73a0 0abd be56 0fbe a49c 9abe
000001b0: 44e8 37be 0e47 2ebd a8f6 dcbd ade8 04be
000001c0: b2bc 18be b91b 90bd 853e b73b 56e0 50be
000001d0: 14cf 34be 8e46 5dbe 4c0d 86bd c3b6 99be
000001e0: 1b37 a8bc a0d9 e13d b895 21be e57c e7bd
000001f0: 1229 11be 2102 3cbe 1cb8 0fbe bf86 9cbe
-0.058017965 -0.094011724 -0.057829898 -0.18061428 -0.1497785 -0.16905254 0.09543387 -0.1366265
-0.037591703 -0.14683156 -0.17593437 -0.14090116 -0.08608359 -0.16797185 -0.1371718 -0.24667028
-0.051946014 -0.08930689 -0.15825683 -0.056880828 -0.22069843 -0.08310503 -0.23462728 -0.07047329
-0.14857249 -0.100294076 -0.025985211 -0.14558323 0.047069144 -0.119904734 -0.14745143 -0.076900296
-0.08777728 -0.024521345 0.005450085 0.18176706 -0.15788898 -0.08140271 -0.21105632 -0.09373096
-0.0041406886 -0.13606134 -0.07444204 -0.05372601 -0.16400129 0.002268403 -0.11981428 -0.12586631
-0.082842655 -0.030070657 -0.10416421 -0.19447653 -0.049309075 0.04503186 -0.6607014 -0.1191779
-0.13035823 -0.07620216 -0.07452107 -0.025000984 -0.25210652 -0.08945795 0.01707747 -0.0895891
-0.28976333 -0.020746456 -0.123621024 -0.05031724 0.035204567 -0.12637399 -0.084277555 -0.1274059
-0.09712186 -0.13646266 -0.14904305 -0.15771045 0.0066462606 -0.1133845 -0.066253595 -0.09403171
-0.1893313 -0.07858863 -0.13399053 -0.052064534 -0.10457129 -0.22989213 -0.06586654 -0.05067391
-0.077168725 -0.20125538 -0.04114602 0.039532915 -0.087728985 -0.028533481 -0.15813893 -0.050244763
-0.030257402 -0.069822066 -0.07523808 -0.20863587 -0.15491726 -0.20470716 -0.3330076 -0.13806604
-0.16380426 -0.033844423 -0.13997933 -0.30197632 -0.17959696 -0.04254823 -0.107892334 -0.12979384
-0.14915732 -0.07036538 0.0055921697 -0.20398077 -0.17657119 -0.21608946 -0.06545505 -0.3002225
-0.020534089 0.11027837 -0.1577977 -0.113031186 -0.14175823 -0.18360187 -0.14035076 -0.30571553

encoder.4.weight f4 [64, 128]
00000000: 4977 ecbc 8832 093d e7a0 1f3d 15c3 0a3d
00000010: 211e 773b ff43 bd3b 3ae9 ba3c 3d60 143d
00000020: bcd7 913d 9ad7 5f3c f5c8 33bd a24a 33bc
00000030: 1210 913c 8cba d53c 2e1a a03c 3c5c 103c
00000040: 164f 66bc 7c8d 843d f650 303b f24f 1abb
00000050: e4dd d4bb 997a 923c a58f d43c e517 3b3d
00000060: 5609 50bc 2bfb 3a3d ebf1 823c 51da 22bd
00000070: b101 443d 2b4b 99bd 9e6c 903c 9176 3a3d
00000080: b1c2 c33c d726 3c3d c879 143d ad72 c33c
00000090: e73e 153c 1d5c 9dbc 1b91 203d f2d7 f9bb
000000a0: 8120 02bc 2d58 183e bcba 403d 31d4 b33b
000000b0: 8b02 6bbd d01d 2c3d 7b02 bd3c e149 f939
000000c0: 7289 aa3b 7b63 a13d df37 6bbd d5be 6a3d
000000d0: e30c 843d 88d9 073c 82a6 60bc 571d 733d
000000e0: 0caa 093b 7b93 963d a4cd 18bd d070 bbb7
000000f0: 83bb 0bbd 22cc bb3c bc29 7f3c d77d 843b
00000100: ac58 46b9 d801 b2bb 4d57 953d bf1b ca3d
00000110: 9841 a63c f47a 953c 3eac 2e3d 5d9d 2bbd
00000120: aea3 353d af9f 3cbc 9fdc c43d 14e7 2b3d
00000130: 521f 013d 2ab3 babc 9d6d 86bc 870b ab3c
00000140: 87e5 9f3c 67e8 d43d acd8 b63b c279 293d
00000150: eb94 d23c 74df 5a3c 6f6a 313d 37bf 223d
00000160: 3a1b bc3c a905 053c 9d07 ab3c e37c ac3c
00000170: 617d c6bb 286a 2f3d 0188 bc3b 2ed5 353d
00000180: f8c5 1d3d e36a 1e3d 746d 713d 6805 1ebd
00000190: 4e4b 073b 3c1b 90bb ed5e c0bc c139 9bbc
000001a0: e8f5 0cbd 2954 8abc 85e6 1d3c c2b6 9e3c
000001b0: b116 66bc 5a52 dd3c 405e c4bc be96 1f3d
000001c0: 8f8c 56bb 902b d23c 1702 083d 9d2b ac38
000001d0: dc26 fc3c e247 b93b 1fae b53c baf8 513c
000001e0: 979b 4b3d 7e4f a13c 7cd4 303c 0b03 2db8
000001f0: b7fb 0d3d d22b 00bc e067 c23c d718 57bd
00000200: 3fce 7f3c 0539 39bb 7140 0f3d bc78 c0bd
00000210: 8d1e d1bc cda9 d13c dab5 293c 87f5 c1bd
00000220: 8eb4 5dbd 1a5c 063c 9044 1d3d 8f34 2cbd
00000230: 237d e8bd e18b c53c 6244 a1bc cadc 0e3d
00000240: bf2f 483d 8bc0 4c3d 547e 44ba 97ad 28bc
00000250: 5680 8d3a 1f2a a93a 46df c93b f6a3 e13c
00000260: 59cb 693c 2b09 dc3c 9703 4e3c e087 04bd
00000270: e544 96bc be65 0abd 4c1e 103d 977c fe3c
00000280: 61fb 2b3a 228c 283d 331d 8abb 0558 53bc
00000290: da5e df3c 910e 03bd 6ef2 9f3d 5b56 b53c
000002a0: 3001 5b3d f2d2 bb3d 6d72 f63a 0450 febc
000002b0: a724 463c 6c90 933d e975 8b3d 7b59 7c3d
000002c0: 1d95 dfbc 2d92 ee3c d1e8 96bb 1cde 5b3b
000002d0: 93d1 8b3d d1db b83c ccbf 853c 4c52 1b3d
000002e0: bf29 253d 9bf5 463c f8fa 833b 0846 1fbd
000002f0: 024b 073c 324b de3b ac2f 0f3d 8473 a63c
00000300: 20e7 b4bd 42f9 f3bb 5ded 513d 2ef2 543d
00000310: 7998 0f3b 5c11 963c 0392 b5be b7f8 323c
00000320: 5ce5 903d 555a b23c 4770 203d 9d64 8ebc
00000330: a78f 583d 9b6f 57bc 6adf 3bbd f6a1 12bd
00000340: 68c8 0fbd 59bc 683d b138 8a3c 2305 25bc
00000350: 1203 e9bc de79 9e3c 2780 3b3b 6d0c 953c
00000360: 50b8 7dbd cde0 4d3c 42a5 b23c 2e31 0ebd
00000370: d370 df3c c12a 4bbc f3a1 51bb 2baf 4bbd
00000380: 9da1 633a bf1e d7bc 93bb 103d d0e1 58bd
00000390: dbb4 c5ba 6a4a 3ebc 1411 2bbd e7dd 96ba
000003a0: 80b5 c9bb 329e ab3c 5cbb 8bbc 2feb abbd
000003b0: ed12 7d3b 4569 8e3c 0607 a83c 9154 043d
000003c0: bcfd bd3c b74f fb3c 5301 233c 6ec8 09bd
000003d0: 024f 0f3c cb17 433d d59b 283d 5006 0c3c
000003e0: cb5e 203d 61f9 7e3c 593d d83b 9d8e e43c
000003f0: bbf1 3d3d a370 3a3c 4f36 ff3c d06f 153d
-0.028865473 0.033495456 0.038971808 0.03387745 0.0037707167 0.005775928 0.02281629 0.036224592
0.07121226 0.013662243 -0.04389282 -0.010943087 0.017707858 0.026089929 0.019543733 0.008811053
-0.0140569415 0.064722985 0.0026903725 -0.0023546186 -0.006496178 0.017880725 0.025947401 0.045677084
-0.012697538 0.04564969 0.015984496 -0.039758984 0.047853176 -0.0748504 0.017629918 0.04552323
0.023896547 0.045935478 0.036248952 0.023858393 0.009109235 -0.019208962 0.039200883 -0.0076246196
-0.00794232 0.14877386 0.047053084 0.0054879417 -0.057375472 0.04202062 0.023072472 0.00047548025
0.005204373 0.078803025 -0.05742633 0.057310898 0.064477704 0.00829161 -0.013711574 0.059354153
0.0021005897 0.073523484 -0.03730549 -2.234467e-05 -0.034114372 0.022924487 0.015573915 0.0040433216
-0.00018915784 -0.0054323487 0.07292042 0.098685734 0.02029495 0.018247105 0.04264473 -0.04189812
0.04434555 -0.011512681 0.09612393 0.04196842 0.03152401 -0.02279051 -0.01640969 0.02087952
0.019518627 0.1039589 0.0055800285 0.041375883 0.025705775 0.013358939 0.043314394 0.039733138
0.022962201 0.008119025 0.020877654 0.021055644 -0.006057427 0.042825848 0.0057535176 0.044392757
0.038518876 0.038676154 0.058942273 -0.038579375 0.002064425 -0.004397778 -0.023482764 -0.018948438
-0.034414202 -0.016885834 0.00963748 0.019374255 -0.014043496 0.027016807 -0.023970723 0.03896212
-0.0032737588 0.025655538 0.033205118 8.209723e-05 0.030780248 0.005654321 0.022177754 0.012815649
0.04970893 0.019691225 0.010792848 -4.1249248e-05 0.034663882 -0.007822948 0.023731172 -0.052513923
0.015613138 -0.0028262746 0.034973565 -0.09398028 -0.025527263 0.025593663 0.010358298 -0.09470659
-0.05412727 0.00820067 0.038395464 -0.04204231 -0.11351993 0.024114551 -0.019685928 0.03487853
0.04887366 0.04998831 -0.0007495631 -0.010295293 0.0010795693 0.001290623 0.0061606495 0.027544003
0.014269673 0.02685984 0.012574098 -0.032356143 -0.018343398 -0.033788435 0.035185143 0.031065268
0.00065605907 0.041149266 -0.0042149066 -0.012899403 0.027266908 -0.031996313 0.07809912 0.022135904
0.05346793 0.09171094 0.0018802412 -0.031044014 0.0120937 0.07205281 0.06809599 0.061608773
-0.027292782 0.029122436 -0.0046053906 0.0033549136 0.068270825 0.022565754 0.016326807 0.03792028
0.040323015 0.012143518 0.0040277205 -0.038885146 0.008257629 0.0067838663 0.034957573 0.020318754
-0.08833146 -0.0074454853 0.051251758 0.051988773 0.002191095 0.018318824 -0.3546296 0.010923556
0.07074997 0.02177159 0.039169576 -0.01738196 0.052871373 -0.013149167 -0.04586736 -0.03579899
-0.03510323 0.056820247 0.016872736 -0.0100720255 -0.028443847 0.01934522 0.002861032 0.018194402
-0.061943352 0.012565804 0.021807317 -0.03471487 0.027275478 -0.01240033 -0.0031987398 -0.0497276
0.0008683445 -0.026259778 0.035335135 -0.052949727 -0.0015083806 -0.011614421 -0.041764334 -0.0011510224
-0.0061556697 0.020949457 -0.017057113 -0.08394467 0.0038616017 0.01738418 0.020511162 0.03230721
0.023192279 0.03067766 0.009949046 -0.03363841 0.008746864 0.047630113 0.041164238 0.008546427
0.0391529 0.015562386 0.00659911 0.027900035 0.04637311 0.011379394 0.031153826 0.036483586

encoder.4.bias f4 [64]
00000000: 7660 d1bc f923 64bc bded 6abd f79b b13c
00000010: c9c3 4b3c a4f7 dbbb ce71 033d c449 133d
00000020: 0020 323d a413 013c 2913 c33a 6f16 48bb
00000030: dbe7 3dbc d650 3cbb 6e1a 573a 1e17 47bd
00000040: 3c52 963c f175 073d f7b6 433c 870d 34bb
00000050: e68b b23c 01d4 6b3c e118 263c 960f d03b
00000060: b01b 313a 287e 25bb 18f8 0d3d f7e7 cabb
00000070: 6d2a 7b3a a042 be3c d919 b73c 61ae 453d
00000080: 2695 08bd 5a08 72bb 3462 d13c 15c3 793c
00000090: 8207 393d acf5 d23c 3eab fe3b edbe 113c
000000a0: fcee a53c 3633 893a 20df c339 cd0d 173d
000000b0: 189d 9fbe 96fa 9e3d 01a6 54bf 49aa c73c
000000c0: 679f b73c a5ae 3b3d 6f64 423d 9e65 723c
000000d0: ff21 df3c d3af 1cbc 304b 9c3b f31a d63c
000000e0: 9388 b43c fb03 b53c c7a6 2a3c b1aa da3b
000000f0: 0864 a33c 2ffd 8d3b ffd7 8f3b 5ab8 2f3c
-0.025558691 -0.013924592 -0.05735563 0.021680815 0.012436816 -0.0067128707 0.032090954 0.03595902
0.04348755 0.007878218 0.001488303 -0.003053095 -0.011590923 -0.0028734705 0.00082055375 -0.04860603
0.01834976 0.033071462 0.011945478 -0.0027473883 0.021795224 0.014393807 0.0101377675 0.0063495142
0.000675614 -0.0025252197 0.03466043 -0.006192203 0.0009581212 0.023225129 0.022351192 0.048262004
-0.033345364 -0.0036931247 0.025559522 0.015244265 0.045173176 0.025751911 0.0077718785 0.008895618
0.020255558 0.0010467533 0.0003735954 0.036878396 -0.3117454 0.07762639 -0.830658 0.02437319
0.022414876 0.04582085 0.047459062 0.014794735 0.02723789 -0.009563404 0.0047697052 0.026135897
0.02203778 0.022096625 0.010415739 0.00667318 0.01994516 0.0043331604 0.0043897624 0.010725105

encoder.5.weight f4 [64]
00000000: 09e7 383f eb7a 433f 3245 273f 50e9 2b3f
00000010: 8cd8 343f 8e80 443f e374 313f 186d 2b3f
00000020: 610e 343f e204 2c3f 75e2 1e3f 2016 2a3f
00000030: 51bb 303f 5e8b 3e3f ab2a 223f 12c2 263f
00000040: ed37 213f 0271 3e3f 2945 303f 38a3 563f
00000050: 8fbf 253f 2337 493f bc27 303f c3c3 3d3f
00000060: f502 323f 1138 283f 2575 323f c55c 363f
00000070: 7c41 313f 6a79 173f 88b5 1a3f 2425 223f
00000080: 71b7 2c3f 364d 3e3f c330 153f 7af7 313f
00000090: 6f74 2e3f d92a 373f a2ae 3c3f 069d 343f
000000a0: 4b4e 1a3f fa83 253f cc0b 423f 13fe 3a3f
000000b0: a3ac 013f f2e7 2b3f 5fbd 1b3e 4e50 383f
000000c0: 5743 343f bc8c 123f 0fb1 333f de3d 313f
000000d0: 2131 1a3f ca3f 213f 8078 303f 86fa 3e3f
000000e0: 18a7 1f3f bd60 383f a65a 223f a9aa 263f
000000f0: 9490 3a3f 5d9c 513f 859d 323f 1ebb 2d3f
0.7222753 0.7635943 0.6533996 0.6715288 0.70642924 0.7675866 0.6931898 0.6696334
0.7033444 0.6719495 0.62064296 0.6644001 0.6903582 0.7443141 0.63346356 0.6513988
0.6297596 0.74391186 0.6885553 0.838428 0.6474542 0.78599757 0.6881063 0.74126834
0.6953576 0.6571055 0.6971 0.71235305 0.69240546 0.5916964 0.60433245 0.6333792
0.6746741 0.74336565 0.5827753 0.69518244 0.68146414 0.71549755 0.7370397 0.705521
0.60275716 0.64654505 0.7579925 0.73043936 0.5065405 0.67150795 0.15208958 0.71997535
0.7041525 0.57245994 0.70192045 0.69235027 0.60231215 0.6298796 0.6893387 0.7460102
0.6236434 0.7202261 0.6341957 0.65104157 0.7287686 0.81879216 0.69771606 0.67863643

encoder.5.bias f4 [64]
00000000: 9bf6 1abe b820 d9bd 7a7a c8bd 2a68 0bbe
00000010: da63 82be 02f6 e8bd ad18 82be 55f6 6bbe
00000020: 8478 84be fabb 4bbe 5f58 4cbe cae6 dfbd
00000030: 0c1b 9fbd 2a81 09be e8d3 1bbe 7e26 6fbd
00000040: 76c9 1fbe 3ff3 8fbe 7357 5cbe e5fd 09be
00000050: 41fa 42be 6323 2bbe 82e5 4dbe 5ab6 6bbe
00000060: b56b a7bd daf2 0bbe 9ba5 95be 229e 07be
00000070: aba7 48be b1a7 45be ff7f 4dbe 3414 8bbe
00000080: c732 b0bd b28a 17be 61fe 03be 1158 61be
00000090: 679e 68be ced4 4fbe 6dda 24be fb97 2fbe
000000a0: dd72 5dbe 9923 22be f2b3 29be d223 87be
000000b0: 3a92 a8be b2c9 99be d7a1 9a3e 76f6 99be
000000c0: 0b37 64be 50f4 72be 935f 8dbe a280 64be
000000d0: eb2f 3abe 0870 22be 9eb8 06be e633 72be
000000e0: 8be5 8ebe 644e 8ebe 17d4 24be 2a67 02be
000000f0: 3059 74be 1d2e 2dbe d151 27be 4f01 65be
-0.15133135 -0.10601944 -0.097889856 -0.13613954 -0.25466806 -0.11375047 -0.2540945 -0.23043187
-0.25873196 -0.19895926 -0.19955586 -0.109326914 -0.07768831 -0.13428178 -0.15217555 -0.05838632
-0.15604195 -0.2811527 -0.21517734 -0.1347576 -0.19040777 -0.16712718 -0.20107082 -0.2301878
-0.0817484 -0.1366686 -0.2922791 -0.13243917 -0.1959521 -0.1930225 -0.20068358 -0.2716385
-0.08603435 -0.14799002 -0.12890007 -0.22006251 -0.22716676 -0.20296022 -0.16098948 -0.1714782
-0.21625848 -0.15833892 -0.1657255 -0.26394516 -0.32924062 -0.30036694 0.302016 -0.30070847
-0.22286622 -0.2372601 -0.2761198 -0.22314695 -0.18182342 -0.15863049 -0.13156363 -0.2365261
-0.27909502 -0.27794182 -0.16096531 -0.12734666 -0.23862147 -0.16912122 -0.16339804 -0.2236378

encoder.8.weight f4 [32, 64]
00000000: 8011 ac3d bdf8 133a cbc8 6bbc 4083 c03c
00000010: 7221 36bd 3ff9 b53d 80f1 f6bc 9a4f 52bd
00000020: 8b9e 833c 4e47 9c3c fbf6 60bd d4d9 3fbc
00000030: d9a6 573d 9109 c93b 988a efbd b6e6 e73c
00000040: b40d 643b 1c7e a53d f8c1 4bbd 27b8 5dbe
00000050: d28b 6a3d 29df d13a 5ca3 a1bd 3ab6 39bc
00000060: 64bd 413d 8fbe a5bd 1b77 b93c d040 193b
00000070: 7c40 1c3e 6882 373d 880c 30bd 3b72 263d
00000080: d5fb 843d 8f07 2a3d 07e1 7fbd 31f0 923c
00000090: 786e 4c3d a53e 163d 6985 113e aba7 52bb
000000a0: c3a1 8ebd 9367 04be 94b1 ec3d d34a 053e
000000b0: fce7 1fbd ea21 9dbb a1ec 833b b3ee 443d
000000c0: 4712 1fbc c9ba 2abe 0046 4e3d f971 74bd
000000d0: 45e8 5bbc 4243 f0bd b852 853d 5276 14bd
000000e0: 036f 50bd 2a09 f8bc c89b a53d 3a7b 55bd
000000f0: 0e61 cebc ee90 f0bc 80ef c43c da04 6abb
00000100: c739 0b3c 0802 063c 1350 f23d c948 b73d
00000110: e524 403d 2a18 a4bd ff06 00bd ae21 8dbd
00000120: bace 053d 5f23 bc3d e075 bdbd 571a 623d
00000130: 8e80 c43b bdd3 37bd bb69 2f3d 90b6 0abd
00000140: 73e9 6e3d f1dc 0ebd bad9 c43a 621b 8a3b
00000150: 7b44 a73c eb63 70bd 8c5c a53c f11b 1e3d
00000160: 23be c9bc 66f3 ff3c 93ef 463d d595 353d
00000170: fe3d 0e3c 5519 c5bb 5b96 dd3d 9e2b f8bd
00000180: 37c7 54bd a90c 5d3d a366 983d bd38 053d
00000190: 770b 15bd ecfb 1cbd e3f3 953d 7c9a 313e
000001a0: f86d 8ebc af58 dcbc 3a52 b93d 310c 99bc
000001b0: 2ec3 283c 0994 ebbd 5916 30bc 26a2 213e
000001c0: 8b98 df3d 93c7 cabd 7ccc 133c 50e2 9a3c
000001d0: 2304 acbd 090b 81bd 9d9a b1bb 9c93 cebd
000001e0: 51ac 9dbb 2a0d 953a bf23 7b3d e89b fdbd
000001f0: 74af 4cbd c7aa 443d ff6d dbbc 9c58 16be
00000200: d470 9fbd c47d f1bd 1d81 33bd 7f06 edbc
00000210: a8dd 9e3d a283 443d c562 f9bd 6378 b43b
00000220: 1104 ea3d 3d5a 023e bd86 26bd 2862 fe3d
00000230: 2773 90bd 6b92 d9bc b42d 57bd a45f 863d
00000240: 8a20 44bd 8012 60bd 73eb 103d 1fca 903d
00000250: 75b6 64bc c54a 3cbd 897a 863c 46e5 4f3c
00000260: fa32 d03d 2dd6 71bc a958 033e 124f eebd
00000270: 75dd 6a3d ae8a d5bc e804 86bc b984 ad3d
00000280: 580d 6c3d 031f 3c3d e863 cdbd 5f61 873d
00000290: 96ce 7abd 90dd 0e3e 8c8a 883b a458 92bc
000002a0: 2635 e13b b5dc 883c 9009 19bd 5d50 15bd
000002b0: e851 44bd d546 733d 2b33 a4bd 5d9d 083d
000002c0: 22f1 15bd b612 993d 2329 be3d b100 e7bd
000002d0: 5bb8 a9bd 72ed 4abd 2357 0a3c 81dd 3fbd
000002e0: c471 e7bd ca5b 893c 5b1b dcbc dcc4 cb3d
000002f0: 1b12 9e3d 763e 293d de46 7ebd 00e1 7ebc
00000300: be1a 90bd 32c0 7fbd 77d5 7abd c806 e6bc
00000310: 4095 4fbd 9ff2 fd3b b080 4dbd 9a19 acbd
00000320: a5b6 803d f2dd cf3c 9515 b93c d506 ee3c
00000330: 0d73 5c3d 08af 2c3e 7362 dcbd 9a8d 70bc
00000340: 62ca 65bd c20b ec3d 384d d63d 08d1 9e3c
00000350: c6c5 24bd f3fd c4bc 7b4e 6bbd 6a0d bfbc
00000360: 2325 bbbc b3d9 f6bd 30d4 8bbd d0b8 013d
00000370: ade6 0e3e 823c 20bd f61c c43c 4f31 d0bc
00000380: f8af 7a3c 307e 8a3d 388f 813c e008 0b3c
00000390: 2fa6 5abc ae10 493e 367f 67bc b993 563b
000003a0: 6ab3 eebd ae20 003d 42fe c63c e761 18be
000003b0: 9d3c eabc 1804 ab3b fea7 383c 385d 903d
000003c0: e98e b9bd 4555 1cbc c4a6 d5bd ac98 12be
000003d0: 6640 51bc 8d89 1cbd 7273 14bd 6070 c43c
000003e0: c41d 713d 3c96 a53d d625 65bb 8187 7a3d
000003f0: 0f43 cf3d 5d53 b93d daea 723a c6ca adbc
0.08401775 0.000564467 -0.0143911345 0.023500085 -0.04446549 0.088854305 -0.030144453 -0.051345445
0.01606681 0.01907697 -0.05492304 -0.011709649 0.052649353 0.0061351736 -0.116963565 0.028308254
0.0034798207 0.08080694 -0.04974553 -0.2165228 0.05726225 0.0016011941 -0.078924865 -0.01133495
0.047299758 -0.08092987 0.022639802 0.0023384579 0.15258974 0.0448021 -0.0429807 0.040636282
0.06493346 0.041511115 -0.062470462 0.017936798 0.04991004 0.036680836 0.14211048 -0.0032143395
-0.06964447 -0.12930135 0.11557308 0.13016824 -0.039039597 -0.0047953026 0.004026011 0.048079204
-0.0097089475 -0.16672815 0.050359726 -0.059679005 -0.013422077 -0.117315784 0.06509918 -0.03624565
-0.05088712 -0.030277807 0.080863535 -0.05211947 -0.025192764 -0.029365983 0.024039984 -0.0035708458
0.008497662 0.008179195 0.11831679 0.089494295 0.046910185 -0.080124214 -0.031256672 -0.068911895
0.032667853 0.09186434 -0.092509985 0.0552009 0.00599677 -0.044879664 0.04282544 -0.03386551
0.058328103 -0.034878675 0.0015018501 0.00421469 0.020418396 -0.05868904 0.020185731 0.038600866
-0.024626797 0.031243991 0.04856832 0.044332344 0.008681772 -0.0060149827 0.10819694 -0.12117694
-0.0519478 0.05396715 0.074414514 0.032524813 -0.036387887 -0.03832619 0.07321908 0.17344087
-0.017386422 -0.026897756 0.090488866 -0.018682571 0.010300441 -0.11502845 -0.010747516 0.15784511
0.10917767 -0.09901347 0.009020921 0.018906742 -0.083992265 -0.06300933 -0.0054200427 -0.10086748
-0.0048118015 0.0011371721 0.061313387 -0.123832524 -0.049972013 0.04801443 -0.026785849 -0.1468224
-0.07785192 -0.11791566 -0.043824304 -0.028933762 0.07757121 0.047977097 -0.12177042 0.0055075153
0.11426557 0.12729736 -0.04065584 0.124210656 -0.070532136 -0.026559075 -0.05253382 0.06561211
-0.047882594 -0.054705143 0.035380792 0.070698015 -0.013959517 -0.045969743 0.016415851 0.01268894
0.10165973 -0.014760536 0.1282679 -0.11636175 0.057340104 -0.026067104 -0.016359761 0.084725805
0.057629913 0.045928013 -0.10028821 0.06610369 -0.061232172 0.13951707 0.0041669067 -0.017864533
0.006872791 0.016706804 -0.037362635 -0.036453594 -0.047929674 0.059393723 -0.08017572 0.0333532
-0.036606915 0.07474272 0.0928519 -0.11279429 -0.08287116 -0.04954285 0.008443627 -0.046842102
-0.11300996 0.016767401 -0.026868513 0.09949657 0.07718297 0.041319333 -0.062079303 -0.015556574
-0.07036351 -0.06243915 -0.061238732 -0.028079405 -0.050679445 0.00774987 -0.050171554 -0.084033206
0.06284837 0.025374386 0.022593299 0.029055992 0.05382066 0.16863644 -0.10760965 -0.014682198
-0.05610121 0.1152568 0.10463947 0.019386783 -0.040227674 -0.024046874 -0.05744789 -0.023321826
-0.022844857 -0.120532416 -0.06827581 0.03167039 0.13955183 -0.039120205 0.02393959 -0.025414137
0.015300743 0.067623496 0.015815362 0.008486003 -0.013345285 0.19635269 -0.014129451 0.0032741858
-0.11655314 0.031281166 0.024291161 -0.14881097 -0.028593356 0.005218994 0.011270521 0.0704903
-0.09060461 -0.009541814 -0.10432199 -0.14316052 -0.012771701 -0.038217116 -0.03624291 0.023979366
0.058866277 0.080852956 -0.003496518 0.061164383 0.10120212 0.090491034 0.0009266563 -0.021214854

encoder.8.bias f4 [32]
00000000: dd4b 0abd 9f54 34bc ebcb 623d 7bd2 62bd
00000010: 523a 043e 8384 253b 363c debd 6805 ff3b
00000020: 29d2 99bd 940f e5bc 9b9c fe3d 39da b3bc
00000030: ea3e 913c 6656 70bd 40cd 1b3d 3f1c 4abd
00000040: ded2 09bd 3fb6 8d3c 62bb 0fbe 0b55 ef3d
00000050: f3e4 313c 70ac 48bd e95a 4e3d 0d7a 07bd
00000060: cd21 07bd fee5 e73d ddfe b23d 08d3 47bc
00000070: 8db6 43bd dd64 da3d a0f3 40bd 3eaf acbc
-0.033763755 -0.011006503 0.055370253 -0.05537651 0.12912872 0.0025255985 -0.10851328 0.007782627
-0.07510788 -0.02796153 0.12432214 -0.021954643 0.017730195 -0.058676146 0.03803754 -0.049343344
-0.033648364 0.017298816 -0.14036325 0.116861425 0.010857808 -0.048992574 0.050379667 -0.03307538
-0.03299122 0.113231644 0.087400176 -0.01219631 -0.047781516 0.106637694 -0.04710734 -0.021079656

attention.layers.0.0.in_proj_weight f4 [96, 32]
00000000: e512 1b83 ec56 9182 5a9c b282 99a6 8002
00000010: 45d2 8602 7a14 8482 d306 2e02 d8de 7f02
00000020: f0ea 2d81 06c8 7d82 5875 4081 c54b 9302
00000030: 9fd8 9f82 50af e302 95b2 fd81 005e 8502
00000040: e815 8d82 e6ee a981 fced 8f82 4cd6 6502
00000050: 8f66 0d03 be26 3882 b968 7f82 00f1 8a02
00000060: 2fb0 3183 d5f6 9c82 02a3 8702 073d 4c02
00000070: ddb6 9b01 569f 5f82 5695 e282 7643 a802
00000080: 536f 9b02 95c5 8e82 7f0a 9202 56e0 9a02
00000090: 1211 2d82 2f2f 8b82 b1dd 9001 eaa5 a682
000000a0: 57dd 0283 385e 8a82 0953 3c82 d808 8682
000000b0: 34eb 9982 d0e9 9682 309f 0981 ab8d 9982
000000c0: 9a7d 8b02 9886 b801 ca1a 3a82 3e66 8d02
000000d0: 1aa1 9802 580d 9002 e00e c782 0c68 9c82
000000e0: c63f 1b03 aa5c 9002 d385 6b02 a440 a702
000000f0: f2fd 0003 18d3 9382 6ff5 9082 c835 9082
00000100: c36a 5202 f362 8b02 1579 9502 48d7 6882
00000110: 18ee 7002 2fc5 9182 68a9 ed81 d267 6582
00000120: de3c 9f82 4a04 0a02 477a 9482 5bc5 8282
00000130: 9f14 e482 df07 b302 1e06 2903 508f 8b82
00000140: 0c4c 9802 aaec f701 aaae 4d01 96d8 9782
00000150: d40f 9682 1971 6b82 8394 1302 59ab 8f02
00000160: d315 a382 8d3d 0d81 a128 6882 3eb0 9f02
00000170: 9a3d 8f02 5c44 7b82 86d3 a002 ff5f 8302
00000180: 2b78 6402 8478 9d82 2585 7382 97bb 3d03
00000190: 28ba 0f82 fa08 6b82 84a5 2603 b4a0 8e82
000001a0: 233f 9882 087d 2e02 9ea9 9202 5bce 9402
000001b0: f0fd 6501 9e3f 2d03 fe4c 8782 6565 5c83
000001c0: 213c 3f02 e7fc a402 5638 5e02 84a8 3c02
000001d0: 5497 7e82 b6a1 4281 b0ba 9e02 da5d 5002
000001e0: 88a7 dd82 c8b7 9d02 4088 0c80 3ec1 9982
000001f0: ab44 3f02 eeb3 a182 7a2b 8f02 87c7 8002
00000200: 07c3 8f02 fd53 9402 d5be 0b02 91af a782
00000210: 9276 8202 ea32 9f82 9807 9f82 567d 9982
00000220: d8aa a682 913f 0082 c0b3 9f82 f9db 6001
00000230: 14cd a600 4c0b 5282 77b0 8401 b666 1181
00000240: f666 a782 68bd b781 983a a200 d6df 5001
00000250: 2b17 9802 ad5c 9882 58ba 2e02 0228 0600
00000260: 5808 3f83 bbe2 8c02 40d4 5802 877e 8982
00000270: 5523 bb82 15f8 9982 f238 9501 8605 2901
00000280: 43ae 3f03 afb0 7002 a78e 9c02 a759 9382
00000290: a3fb ca01 ba0a 8a82 da76 4701 8369 bd82
000002a0: 1dd6 1a03 c9e6 9d02 3876 ad02 1e98 0002
000002b0: 4e2e 9402 e6cc 9182 b6c6 5182 ad36 d782
000002c0: 3aeb 7802 0f01 e882 ae27 a201 9fe3 9002
000002d0: 75fe 9682 c51b 9182 8d5a 5882 8d84 9582
000002e0: 8482 8001 a180 8082 b2e9 9702 d3e3 9b02
000002f0: 5e2b 5883 30d8 8502 50c0 a382 28b3 6582
00000300: 8ff6 5703 de02 4d02 39df 9882 f0ae b202
00000310: d8be 9682 00f9 9402 19ac 9082 324e b982
00000320: 7465 9082 1c8c 8602 c719 5f02 7a74 1c83
00000330: e88b 8c02 f440 9282 d2b2 6082 3a92 6e82
00000340: 5fb1 8082 62ed 6580 5475 8682 7c3d 6b82
00000350: 0f16 5482 1207 9f82 b95b 9382 3dc6 b201
00000360: 02fd b682 c0a9 5300 3a64 9702 6e1f 9e02
00000370: 44e7 9982 6ab6 7a02 22c5 3e02 6b17 9282
00000380: 48e7 a302 ddee 9802 b444 9482 033b be82
00000390: cae2 d982 cfda 8881 5093 9182 e63c 1302
000003a0: 0ea3 7e02 08ff a982 7a7b a202 04da 9902
000003b0: f7db a282 cfef 5e81 b6a5 a582 0733 7002
000003c0: 2cee 4182 6e39 0803 1948 9d02 3c56 8302
000003d0: 8af2 8082 fb40 9802 9f70 8e82 a963 c782
000003e0: a507 8682 eeed 9702 5a34 6282 70ad 8702
000003f0: 3916 4702 244f 8e02 bf6a 9082 ce1d 9082
-4.5572096e-37 -2.1355726e-37 -2.624449e-37 1.8903532e-37 1.981022e-37 -1.940741e-37 1.278546e-37 1.8798394e-37
-3.194364e-38 -1.8644908e-37 -3.534902e-38 2.1643198e-37 -2.3487285e-37 3.3455277e-37 -9.3193775e-38 1.9596547e-37
-2.0730662e-37 -6.24236e-38 -2.1148558e-37 1.6885763e-37 4.1553907e-37 -1.3529303e-37 -1.8764495e-37 2.0415605e-37
-5.2217874e-37 -2.3063814e-37 1.993003e-37 1.5005067e-37 5.7200404e-38 -1.642918e-37 -3.329343e-37 2.4724102e-37
2.28391e-37 -2.0978431e-37 2.1458796e-37 2.2757029e-37 -1.2714932e-37 -2.0451296e-37 5.321536e-38 -2.4486738e-37
-3.845765e-37 -2.0331356e-37 -1.3835889e-37 -1.9694606e-37 -2.261633e-37 -2.217472e-37 -2.5277137e-38 -2.2562643e-37
2.0496306e-37 6.778406e-38 -1.367281e-37 2.0776772e-37 2.242686e-37 2.1166557e-37 -2.924896e-37 -2.298186e-37
4.5623614e-37 2.1212085e-37 1.7303479e-37 2.4575546e-37 3.7907334e-37 -2.172087e-37 -2.129977e-37 -2.1189767e-37
1.5459002e-37 2.0481008e-37 2.196308e-37 -1.7106451e-37 1.7700745e-37 -2.1419013e-37 -8.7303136e-38 -1.6854058e-37
-2.3397886e-37 1.013987e-37 -2.181683e-37 -1.921506e-37 -3.3513425e-37 2.6306204e-37 4.967166e-37 -2.0506472e-37
2.2378041e-37 9.1073066e-38 3.777787e-38 -2.231177e-37 -2.2049604e-37 -1.7297531e-37 1.0842475e-37 2.111031e-37
-2.3963224e-37 -2.594177e-38 -1.7056328e-37 2.3464108e-37 2.104732e-37 -1.8460186e-37 2.3631296e-37 1.930382e-37
1.6785281e-37 -2.313825e-37 -1.7891031e-37 5.575745e-37 -1.0559405e-37 -1.7267649e-37 4.897302e-37 -2.0957264e-37
-2.2370631e-37 1.2819383e-37 2.1550127e-37 2.1865088e-37 4.2242848e-38 5.091316e-37 -1.9880659e-37 -6.4768585e-37
1.404972e-37 2.4242793e-37 1.6326152e-37 1.386042e-37 -1.8704402e-37 -3.5748194e-38 2.3323167e-37 1.5308361e-37
-3.256919e-37 2.3174562e-37 -1.150903e-39 -2.2592245e-37 1.405217e-37 -2.3760098e-37 2.1036916e-37 1.8922433e-37
2.1123902e-37 2.1794852e-37 1.0266873e-37 -2.4639215e-37 1.916984e-37 -2.3392173e-37 -2.3367309e-37 -2.2553269e-37
-2.4489567e-37 -9.422197e-38 -2.3466122e-37 4.1300125e-38 1.531826e-38 -1.5431605e-37 4.8742357e-38 -2.6705985e-38
-2.4597541e-37 -6.749537e-38 1.489837e-38 3.836416e-38 2.234769e-37 -2.2387586e-37 1.2836979e-37 5.65365e-40
-5.6139433e-37 2.0701288e-37 1.5930086e-37 -2.0202964e-37 -2.749746e-37 -2.2623722e-37 5.481567e-38 3.104436e-38
5.63299e-37 1.7683121e-37 2.3004018e-37 -2.1651167e-37 7.456416e-38 -2.0283434e-37 3.66358e-38 -2.7831615e-37
4.5502322e-37 2.320154e-37 2.548792e-37 9.44761e-38 2.1773223e-37 -2.142344e-37 -1.5411922e-37 -3.1622793e-37
1.8287669e-37 -3.4089944e-37 5.956634e-38 2.1289546e-37 -2.218657e-37 -2.1321774e-37 -1.589516e-37 -2.1969663e-37
4.7207055e-38 -1.888174e-37 2.232159e-37 2.2905968e-37 -6.352648e-37 1.966668e-37 -2.406108e-37 -1.6875678e-37
6.3465857e-37 1.5061844e-37 -2.2462516e-37 2.6255159e-37 -2.2150058e-37 2.1889564e-37 -2.1257678e-37 -2.7228189e-37
-2.121713e-37 1.976995e-37 1.639085e-37 -4.597799e-37 2.0651453e-37 -2.1490053e-37 -1.650824e-37 -1.7527443e-37
-1.8909716e-37 -9.360542e-39 -1.9756873e-37 -1.7282718e-37 -1.5581631e-37 -2.3367008e-37 -2.1652355e-37 6.567133e-38
-2.6887716e-37 7.683241e-39 2.2244983e-37 2.3234053e-37 -2.261407e-37 1.841945e-37 1.401557e-37 -2.1466213e-37
2.4083446e-37 2.2471493e-37 -2.178608e-37 -2.7951862e-37 -3.2015455e-37 -5.0272485e-38 -2.1390388e-37 1.0817331e-37
1.8707767e-37 -2.49787e-37 2.3874633e-37 2.2606464e-37 -2.3930014e-37 -4.0947015e-38 -2.4339684e-37 1.7647059e-37
-1.4247753e-37 4.0032734e-37 2.3110459e-37 1.9298216e-37 -1.894712e-37 2.237169e-37 -2.0929666e-37 -2.9297624e-37
-1.9693918e-37 2.232402e-37 -1.6618882e-37 1.9936015e-37 1.4626589e-37 2.091045e-37 -2.1220168e-37 -2.1176005e-37

attention.layers.0.0.in_proj_bias f4 [96]
00000000: 0000 0000 0000 0000 0000 0000 0000 0000
00000010: 0000 0000 0000 0000 0000 0000 0000 0000
00000020: 0000 0000 0000 0000 0000 0000 0000 0000
00000030: 0000 0000 0000 0000 0000 0000 0000 0000
00000040: 0000 0000 0000 0000 0000 0000 0000 0000
00000050: 0000 0000 0000 0000 0000 0000 0000 0000
00000060: 0000 0000 0000 0000 0000 0000 0000 0000
00000070: 0000 0000 0000 0000 0000 0000 0000 0000
00000080: 0000 0000 0000 0000 0000 0000 0000 0000
00000090: 0000 0000 0000 0000 0000 0000 0000 0000
000000a0: 0000 0000 0000 0000 0000 0000 0000 0000
000000b0: 0000 0000 0000 0000 0000 0000 0000 0000
000000c0: 0000 0000 0000 0000 0000 0000 0000 0000
000000d0: 0000 0000 0000 0000 0000 0000 0000 0000
000000e0: 0000 0000 0000 0000 0000 0000 0000 0000
000000f0: 0000 0000 0000 0000 0000 0000 0000 0000
00000100: 58d4 113d 2ac6 9abb d539 163d 9bed 06bc
00000110: d7f9 343c 6bea 29bd ae67 743d f2bd 2a3d
00000120: d187 273d b3f2 81bc ed4f e2bc 308f b63b
00000130: bd0b 933d e3e0 573d 1e0f 4fbd 09e6 0bbc
00000140: 219b d0ba fb9f c53a 9b66 6d3d 6093 27bd
00000150: e138 0ebc 50f4 cb3c 6dcd 613c 1694 523d
00000160: d6ab 193c 7581 7e3c 7cab f0bb 27bd a53a
00000170: 940e b33a fc55 603d 1a0d d4bb 5264 0f3c
0.0 0.0 0.0 0.0 0.0 0.0 0.0 0.0
0.0 0.0 0.0 0.0 0.0 0.0 0.0 0.0
0.0 0.0 0.0 0.0 0.0 0.0 0.0 0.0
0.0 0.0 0.0 0.0 0.0 0.0 0.0 0.0
0.0 0.0 0.0 0.0 0.0 0.0 0.0 0.0
0.0 0.0 0.0 0.0 0.0 0.0 0.0 0.0
0.0 0.0 0.0 0.0 0.0 0.0 0.0 0.0
0.0 0.0 0.0 0.0 0.0 0.0 0.0 0.0
0.035602897 -0.00472333 0.036676247 -0.0082353605 0.011045895 -0.041483324 0.05966919 0.041685052
0.04090101 -0.015862798 -0.027626002 0.0055712685 0.07179973 0.052704703 -0.050551526 -0.008538731
-0.0015915373 0.0015077585 0.05795918 -0.040912032 -0.008680553 0.02489677 0.0137818875 0.051410757
0.009379348 0.015533795 -0.0073446613 0.0012644873 0.0013660961 0.0547695 -0.0064712884 0.008751946

attention.layers.0.0.out_proj.weight f4 [32, 32]
00000000: 4e6e 193e 3b2a b1bd fb68 4abe 5f09 c8bd
00000010: c128 fbbc 6227 b73d 028c 07be 3488 9dbd
00000020: 037d abbd 036b 7cbd f16a c63d 3576 cabc
00000030: 4dc7 0bbd eb0d 89bd 6725 043d bb25 ce3d
00000040: 7c75 ca3d 2ae6 013e 1485 23be ddfa 8bbc
00000050: abe3 ad3c 0ae4 803d ff16 083e 2641 d53c
00000060: 86a7 1fbd f663 8bbb 6f04 68bd b54f 06be
00000070: 358f 8ebc fa44 3bbd a35b ea3d baea d5bd
00000080: feae 2dbd 87da 08bd 0db2 52bd 344e 9fbd
00000090: 3961 95bb 5399 7bbd 211c 0d3e 4c54 8f3d
000000a0: 9f53 f2bd 768a 5e3d ec43 6abd a2eb ec3d
000000b0: 2d1a c53d c6a9 003e 64f5 a83a ca98 b13d
000000c0: ce71 033e b388 0cbe 53c8 113d 5778 bf3d
000000d0: 9457 d33c 45e5 aa3d 3323 b53c 1f08 40bc
000000e0: 18d2 033e d560 e73d ccb0 c03d 3b7a 8dbd
000000f0: 2883 ea3d 916b 1e3d fb9e 55bd 04a7 a0bd
00000100: 452d 08be c7d3 02be 1d72 d3bc f5e9 903d
00000110: 13dd 56bd b815 cabd f00e 8e3d 5eb3 833d
00000120: cf29 c9bd 7d06 9dbd 42d7 123e dccb 24be
00000130: 450c ea3c c171 193e 02f1 673d f4cc b1bd
00000140: d63f 053e f555 2a3e a7d6 013d 95b9 1abc
00000150: 4d8d c63c ac74 d2bd d309 3dbd 7643 3c3e
00000160: c88c 04bc b4be 78bd 1d31 67bd b49f ba3d
00000170: 7cdf 673d 9d5b a43d e587 ca3c 3751 24bc
00000180: 6767 0dbe 7087 04bc e057 753d 81bd 91bd
00000190: 6cb9 093e fd37 8cbd ecb9 1bbd da89 cfbd
000001a0: cd10 9d3d 869d 1fbc f603 90bd c358 d03d
000001b0: ab0e a13d 27b4 d53c 2dfb c4bd 4c9a aa3d
000001c0: cb12 98bd 3a44 053e 5c21 9dbd b318 123d
000001d0: cd92 64bc 009d c4bd 1456 633d d3c8 fcbd
000001e0: bc9b df3c 7b76 833d 9a37 44bd 2b17 273b
000001f0: 73f1 e2bd 2491 39bd 24e5 a83c 0975 293d
00000200: 232b f23d c33c d9bd eb0e c03d 714f 0cbe
00000210: fc6a 47bd db26 823d 40bf ff3d 40f1 ae3d
00000220: f055 41bd 7a61 263b 3aa3 ce3d 179b 98bb
00000230: 7f79 8a3b 7ae6 34bd e871 443d 8fcd 843d
00000240: d6aa bbbb d1ef 31bd dddb 22bd 1bdf e7bb
00000250: 4db3 c43d 92b8 453d 3e98 03be ead4 c0bc
00000260: 502e f8bc 1001 a1bd 1a5e e9bd 1b56 b5bb
00000270: 5169 303c 02fb cfbd f6f7 07bd 79d7 ebbc
00000280: febc a4bd 2f16 bebd 28be 4a3d d116 5ebd
00000290: 5956 ff3d 5790 23be f495 da3d d93b 29bd
000002a0: 00e3 053e a5d4 543d 823f 04bd cb0a cc3d
000002b0: 4c53 8d3d dba1 953c c89d 2cbe 091b 13bc
000002c0: 554a ad3c f960 60bd af8c f83d 8283 19be
000002d0: 056c ee3c 4ede 0dbd 3064 32bd f6ca 3bbd
000002e0: 6338 40bc 68c5 303d 5a86 d43d 7e64 10bd
000002f0: f9be 643d 1d7e 0e3e e4a1 48bd 66e2 b4bd
00000300: b8e2 a1bd 9159 cfbb d49d ccbd 7c74 50bc
00000310: 7707 5cbd b064 81bd 6b6e 913d 8326 85bd
00000320: d3c3 183e 0259 66bd 44e4 c63b e9fc 793d
00000330: 1dfc fe3d 5496 9d3d 1bc9 dfbd 2691 10be
00000340: 693b a2bb 05a2 df3d 7a20 7e3d 1fa1 f03d
00000350: eed0 73bc 8d65 88bd 535e b3bd f024 433d
00000360: 59eb 6bbb 4401 d93d c06f 18be d282 eebd
00000370: a2fb cbbd d4bb 2e3c c4e0 083e 41a5 a73d
00000380: 02cd b8bd 363a d2bd 1a6c ffbd 6f76 45bd
00000390: 361a d43d c457 a9bd 8cc2 93bd 0727 8fbd
000003a0: a977 ebbc 646a 39bc a560 ec3c 8ec8 45bc
000003b0: a4db 8e3c c07b 573c 485a a13d 6166 cbbd
000003c0: 5e68 7dbd 97fa 543d 7fbc 813c 395f 69bd
000003d0: fa9e 1b3e f95b 87bd 2557 35bd c784 a73d
000003e0: 4e3e d3bd 4b51 88bc 5c17 523d 386f 34bd
000003f0: 07a3 183e 6a00 cebd 3ecc 71bc f4f7 b43d
0.14983484 -0.08650633 -0.1976661 -0.097674124 -0.030659081 0.089430586 -0.13237002 -0.07691994
-0.083734535 -0.06162549 0.09688366 -0.024714569 -0.034125615 -0.06692108 0.032262232 0.1006579
0.098856896 0.12685457 -0.15968734 -0.017087394 0.021226725 0.06293495 0.13290022 0.026032042
-0.038978122 -0.0042538596 -0.056644853 -0.13116343 -0.01740227 -0.045720078 0.114432596 -0.10445161
-0.042403214 -0.03341153 -0.051439334 -0.07778588 -0.004558709 -0.06142552 0.13780262 0.069985
-0.11832356 0.054331265 -0.05719368 0.11568381 0.09624133 0.12564763 0.0012890515 0.0867172
0.12836382 -0.13724022 0.035591435 0.09349125 0.025798596 0.08344511 0.02211151 -0.011720686
0.12873113 0.11297766 0.09408721 -0.06908079 0.11450797 0.038676802 -0.05215357 -0.07844356
-0.13298519 -0.12776099 -0.02581125 0.07075874 -0.052456927 -0.09867424 0.06936443 0.06430696
-0.098224275 -0.07667253 0.14339927 -0.16093391 0.028570304 0.149848 0.056626327 -0.0868167
0.13012633 0.16634353 0.03169885 -0.00944366 0.0242373 -0.1027616 -0.046151947 0.1838511
-0.0080902055 -0.060728744 -0.056443322 0.09112492 0.056609616 0.08025286 0.024723003 -0.010029129
-0.13808976 -0.008088931 0.059898257 -0.07116223 0.13449639 -0.068466164 -0.038019106 -0.10133715
0.0766922 -0.009742146 -0.070320055 0.1017318 0.07864126 0.02608688 -0.096182205 0.08330211
-0.074254595 0.13014308 -0.076723784 0.035668086 -0.013951016 -0.09600258 0.055502012 -0.12342992
0.02729594 0.06419083 -0.04790459 0.0025495987 -0.11081209 -0.045304433 0.020617075 0.04137138
0.11824634 -0.106072925 0.093778454 -0.1370218 -0.048686013 0.06355067 0.1248765 0.085421085
-0.047201097 0.002538769 0.10089727 -0.00465716 0.0042259092 -0.044165112 0.047960192 0.0648452
-0.0057271523 -0.043441597 -0.03976046 -0.007076157 0.096045114 0.048271723 -0.12851045 -0.023539025
-0.030295521 -0.07861531 -0.113949016 -0.005533946 0.010767297 -0.10155298 -0.03319546 -0.028789269
-0.0804386 -0.09281575 0.049497753 -0.05422098 0.124676414 -0.1597303 0.106731325 -0.04131684
0.13074875 0.051960606 -0.03228713 0.09962996 0.06900653 0.018265655 -0.16857064 -0.008978614
0.021153608 -0.05477998 0.12136208 -0.14991572 0.029104242 -0.034635834 -0.043552577 -0.045847856
-0.011732194 0.04315701 0.10377188 -0.035252087 0.05584619 0.13915296 -0.048982516 -0.088322446
-0.07904571 -0.006327816 -0.09991041 -0.012723085 -0.053718057 -0.06318033 0.07101139 -0.06501486
0.14918451 -0.05623723 0.006069692 0.06103221 0.124504305 0.076946884 -0.1092703 -0.1411787
-0.00495093 0.10919575 0.06204269 0.117494814 -0.014881356 -0.06659994 -0.08758225 0.04764265
-0.0035998432 0.105959445 -0.14886379 -0.11646046 -0.099601045 0.010664899 0.13366991 0.081858166
-0.09023477 -0.10265009 -0.124717906 -0.04820865 0.10356562 -0.08268693 -0.07214841 -0.06989866
-0.028743582 -0.011316869 0.028854677 -0.012071742 0.017438717 0.013152063 0.07878548 -0.099316366
-0.06186711 0.051996794 0.015836952 -0.056975577 0.15197363 -0.06609339 -0.04427256 0.08179622
-0.10314618 -0.016640326 0.05129181 -0.04405138 0.1490594 -0.10058673 -0.014758168 0.08836356

attention.layers.0.0.out_proj.bias f4 [32]
00000000: 96b7 6fbc b7ed 8d3c 1068 d13c fe3a 18bd
00000010: 2616 e83c 38a2 8d3d 4446 0ebb e8bd 89bd
00000020: 49ca 76bd eb28 f5bc 26a6 6b3c 1fb2 513b
00000030: 1ba7 1fbd 766a 353d bb92 e53b 14f4 d83c
00000040: 833e 8c3d f009 37bd 3aba c2bc 01fb ad3c
00000050: cfb3 efbc 87a3 d43c dd11 93bc cd78 04bd
00000060: e139 c03c 0962 56bc 79c3 87bb 9479 d4bc
00000070: e839 6a3b 3098 313c aa70 413d 6787 e53c
-0.014631173 0.017325265 0.025562316 -0.037165634 0.028330874 0.069157064 -0.0021709362 -0.06725675
-0.060251508 -0.029926738 0.014382875 0.0031997038 -0.038977724 0.044290982 0.007006017 0.026483573
0.06847861 -0.04468721 -0.02377044 0.021237852 -0.029260544 0.025956882 -0.017952854 -0.032341767
0.023465099 -0.013084897 -0.004143175 -0.02593688 0.0035740081 0.010839507 0.047226585 0.028018666
